minigrid/r2l/MiniGrid-UnlockPickupR2L-v0_with_library_logs/MiniGrid-UnlockPickupR2L-v0/fd17ef-seed107/critic.pt (torch, 65967 bytes, 8 tensors)

weight_ih f4 [192, 12]
00000000: 2a48 d73c 5b4c a1bd 764c b4bc 146c 363d
00000010: 844f 7f3d a65a e03d 2a21 943d ceec 06bc
00000020: 391b 253d 4be1 1fbc 9681 efbd bc8a 6fbd
00000030: 884c 58bd 0981 febd 435f bf3c a842 aabd
00000040: a040 4d3d 4e52 babd 508a 2ebc dc4b cebd
00000050: 7e5f b5bd 6705 f23d 6a6d f3bd e00e 38bc
00000060: 4b6d a33d d4ae 913d e3bc ec3d b0d4 db3c
00000070: caa7 ec3d 2e50 e3bd 8ee5 9b3d 9bcf e7bd
00000080: e9ce e53d 9341 9bbd b7d0 8dba 5065 cebd
00000090: 59fa 913d 18a5 adbd 6ea6 64bd e6bf ff3d
000000a0: c4f9 01bd e22c edbd 346e 36bd e305 ea3c
000000b0: a8ec 0d3d d237 cf3c b4ce 863d d6d3 ae3d
000000c0: b54d 233d 4e82 a2bc 9579 bdbd fc7c 66bd
000000d0: e00d 20bc 483d 8b3d 64c8 91bd c465 a43d
000000e0: def9 bcbd ada9 5bbd c739 383d 2cf4 473d
000000f0: 4e6e 713d 334f c13c 57c0 b7bd 0050 dd38
00000100: e028 673d 0296 a83d 10ea da3d f290 dfbc
00000110: ec11 653d f8dd 5e3b 74e4 08bd 8060 943c
00000120: 1f6e bc3d 5c26 91bd ed4b 1ebb 488c 643d
00000130: e891 353d cc76 31bd 32d1 e6bd 35ff cfbd
00000140: 020b df3c 1123 d8bc 468f e1bd 0819 1bbd
00000150: 5440 89bd 8397 d2bd 89dd cf3d 30ae cbbd
00000160: 28fc a0bc 881a 16bd fcce b1bd 7d61 4b3d
00000170: bfd0 25bd d680 dcbd 7ee9 f63d a8d2 43bd
00000180: 0d1f c43a 4ffd e43d ed6f 1cbd b0a5 9b3c
00000190: fc47 a83d 2885 8e3c 4068 98bd c0c5 e6bd
000001a0: ed43 153d 98bc c5bd 28a1 ccbc e0f4 4bbd
000001b0: 026f 713d 7805 2cbd d2ad cfbc 20b8 d53d
000001c0: 709f db3d b802 9bbc b075 bf3c b995 b2bc
000001d0: f0db c33d c9ef 533d cec3 8ebd dea1 cc3d
000001e0: 23f8 3f3d f82a e93c 5b64 ebbd d808 e53d
000001f0: 50c4 bdbc 4434 f23d 3881 f3bd 43f6 443d
00000200: 2d3c b9bd cf8d 89bd 9939 c63d 7a43 95bd
00000210: e7eb 68bc 9bc8 e9bc 7577 603d a018 573c
00000220: e4f9 28bd dad6 8f3d 5c7d 1fbd 5270 a53d
00000230: ce91 8bbd 1d05 0dbd b6df ab3d a096 ab3c
00000240: dec2 f83d 58ac b2bc c64a f03d e626 af3d
00000250: 5a91 dd3d 601e 343c 8c8b 9d3d 7ae6 67bd
00000260: 0de5 85bd 8b4d 923d 6e8e bf3d 483f c9bd
00000270: f1fc 99bc 91ad f3bc 2e52 10bc a052 b73b
00000280: 7875 ddbd 0210 a7bd 582a 20bd 0a4d a93d
00000290: c289 acbd 1059 f2bb 9eef 963d 407f 483c
000002a0: 61a8 ec3d ed66 65bd dbf7 cebc 84ff 6c3d
000002b0: 861d dbbd b4d0 6abd dc5f 28bd 9b45 5abd
000002c0: 60ce f3bc 5268 11ba 30fd 863d 4062 5cbc
000002d0: a0d3 d53d 9344 ad3c 9600 d6bd 74cb 8f3d
000002e0: b830 fb3d c822 1cbd 7e58 d13d 641a f73d
000002f0: a2ad d3bc b471 afbd bd5e 853d 682a bc3c
00000300: d3bb da3d 0853 18bd cac5 97bd 8c3e ea3d
00000310: 00fa d33c cc3d aebd a005 aabd ca56 443d
00000320: 7088 8abd f59a ccbc 676f aa3d 08be a8bd
00000330: a422 34bd d55c 4a3d 5ea4 d13d fc62 91bd
00000340: 0e6d afbd 8098 0a3d c45d debd ed28 b1bc
00000350: 0590 dfbc 2e1e 763d 9b9a a53d 90fb bbbd
00000360: 2143 c3bd 67c9 ef3d 983a 3c3d d80d 023d
00000370: 0292 9abd aa5c d33d c832 933c a587 c13c
00000380: 7f95 d3bd 1691 233d 024c f63d f059 1e3c
00000390: 78a3 d1bc 5fd0 f4bd 1b9a 9c3d e848 dbbd
000003a0: 90e2 003c c06f 45bb 1090 f53c ec93 093b
000003b0: 8961 00be 72f9 7f3d 9ebe 17bc 7435 c23d
000003c0: 074f 9d3b 2de7 c73d 566a 1dbc c0b9 55bb
000003d0: d87b 86bd 9834 af3d 742a 11bd 876d e0bc
000003e0: c744 9b3d e20a bb3d 489f 4a3c 10e1 60bd
000003f0: 43bb c03d ca12 bb3c 346c d1bc 007a b93c
0.026279528 -0.07875892 -0.022009116 0.044536665 0.06233169 0.1095479 0.07232888 -0.00823517
0.040309165 -0.009758304 -0.116946384 -0.058481917 -0.05280736 -0.12426955 0.023360854 -0.08313495
0.05011046 -0.090977296 -0.010653093 -0.10073063 -0.08856104 0.11817437 -0.118861035 -0.011234015
0.0797983 0.07113424 0.11559465 0.026834816 0.11555441 -0.110992774 0.076121435 -0.113188945
0.112211056 -0.07580867 -0.0010819648 -0.100779176 0.07127828 -0.08478755 -0.055822782 0.124877736
-0.031732336 -0.11580826 -0.04453869 0.02856726 0.03464952 0.025295172 0.06582394 0.08536498
0.03986903 -0.019837525 -0.092517056 -0.05627154 -0.009768933 0.06798798 -0.071182996 0.08027223
-0.09227346 -0.053628612 0.044976976 0.048816845 0.058943085 0.023597335 -0.08972233 0.00010553002
0.056435466 0.08231737 0.10689175 -0.027290795 0.055925295 0.0034006815 -0.033420995 0.018112421
0.092006914 -0.070873946 -0.0024154142 0.055797845 0.0443286 -0.043326184 -0.112703696 -0.10156099
0.027226929 -0.026383908 -0.11013655 -0.03786567 -0.06701723 -0.10282805 0.10149676 -0.09945333
-0.019651487 -0.036646396 -0.08682057 0.04965352 -0.04048228 -0.10766761 0.12056254 -0.04780832
0.0014962867 0.11181127 -0.03819268 0.018999904 0.08216855 0.017397478 -0.07441759 -0.112681866
0.036441732 -0.09655112 -0.024979189 -0.049794078 0.058943756 -0.041997403 -0.025351439 0.1043551
0.1072377 -0.018922195 0.023371547 -0.021799909 0.09563434 0.05174235 -0.069709405 0.09991811
0.0468675 0.028462872 -0.11493751 0.111833274 -0.023164898 0.11826375 -0.11889881 0.048086416
-0.09044681 -0.06716501 0.09678955 -0.07288261 -0.0142164 -0.028538039 0.054801423 0.01312843
-0.04125394 0.070234016 -0.03893791 0.08078064 -0.068149194 -0.034428705 0.08392279 0.020945847
0.12146543 -0.021810696 0.11733012 0.08552341 0.10818739 0.01099357 0.07692632 -0.056616284
-0.065378286 0.071436964 0.09353338 -0.09826523 -0.01879737 -0.029745849 -0.008808656 0.0055945665
-0.10813421 -0.0815735 -0.039102882 0.08266647 -0.08424713 -0.007395871 0.07369922 0.01223737
0.11555553 -0.05600636 -0.025264671 0.057860866 -0.106989905 -0.05732794 -0.041107044 -0.053289037
-0.029761493 -0.0005546856 0.065912604 -0.013451159 0.10440755 0.021150863 -0.104493305 0.070212275
0.12265152 -0.038119107 0.10221957 0.120655805 -0.02583963 -0.08566609 0.065122105 0.02296944
0.10680356 -0.03718856 -0.07410772 0.11437711 0.025876045 -0.085078806 -0.08301854 0.04793433
-0.06764305 -0.024976233 0.083220296 -0.082393706 -0.04397835 0.049404938 0.10236429 -0.07098958
-0.085657224 0.03383684 -0.10857728 -0.02162596 -0.027290354 0.060087375 0.08086129 -0.09178841
-0.09534288 0.11708336 0.045954317 0.031751484 -0.0754738 0.10320409 0.01796855 0.02362425
-0.103312485 0.039933287 0.12026216 0.009664997 -0.025590643 -0.11953806 0.07646581 -0.10707265
0.007866517 -0.0030126423 0.02997592 0.002099271 -0.12537207 0.06249375 -0.009261755 0.094828516
0.0048006806 0.0976089 -0.009607872 -0.0032611936 -0.0656659 0.08554953 -0.035440877 -0.027395977
0.075814776 0.09132935 0.012367077 -0.054902136 0.09410717 0.022836108 -0.02556429 0.022641182

weight_hh f4 [192, 64]
00000000: 941b c2bc 86b8 e5bd 4877 6cbd 9135 9f3c
00000010: bbec 783d c061 333d 61fc a3bc 31dc 893d
00000020: a444 06bd f006 ba3d 143c 4e3d fcf5 9e3c
00000030: 48c4 f93d c57c c23d 446a 56bd b01a 953d
00000040: eb2c aa3d 1ffa ecbd 12da 7dbc 9c0d 40bd
00000050: 6a20 8abd 31bf d2bc 4673 82bd 0402 03be
00000060: 632c bcbd d62f e3bd 5033 c83c cb60 c4bd
00000070: 9f57 be3d 2e79 fb3d f46c b83d d668 c03d
00000080: d1b1 8d3d a698 86bd c1ec 083d 629c 92bd
00000090: 23da 95bd de8a af3d e627 a53d c5a6 763d
000000a0: d5a9 01be 1444 a03d c039 f8bd b95a 883d
000000b0: 459d e83d 2f85 a33c 0da0 33bc 05c5 fb3d
000000c0: 8d74 cfbd 0423 ebbc 7922 35bd f923 4c3c
000000d0: 3c51 f6bd aee8 b6bd 6038 04bd b724 5f3d
000000e0: 10af 01bd 3f6b 5f3d bf34 bb3c 7d06 8a3b
000000f0: 8405 a03d 552e cabd c16e 95bd 8329 843d
00000100: f693 5ebd 2454 76bd 20cc dfbc acf1 593d
00000110: 0949 e4bd 77f5 32bd d4e3 8abd ce35 ca3c
00000120: e394 933d 3983 8eba abd1 dcbd e57a 00be
00000130: 9bce ce3d d810 343c 4b51 cebc ba70 203b
00000140: b36c d23d 0bdb a8bd cca4 913d f39c aabd
00000150: a1f8 ddbd b62a f9bc 9db8 8dbb 7364 2b3d
00000160: bd50 f23c bb8d 48bd 5d67 943c 0516 e7bd
00000170: 3ebd 20bb db27 8abb 59c6 90bd 4391 f7bd
00000180: f8ea 553c 28f2 3f3d 35b9 943d e4a8 63bc
00000190: a651 bf3d a902 c6bd fffe 983d 6556 62bd
000001a0: b2e9 32bd 5ced cc3d c907 2bbc ba90 6fbb
000001b0: 6254 4d3d 0380 a4bd a7f7 b139 644a 97bd
000001c0: 72ef d43b 36fd e2bd 3bac 0f3d fc9e 02bc
000001d0: 2fc2 063d 969b 0bbd f1df 81bd 85fd 55bd
000001e0: af6b b93d 8416 62bd 1b22 a23d 646b 01bd
000001f0: 41a2 d93d dffb c33d b5f8 b5bd 2671 7ebd
00000200: 9d1d cf3c b1ee cabd 2c90 e43d c51e babc
00000210: 7ae9 c13d 9e43 b0bd 4adf 813d 5821 933d
00000220: 8f0c d23d 5101 f23c 31dd f13d 6cad c5bc
00000230: 68e1 36bd 3981 1b3d 1b74 80bc 0b0e 863d
00000240: a269 9c3d 8ba2 9c3d f644 fd3d 99ed 4ebd
00000250: fa0f 8f3c e68b ee3d f85f db3c 0bc7 88bd
00000260: 4f3c d53d e356 e93d 0703 bebd 9dce ad3c
00000270: fd25 833d 2f43 b83d 39d1 763c a256 cc3c
00000280: f9e5 ecbd ffa4 3abd bf30 a83d 87c4 f0bd
00000290: 16e0 2fbd 3f3d 3ebd 49f0 b5bd d5ac ad3d
000002a0: a508 f43d 93f2 ebbd 3e3d d63d fb94 a8bb
000002b0: 3c9b d6bd 2d49 f53d 130b 2fbc 0bae 123d
000002c0: 9422 d5bc 6f06 e33d 15f3 5d3d 3816 41bd
000002d0: 2dfb d2bc 1d50 943d e45e 9abd f340 7bbd
000002e0: 98c0 74bd 793c 9bbd d2ca b7bd 7b10 d43d
000002f0: 3f64 0e3d a8ce 0abd 4728 e23d b5db dcbc
00000300: 2f09 b33d 0036 d23c 80a6 b03d 7240 783d
00000310: eb7e d8bc de79 003e 812e b93d f6aa 31bd
00000320: ba7f 203c 40c3 653d 070a e1bd 7374 043d
00000330: 88e8 593d 058f fdbd 3d67 393d fadc a4bc
00000340: 83db b0bd a789 763d eff2 dfbd 94da b5bc
00000350: 725d eebd f392 543d 628e 213d 1a6c cf3c
00000360: 17e8 4f3c 15a2 9fbc 38ac afbc 8c53 3fbc
00000370: bbab d6bd 3724 82bc 101d 1d3d 9c1a 5c3d
00000380: b8f0 38bd e3c4 b43d 8820 e63c b2c2 d53c
00000390: 0561 c83c 2e65 6bbc 8792 7ebd 79d3 cdbd
000003a0: 8a90 3fbc 1d2d 5bbd 0e00 9ebd 18b0 97bd
000003b0: d086 8f3d f595 de3c d7af c93d e7ba adbb
000003c0: 0c15 3e3d e846 c23d 26b6 64bd 08d2 82bd
000003d0: 06a3 d4bb 2b0a e8bc 0370 b0ba 40d4 ee3d
000003e0: 85e2 aebd d091 6ebd 7c0a c03d bc1f 21bc
000003f0: 83b9 a53d 34ed 853d f8f3 67bc 8f4b e1bd
-0.02369479 -0.11216836 -0.057730943 0.019434722 0.06077264 0.043794394 -0.020017805 0.06731451
-0.032780305 0.090833545 0.050350264 0.019404404 0.12195641 0.09496454 -0.052347437 0.07280481
0.08309349 -0.11571144 -0.015493887 -0.04688798 -0.06744464 -0.025725933 -0.06369643 -0.12793738
-0.091881536 -0.11093108 0.02443853 -0.09588774 0.09294056 0.122789726 0.09005156 0.09394996
0.069186814 -0.06572084 0.03342891 -0.07158734 -0.07316997 0.08571409 0.08064251 0.060217638
-0.12662442 0.07825485 -0.1212039 0.06657929 0.11358122 0.019960968 -0.010963452 0.12293438
-0.10129652 -0.02870322 -0.04422233 0.012459748 -0.12027213 -0.08931099 -0.032280326 0.054478373
-0.031661093 0.054545637 0.0228523 0.0042121992 0.07813552 -0.098721184 -0.07296515 0.0645323
-0.054340325 -0.060138837 -0.027319014 0.053208992 -0.11146743 -0.043691125 -0.06781736 0.02468386
0.07206132 -0.0010872848 -0.107821785 -0.1254688 0.100980006 0.010990344 -0.025185248 0.0024481253
0.10274639 -0.08244904 0.07111511 -0.08330717 -0.10838438 -0.030415874 -0.004324986 0.041843843
0.029579515 -0.04896329 0.018115694 -0.11283497 -0.002452686 -0.004216177 -0.07069082 -0.12088253
0.013056509 0.046861798 0.07261888 -0.013895247 0.09341745 -0.09668476 0.07470512 -0.055258173
-0.0436799 0.1000621 -0.010438868 -0.003655477 0.0501293 -0.08032229 0.00033944586 -0.07387236
0.0064982707 -0.110834524 0.03507636 -0.007972475 0.03290003 -0.034083925 -0.063415416 -0.05224373
0.09053742 -0.055197254 0.07916661 -0.031596556 0.106266506 0.09569525 -0.08885328 -0.062119626
0.025282675 -0.09908808 0.11160311 -0.02271975 0.0946836 -0.08606647 0.06341417 0.07184094
0.102563016 0.029541643 0.11809767 -0.024130546 -0.044648558 0.037965033 -0.015680363 0.06545647
0.07637335 0.0764819 0.12366669 -0.05051956 0.017463673 0.11647777 0.02677916 -0.066785894
0.104118936 0.113935255 -0.09277921 0.021216685 0.0640373 0.08997189 0.015064531 0.024943653
-0.11567301 -0.04556751 0.082124226 -0.117562346 -0.042938314 -0.046445128 -0.088837214 0.08480231
0.11915711 -0.11520877 0.104609 -0.005144713 -0.10478827 0.11976848 -0.010683793 0.03581051
-0.026017465 0.110852115 0.0541869 -0.04714033 -0.025754536 0.07241843 -0.0753763 -0.061341237
-0.059753984 -0.075798936 -0.08974232 0.10354706 0.03476357 -0.03388849 0.110428385 -0.026960233
0.08741986 0.025660515 0.08625507 0.060608335 -0.026427707 0.12546489 0.09042073 -0.04337593
0.009796077 0.056094408 -0.10988241 0.032337617 0.053200275 -0.123807944 0.04526447 -0.020124901
-0.086356185 0.06018987 -0.10935008 -0.022198953 -0.11638917 0.051897954 0.039442427 0.025320102
0.012689612 -0.019486466 -0.021444425 -0.011677634 -0.10481974 -0.01588641 0.038357794 0.053736314
-0.045151442 0.08826616 0.028091684 0.026093815 0.024460325 -0.014367385 -0.062151458 -0.10050101
-0.011692176 -0.05350982 -0.07714854 -0.07406634 0.07008135 0.027171114 0.09847992 -0.0053018215
0.04640679 0.094861805 -0.055837773 -0.063877165 -0.0064891605 -0.028325161 -0.0013461116 0.11661577
-0.08539299 -0.058244526 0.09377 -0.009834226 0.08092024 0.065393835 -0.014157288 -0.1100074

bias_ih f4 [192]
00000000: 1853 d03c 8255 3fbd 6e13 69bd 7507 f8bd
00000010: ea3f 8dbd 533b c0bd beac 94bd 8bc6 9a3d
00000020: 5223 fc3d a1e5 a4bd 34dc 50bc 1a5b edbd
00000030: c106 633d 55a7 8b3d c0c8 0b3d 2e19 ce3d
00000040: 1a2c 90bd 03df f03d 4f9e 013d 7143 ecbc
00000050: f8a7 c1bc 745b c2bc c0d4 f63d a43f 8ebd
00000060: be1b 813d ecff 15bd b5a2 e6bd 32c9 bcbd
00000070: 0384 823c 4f07 eb3d c649 443d a3ef bfbd
00000080: 2e24 bdbc 50d6 aa3c ab8a aabd c13b a5bd
00000090: 20c0 fbbc 99cf 6d3d 42ba 8b3d 1dde b2bd
000000a0: 9389 4dbd 58b2 cfbc efd8 a1bd 30f7 f13d
000000b0: 24ad b9bd c3b9 bbbd 157a d33a c722 963d
000000c0: 94d8 803d 12a7 ad3d 6e11 f8bc e81d d5bd
000000d0: 7cd8 ecbc 5444 ffbc 0e06 5bbd 1925 c03d
000000e0: 2ce8 323d aaa3 ccbd 6c54 d63d ce59 353d
000000f0: d71a 8b3d 04c7 66bd 970c 8fbd fcb6 49bd
00000100: fc80 a23d c2ec 0a3d 8ffb b93d 4da3 aabc
00000110: 9a96 8fbc 1dac a63c 56de 09bd 368c e4bd
00000120: c07d c6bd 1d89 443d 72ea 98bd de15 33bd
00000130: 4ff9 dc3d dd4e a73c 2732 e5bc 17f3 1bbd
00000140: 7172 81bc 08fc e6bd 3848 703d 15f8 96bd
00000150: 1df1 8a3d c714 96bd eb1e 81bd 96a3 30bd
00000160: 5377 9fbc ba1e 50bc e0e9 a8bd 2681 8bbd
00000170: d0b6 6e3d b3f0 07bd b59a 99bc 49aa bb3d
00000180: caf6 d9bc c764 f6bc 308b b53d 17ec e3bd
00000190: 9ccb f03d 8f16 c4bb 68b1 57bd d534 8c3d
000001a0: b38f a8bd fccf fd3c 02dc acbd 456a a23d
000001b0: be18 ce3d e530 d2bc 98bc bdbd 113e dabd
000001c0: 41ad 143b 6bf4 7e3b 9e5f 33bc ad83 b33c
000001d0: 2bd2 aebd f0d0 8b3d 69e5 0a3d 7477 c53d
000001e0: 1b89 00bb 8663 f43d 6198 c43d f05e a83d
000001f0: df37 c8bd 4613 19bd ce05 04bd 09b4 91bd
00000200: b9ad e93c f11d f83d bb7c ba3d 1a3d 6a3c
00000210: 9f6c 07bd 18ae a63d 01b8 f93c 430f 823d
00000220: 7ce2 7f3d ab04 9dbd 2197 003e 22b7 e0bd
00000230: 6d1b c53c efa2 f1bd a4f7 ba3d fc2a 90bc
00000240: 6e34 033e 5f91 c6bd 6d83 8f3d 6baf 6d3d
00000250: 0ab4 04be 08b8 80bd 25c1 06bd d7ee 72bc
00000260: 3b3d 0a3c 8042 78bd 6bf4 e7bd 230c 18bd
00000270: f5a3 a6bd 0348 88bc 7ab0 c33d 758b 233c
00000280: 6a9f f0bd 9876 1ebd ed00 5abd 52cd 6f3d
00000290: 8e76 ef3d a609 893c cd8a c0bc 6fab 03be
000002a0: 060a c6bd 3eea a3bd 674b 583c 2efb 573d
000002b0: 3d6a 803c fe97 e6bd 4eff 643d 3204 bebb
000002c0: bd34 fabc c3d0 bf3d 923c 913c 54b4 c0bc
000002d0: f5f5 78bd 9e1d 033d f877 a63d 50b4 283d
000002e0: bc0f 1cbd 1912 fd3d 7169 7b3b 41f0 40ba
000002f0: 6b75 173c da92 97bc cd41 a73d 7ef5 e33d
0.025430247 -0.046712406 -0.056903295 -0.12110797 -0.06896956 -0.09386315 -0.072595105 0.075574
0.12311424 -0.08051611 -0.012747813 -0.11589642 0.055426363 0.068190254 0.034126997 0.100633964
-0.07039662 0.11761286 0.031645115 -0.028840752 -0.023639664 -0.023725249 0.120522976 -0.06945732
0.063041195 -0.03662102 -0.11261503 -0.092180625 0.015932089 0.114760034 0.04792192 -0.09371879
-0.02308854 0.020854145 -0.0832723 -0.08068038 -0.03073126 0.05805931 0.06822635 -0.08733771
-0.05018003 -0.025353596 -0.07902705 0.118147254 -0.09066227 -0.091662906 0.0016134406 0.07330852
0.06291309 0.08479132 -0.030281749 -0.10406095 -0.028911822 -0.031160511 -0.05347257 0.09382076
0.043678448 -0.09992154 0.10465321 0.044275098 0.06792229 -0.05634214 -0.06984823 -0.049246773
0.07934758 0.033917196 0.09081184 -0.020829821 -0.017527867 0.020345742 -0.0336593 -0.111595556
-0.09691954 0.047982324 -0.07466592 -0.043722026 0.10789739 0.020423347 -0.027978016 -0.038073625
-0.01580164 -0.1127854 0.058662623 -0.07371537 0.0678427 -0.07328182 -0.06304725 -0.043124758
-0.019466078 -0.012702638 -0.08247733 -0.068117425 0.058279812 -0.033188533 -0.018750528 0.09163339
-0.026606936 -0.030077351 0.088644385 -0.11129015 0.117575854 -0.0059841345 -0.052659422 0.068460144
-0.082305335 0.030982964 -0.08440401 0.079304256 0.10063313 -0.02565808 -0.09264487 -0.106563695
0.0022686275 0.0038903009 -0.01094809 0.021913374 -0.0853618 0.06826961 0.03391019 0.096419245
-0.0019612971 0.11933045 0.095993765 0.08221233 -0.097762816 -0.037371896 -0.0322321 -0.07114417
0.02852522 0.12115086 0.09105822 0.014296794 -0.033062574 0.081386745 0.030483248 0.06350567
0.06247185 -0.07666906 0.12557651 -0.1097243 0.02406093 -0.11798655 0.09129265 -0.017598622
0.12812969 -0.09695696 0.07007489 0.05802862 -0.12959304 -0.06285101 -0.03289904 -0.014827452
0.00843745 -0.060610294 -0.11325916 -0.03712095 -0.08136741 -0.0166359 0.095551446 0.00998198
-0.11749156 -0.03868732 -0.05322354 0.058545418 0.116925344 0.016728234 -0.023503685 -0.12858365
-0.096698806 -0.080036625 0.013201571 0.052729778 0.015675658 -0.11259459 0.05590754 -0.00579884
-0.030542726 0.0936599 0.017729077 -0.023523487 -0.060781438 0.032010667 0.08128351 0.041187584
-0.038100943 0.123569675 0.0038362409 -0.00073600194 0.009244303 -0.018502641 0.081668474 0.11130808

bias_hh f4 [192]
00000000: 80a2 95bd c263 a13d 9feb d6bd 684f 57bd
00000010: ee6e 9b3d b5d5 393d e2c5 4aba bff5 d33d
00000020: 98c3 c83d c14b d8bd 0a00 263d 9364 14bb
00000030: 2a07 f7bb cd70 e03d 841c 34bd 60af d63d
00000040: c873 b1bd 57cf d1bd a3b1 dbbd 1e2f f83d
00000050: 420d f13d 2c58 ed3d 02e4 80bd 32d1 f9bd
00000060: 0bc1 443b 703d d23c 852f 91bd d426 a63d
00000070: 1da2 b6bc 679e cebd 8ead 24bc 8524 c5bd
00000080: c398 0d3d abfc 223d a384 b3bd 8aa2 793d
00000090: e375 87bd 18d7 d8bd dc25 ecbd 7d91 733c
000000a0: 3436 95bd 4629 8e3d 54dd ed3c c0bd b6bd
000000b0: 1228 45bd 8f0b a33c 5996 8dbd 2c18 1b3d
000000c0: 7e4e 59bd 565c b23d 9792 533d e3b8 42bd
000000d0: 1668 ee3d 8930 e0bd c4ce 923d e0ec 81bd
000000e0: 1e52 f2bd bd92 023e 9c2a a53d 97e3 f73d
000000f0: db82 98bd ddbe 97bd 1f42 c9bd 9ce1 b43c
00000100: ea51 e4bc 62b2 1b3b ea68 20bd a607 00bd
00000110: 3ad3 9c3d 9561 55bd 621e c43d dd14 723d
00000120: eb0c 383d 2e49 dc3d ea34 30bb 7665 903d
00000130: a72d 043d 4a35 eabd 3d6f febd 49f7 7f3d
00000140: 0cc2 4abd 5463 09bd 874e d7bd 7b05 82bd
00000150: 3da9 673d 297c 28bc ccf6 e8bd 060a f83d
00000160: a9a4 773d 869c ec3d 8cab 8b3d e0e2 a33d
00000170: 54e4 46bd 6c22 99bc ac8a a23d 6354 92bd
00000180: e429 d2bd 6fb3 f33d 3b21 e6bb 1e36 773d
00000190: d7b2 01be 09d1 a23d 51eb 90bd 4581 b93a
000001a0: 92ed 853d 17f5 d8bd 9fa5 61bd 07d2 c93d
000001b0: ecfb e23d 3863 de3d 9210 fb3d 415f 323d
000001c0: 64e2 f9bd 5771 e33d 10ae 5c3d ec85 063c
000001d0: e5f4 81bc e0b0 86bd c2b5 d03d 46e8 afbd
000001e0: b87b 55bd d94d e5bc b292 dcbc cd14 e0bc
000001f0: 610b 8f3d 1805 bcbc 8e1c d53c a4a3 f83c
00000200: 0839 babc 2af3 b0bd a67f 7fbc 232f 39bd
00000210: 453e dd3c b362 7c3c eb19 b93d fb9d 293d
00000220: 01c5 8a3d 2c3e da3d 5f24 bfbd 3f08 2c3b
00000230: 8fa0 043d ca23 903d 23ba 94bc 4637 d2bd
00000240: 1b25 56bd 202d c63d ca5c cebd a1fa 173c
00000250: 2612 2ebb 7d00 98bd 3355 c139 77fa 2fbb
00000260: e158 a6bd 477b bd3c d4f5 c63c cd29 c5bd
00000270: 22fb 663c f87e ed3d 4caa d23d 15bf 00bd
00000280: fbc1 9cbd c1a3 c63d 0feb cb3c af64 883b
00000290: 1f1a f9bb c2ea 873d 0e18 98b9 fc15 c73d
000002a0: 8edf 2dbd c3e8 613c 3659 b3bd ab7b a33d
000002b0: 6ea5 393d e2d3 853c 23ee afbd 6691 93bb
000002c0: 7353 c63c 836f debd c00a b73d 4630 4f3c
000002d0: fc26 953d cbb8 093d 72dc f9bd 6e88 ca3d
000002e0: 3c4f 86bd 5457 93bd 2b18 9f3d d505 83bd
000002f0: 5f18 adbd c480 f2bd d6d9 4abc 7741 d7bd
-0.07306385 0.078803554 -0.1049416 -0.052565962 0.075895175 0.045369823 -0.00077351753 0.10349607
0.098029315 -0.10561324 0.04052738 -0.0022642955 -0.007538696 0.10959015 -0.043972507 0.10482669
-0.08664662 -0.10244625 -0.10727241 0.12118362 0.11770107 0.11589083 -0.06293489 -0.12198104
0.003002229 0.025664061 -0.07089142 0.081128746 -0.022294099 -0.100888066 -0.010051144 -0.09626106
0.034569513 0.039791744 -0.08765533 0.060946025 -0.06614282 -0.10587901 -0.115306586 0.01486623
-0.07285729 0.06941466 0.029036202 -0.08922911 -0.048133917 0.019902973 -0.06913442 0.03786485
-0.05305337 0.08709018 0.05165347 -0.047539603 0.116409466 -0.10946757 0.07168344 -0.063440084
-0.11832069 0.12751289 0.08064768 0.12103956 -0.07446834 -0.07409451 -0.09827065 0.022080235
-0.02787109 0.0023757447 -0.039162554 -0.031257294 0.07657476 -0.052095015 0.095761076 0.059101928
0.044934195 0.107561454 -0.0026887008 0.07050602 0.0322701 -0.11435945 -0.12423561 0.06249169
-0.049501464 -0.033541992 -0.10513025 -0.063487016 0.056557883 -0.010283508 -0.11375198 0.12111287
0.060459767 0.11553292 0.06819829 0.08002257 -0.048557594 -0.018693171 0.07936606 -0.07145002
-0.10261896 0.118994586 -0.0070230043 0.060354345 -0.12665878 0.079500265 -0.07076133 0.0014152905
0.065394536 -0.10593622 -0.05508959 0.09854513 0.110832065 0.10858768 0.1225902 0.043547872
-0.12201384 0.11105602 0.053876936 0.00821064 -0.015863845 -0.06576705 0.101909176 -0.085892245
-0.05211994 -0.027991222 -0.026925419 -0.027353669 0.06984592 -0.022951648 0.026014592 0.030351467
-0.022732273 -0.0864013 -0.015594399 -0.04521097 0.027007231 0.015404391 0.090381466 0.041410428
0.06775857 0.106563896 -0.09333109 0.0026250032 0.032379683 0.07038076 -0.018155163 -0.10264449
-0.05228148 0.09676576 -0.10076292 0.009276063 -0.002656111 -0.07421968 0.00036875307 -0.002685217
-0.08122421 0.023130072 0.024287142 -0.096271135 0.014097961 0.11596483 0.10286388 -0.03143223
-0.07654186 0.09699202 0.024892358 0.004162393 -0.007601991 0.066365734 -0.0002900962 0.0972099
-0.042449526 0.013788405 -0.0875725 0.07982572 0.04532378 0.016336385 -0.08590343 -0.004503417
0.024209714 -0.10861113 0.08937597 0.012645787 0.07282826 0.033623498 -0.1220025 0.09889303
-0.065580815 -0.07194391 0.077682815 -0.06397597 -0.08451914 -0.11840966 -0.012381038 -0.10510533

weight f4 [1, 64]
00000000: 87b2 14bd aabc 2d3d c6e9 1ebb 1d48 ac3b
00000010: 91a9 353d 397e e13d 6e21 d1bd 3142 81bd
00000020: f185 59bd 95c4 943d 2a16 423d a893 553c
00000030: 049b a33d cfd4 2d3d ec9b 8abd a7c2 94bd
00000040: d8dc ed3d b9f4 f33d 1528 493d 4525 a2bc
00000050: cf6b 31bd 2c8b f63c 95c5 50bd c0ba d63d
00000060: e4bf e1bd 295e 06bd b49b 84bd d6a9 e03d
00000070: b487 313d aff6 eebd 30bd 93bd ac2b 033d
00000080: cde1 cbbd b1df 62bd 59f0 64bc 22d6 30bc
00000090: e510 6c3d 3f8e 12bd 8976 773c 0321 a0bc
000000a0: b8c6 aa3d 6567 c83c c48d dabc a9da a63d
000000b0: 9e1f f7bd a6c0 d7bd b0b7 3cbd 1d96 4c3d
000000c0: ed29 81bc 5323 babd 5ce6 8c3c 19ad 5dbd
000000d0: a6ac de3d 3798 42bd 0744 e3bd 7ad3 7bbc
000000e0: eed4 b63d 7f34 0c3d d411 04bd 190e eabc
000000f0: f189 df3d f3bc 16bc e747 ebbd 422b b1ba
-0.03630307 0.042416252 -0.0024248227 0.00525762 0.044351164 0.11010403 -0.10211454 -0.06311453
-0.053106252 0.072640575 0.04738442 0.013035692 0.07988551 0.04243928 -0.06768021 -0.072636895
0.11614388 0.119119115 0.04911049 -0.019793162 -0.043315705 0.03009566 -0.05096968 0.104848385
-0.11022928 -0.032804642 -0.064750105 0.10969894 0.043342307 -0.11668145 -0.07213819 0.03202407
-0.099551775 -0.05538911 -0.013973319 -0.010793241 0.0576333 -0.035780188 0.015103945 -0.019546991
0.08338684 0.024463365 -0.026678927 0.08147175 -0.120665774 -0.10534792 -0.046073616 0.049947847
-0.015767062 -0.09088769 0.017199688 -0.054120157 0.10872774 -0.047508445 -0.110969596 -0.015370244
0.08927332 0.03422975 -0.032243565 -0.028571175 0.10914982 -0.009200322 -0.11488324 -0.001351692

welford_state_mean f4 [12]
00000000: 285c 0f3f 733d 0a3f 9899 193f 0000 0000
00000010: 0000 0000 0000 0000 0000 0000 9999 193e
00000020: 9999 193e 0ad7 233e 9999 193e 0000 0000
0.55999994 0.54000014 0.5999999 0.0 0.0 0.0 0.0 0.14999999
0.14999999 0.16 0.14999999 0.0

welford_state_mean_diff f4 [12]
00000000: 8fe8 c541 cd26 c741 6b2c c241 0000 803f
00000010: 0000 803f 0000 803f 0000 803f 2505 5241
00000020: 2505 5241 2dba 6041 386f 5941 0000 803f
24.738554 24.893946 24.271688 1.0 1.0 1.0 1.0 13.126256
13.126256 14.045453 13.589653 1.0

hidden f4 [6, 64]
00000000: cb07 4fbe b458 e73c e988 533e 571c b8bd
00000010: 6143 a8bd b626 c2bc 8168 a43e c550 373e
00000020: 8dcc 38bc c9d0 90bc ea7b 3d3e 7f4c 1bbe
00000030: 0690 b43c a51e 6ebd 6f64 17bd b15b 59bd
00000040: a83a 1cbd c25b 66be 5ebc 123d e126 5d3d
00000050: 726a c2bd 1fcd 52be 7553 86be 0eff 82be
00000060: 1996 3d3e 7726 87be d7d8 3abe 3983 e8bb
00000070: 4306 0d3d 08fd 7c3d e968 d93b 1eb2 083e
00000080: eb06 07be e18b ef3d d796 a4bd dcbd 00bd
00000090: 7d41 4c3e dda4 5a3d 63fb bcbd 46e8 96bc
000000a0: a460 07bc 9347 a63d bd52 91be 7391 1a3e
000000b0: 3beb 76be 2c8f 223d 8db5 c93d efe1 d13d
000000c0: 3024 dbbc 3f62 0a3e 9f38 4a3e c1a4 2dbd
000000d0: b44c b4bd 9c30 9cbe 74ab 72bd ae02 a03e
000000e0: 40a9 173c 3740 833e dc16 7f3e 504a 253d
000000f0: 1272 2cbe 7bfb f2bd 469b ff3a 4a9c f2ba
00000100: b1ac 99bd 38e4 293d 80ba 143e ef1d 3c3e
00000110: 5c8a e53d 6150 883d c986 f83d 1433 333c
00000120: 4ec4 8a3d 741e 1bbb 257b 0b3e b018 6e3c
00000130: d671 82bd 5e8f 16be 9ddb 203e 7a25 15bd
00000140: 3c92 c13d 7c70 22bd ef51 063e 5219 e73d
00000150: 6899 7cbe 2aa8 bd3d 1074 3c3b e462 073d
00000160: 8e7a f3bd 6ed5 d8bd 388e 6ebd 41f5 5fbe
00000170: 42a9 0cbe e0dd ec3b 5c7a 873e f691 49bd
00000180: e6a4 99be bd5c 0b3d c0f6 21bd 810c 4a3e
00000190: baf5 c63d d75f c7bd f2b1 dc3d 881e 1c3d
000001a0: 6d1c 15be 40e1 0d3b 5e7e 123d 9104 a23d
000001b0: 7bf4 6b3d 1b0c 75be 0a04 7c3d 1086 a43a
000001c0: ec0d 1bbe 7a6f ffbc f67c 133e 3d2e 0a3e
000001d0: 1d46 05be e0da 3abd ce7d c4bd dd0f 9b3d
000001e0: 3cac 6fbd 5085 6d3e 4679 ae3d dc92 afbc
000001f0: d890 c73c bbb5 92be 6e85 ed3d 66cc 103e
00000200: e64e b4be 9438 183e 7d38 813e 6497 fc3c
00000210: 3f98 273d 76a2 a33e 04c4 7c3e c400 3d3e
00000220: 89cb cabe 6435 e43d f4c8 7bbe fa22 debe
00000230: cad7 c33d 0144 80be d09b 4cbe 19dd 60be
00000240: 7627 903e 9acb 2e3e 24a9 5e3e 96a6 783d
00000250: a067 93be 20c8 733c 92f3 703e 7fe7 d1bc
00000260: e4be 8bbd 8d93 1a3e 6072 b33c 532c a73c
00000270: cff2 92be 5c61 38be 4e2e 0cbe ec9b 933e
00000280: 9c7a 93be be8b c2bd 3af0 acbe 3f84 163d
00000290: 0aca 2b3d 66c9 893e 1177 473e 2b42 12be
000002a0: 4c71 79bd bf80 29be b76f 2bbe 2f97 883e
000002b0: 7c18 823e f65d 2ebe 13e6 5d3e a898 a8bd
000002c0: c624 2fbe cb03 ba3d d795 923e d8c8 c73d
000002d0: 6a63 db3d 4254 9b3d f03d 233e 23be c9bd
000002e0: ac72 75be f8c5 b73d 7b86 8d3e 04fe 323e
000002f0: 5203 9f3e bc89 abbe 77da f4bc 296c ad3d
00000300: 0718 37be d0ef 5bba ae21 543e ac45 47bd
00000310: b90b 92bd 40b0 e0bc 7fab 8b3e 691a 1d3e
00000320: 02e1 fc3b 74b0 bbbc 4e2c 3b3e 2a26 0abe
00000330: b4f1 d23c 15ac 95bc f38e 28bd bf48 01bd
00000340: dfad 0cbd fe42 60be f07d 943c d0f8 f53c
00000350: db55 acbd 19bc 4cbe 8fca 80be 9b52 55be
00000360: 2526 3d3e a0a6 77be fdba 3cbe 73c6 353c
00000370: fac9 043d cf16 773d 24e6 1d3b 495d 003e
00000380: e024 13be 9671 de3d 9598 d8bd c2af bbbc
00000390: a46b 453e 617d 453d 2c11 c3bd 3f2f b1bc
000003a0: ba3c f9bc 9489 ba3d 6c11 88be 200a 103e
000003b0: fa5e 49be f903 b43c 13b5 b33d 5800 ab3d
000003c0: 6baf 27bd 68c2 d93d c50e 473e 4403 80bd
000003d0: 67fa d5bd 9961 83be 0a2f 38bd 2b8e 903e
000003e0: 838e ac3c fa68 7d3e 5921 6e3e 4ab8 3d3c
000003f0: 52ea 20be 1231 dfbd 68df 323d 4c70 e03b
-0.20217817 0.02824054 0.20657696 -0.089897804 -0.082159765 -0.0237001 0.3211098 0.17901905
-0.011279237 -0.017677682 0.185043 -0.151659 0.022041332 -0.058134694 -0.036961015 -0.05306596
-0.038141876 -0.2249594 0.035824172 0.053992156 -0.09492959 -0.2058606 -0.26235548 -0.25585216
0.18514289 -0.26396534 -0.1824678 -0.007095721 0.0344298 0.061764747 0.0066348207 0.13349196
-0.13186233 0.11696602 -0.08036583 -0.031431064 0.19946857 0.053379882 -0.09227636 -0.018421303
-0.008262787 0.081191204 -0.28383437 0.15094547 -0.24113171 0.03968732 0.09849081 0.102481715
-0.026750654 0.1351404 0.19748162 -0.04239345 -0.088036925 -0.30505836 -0.05924554 0.31252044
0.009256661 0.2563493 0.24911064 0.040354073 -0.1684039 -0.11864372 0.0019501231 -0.0018509713
-0.075036414 0.041477412 0.14524269 0.18370794 0.112080306 0.06655956 0.12135083 0.010937471
0.067757234 -0.0023669275 0.13621195 0.014532253 -0.06369369 -0.14703128 0.15708776 -0.036412694
0.0945172 -0.039658055 0.13117193 0.11284126 -0.24667895 0.092605904 0.0028755702 0.033053294
-0.1188861 -0.105875835 -0.0582411 -0.218709 -0.13736442 0.007228598 0.2646054 -0.049211465
-0.3000862 0.03402399 -0.03954196 0.19731332 0.09714837 -0.09735077 0.10776128 0.038115054
-0.14561625 0.0021649152 0.035765044 0.07911027 0.0576062 -0.23930399 0.06152729 0.0012552161
-0.1514203 -0.031181086 0.14403138 0.13494201 -0.13015027 -0.04561889 -0.09594308 0.07571385
-0.058513865 0.23195386 0.08519225 -0.021432333 0.02436106 -0.28654274 0.11597715 0.14140472
-0.35216445 0.14865333 0.2523841 0.030833907 0.040916678 0.31959885 0.24684149 0.18457323
-0.3960841 0.11142996 -0.24588376 -0.4338606 0.09562643 -0.25051883 -0.19981313 -0.21959342
0.28155106 0.17069855 0.2174421 0.060705744 -0.28789997 0.0148792565 0.23530415 -0.025623081
-0.06823519 0.15095349 0.021905124 0.020406878 -0.28700873 -0.1800589 -0.13689539 0.28829896
-0.2880448 -0.0949931 -0.33777028 0.036747213 0.041940726 0.26911467 0.19479014 -0.14283054
-0.060899064 -0.16553019 -0.16741835 0.26677844 0.25409305 -0.17028031 0.21669798 -0.08232242
-0.17103872 0.09082755 0.28629944 0.09755105 0.10712321 0.0758443 0.15941596 -0.09850719
-0.23969525 0.089733064 0.27641663 0.17479712 0.3105722 -0.3350352 -0.029889328 0.084678955
-0.1788026 -0.0008389922 0.20715973 -0.04865043 -0.07131142 -0.027427793 0.2727928 0.15342106
0.0077172527 -0.022911288 0.1827862 -0.13491121 0.025750019 -0.018270532 -0.041151952 -0.031563517
-0.034345504 -0.21900555 0.018126458 0.03002587 -0.08414813 -0.19993629 -0.2515454 -0.20832293
0.18471582 -0.24184656 -0.18430705 0.011094677 0.032419182 0.060324486 0.0024093473 0.12535585
-0.14369535 0.108615085 -0.10575978 -0.022910956 0.19279343 0.048215274 -0.0952476 -0.021628974
-0.030424464 0.09108272 -0.26575792 0.14066362 -0.19665137 0.02197455 0.087747715 0.08349675
-0.040938776 0.10632783 0.19439228 -0.06250623 -0.10448151 -0.256604 -0.044966735 0.28233466
0.021064049 0.24747077 0.23254909 0.0115795825 -0.15714386 -0.10898031 0.043670088 0.0068493243
