minigrid/r2l/MiniGrid-LavaCrossingR2LS11N5-v0_with_library_logs/MiniGrid-LavaCrossingR2LS11N5-v0/a70e6c-seed104/critic.pt (torch, 62127 bytes, 8 tensors)

weight_ih f4 [192, 7]
0	0xbd243917	-0.040093508
1	0x3e06eeed	0.1317708
2	0x3d1ee9c0	0.03879714
3	0x3ae39c28	0.0017365264
4	0x3d8a8384	0.06763366
5	0x3dd8b688	0.1058169
6	0xbdcc36ea	-0.099714115
7	0x3a18cb10	0.00058285985
8	0xbd68c30f	-0.056826647
9	0x3e37fb5b	0.17966978
10	0xbc978fb7	-0.018501146
11	0xbe4661a6	-0.19373187
12	0x3d54d9e4	0.05196561
13	0xbe07c2ae	-0.13257858
14	0xbda074ec	-0.07834801
15	0x3db404fb	0.087900124
16	0x3e36e6f0	0.17861533
17	0x3c795506	0.015218025
18	0xbdc84aba	-0.09779878
19	0x3d9e36ac	0.077252716
20	0xbe468c64	-0.19389492
21	0x3e249761	0.16073371
22	0xbe81ba66	-0.25337523
23	0x3dc0d00e	0.09414683
24	0xbcb70203	-0.022339826
25	0x3d1c8947	0.038216855
26	0xbd61d290	-0.05513245
27	0x3de89fc3	0.11358597
28	0x3d416ffa	0.04722593
29	0xbdc451d9	-0.09585924
30	0xbda5113a	-0.08059926
31	0xbdf61bb9	-0.120170064
32	0x3dc90e78	0.09817213
33	0xbddaff88	-0.1069327
34	0x3ce4dd37	0.027937515
35	0x3db65e4d	0.08904705
36	0x3df6992b	0.12040933
37	0xbd03e03b	-0.032196265
38	0x3cacdf9e	0.021102723
39	0x3d8e2e0d	0.06942377
40	0xbdc11262	-0.09427334
41	0x3bebc2a9	0.007194836
42	0xbd0677b9	-0.03282902
43	0xbd46b6f5	-0.048514325
44	0x3e8221a4	0.2541629
45	0xbe481731	-0.19540097
46	0xbe033895	-0.12814553
47	0x3c189d50	0.00931485
48	0x3dff565d	0.12467644
49	0xbda8e3b7	-0.08246558
50	0xbdd58d20	-0.10427308
51	0x3d06abf1	0.03287882
52	0x3c8edd53	0.01743952
53	0xbd4b0bb1	-0.049571697
54	0xbda04d82	-0.078272834
55	0xbd32c821	-0.04364789
56	0xbdf480a1	-0.119385965
57	0xbdb9410d	-0.090456106
58	0x3d82a977	0.06379979
59	0xbda7b967	-0.081896596
60	0xbd4507f7	-0.0481033
61	0xbddcfc5e	-0.10790323
62	0x3e346d89	0.1761991
63	0x3dba94b2	0.09110393
64	0x3cee18d3	0.029064571
65	0x3db0a27e	0.08624743
66	0xbe44874b	-0.19192235
67	0xbe78198d	-0.24228497
68	0xbc15ddc0	-0.009147108
69	0xbcb5d010	-0.022193938
70	0x3c8f4800	0.017490387
71	0x3d153fc8	0.03643778
72	0x3a7268eb	0.00092472014
73	0xbe49e72e	-0.19717094
74	0xbd68e480	-0.05685854
75	0xbd98fe3e	-0.07470368
76	0xbd0297b2	-0.03188295
77	0x3d01fd35	0.031735618
78	0xbab8ab94	-0.001408922
79	0xbd944f72	-0.072417155
80	0xbe0508fa	-0.12991706
81	0xbd9cb32d	-0.076513626
82	0x3de37b6c	0.11107525
83	0xbe47dc9b	-0.19517748
84	0xbe0ff445	-0.14058025
85	0x3c15af30	0.009136006
86	0xbd7604e2	-0.06006325
87	0xbe1ccbee	-0.15312168
88	0xbd9a828a	-0.075444296
89	0x3d81a246	0.06329779
90	0xbdac521a	-0.08414097
91	0xbd8296ff	-0.063764565
92	0xbc42ceff	-0.011890172
93	0x3db3c011	0.08776868
94	0xbd835a14	-0.064136654
95	0xbdffc471	-0.1248864
96	0x3de90c72	0.11379327
97	0xbd95d5ab	-0.073161446
98	0xbbe66faf	-0.0070323567
99	0xbd9fb6d3	-0.07798543
100	0xbb8cd8b4	-0.004298294
101	0x3dd7c7c1	0.10536147
102	0xbe2b36d3	-0.16720133
103	0xbcf63698	-0.03005533
104	0x3e21080c	0.15725726
105	0x3d3f9ef6	0.046782456
106	0x3d44b765	0.04802646
107	0xbcadb151	-0.021202715
108	0xbda759ed	-0.08171449
109	0xbdb0f3c0	-0.086402416
110	0x3bc51680	0.006014645
111	0xbda2f93a	-0.079576924
112	0x3c8b9045	0.017036567
113	0x3d919b00	0.07109642
114	0x3e1eb989	0.15500464
115	0x3dc56b06	0.09639554
116	0x3c830844	0.015995152
117	0xba511400	-0.00079756975
118	0x3ce1088e	0.0274699
119	0x3d300047	0.042969014
120	0xbdfe6784	-0.12422088
121	0xbbe7c03c	-0.0070724767
122	0xbd926224	-0.07147625
123	0x3d3cdcf6	0.046109162
124	0xbcb4ae18	-0.02205567
125	0xbde8da83	-0.11369803
126	0xbdd56dba	-0.10421319
127	0x3d94474f	0.072401635
128	0x3e51fe8b	0.20507257
129	0xbd7a1ed0	-0.06106454
130	0x3da4c283	0.08044913
131	0xbc6bef20	-0.014400274
132	0xbd6815a0	-0.05666125
133	0xbbf18df0	-0.0073716566
134	0x3d3d9342	0.046283014
135	0x3db90f84	0.090361625
136	0xbe267ebf	-0.16259287
137	0xbd27ffc2	-0.041015394
138	0x3dff6b02	0.12471582
139	0xbdec79e2	-0.11546685
140	0x3d12a8ae	0.035805397
141	0x3daede88	0.08538538
142	0xbc1fa3c3	-0.009743634
143	0x3c51641a	0.012780214
144	0xbd6831a6	-0.056687973
145	0xbde57b2a	-0.11205132
146	0x3c639143	0.013889614
147	0x3dffd925	0.12492589
148	0x3d84000b	0.06445321
149	0xbd81c35f	-0.06336092
150	0xbd964ad1	-0.07338489
151	0xbdc22dd5	-0.09481398
152	0x3d05f140	0.032700777
153	0xbe0b25bf	-0.13588618
154	0xbd2b2a27	-0.041788246
155	0xbc9893ff	-0.018625258
156	0x3e35c5b0	0.17751193
157	0xbca97262	-0.020684425
158	0xbd88c904	-0.06678966
159	0xbdb75604	-0.08951953
160	0x3d410e20	0.04713261
161	0xbc649b74	-0.013953079
162	0x3be5da2b	0.007014533
163	0x3d22da3c	0.039758906
164	0x3d1e5088	0.03865102
165	0xbe224b1c	-0.15848964
166	0x3ca0fab0	0.019650787
167	0xbe3045d5	-0.17214139
168	0xbc81aebf	-0.015830396
169	0x3cb831ac	0.022484623
170	0x3b77a787	0.0037789063
171	0xbdda4ace	-0.10658799
172	0xbe067633	-0.13131027
173	0x3b6cce40	0.0036133677
174	0xbc6b291b	-0.014353062
175	0xbe00822b	-0.12549655
176	0x3e0062bc	0.12537664
177	0xbd639db4	-0.05557032
178	0xbe136235	-0.14392932
179	0xbe14086b	-0.14456336
180	0xbd21d730	-0.03951186
181	0xbba954b2	-0.005167567
182	0x3df91dba	0.12163873
183	0x3dee70bc	0.11642596
184	0xbd9da221	-0.07696939
185	0xbdb78d0b	-0.08962449
186	0xbc936cdd	-0.017996246
187	0xbdfc2d24	-0.123132974
188	0xbe3c3c0e	-0.18382284
189	0xbc451ffb	-0.0120315505
190	0xbd23e862	-0.04001654
191	0x3d7c8524	0.06165041
192	0xbe10f2e8	-0.14155161
193	0xbe551a71	-0.20810868
194	0x3d24f380	0.040271282
195	0x3c20394c	0.009779286
196	0xbd59b34b	-0.053149503
197	0x3df14ff6	0.117828295
198	0x3d3377fb	0.043815594
199	0x3cda7fbb	0.026672235
200	0x3c840b55	0.016118685
201	0xbd6a68c0	-0.057228804
202	0xbd25f29f	-0.040514585
203	0x3dc98894	0.09840503
204	0x3e190e2d	0.14946814
205	0xbb34d763	-0.00275942
206	0xbd8b1db0	-0.06792772
207	0xbd8212c3	-0.06351235
208	0xbdc624dc	-0.09674999
209	0xbdab5de0	-0.083675146
210	0xbcf63c91	-0.030058177
211	0x3d90cd7a	0.070704415
212	0x3dec5511	0.11539663
213	0xbbf77084	-0.0075512547
214	0xbddb4ffe	-0.10708617
215	0xbda184ba	-0.07886644
216	0xbdfbddf2	-0.12298192
217	0xbd803627	-0.06260329
218	0x3c9116ad	0.017711008
219	0xbd6fe29e	-0.05856573
220	0xbcd0328f	-0.025414733
221	0xbd7cc782	-0.061713703
222	0x3dfff0de	0.12497114
223	0xbd86cad7	-0.065816574
224	0x3d80ff8a	0.0629874
225	0x3c57a002	0.013160707
226	0xbb3c22ea	-0.0028707334
227	0xbe3ba275	-0.18323691
228	0xbe191cb3	-0.14952354
229	0x3df1e9b6	0.11812155
230	0xbd1678bf	-0.036736246
231	0x3dffd61f	0.12492012
232	0xbebbc73e	-0.36675447
233	0x3c155d58	0.009116493
234	0x3e54096e	0.20706722
235	0x3dae312f	0.08505475
236	0xbdca115e	-0.09866594
237	0x3e5824c4	0.21107775
238	0x3ce1f0ef	0.027580706
239	0x3b838bf9	0.004014489
240	0xbd3f05ce	-0.046636395
241	0x3d4d3cd3	0.050106835
242	0xbe08bc4e	-0.13353083
243	0xbc40e2d0	-0.011772826
244	0x3dc38b4a	0.09548052
245	0xbc6dcfb8	-0.014514856
246	0xbd46372a	-0.048392452
247	0x3d401ecb	0.046904366
248	0x3dd800ce	0.105470285
249	0xbda564e0	-0.08075881
250	0xbbe27980	-0.0069114566
251	0xbd2bdd7a	-0.041959263
252	0xbe0007c1	-0.12502958
253	0x3ac00d5a	0.0014652417
254	0x3e264f1b	0.16241114
255	0xbe03f0f9	-0.12884893

weight_hh f4 [192, 64]
0	0xbe04aab1	-0.12955739
1	0xbd1d14ce	-0.03834992
2	0x3d30f010	0.04319769
3	0x3c8c62f7	0.017137034
4	0x3e1d5ccf	0.15367435
5	0x3ddea6e5	0.10871676
6	0xbdc005ce	-0.09376107
7	0x3ced4171	0.028961869
8	0x3d664f21	0.056227807
9	0x3db57d26	0.08861761
10	0xbe05d17e	-0.13068196
11	0xbd9a6bcb	-0.07540091
12	0xbbe4223d	-0.0069620893
13	0xbcf556b3	-0.029948568
14	0x3d74d5a2	0.05977405
15	0x3c4548e7	0.012041307
16	0x3d63f460	0.055652976
17	0x3caa786a	0.020809371
18	0xbdaac101	-0.08337594
19	0xbc90f0c4	-0.017692931
20	0x3c2510d6	0.010074815
21	0xbdf00b34	-0.11720887
22	0x3ca0d6a2	0.019633595
23	0xbdb59008	-0.088653624
24	0x3db50a95	0.08839909
25	0x3cbc40a1	0.022980036
26	0x3cc6352b	0.024195274
27	0xbc514ec8	-0.012775131
28	0xbdcdc44f	-0.100472085
29	0x3dd6a900	0.10481453
30	0xbd0e8852	-0.034797974
31	0x3d638718	0.055548757
32	0xbe00fa4c	-0.1259548
33	0xbdb516f3	-0.08842268
34	0xbb84d862	-0.004054115
35	0xbd9919b3	-0.07475605
36	0xbd6527a7	-0.05594602
37	0x3dbc76d8	0.09202355
38	0xbd801d44	-0.06255582
39	0xbdec66ea	-0.11543067
40	0xbd408d91	-0.04701001
41	0x3dc4755e	0.095926985
42	0xbd4bb730	-0.049735248
43	0x3da4c322	0.08045031
44	0xbb901f12	-0.004398235
45	0xbd5b2906	-0.05350592
46	0xbc55cf43	-0.013049903
47	0xbe0d1747	-0.13778411
48	0xbdd2fde9	-0.10302336
49	0x3da9d8e5	0.082933225
50	0x3d0f713e	0.035020106
51	0x3df80b7d	0.12111566
52	0xbde4ef46	-0.1117845
53	0x3df2c713	0.11854377
54	0xbda6d286	-0.08145623
55	0x3d97bd23	0.07409122
56	0x3dd2c81d	0.10292075
57	0xbd4d5329	-0.050128136
58	0xbdc23ba1	-0.094840296
59	0xbd3c074b	-0.045905393
60	0xbde580e8	-0.112062275
61	0x3b724dc3	0.003697262
62	0xbc419b1f	-0.011816769
63	0x3c7886af	0.01516883
64	0xbdf2c628	-0.118542016
65	0xbc15f100	-0.009151697
66	0x3d88dd9a	0.06682892
67	0x3c0c39c2	0.008558692
68	0x3caa7dec	0.020811997
69	0xbd2d88f3	-0.042366933
70	0xbe116330	-0.14197993
71	0x3e39df11	0.181515
72	0xbcee9279	-0.029122578
73	0xbabc6681	-0.001437381
74	0xbdd704d4	-0.10498968
75	0x3d1cd159	0.038285587
76	0xbc98480e	-0.018589046
77	0xbded6a39	-0.11592526
78	0x3c862854	0.016376652
79	0xbd16a812	-0.036781378
80	0x3de4a011	0.11163343
81	0xbcb918f6	-0.02259491
82	0xbd07a05c	-0.033111915
83	0xbd9157f4	-0.07096854
84	0xbd736549	-0.059422765
85	0xbe11e339	-0.14246835
86	0x3b97f8d9	0.0046378192
87	0x3dd2b7f6	0.10288994
88	0x3e4f7d44	0.20262629
89	0xbd660d58	-0.05616507
90	0xbb173293	-0.0023070916
91	0xbd20c5ea	-0.039251246
92	0xbcb280bc	-0.021789901
93	0xbd6c7460	-0.05772817
94	0x3d8b9150	0.068148255
95	0x3d2a534d	0.041583348
96	0xbdbad28f	-0.09122192
97	0x3df5a2e5	0.1199396
98	0x3e24aa44	0.16080576
99	0xbc5020f8	-0.012703173
100	0x3d7efdbd	0.062253702
101	0xbc016ae5	-0.007899021
102	0xbd373f13	-0.044737887
103	0x3dd75bce	0.10515557
104	0xbd8fe23a	-0.07025571
105	0x3ce22b6c	0.027608596
106	0xbdc6ca6a	-0.09706576
107	0x3c857010	0.016288787
108	0xbe4e19d2	-0.20127037
109	0x3cedac5f	0.029012857
110	0x3d9273ee	0.07151018
111	0xbe020c76	-0.12700066
112	0x3c847c64	0.016172595
113	0xbe2d1c1a	-0.16905251
114	0x3e3bcd8d	0.1834013
115	0x3d5e17fa	0.054222085
116	0xbd436414	-0.047702864
117	0x3ccb8e9b	0.024848273
118	0xbe243b92	-0.1603835
119	0x3dd24f6e	0.10269056
120	0xbd873d97	-0.06603544
121	0xbda42ee5	-0.08016757
122	0x3d8cae26	0.06869154
123	0x3e2cef51	0.16888167
124	0x3d40dd2a	0.04708592
125	0x3d16a9a4	0.036782876
126	0xbd813206	-0.06308369
127	0x3dc80a99	0.09767646
128	0xbd09b932	-0.03362388
129	0xbe43e290	-0.19129395
130	0x3e48afdc	0.19598335
131	0xbe090a96	-0.13382944
132	0x3c458277	0.012055031
133	0x3d5a445f	0.05328786
134	0xbe40b2e8	-0.18818247
135	0x3dfbb7df	0.1229093
136	0x3d921d3b	0.071344815
137	0x3e08e9dc	0.1337046
138	0xbe38e36e	-0.18055508
139	0x3ca62b89	0.020284431
140	0x3beada31	0.0071671237
141	0x3da0b7f8	0.07847589
142	0x3d87ec30	0.06636846
143	0xbd81f40e	-0.06345378
144	0x3ccd9b3f	0.025098441
145	0x3dd85d51	0.10564674
146	0x3c3cc600	0.011521816
147	0xbdf4bc19	-0.11949939
148	0x3d4f3c4c	0.050594613
149	0x3cac6cc1	0.021047952
150	0x3e216c65	0.15764005
151	0xbcaa7f66	-0.020812701
152	0x3e0665ae	0.13124725
153	0xbdbff876	-0.09373562
154	0x3d1da47b	0.03848694
155	0xbe4ab9dd	-0.19797464
156	0x3c739a7b	0.014868374
157	0xbd4638cc	-0.04839401
158	0x3dfdda0f	0.12395107
159	0x3dae310f	0.08505451
160	0xbe12f4e2	-0.14351228
161	0xbd0a9df6	-0.03384205
162	0xbd6feeb9	-0.058577273
163	0x3c054252	0.008133488
164	0xbca1dd22	-0.019758765
165	0x3cff443a	0.031160463
166	0xbe075ac1	-0.13218214
167	0x3d9973cb	0.07492789
168	0xbd4353b4	-0.047687247
169	0x3daf4ffc	0.08560178
170	0xbe00eab9	-0.1258954
171	0x3d70f1e0	0.05882442
172	0x3c61bf01	0.013778449
173	0xbc106732	-0.008813666
174	0xbd7dcfb1	-0.061965648
175	0x3d57c28e	0.052675776
176	0xbd1d5c9f	-0.03841841
177	0xbd98aa21	-0.074543245
178	0x3dbc0d24	0.09182194
179	0xbe0f78a5	-0.14010866
180	0xbb3e58cb	-0.0029044624
181	0x3c4253d0	0.011860803
182	0xbe08ae06	-0.13347635
183	0x3cb1e1fd	0.021714205
184	0xbd0643f0	-0.032779634
185	0x3c2bc9d6	0.010485133
186	0xbdfcb2c5	-0.12338785
187	0xbc8cf5fd	-0.01720714
188	0xbc1096bd	-0.008825001
189	0x3a93453e	0.0011235846
190	0x3cf509c0	0.029911876
191	0x3dfa75a6	0.12229471
192	0x3dccc1f2	0.0999793
193	0x3dad7e99	0.08471412
194	0xbd232580	-0.039830685
195	0xbe081e3c	-0.13292783
196	0x3d0d9cfc	0.03457354
197	0x3e15623f	0.14588259
198	0x3da882e3	0.0822809
199	0x3d5fb465	0.054615397
200	0xbc6019fd	-0.013678071
201	0x3e4621d9	0.1934885
202	0xbc91308b	-0.017723342
203	0x3e39a805	0.181305
204	0x3da02b4d	0.07820759
205	0xbd9e01a7	-0.07715159
206	0x3de71fa6	0.11285333
207	0xbd9c91c5	-0.07644991
208	0x3d943c81	0.07238103
209	0x3d4088e0	0.047005534
210	0xbc2ffb63	-0.010741088
211	0xbcc14f43	-0.023597365
212	0xbe11ae06	-0.14226541
213	0x3e049c47	0.1295024
214	0x3ddb4fd1	0.10708583
215	0xbc1c8ee1	-0.009555549
216	0xbdfefbcd	-0.12450371
217	0xbd7d7d4a	-0.061887063
218	0x3d47773a	0.048697688
219	0x3cb48a70	0.022038668
220	0xbdef70fe	-0.116914734
221	0x3d02b57e	0.031911366
222	0xbccd13b1	-0.025033804
223	0xbad40442	-0.0016175585
224	0x3d739b53	0.0594743
225	0x3da1bee6	0.07897739
226	0x3cb33ff2	0.021881077
227	0xbdc2eb2a	-0.0951751
228	0xbde1f2d3	-0.11032643
229	0x3c1e44e0	0.009659976
230	0xbd8c8374	-0.0686101
231	0x3e13460f	0.14382194
232	0x3d334733	0.043769073
233	0x3e3fa17f	0.1871395
234	0x3c7a5260	0.015278429
235	0x3def61f5	0.11688606
236	0xbd4cff13	-0.050047945
237	0x3de436e8	0.11143285
238	0xbde048f2	-0.10951413
239	0xbce29094	-0.02765683
240	0x3c33c3c6	0.010971969
241	0xbd8e14f1	-0.06937588
242	0xbd86eec5	-0.065885104
243	0xbd870751	-0.06593192
244	0x3d003807	0.03130343
245	0x3de1bd72	0.11022462
246	0x3da55892	0.08073534
247	0x3b25feb1	0.002532881
248	0x3d1d3a32	0.038385577
249	0xbc181b28	-0.009283818
250	0x3e135fb0	0.1439197
251	0x3e4d4805	0.20047005
252	0x3d990024	0.0747073
253	0x3c9ea892	0.01936749
254	0xbe25d10c	-0.16193026
255	0x3e19835d	0.14991517

bias_ih f4 [192]
0	0x3cbfdef8	0.02342175
1	0x3d62a860	0.055336356
2	0xbd9a2f81	-0.07528592
3	0x3e63adc9	0.22234263
4	0xbc1c3f9f	-0.009536653
5	0xbb83044d	-0.0039983154
6	0x3e40993b	0.18808453
7	0xbd096ce2	-0.033551104
8	0x3db7ab3f	0.089682095
9	0x3c79872a	0.0152299795
10	0xbd98c75b	-0.07459899
11	0x3e0719e7	0.13193475
12	0xbdb50015	-0.08837906
13	0x3b9f4117	0.0048600542
14	0x3cf91000	0.030403137
15	0x3dc1841c	0.09449026
16	0xbde83382	-0.11337949
17	0xbd9c272f	-0.07624661
18	0x3e1ab42c	0.15107793
19	0x3d9c0c18	0.07619494
20	0x3e123279	0.14277066
21	0x3da4a36f	0.08038985
22	0xbd0479ba	-0.03234265
23	0xbd9eebbb	-0.07759806
24	0x3dd0fee1	0.10204864
25	0xbd135467	-0.035969164
26	0x3e246eea	0.16057935
27	0xbd8129c8	-0.06306797
28	0x3e19c43e	0.15016267
29	0xbc60acd6	-0.013713082
30	0x3cc5f97e	0.024166819
31	0x3df2335f	0.118262045
32	0xbdad24ac	-0.0845426
33	0x3e2ebfee	0.17065403
34	0x3d8058a0	0.06266904
35	0xbd44173e	-0.047873728
36	0x3e002d88	0.12517369
37	0xbc6dccb1	-0.014514134
38	0xbc0565cf	-0.008141949
39	0x3e237249	0.15961565
40	0x3da97390	0.08273995
41	0x3dae286f	0.08503806
42	0x3d816042	0.06317188
43	0x3da92f8c	0.08261022
44	0xbd833996	-0.06407468
45	0x3e08c097	0.13354717
46	0x3dcdc9ac	0.100482315
47	0xbd5f43ed	-0.05450814
48	0x3de64ce8	0.112451375
49	0xbcc0d051	-0.023536833
50	0x3e330c5f	0.17485188
51	0x3de1acd1	0.1101929
52	0x3e2badde	0.16765544
53	0x3d7fb633	0.062429618
54	0x3dc91963	0.09819295
55	0x3ba29e63	0.004962729
56	0xbdb1bc3e	-0.086784825
57	0x3e0088de	0.1255221
58	0x3dc2e7bd	0.09516857
59	0x3e0f08e9	0.13968243
60	0x3ea452fc	0.32094562
61	0x3d0a451d	0.033757318
62	0x3e3fbb0f	0.18723701
63	0x3e244f7f	0.1604595
64	0xbe4333d3	-0.19062738
65	0xbe967392	-0.29385048
66	0xbd9e8dd8	-0.07741898
67	0xbe7db077	-0.24774347
68	0xbe7f9059	-0.24957408
69	0x3e3caae5	0.18424566
70	0xbe1b1acc	-0.15146941
71	0xbe5f30a2	-0.21795896
72	0xbed783ba	-0.42092687
73	0x3dafd5f2	0.08585729
74	0xbe9c7e21	-0.3056498
75	0xbee5a254	-0.4485041
76	0x3e2176ca	0.1576797
77	0x3d27b7f3	0.040946912
78	0xbf063fe6	-0.5244125
79	0xbda6cbdd	-0.081443526
80	0xbe5b19f7	-0.21396624
81	0xbe7aaac5	-0.24479206
82	0x3df752a6	0.12076311
83	0xbdda81ca	-0.106692865
84	0xbd946954	-0.07246652
85	0xbe201e53	-0.15636568
86	0x3e3b4dfb	0.18291466
87	0xbe28bc91	-0.16478182
88	0xbedf46b7	-0.4360864
89	0xbedc0a2d	-0.42976514
90	0xbe7034db	-0.23457663
91	0x3dfc2cdc	0.12313244
92	0xbe3f2355	-0.18665822
93	0xbebea97a	-0.37238675
94	0x3da12b60	0.07869601
95	0x3da78880	0.08180332
96	0xbe19d8d5	-0.15024121
97	0xbef067c8	-0.4695418
98	0x3d312453	0.043247532
99	0xbe9dbab0	-0.30806494
100	0xbd8d6d0b	-0.06905564
101	0x3a7cea1a	0.0009647921
102	0xbd1c2e86	-0.038130306
103	0xbe7c4499	-0.24635543
104	0xbcba3e76	-0.022734862
105	0xbe2b64d7	-0.16737686
106	0xbf155698	-0.58335257
107	0xbcfa4d72	-0.030554507
108	0xbccae4c8	-0.024767295
109	0xbd6a7119	-0.057236765
110	0xbe3c1ed3	-0.18371134
111	0xbe1a2a8b	-0.15055291
112	0xbe48d3b6	-0.19612011
113	0xbeb09540	-0.3448887
114	0xbef2adb2	-0.47398144
115	0xbf012939	-0.50453526
116	0xbe9053aa	-0.2818883
117	0xbe8d4ace	-0.27596134
118	0xbeeff552	-0.46866852
119	0xbe991b8e	-0.29903835
120	0x3d216023	0.039398324
121	0x3e0213a3	0.12702803
122	0xbf1be08e	-0.6088952
123	0xbed04d15	-0.4068381
124	0xbf109611	-0.56478983
125	0xbebe42e3	-0.37160406
126	0xbe62f995	-0.2216552
127	0xbbe9b608	-0.0071322955
128	0x3d46bbde	0.048519008
129	0x3e0a9fe9	0.13537563
130	0xbda1e289	-0.07904536
131	0xbe3a4369	-0.18189777
132	0x3cdf0043	0.027221804
133	0x3d7b329d	0.061327565
134	0x3d85d6af	0.06535088
135	0xbcf81811	-0.030284913
136	0xbe161ac0	-0.14658642
137	0x3d60a9c0	0.054849386
138	0x3e16687a	0.14688292
139	0x3e560d4d	0.20903511
140	0x3aeb0c20	0.0017932691
141	0xbd48bee1	-0.04901016
142	0x3e1e041c	0.15431255
143	0x3d93e5cf	0.07221567
144	0xbd90daf3	-0.07073011
145	0x3dea2740	0.114332676
146	0x3ddb2000	0.10699463
147	0x3d1afc58	0.03783831
148	0xbcae84a6	-0.021303486
149	0x3d9c4a4e	0.0763136
150	0xbce3339e	-0.027734574
151	0x3c98f3bc	0.01867091
152	0xbd0445e5	-0.03229322
153	0xbe335bc5	-0.17515476
154	0x3caf2ed7	0.02138464
155	0xbdc27b79	-0.09496207
156	0xbe23cbc8	-0.15995705
157	0x3e150b8d	0.14555188
158	0xbd8dfbb3	-0.069327734
159	0xbdac6220	-0.08417153
160	0x3d57e4bf	0.052708384
161	0x3e3fc490	0.18727326
162	0x3c5cd74d	0.013479066
163	0xbdf6a405	-0.12043003
164	0xbd95bc17	-0.07311266
165	0x3d1a93fe	0.037738793
166	0x3db27bbd	0.087150075
167	0x3e35a9d7	0.1774057
168	0x3cd72023	0.026260441
169	0xb9c23129	-0.0003703919
170	0xbe3e9ac5	-0.18613727
171	0x3d0eea67	0.034891512
172	0xbcaed1f5	-0.02134035
173	0x3cce2885	0.025165806
174	0xbdaff24d	-0.08591137
175	0x3dd1133f	0.10208749
176	0x3c0b7c59	0.0085135335
177	0x3d538bbe	0.05164694
178	0x3d9e2c1c	0.07723257
179	0xbdf0d909	-0.11760146
180	0xbe926db0	-0.2859931
181	0xbd74e647	-0.059789922
182	0x3c3230ad	0.010875863
183	0x3df64555	0.12024943
184	0xbd3f69f3	-0.0467319
185	0xbdbc853a	-0.092050985
186	0x3e3b0279	0.18262662
187	0x3e17929e	0.14802024
188	0x3e731b59	0.23740901
189	0xbe07bad8	-0.13254869
190	0xbcc26dab	-0.023733934
191	0x3c3aeb3b	0.011408622

bias_hh f4 [192]
0	0xbd24917f	-0.04017782
1	0xbd03cb76	-0.032176457
2	0xbd880e7f	-0.0664339
3	0x3e6d17f7	0.23153673
4	0x3da14264	0.07873991
5	0xbddd1650	-0.107952714
6	0x3e12fa17	0.14353214
7	0xbd70a954	-0.058755234
8	0x3e05f16d	0.13080378
9	0x3e21939c	0.15778965
10	0xbdbfb37b	-0.09360405
11	0x3e37e0b5	0.17956813
12	0xbd747e36	-0.059690677
13	0x3e46ff5b	0.19433348
14	0x3e4879af	0.19577669
15	0x3de683ec	0.11255631
16	0xbd7c821d	-0.061647523
17	0x3d9b38cb	0.07579192
18	0x3d495992	0.049157687
19	0xbbfa89bc	-0.0076458137
20	0x3da8a6fb	0.08234974
21	0xbcb686fb	-0.02228116
22	0x3d748766	0.05969944
23	0x3a6253d9	0.000863371
24	0x3dcd1825	0.10014371
25	0x3e31c03e	0.17358491
26	0x3dd8cf09	0.10586364
27	0x3cf66f94	0.030082501
28	0x3df5ed16	0.12008111
29	0x3df10409	0.11768348
30	0xbda6beb4	-0.081418425
31	0xbcf3779e	-0.029720124
32	0x3d49aed3	0.04923899
33	0x3da3a6b3	0.0799078
34	0x3de7bfd7	0.113158874
35	0xbda78c17	-0.08181017
36	0x3dab8694	0.08375278
37	0x3ca493bb	0.020089975
38	0x3e1c2680	0.15249062
39	0x3e1aae89	0.15105642
40	0x3dbc6f12	0.092008725
41	0x3c3d5886	0.01155675
42	0x3e5233c5	0.20527561
43	0x3dabb0de	0.08383344
44	0x3de235d6	0.11045425
45	0x3d14e8a5	0.03635468
46	0xbd6c2064	-0.057648078
47	0xbe1ec309	-0.15504088
48	0x3e08119a	0.13287964
49	0x3d6d76dd	0.057974685
50	0x3e172d39	0.14763345
51	0x3e420cbe	0.18950173
52	0x3dbd24cd	0.09235535
53	0x3c532246	0.012886589
54	0xbc83858c	-0.016054891
55	0x3cb064dc	0.021532468
56	0x3de9a3f6	0.11408226
57	0x3e3171e0	0.17328596
58	0x3dcabd95	0.09899441
59	0x3d09a83e	0.033607714
60	0x3e84c5a8	0.2593205
61	0xbde2c527	-0.1107276
62	0x3e202a65	0.15641172
63	0xbd0f0edd	-0.034926284
64	0xbebee221	-0.37281898
65	0xbe88fe5f	-0.2675657
66	0xbdddebe7	-0.108360104
67	0xbee6bdde	-0.45066732
68	0xbe19d202	-0.15021518
69	0x3d21c0b5	0.03949042
70	0xbe350b5d	-0.17680116
71	0xbe9a78b9	-0.3017023
72	0xbef78c22	-0.483491
73	0x3dbd6612	0.09247984
74	0xbe87d083	-0.2652627
75	0xbeceab30	-0.4036498
76	0x3e1e5452	0.15461853
77	0x3c46ce10	0.01213409
78	0xbf249c5e	-0.643011
79	0xbe2dd51f	-0.1697583
80	0xbe1f3a49	-0.15549578
81	0xbe85d369	-0.26137856
82	0xbd3d00d7	-0.04614338
83	0xbd81034f	-0.06299459
84	0xbd5e5536	-0.054280482
85	0xbe71df03	-0.23620228
86	0x3e494f6d	0.19659205
87	0xbe4d619d	-0.20056768
88	0xbea25161	-0.31702712
89	0xbed1dc59	-0.40988424
90	0xbe1c09ed	-0.15238161
91	0xbc5b955c	-0.013402309
92	0xbddb01cc	-0.10693702
93	0xbee43f5c	-0.4457959
94	0x3d96a846	0.07356314
95	0xbd5ea481	-0.054356102
96	0xbeb483a7	-0.35256693
97	0xbecd3714	-0.40081084
98	0xbc515b36	-0.012778094
99	0xbeb7aed1	-0.35875562
100	0xbdba55c1	-0.090983875
101	0x3dbf2d0f	0.09334766
102	0xbcca48ee	-0.024692979
103	0xbeaf9bcb	-0.34298548
104	0xbce4b854	-0.027919926
105	0x3d3f7072	0.046738096
106	0xbf1d1a3d	-0.6136816
107	0x3e0dec82	0.13859752
108	0xbca1b8ee	-0.019741502
109	0xbdfc1659	-0.1230895
110	0xbe8b4ed7	-0.27208588
111	0xbe5f955d	-0.21834321
112	0xbe6d4f88	-0.2317487
113	0xbe89ab60	-0.2688856
114	0xbea0513f	-0.31311986
115	0xbee323ed	-0.44363347
116	0xbe833246	-0.25624293
117	0xbeb27314	-0.34853423
118	0xbee14518	-0.43998027
119	0xbecaa0b8	-0.39575744
120	0xbc7d479f	-0.01545897
121	0x3e2fa695	0.1715339
122	0xbf0f40af	-0.55958074
123	0xbef84033	-0.4848648
124	0xbed9179d	-0.42400828
125	0xbea72962	-0.3264876
126	0xbe366fa5	-0.17816027
127	0xbbc5fe28	-0.0060422607
128	0x3df845eb	0.12122711
129	0x3cdd61f8	0.027024254
130	0x3d49472d	0.049140144
131	0xbe2d3d91	-0.16918017
132	0xbe341f57	-0.1759008
133	0x3d8a7a03	0.06761553
134	0x3c25716f	0.010097845
135	0xbd902094	-0.07037464
136	0xbe104c3c	-0.14091581
137	0xbd28e3ae	-0.041232757
138	0x3c31a2bb	0.010842021
139	0x3e958382	0.29201895
140	0x3c5b6919	0.013391756
141	0x3dbde169	0.09271509
142	0x3e4d0a0a	0.20023361
143	0x3dad049e	0.08448146
144	0x3b8c90cf	0.0042897235
145	0x3e162d0d	0.14665623
146	0xbcc80767	-0.024417592
147	0xbcd58b83	-0.026067501
148	0x3e043880	0.12912178
149	0x3d8cfb39	0.068838544
150	0x3d571647	0.05251148
151	0xbdf93659	-0.12168569
152	0xbe45818f	-0.19287704
153	0xbdcf3afa	-0.10118671
154	0xbe3780a0	-0.1792016
155	0x3ccefdf4	0.025267579
156	0xbd108072	-0.035278745
157	0x3e188672	0.14895037
158	0x3d7c4b02	0.06159497
159	0x3ce34f25	0.0277477
160	0x3db74806	0.08949284
161	0x3df7e4c1	0.12104178
162	0xb9dc5461	-0.00042024537
163	0xbcc2f9d3	-0.023800766
164	0x3abf91c5	0.0014615586
165	0x3cdc0c32	0.026861284
166	0x3d31992f	0.043358978
167	0x3e286716	0.16445574
168	0x3d9c33d0	0.0762707
169	0x3c8554a1	0.016275706
170	0xbe226ae0	-0.15861082
171	0xbdcaa3b4	-0.09894505
172	0xbd5243e6	-0.051334284
173	0x3d4917a5	0.049094815
174	0x3b3d2a15	0.0028864194
175	0xbd0432b4	-0.032274917
176	0x3e4339ee	0.19065067
177	0x3db63c71	0.08898247
178	0x3ceaeb7f	0.028676746
179	0xbe54f8c5	-0.20798023
180	0xbdebacdc	-0.1150758
181	0xbe2a1166	-0.166082
182	0x3e3f3b64	0.18675
183	0x3dbc0fd0	0.091827035
184	0x3da38da5	0.07986001
185	0x3d73d596	0.059529863
186	0x3e11297f	0.14175986
187	0x3e44cbba	0.1921834
188	0x3e9587af	0.2920508
189	0xbcb40d77	-0.021979077
190	0xbe0da601	-0.13832857
191	0xbdc25955	-0.09489695

weight f4 [1, 64]
0	0x3e226787	0.15859805
1	0x3e158d0b	0.14604585
2	0xbde92da8	-0.11385661
3	0xbe064966	-0.13113937
4	0xbd4e3eff	-0.050353047
5	0xbc8bfce1	-0.017088355
6	0x3d55ec53	0.05222733
7	0xbdc551a3	-0.096347116
8	0xbda2c2dc	-0.07947323
9	0xbd436ab5	-0.047709186
10	0x3e1b04d1	0.15138556
11	0x3d6cbeb6	0.057799064
12	0xbda01d28	-0.07818061
13	0x3ceef2c2	0.02916849
14	0x3dce6360	0.10077548
15	0x3d42b269	0.047533426
16	0xbe14f10d	-0.14545079
17	0x3d2f1376	0.04274317
18	0x3d464367	0.048404124
19	0x3cd3ffb0	0.025878757
20	0x3d71b062	0.059006102
21	0x3e09cbb4	0.13456613
22	0xbb7dd44b	-0.0038731273
23	0xbd30c3b5	-0.04315539
24	0xbd9f53cc	-0.07779655
25	0xbe3f6dff	-0.18694304
26	0xbdd6b839	-0.104843564
27	0xbc289bb8	-0.0102910325
28	0xbd93ec99	-0.07222862
29	0x3dfae1ef	0.12250125
30	0xbddde7d9	-0.10835237
31	0xbd28787f	-0.04113054
32	0x3e018bb0	0.12650943
33	0x3e61fdd2	0.22069481
34	0xbd33ccbc	-0.04389642
35	0xbddcc9db	-0.107806884
36	0xbe296205	-0.16541298
37	0xbd91af1f	-0.0711348
38	0x3dde6394	0.10858837
39	0x3e479363	0.19489817
40	0xbcc1ccf6	-0.023657303
41	0xbc8f5c23	-0.017499989
42	0xbe00a119	-0.12561454
43	0xbcbcafa7	-0.023032976
44	0x3d31ce14	0.043409422
45	0x3d8185bb	0.06324335
46	0xbdf972dc	-0.12180111
47	0x3e0e5c32	0.13902357
48	0x3e25fe99	0.16210403
49	0x3d1f3e38	0.038877696
50	0x3defde88	0.11712366
51	0xbdfaf7dc	-0.12254307
52	0xbde1cbd6	-0.11025207
53	0xbe65cea9	-0.22442116
54	0x3dffcc98	0.12490195
55	0x3dfc378a	0.12315281
56	0xbce6aab0	-0.028157562
57	0xbcd78356	-0.026307743
58	0x3e6f4322	0.23365453
59	0x3dd46d05	0.10372356
60	0x3e00c135	0.12573703
61	0xbd9e2f31	-0.07723845
62	0xbd8cc853	-0.06874146
63	0xbd8b86e4	-0.06812838

welford_state_mean f4 [7]
0	0x3f1341b4	0.5752213
1	0x3eb53d2b	0.3539823
2	0x3ecbe4d0	0.39823008
3	0x00000000	0.0
4	0x00000000	0.0
5	0x00000000	0.0
6	0x3e3e4d09	0.18584074

welford_state_mean_diff f4 [7]
0	0x41dddb66	27.732128
1	0x41cfe69d	25.987604
2	0x41d9b4bb	27.213247
3	0x3f800000	1.0
4	0x3f800000	1.0
5	0x3f800000	1.0
6	0x418e2c41	17.771608

hidden f4 [6, 64]
0	0xbc897738	-0.01678048
1	0xbf659f45	-0.8969615
2	0x3f66bb23	0.901293
3	0xbf517a2c	-0.81827044
4	0xbe95de0c	-0.2927097
5	0xbae0eb60	-0.0017159991
6	0xbf71753a	-0.943195
7	0x3f2e6f43	0.6813852
8	0x3d339b66	0.04384937
9	0x3f6acb3b	0.91716355
10	0xbf4f53cb	-0.8098723
11	0x3f62de8c	0.8862083
12	0xbe642164	-0.22278363
13	0x3e3137a5	0.17306383
14	0xbedbff78	-0.42968345
15	0x3dab8a7c	0.08376023
16	0x3eac77fe	0.33685297
17	0x3f78bfd2	0.97167695
18	0x3f73c949	0.9522901
19	0xbf69b8a9	-0.91297394
20	0xbd0fb98f	-0.03508907
21	0xbd4005b2	-0.04688043
22	0x3f58653a	0.8452946
23	0xbd55ca96	-0.052195154
24	0x3f402c1a	0.75067294
25	0xbecf0d02	-0.40439612
26	0x3cfe60c0	0.031051993
27	0xbf71e221	-0.9448567
28	0xbf49227e	-0.78568256
29	0x3e16a1a9	0.14710106
30	0x3f47e7ce	0.7808808
31	0xbf36a70f	-0.7134866
32	0xbe037b68	-0.12840044
33	0x3e4c897a	0.19974318
34	0x3f402223	0.7505209
35	0xbe9f46b0	-0.31108618
36	0x3f689cf7	0.9086451
37	0x3f0b2c41	0.543644
38	0xbf3f06a2	-0.74619496
39	0x3dc011a1	0.093783624
40	0xbf4c37ad	-0.79772455
41	0x3f21c995	0.63198215
42	0xbeaf1286	-0.3419382
43	0x3f6fbd21	0.9364796
44	0xbf52af07	-0.8229832
45	0x3e0c1ae2	0.1368213
46	0xbe5685e6	-0.20949516
47	0x3e1352fa	0.14387122
48	0x3e6d8c80	0.23198128
49	0xbf224689	-0.6338888
50	0x3ea99757	0.33123276
51	0xbf76d549	-0.964192
52	0xbf7d855c	-0.99031615
53	0x3e4f97b0	0.20272708
54	0xbf016bbb	-0.5055501
55	0x3f1b2be7	0.60613865
56	0xbf663e0b	-0.8993842
57	0xbf5dc4b8	-0.86628294
58	0xbecd4350	-0.40090418
59	0x3f6d147f	0.926094
60	0x3ec077dd	0.37591448
61	0xbf3c279a	-0.7349793
62	0xbf74e157	-0.9565634
63	0x3f5e3c63	0.8681089
64	0x3df1629d	0.11786387
65	0x3e82e0c0	0.25562096
66	0xbe176252	-0.147836
67	0x3dfaf347	0.12253433
68	0xbe3e96cf	-0.18612216
69	0xbd2a3112	-0.041550703
70	0x3e1f05b4	0.1552952
71	0xbcb1e95b	-0.021717718
72	0xbe1bca68	-0.1521393
73	0xbe53b0ae	-0.20672867
74	0xbd60f46d	-0.054920603
75	0x3ee39b69	0.44454506
76	0x3bc9b914	0.0061560962
77	0x3dbd4be8	0.092429936
78	0x3e43d3a2	0.191237
79	0x3ad4d742	0.0016238468
80	0xbdad3fe8	-0.08459455
81	0x3e2adc8c	0.16685694
82	0xbda9f471	-0.082985766
83	0x3e786001	0.24255373
84	0x3dffcea6	0.12490587
85	0xbc1987c3	-0.009370747
86	0xbdee4014	-0.11633316
87	0xbda98d72	-0.08278932
88	0xbe10c423	-0.1413732
89	0xbe4e846f	-0.20167707
90	0xbe97c25c	-0.29640472
91	0xbc730d4b	-0.014834712
92	0xbc98dd4f	-0.018660216
93	0x3e85edb4	0.26157916
94	0xbd859e05	-0.065242805
95	0x3e40fff2	0.18847635
96	0x3e6467ab	0.22305171
97	0x3dd5c430	0.104378104
98	0xbcaf7411	-0.02141765
99	0x3d1ea355	0.038729984
100	0xbe230405	-0.15919502
101	0xbce2af93	-0.027671611
102	0x3eb18516	0.3467185
103	0x3ec0036c	0.3750261
104	0x3ddf91f8	0.10916513
105	0x3e2d6bd5	0.16935666
106	0xbe703a22	-0.23459676
107	0xbd74d2ea	-0.059771456
108	0x3dbff82e	0.093735084
109	0x3c110668	0.008851625
110	0xbd31b666	-0.04338684
111	0x3e46d50c	0.19417208
112	0x3ddf3009	0.10897834
113	0x3e1e74e2	0.15474275
114	0xbd29ad20	-0.04142487
115	0xbd094f38	-0.033522815
116	0xbea1251c	-0.31473625
117	0x3cd1c10a	0.025604744
118	0x3dfb8fd2	0.12283291
119	0x3df98e01	0.12185288
120	0x3e63be7f	0.22240637
121	0xbc40e375	-0.01177298
122	0x3e0e418c	0.13892192
123	0x3e1999ee	0.15000126
124	0x3e8a34f4	0.26993525
125	0xbdbd3927	-0.092394166
126	0xbd8e3cd3	-0.06945195
127	0xbdcfdffe	-0.10150145
128	0x3df17128	0.11789161
129	0x3e82f018	0.25573802
130	0xbe178077	-0.14795099
131	0x3dfb3b03	0.12267115
132	0xbe3e8cc3	-0.18608384
133	0xbd2a3ad5	-0.041560013
134	0x3e1f3afd	0.15549846
135	0xbcb2e2a3	-0.021836584
136	0xbe1bd6a5	-0.15218599
137	0xbe53da23	-0.20688681
138	0xbd606ddb	-0.054792266
139	0x3ee387ce	0.44439548
140	0x3bcb151e	0.0061975857
141	0x3dbd4bd2	0.09242977
142	0x3e43e103	0.19128804
143	0x3ad83ba4	0.0016497266
144	0xbdad5abe	-0.08464573
145	0x3e2aa41f	0.1666417
146	0xbdaa6bda	-0.08321352
147	0x3e7893d2	0.24275139
148	0x3dfff11c	0.1249716
149	0xbc18da56	-0.009329399
150	0xbdee9f86	-0.116515204
151	0xbda9a0e0	-0.082826376
152	0xbe10e1cf	-0.14148639
153	0xbe4e8494	-0.20167762
154	0xbe97c6e3	-0.29643926
155	0xbc6fbc0f	-0.014632239
156	0xbc97abc2	-0.018514518
157	0x3e85f1ca	0.26161033
158	0xbd85e277	-0.06537335
159	0x3e411b87	0.18858157
160	0x3e6471df	0.22309063
161	0x3dd5a1a3	0.104312204
162	0xbcb06cbd	-0.021536225
163	0x3d1ea6a3	0.038733136
164	0xbe232f24	-0.15935951
165	0xbce34261	-0.027741613
166	0x3eb196aa	0.3468526
167	0x3ec00bf9	0.37509134
168	0x3ddfd3e6	0.10929088
169	0x3e2d584f	0.16928218
170	0xbe7032f7	-0.23456942
171	0xbd7597c6	-0.059959196
172	0x3dc03cce	0.093865976
173	0x3c1157d6	0.008871039
174	0xbd31b64f	-0.043386754
175	0x3e46dd26	0.19420299
176	0x3ddf1681	0.10892964
177	0x3e1e8fab	0.15484492
178	0xbd2a0017	-0.041503992
179	0xbd088d70	-0.03333801
180	0xbea107cd	-0.31451264
181	0x3cd1666b	0.025561532
182	0x3dfbc0f1	0.1229266
183	0x3df96e58	0.121792495
184	0x3e63e3a4	0.22254807
185	0xbc3dcff8	-0.011585228
186	0x3e0e59ee	0.13901493
187	0x3e197225	0.14984949
188	0x3e8a314b	0.26990733
189	0xbdbd0e78	-0.09231275
190	0xbd8dce6f	-0.0692414
191	0xbdd02794	-0.10163799
192	0x3df1763c	0.117901295
193	0x3e82f573	0.25577888
194	0xbe178af8	-0.14799106
195	0x3dfb5406	0.122718856
196	0xbe3e8941	-0.18607046
197	0xbd2a3e3b	-0.041563254
198	0x3e1f4d93	0.15556936
199	0xbcb3398e	-0.02187803
200	0xbe1bdaea	-0.15220228
201	0xbe53e896	-0.20694193
202	0xbd603eec	-0.054747507
203	0x3ee380f7	0.4443433
204	0x3bcb8e8a	0.0062120603
205	0x3dbd4bcd	0.092429735
206	0x3e43e5ad	0.19130583
207	0x3ad96b77	0.0016587813
208	0xbdad641b	-0.08466359
209	0x3e2a9072	0.16656664
210	0xbdaa9580	-0.08329296
211	0x3e78a5e5	0.24282034
212	0x3dfffd22	0.12499453
213	0xbc189dea	-0.009314993
214	0xbdeec0ce	-0.11657868
215	0xbda9a7a8	-0.08283931
216	0xbe10ec28	-0.14152586
217	0xbe4e84a2	-0.20167783
218	0xbe97c878	-0.29645133
219	0xbc6e93e7	-0.01456163
220	0xbc974145	-0.01846374
221	0x3e85f337	0.2616212
222	0xbd85fa59	-0.06541891
223	0x3e412525	0.18861826
224	0x3e64756e	0.22310421
225	0x3dd59598	0.10428923
226	0xbcb0c374	-0.021577574
227	0x3d1ea7c8	0.038734227
228	0xbe233e2d	-0.15941687
229	0xbce37594	-0.027766027
230	0x3eb19ccc	0.3468994
231	0x3ec00ef5	0.3751141
232	0x3ddfeae6	0.10933475
233	0x3e2d517f	0.1692562
234	0xbe703079	-0.23455991
235	0xbd75dc6b	-0.06002466
236	0x3dc054ba	0.0939116
237	0x3c11744a	0.008877823
238	0xbd31b646	-0.04338672
239	0x3e46dffa	0.19421378
240	0x3ddf0d9a	0.10891266
241	0x3e1e9902	0.15488055
242	0xbd2a1cfb	-0.041531544
243	0xbd0849e5	-0.033273596
244	0xbea0fd95	-0.31443468
245	0x3cd146ca	0.02554645
246	0x3dfbd210	0.122959256
247	0x3df9634e	0.12177144
248	0x3e63f097	0.22259746
249	0xbc3cbd45	-0.011519735
250	0x3e0e626d	0.13904734
251	0x3e196445	0.14979656
252	0x3e8a3005	0.2698976
253	0xbdbcff97	-0.092284374
254	0xbd8da7f1	-0.06916798
255	0xbdd04086	-0.10168557
