r2l/logs_demo/ppo/highway-v0-2000/85d24f-seed2000/critic.pt (torch, 58379 bytes, 8 tensors)

weight_ih f4 [192, 3]
00000000: 1dc4 893d c261 bd3d 1aae c3bd 85fa dabc
00000010: 36fd 9cbc e34c 30be 2fe8 a33d 6ae1 e5bd
00000020: 3c19 1ebe 9c14 6e3c 1d9a 983d 2db6 8ebd
00000030: b01f 0ebd b70e dd3d 9b14 87bd 0b9d bb3b
00000040: da52 73bd 3100 343d 9ffb d83d 0bce b7bc
00000050: ae68 6f3d 02f9 a1bc f0f0 4d3d bbdc 453c
00000060: 0ec3 f93d 3a77 06bc a969 debd 0ea7 213e
00000070: 4cd9 743c 4917 123e 4713 67b9 0233 4f3d
00000080: a288 2e3d 75d4 dd3d c889 9fbd 5f60 34bd
00000090: 69eb 043e 7271 323d 9638 0fbd e1da 843d
000000a0: 9844 88bd 4492 10be 5888 9f3d 3212 c93d
000000b0: 02b7 21be 85ca 503e 181d d0bd f315 b7bd
000000c0: 7dd3 2a3e 58d7 fdbd f317 b7bd 7fa7 93bd
000000d0: 76b5 893d 7f67 003a 2951 943d b6a4 59bc
000000e0: f040 87bd daca 413e fd31 77bd d2cc 22bd
000000f0: 99ce 023e 9958 e7bc 0ce2 003e c41e 173d
00000100: b1fe a6bd 60d9 8dbd 8fb7 06bc 0e39 7c3d
00000110: 3851 813d a5b9 5e3e 6814 8fbd f010 9e3d
00000120: 241c e13d 39e5 01be ac40 0ebd 751e eabd
00000130: 59e2 ac3d 3e03 e23d 399e 3e3e 2c2e b4bd
00000140: 1cbb 4dbd bf1f e5bc f285 fb3c c0cb 18be
00000150: 36e1 6a3e 53e6 b63d b787 92bd b275 483e
00000160: 0cc5 493d 93cc 983d 86d0 48bd 8e73 ad3d
00000170: 8343 d3bd e374 d13d 55bc 83bd 9587 04be
00000180: b6a4 123d 0861 143d 4e0a 023d d27f d0bd
00000190: f83b c53c ef1f c1bb 481b 0a3d fe40 f03d
000001a0: 69b0 e6bd 6832 123e fa0f e23b 4a91 bcbd
000001b0: 24c6 c13d 45b0 cebd 6700 863d 4a26 ef3d
000001c0: 2e8a 463d 611e f0bd ec9e 5b3e 0a09 51bd
000001d0: aac8 753d faa5 8c3d 4c68 0abe a1f2 21be
000001e0: 3066 043e 2262 0bbe ac58 77bd e77d 273d
000001f0: 1f32 9a3c b24e 61bc abc8 59bd 5660 c0bd
00000200: bb46 b3bd 0089 cb3d 66c4 593c 19d5 683d
00000210: 67ec 3f3e 66ee 133b 6852 7e3d d7aa a83d
00000220: a889 993d 3969 a0bb 7e5d a2bc d17e 58bd
00000230: d27b 12be 8f56 163e 9b91 adbd e1b2 03bd
00000240: 9f47 6bbd d709 a33d 46f1 c3bc aa98 fdbd
00000250: e92b 07bd 9d5a 11be 1b0b b7bc 92a9 ac3d
00000260: 68da 9fbd 98cd d3bc 5de0 24bc fdc8 fcb9
00000270: 005e 273e c930 c8bc a70d cf3c 41c5 843d
00000280: a4b1 e73d de3a 4b3b 4722 4e3e 7d68 1e3d
00000290: 0f41 3f3c c734 073d 60c0 8d3d 9a56 12be
000002a0: 2110 aabd ac14 01be 0ad7 95bd 45b9 8a3c
000002b0: 1dd6 8b3d 6232 5fbd 66a2 bb3b e67d 8a3c
000002c0: 4dd0 b2bd c5f1 3d3c c0cd 4dbc f332 793d
000002d0: 2edd 25bd e4ab c83c a2c2 8a3d 2c0f eaba
000002e0: 3833 543d cafb f6bc 7d2a 683d aa3a c9bc
000002f0: 42e3 903d 1b54 363d 308b 11be 9bd0 e43c
00000300: 518e d7bd 0657 213d a82a 88bd f988 30bc
00000310: 653d c1bc 9391 97bc c99d a8bd 44e0 c6bd
00000320: ef45 02be c515 5ebd 2353 24bc 0627 d4bd
00000330: a113 4abc 9251 023e c73f fd3d 1548 2ebd
00000340: e837 353e a401 5a3d 9740 24bd bdce 943d
00000350: 98ed 373d c35c e33d b25b d33d 91e9 1d3e
00000360: 072f 993c 4bbc 173e 198d ccbb fde4 143e
00000370: 6fe4 b3bd bd38 81bd bc93 793d 1544 43bb
00000380: 463a 42bd ac47 e23d 0190 0f3e 998b 813d
00000390: 248e 013e 8393 84bd c0a4 153e 8c8b cf3c
000003a0: 3dec bbbc 0037 333d d5ef 7f3d 0575 913d
000003b0: c9b5 d93c 9d28 22bd 04de aa3d 2ce4 613c
000003c0: 9e7a 84bd f704 663d 7c8b 9d3d 5eac 053d
000003d0: 0dc4 283d d6c7 e33d 6349 153d de76 663d
000003e0: 1118 9c3d 71da 233e 4688 dc3d 1d46 ba3c
000003f0: 96ef 0f3c 00c3 09bd 9298 58bd a5b2 cb3d
0.06726859 0.092471614 -0.095546916 -0.026730785 -0.01916371 -0.1721683 0.0800327 -0.11224635
-0.15439314 0.014531281 0.0745127 -0.06968341 -0.03469819 0.10793822 -0.06595727 0.005725508
-0.059405185 0.043945495 0.10594868 -0.022437116 0.05844944 -0.019772056 0.050278604 0.012076552
0.12195407 -0.008207137 -0.10859997 0.15786383 0.014944386 0.14266695 -0.00022037058 0.050585754
0.042610772 0.108315386 -0.077899516 -0.04403722 0.12980427 0.04356522 -0.034966074 0.0648706
-0.06653708 -0.14118296 0.077896774 0.098179236 -0.15792468 0.20389755 -0.10161799 -0.08939733
0.16682239 -0.12394589 -0.08940115 -0.07209682 0.06724064 0.00048982346 0.072420426 -0.013283899
-0.06604183 0.18925038 -0.060350407 -0.039746113 0.12774123 -0.028240489 0.1258623 0.036894575
-0.08154047 -0.069262266 -0.008222475 0.06157785 0.06314319 0.21750505 -0.06986314 0.07718074
0.109916955 -0.12685098 -0.034729645 -0.114315905 0.0844161 0.11035775 0.18615045 -0.08797869
-0.05022727 -0.02796924 0.030703519 -0.14921474 0.22937474 0.089306496 -0.07154792 0.19576147
0.049260184 0.074608944 -0.04902699 0.08469306 -0.10315611 0.102273725 -0.06432406 -0.12942345
0.03580161 0.03622535 0.03174811 -0.1018063 0.024076447 -0.0058936994 0.033717424 0.11731146
-0.11264116 0.14277041 0.006898877 -0.09207399 0.094616205 -0.100922145 0.065430455 0.11677225
0.048471622 -0.11724544 0.21447343 -0.05103401 0.06000582 0.06867595 -0.13516349 -0.15815212
0.12929606 -0.13611653 -0.0603873 0.040891554 0.018822728 -0.013751673 -0.053169888 -0.093933746
-0.08753725 0.0993824 0.013291454 0.05684385 0.18742524 0.0022572516 0.062090307 0.0823571
0.07496959 -0.004895356 -0.019819971 -0.052855317 -0.14305046 0.14681457 -0.08475038 -0.032153014
-0.05744135 0.07960861 -0.02391876 -0.12382634 -0.03300086 -0.14194722 -0.022344163 0.084307805
-0.078053296 -0.02585487 -0.010063258 -0.00048214933 0.16344452 -0.024437325 0.025275065 0.06482936
0.11313179 0.003101043 0.20130263 0.038673867 0.011673226 0.033009317 0.06921458 -0.14290848
-0.083038576 -0.12605542 -0.07316406 0.016934047 0.06827948 -0.05449141 0.0057261465 0.016905736
-0.087311365 0.011593287 -0.012561262 0.060839605 -0.040494137 0.024496026 0.067754045 -0.0017857305
0.05180666 -0.03014936 0.056681145 -0.024564106 0.07074596 0.044513803 -0.14213252 0.027931502
-0.105251916 0.039389633 -0.06648761 -0.010774844 -0.023588846 -0.018502032 -0.0823322 -0.09710744
-0.1272199 -0.05421998 -0.010029587 -0.10359006 -0.012333781 0.12726429 0.1236568 -0.04254921
0.17697108 0.05322422 -0.04010066 0.07265995 0.04490432 0.11101677 0.10320224 0.1542113
0.018699182 0.14817922 -0.006242406 0.14540477 -0.087838046 -0.0630965 0.060931906 -0.0029795219
-0.047418855 0.110488266 0.14019777 0.06325454 0.12651879 -0.06473448 0.14613628 0.025335096
-0.022939796 0.043753624 0.06248458 0.07102398 0.02657594 -0.039589513 0.08343127 0.013787311
-0.064687 0.05615708 0.0769262 0.032635085 0.041202594 0.111221 0.03644694 0.056265704
0.07621778 0.16001298 0.107681796 0.02273851 0.008785149 -0.033633232 -0.052879877 0.09946183

weight_hh f4 [192, 64]
00000000: 7f77 01bd 5b5a f2bd 67af d5bd 1eb8 e73d
00000010: 8c14 bebc e5d0 f2bd 6d5f e63d 4de6 f1bc
00000020: 66b6 cfbd cd78 ce3d 0252 cabd 6b60 f9bd
00000030: 2dbd 393d 59c7 013d 366f 61bc b160 1ebe
00000040: 59a3 b0bd 3d15 cf3b b35e 0a3e f329 ab3d
00000050: 868f 893d 9cee 793d 7ea6 8cbd 8108 6e3d
00000060: bac8 6b3c 8980 b1bc 67bd 12bd ab1c 893d
00000070: 1331 acbd c045 1c3b 87de bcbd 8fd0 b43d
00000080: 54b4 1fbc cc5b 163b d790 9fbd 4caf 88bc
00000090: 20ae f2bd be1e 8abd 0d43 c43d 8cf5 aebd
000000a0: 7957 753d 9e97 e43d 5d5f b4bc ce1d c83b
000000b0: d38f fd3d 672f 8f3d a5e8 deba 7c3e 1f3d
000000c0: 82fb 8fbd cc08 96bd 6d3c 7e3c bde8 773d
000000d0: ae9f efbc 3365 80bd 8e41 813b d33c c73d
000000e0: 3fc2 f83d e82f c7bd 5f2a 0fbe 10ed d3bd
000000f0: 6bed 733d 2555 ab3d 797d 7b3d 8820 01bd
00000100: e55a 0c3e fd17 33be dc0e 5dbd 8749 fbbc
00000110: 90b4 1e3d 03a2 963b a4cc df3c bb8d 74bc
00000120: a57b 02bd 722f 7ebd 458e 033e b6f8 b43d
00000130: 984a 9b3d 5c0a 0c3d 8e0f 243d e02f 1abd
00000140: e4b8 46bd ffe1 073d 4cf4 b23d a957 403d
00000150: 6a8d 76bd 235a 333d fa20 203d 0146 5d3d
00000160: 75d4 82bd c5b6 f53d 7893 11be a572 c73d
00000170: d8bf 57bd 1ae4 0b3e 8f80 9a3d 9770 29bc
00000180: e302 d03d b243 0a3d ad33 11be 0a0a 113e
00000190: d207 ca3c b50a 923d c7f6 75bd 807a d13d
000001a0: 8127 623d c57e 983d 7de3 e4b9 0bd1 17bd
000001b0: ad1e 4bbb 20f4 d9bc 8613 51bd bc86 98bd
000001c0: 9b02 f33d d169 65bd 6d9b 943d 1a2e 093c
000001d0: 1694 5a3c 56e5 823d 6d37 19be 208b 54bd
000001e0: 4a1c 253e 5918 303d 70bf 03be 1ee6 953d
000001f0: 6486 d43d 638c c53b 1487 20bd 7fca e83d
00000200: 679b 0a3e 1b80 7b3d 9a8a d93d e61c 15bd
00000210: 8fad 653c 650b b9bd 0d3d b4bd 4943 963d
00000220: 8809 b3bc bd94 de3c 97f3 b0bd fe9c 763c
00000230: 8915 10bb 53f2 c5bd 5a74 063e 7266 5cbd
00000240: 0576 d0bd 44ff 12bd 5420 6e3d 7b38 d7bd
00000250: ba90 b13c b349 80bd 5ec1 8d3d 8d2f 0abe
00000260: dce4 7ebd ba85 9cbd 4f16 bf3c 9493 0f3d
00000270: 50ce 0fbe 48e5 1cbd 2975 e03c d9cb abbd
00000280: 5d1e e6bd 0700 24bd 1b6e 6dbd bfa9 19bd
00000290: d359 1b3e 3ecb d3bc 7c7d 32bb 5432 7c3d
000002a0: 3b86 113e 7bd3 d9bd f8d5 35bd 104d bcbc
000002b0: ba53 243e f247 84bd 6e98 083e c09e c6bd
000002c0: 4eb1 dc3d be36 6abd 74d1 b73d cdf2 c9bd
000002d0: 4539 003d c05c 003e 572a fe3c f5ce d8bd
000002e0: 0501 c63d 2999 cebd ce34 febd 0f14 eb3d
000002f0: 7390 c9bd 2316 e73b dde9 983c 516b 563d
00000300: 47f9 e6bd e385 5e3a 9f47 413d a341 0f3d
00000310: ce23 f03d cf95 3dbd bd7b 8ebd d7b3 863d
00000320: 7775 55bd 574b a73b b437 7bbc a090 0bbd
00000330: 1ad6 663d fade 9b3d 3a57 c2bd c6d7 9e3d
00000340: 8a4b 8d3d 6f23 0ebd fb2b cabd 7563 0e3e
00000350: c026 293d be28 e63d bdb7 ff3d cc5a debd
00000360: 47d8 c13d b7e7 b2bb 46bc c03d 2672 903d
00000370: 5513 0ebc da9e e23d e488 1f3d 9ca9 f4bb
00000380: b778 a23c 2cb4 983d 605a 7dbd 0243 75bd
00000390: a727 a6bd 83a6 5dbd a415 aa3d 9d9e 903d
000003a0: b802 a83c 7a57 393d 61d0 c13d dc2b 263d
000003b0: 9a53 e1bd d82e 963d cd7a c13d 29a1 03bd
000003c0: 1e47 94bd 1a55 083c d17e 91bd cd4b bf3c
000003d0: 7223 89bc 8418 b4bd fac8 16bd 50c8 8c3d
000003e0: d24b d9bd 781d b03d f5bb 063e eeeb cf3c
000003f0: 1b4b a03c 6819 c53d f47d 01be f495 19bd
-0.0316081 -0.1183364 -0.10433846 0.113144144 -0.023203157 -0.1185625 0.1124867 -0.029528761
-0.101422116 0.10081635 -0.09878923 -0.121765934 0.045346428 0.031684253 -0.013759425 -0.15466572
-0.08624906 0.0063196705 0.13512687 0.083576106 0.06716828 0.06101857 -0.06867693 0.05811358
0.014391119 -0.021667736 -0.03582516 0.06694921 -0.08407798 0.0023845285 -0.09222131 0.08828842
-0.009747583 0.0022942899 -0.07791298 -0.01668515 -0.11849618 -0.06744145 0.095831014 -0.08542928
0.059897874 0.11161731 -0.022018129 0.0061070686 0.12380948 0.06991463 -0.0017006589 0.03887795
-0.07030393 -0.073258966 0.015517336 0.06052469 -0.029250946 -0.06269302 0.0039445823 0.09728398
0.121464245 -0.09725934 -0.13981007 -0.103479505 0.05955259 0.083658494 0.061398957 -0.031525165
0.13706549 -0.1748962 -0.05396925 -0.030674709 0.038746417 0.00459695 0.02731926 -0.014926369
-0.031856198 -0.062056966 0.1284724 0.088365 0.07582587 0.034189567 0.040053897 -0.037643313
-0.04851617 0.03317451 0.08738002 0.0469586 -0.060193457 0.043787133 0.03909395 0.05402184
-0.06388179 0.11997751 -0.14216411 0.097386636 -0.05267319 0.13661233 0.07544052 -0.010341785
0.101568006 0.033755966 -0.14179869 0.14163986 0.024661932 0.071309485 -0.0600498 0.10228443
0.055213455 0.07446054 -0.0004365704 -0.037064593 -0.0030993626 -0.026605666 -0.05104401 -0.074475735
0.11865731 -0.056009118 0.072562076 0.008372808 0.0133409705 0.063913986 -0.1496255 -0.051890492
0.16124073 0.04299197 -0.12865996 0.07319282 0.103771955 0.0060286983 -0.03919132 0.11366748
0.13535844 0.061401468 0.10622139 -0.036404513 0.01401843 -0.090353765 -0.08800707 0.073370524
-0.02185513 0.027170533 -0.08640211 0.015052078 -0.0021985492 -0.0966536 0.13130322 -0.053808637
-0.101787604 -0.03588797 0.0581363 -0.1050882 0.021675456 -0.06264057 0.069216475 -0.13494702
-0.062229976 -0.07642694 0.023326067 0.03505285 -0.14043546 -0.038304597 0.027399616 -0.0838849
-0.1123626 -0.04003909 -0.057966333 -0.037515398 0.15170984 -0.02585375 -0.002723544 0.061571434
0.14211361 -0.1063604 -0.04439351 -0.022985965 0.16047564 -0.06459035 0.13339397 -0.09698248
0.10776006 -0.057181112 0.08975497 -0.09860764 0.031304616 0.12535381 0.031026049 -0.10586349
0.09668163 -0.10087807 -0.124124154 0.11478435 -0.098420046 0.0070521994 0.018666202 0.05234844
-0.11278015 0.00084885786 0.047187444 0.034974705 0.11725579 -0.046285447 -0.06957195 0.065772705
-0.052113976 0.0051054168 -0.015333105 -0.034073472 0.056356527 0.07610889 -0.094892934 0.07755999
0.068991736 -0.03470176 -0.0987167 0.13905127 0.04129672 0.1123824 0.12486217 -0.10857162
0.0946508 -0.0054597515 0.0941091 0.07053022 -0.008671601 0.11065455 0.03894891 -0.007466508
0.019832952 0.0745624 -0.061853766 -0.059878357 -0.08113032 -0.054113876 0.08304909 0.07061503
0.020509109 0.04524944 0.09463573 0.04056917 -0.11002274 0.073331535 0.094472505 -0.032136116
-0.07240127 0.008321071 -0.071042664 0.023351574 -0.016740534 -0.087937385 -0.03681276 0.06874144
-0.10610165 0.08599371 0.13157637 0.025381055 0.019567063 0.096239865 -0.12645704 -0.037496522

bias_ih f4 [192]
00000000: 4c4a e23d 04c3 283d 68c6 933d 9bc9 e5bd
00000010: 21bc b83c dc0f a2bd c20d 183e 4576 1c3d
00000020: f916 083e ca41 063c 809c 433d 9931 0e3e
00000030: c098 a03c f4dd 8b3d 5ec4 1b3e fc37 eb3d
00000040: 1865 e93d feb0 8b3d c23f a53d ebf4 34bd
00000050: 2f18 863d bbe1 ab3d 0342 7b3d bdd3 bc3d
00000060: 89f5 0b3e 744d 223d 7f23 28bd dc2c 55bd
00000070: 5105 82bd 3863 a33c ab6b 063e 390f 953c
00000080: ad32 b63c f2ff 11bc 4fbb fdbc 795b 943d
00000090: 7eb1 d8bd 7bf0 0fbd 3060 16bd 85d8 1b3e
000000a0: c8eb 3cbd e071 6b3d c323 d8bd 36b7 91bc
000000b0: 036c 86bd 5297 3c3d 72a8 283d e899 0a3e
000000c0: cd76 e93d 2143 853d 3dfd b7bd 94ce e33b
000000d0: b0a3 8d3c 3255 04bd 8298 603b c1cd 163e
000000e0: 2493 9f3d 84dd 47bd df36 ac3d ec51 05be
000000f0: 9faf 3b3e d08c 163e 536f 6d3d 9fb4 9dbb
00000100: 704c 9ebd 6f1c 27be bf33 fdbd c48d 123d
00000110: 2f3e 89bd c1b6 1fbe 84d7 cbbd 4388 223d
00000120: 27c9 48be f045 bcbd 2d96 aabd 5f59 bbbd
00000130: 689c c8bd 5e87 733d 0847 31be 511e 9bbd
00000140: 1a0c 1fbe a592 ccba 7b4a 5abe 2ffa 85bc
00000150: cf0e 633d 5bc9 57be 824b 25be ee19 38be
00000160: 91d3 3bbe f5be 0e3d ef7e 1fbe c593 883d
00000170: f331 8dbd e706 27bc 91a4 e7bc 80c1 0ebd
00000180: 25c7 99bd d007 973d 8a69 95bc 8b9e 65bb
00000190: afc2 cd3c 0ba8 28be a6a4 91bd 9722 0dbc
000001a0: 9891 52bd d085 403d 0f8f 9abc 9d5c f6bc
000001b0: 2e68 f1bd eae0 fe3c f928 0abe ecb4 02be
000001c0: 7908 41be e1b1 9dbd 0cec c4bd 6f2f d1bd
000001d0: 6c58 27be 1f50 973b cb5c 29be 0646 29bc
000001e0: b2cb a9bd 5b51 69bd c3df 0ebe 9229 8cbd
000001f0: 1e24 23bd 214b e9bd a0a6 ea3c 055e 56be
00000200: cc82 3f3d f230 9cbd 04c4 dd3d da61 123e
00000210: df1c 543c dd1b 57bc 08a6 293d 4888 2dbd
00000220: cf59 4e3c 0ed8 123e 5346 71bc 6411 093d
00000230: 2d49 5c3e cb6e eb3d bdd4 ae3d dd8a 18be
00000240: 5a8e 49bd 0099 17be b0fa 36bd 2eed 333d
00000250: f260 f23d 53ac c2bd efa3 85bd 2fd6 2dbd
00000260: 10c1 933c ef7a 413c 2f64 3c3d 085f 9bbd
00000270: deb5 16be 9f0f 903c d4fc b8bd 11b0 623d
00000280: b75b 19bc e002 ecb9 03e8 6bba 6ead 09bd
00000290: 4cbd 4c3d 0033 fabd 77cb 2f3c 9f99 2f3c
000002a0: f1ea fd3d fc2c 793d 6231 41bd aa3a 02be
000002b0: 437f a43d c5cd 1f3e d8d7 b13d da54 903d
000002c0: 9d20 95bd 2c6d b9bd cb46 1d3e 171a a3bc
000002d0: 9416 a4bc 78bc fc3d a291 0e3b 78dd 0bbd
000002e0: 9248 a2bd 09ed 34be 80f8 05bd c993 e33d
000002f0: 6ef7 8d3d 2d8c 533c b958 06be c77c 653d
0.11049327 0.041201606 0.07215577 -0.11220094 0.022550644 -0.07913181 0.14848998 0.038198728
0.13290013 0.008194396 0.047756672 0.13886108 0.019604087 0.068294436 0.15211627 0.114852875
0.11396235 0.06820868 0.080688015 -0.044178884 0.065475814 0.08392664 0.06134225 0.09220073
0.13667883 0.039624646 -0.041049477 -0.052044734 -0.0634867 0.019944772 0.1312701 0.018195735
0.022240961 -0.00891112 -0.030973105 0.072440095 -0.10580729 -0.03514145 -0.036712825 0.15219314
-0.046123296 0.057481647 -0.10553696 -0.017787557 -0.0656357 0.046042748 0.041176267 0.13535273
0.113996126 0.065069444 -0.08983848 0.0069521163 0.017289966 -0.03230781 0.003427059 0.14726926
0.07791737 -0.048795238 0.08408903 -0.13019532 0.18328713 0.14702153 0.057967495 -0.0048127915
-0.07729423 -0.1631944 -0.123633854 0.03577973 -0.06701314 -0.15597059 -0.09953216 0.03968073
-0.19607984 -0.09193027 -0.08329425 -0.091479056 -0.09795457 0.059455268 -0.17312253 -0.07574142
-0.1553196 -0.0015607668 -0.21317475 -0.016354648 0.055434044 -0.21072905 -0.16142085 -0.17978641
-0.18342425 0.03485008 -0.15575765 0.0666881 -0.06894293 -0.010194517 -0.028276714 -0.034852505
-0.07508687 0.07374537 -0.018238802 -0.0035037126 0.025117246 -0.16470353 -0.07111482 -0.008614204
-0.05140838 0.047002614 -0.018867044 -0.030073458 -0.11787449 0.031113107 -0.13492192 -0.12764329
-0.18850888 -0.07699943 -0.09615335 -0.10214125 -0.16342324 0.0046177055 -0.16539304 -0.010331636
-0.08290805 -0.056962352 -0.13952546 -0.068438664 -0.039829366 -0.11391283 0.028643906 -0.20934303
0.046755597 -0.07626523 0.10828403 0.1429514 0.0129463365 -0.013129202 0.041418105 -0.042366296
0.012594654 0.14340231 -0.014726239 0.03346385 0.2151229 0.114957415 0.0853667 -0.14896722
-0.049208023 -0.14804459 -0.044672668 0.043927364 0.11834897 -0.095055245 -0.065254085 -0.04244059
0.018036395 0.011809095 0.04599398 -0.07586485 -0.14717814 0.017585574 -0.09032598 0.05534369
-0.009360245 -0.0004501557 -0.0008999111 -0.03361266 0.049985215 -0.12216759 0.010729662 0.0107177785
0.12398327 0.060833916 -0.047166236 -0.12717691 0.08032086 0.15605839 0.08683747 0.07047434
-0.07281611 -0.09054026 0.15359037 -0.019909902 -0.020030297 0.12340635 0.0021754284 -0.034146756
-0.07923998 -0.17668547 -0.03270769 0.11112172 0.06931959 0.0129118385 -0.13119783 0.0560272

bias_hh f4 [192]
00000000: c643 093e 265e 1c3d 57a3 8cbd e0cb 523d
00000010: dca6 173e a372 933d a951 a33d e5fb 52bd
00000020: c08e 7fbc 1472 8cbd 551d e33a 5291 84bd
00000030: 7dd6 0e3e 5077 89bd d081 1d3e 5806 b33d
00000040: 6dcc 293e 0c70 7a3d d0f6 9f3d e798 5fbd
00000050: b404 e53a 05aa bc3d d6d5 a0bd 4a1c 103d
00000060: b415 f23d 731c 1f3e 6124 90bd d07c 15bd
00000070: 002a c8bc 02ff 95bc e620 c2bc 3f6d 5dbc
00000080: e783 d43b a19e d3bd 4637 22bb 6310 94bc
00000090: 0e0f bbbd d54e d53d 5f5e 703d 1bce 133e
000000a0: 2e7e 5abd 9ac3 9e3d 19b6 9a3d 3918 273e
000000b0: 1bd3 51bd a020 d33c 7f9a 8e3d 17d5 eb3a
000000c0: 053b a8bd f5e6 d73d c09d 4d3d 9b21 d93d
000000d0: d6c1 7ebd 216b de3d 3052 b93c 88fe b1bd
000000e0: 10b4 30bd 6b7b e63d 8df6 4e3d 9747 febc
000000f0: 4a84 443e 4f33 66bd c5db 26bc aec0 ff3d
00000100: 5ab5 9abd 7e93 e7bd 3720 b1bd 0415 c1bd
00000110: 285f 60bd 23ef 1dbe 7791 5cbe b228 f7bd
00000120: caa6 e9bd dd77 d93d 51d1 c4bd 1887 83bd
00000130: b0ab 91bd 7c64 ca3d a777 3ebe 6e0f 18bd
00000140: e1fe 0dbe 997b c3bd eb27 5cbe a2d8 14be
00000150: d816 73ba d6d3 0bbe 304e 84bd 9340 7bbe
00000160: 4fd4 a9bd 4764 973c be7f 97bd 1366 ac3d
00000170: 722e dcbd 9c3c 82bd 3af3 95bd c39f fbbd
00000180: 9e64 c4bd 1276 163e 1236 2b3d 2e0f c9bc
00000190: 9120 a6bc 36ca 6ebd c661 53bd ece6 10be
000001a0: 5cd4 4e3d cbfa 9cbc 7cd3 283c 7435 babb
000001b0: b1a4 c3bd 712f 62bd 70a3 48be cdf9 27be
000001c0: e8a9 b33c 4453 14bc e599 bbbd c742 ecbd
000001d0: 3294 d2bc 1540 603d c613 25be 472b 27bd
000001e0: 5844 2b3b e5bd 45bd 3a38 4cbe dff9 9cbc
000001f0: f365 2bbd 0de1 bdbd 0494 c4bc 2772 46be
00000200: 03dd 9d3c 3bdf 09be bdc9 c9bd f674 773c
00000210: e08e 92bd 2baa 09be 36b7 5b3d 6755 a6bc
00000220: 3818 1bbe ce33 083e 29ea 08bd 63db 0abe
00000230: e810 2f3e 6c03 d2bd d7bc f33d 23e6 c6bd
00000240: 997c 66bd f113 ffbd a8a4 503d 7df9 813d
00000250: 675b 803d a549 89bc 93cc d73b f320 cebd
00000260: c0bd 49bd 9303 21be c404 0cbe 760f 1fbe
00000270: 00a6 3fbd 1bf0 c13d e543 823d 4c04 983d
00000280: 2a46 4fbd 1daf d1bd a245 14be 55ca 203d
00000290: 28ce 8f3d a7a5 9c3d 03c9 563d afd3 7dbd
000002a0: 8b88 163e 9b35 683d 75bd 533d 4b0b e23a
000002b0: a1e9 173b fa54 c5bc cd58 1bbd 9dce 9c3c
000002c0: a3fe 02bc 6d28 653d fb0e b7bb 7652 48bd
000002d0: 7a00 043e dd79 9bbd 0502 933c f418 a83d
000002e0: e557 f4bc f7f8 d8bd 3a35 30bd 41c2 e5ba
000002f0: a68f f43d 2e35 fd3d f434 9d3c c9a9 153e
0.1340476 0.038175724 -0.06867092 0.05146396 0.14809746 0.071995996 0.0797456 -0.051509757
-0.015597999 -0.06857696 0.0017327467 -0.0647303 0.13949008 -0.0671221 0.15381551 0.08741444
0.16581888 0.061142012 0.078107476 -0.05458918 0.0017472715 0.09212116 -0.07853286 0.03518323
0.11820546 0.15538196 -0.07038189 -0.036495984 -0.02443409 -0.018310074 -0.023697328 -0.013514816
0.0064854505 -0.103329904 -0.0024752184 -0.01807422 -0.09133731 0.10415427 0.05868375 0.14434092
-0.05334299 0.07752152 0.075542636 0.16317834 -0.051226716 0.025772393 0.069630615 0.0017992583
-0.08214382 0.105420984 0.05019927 0.10602113 -0.062196575 0.10860277 0.022622198 -0.08691126
-0.04314047 0.11254009 0.050528098 -0.031039996 0.1919109 -0.056201275 -0.010184233 0.124879226
-0.07554121 -0.11307429 -0.086487226 -0.094278365 -0.054778248 -0.15423255 -0.21539865 -0.12068309
-0.114087656 0.10618565 -0.096102364 -0.064222515 -0.07112825 0.09882447 -0.18600331 -0.03712409
-0.1386676 -0.09545059 -0.21499602 -0.14535764 -0.00092731183 -0.13655028 -0.064602256 -0.24536352
-0.08292448 0.018480433 -0.07397412 0.084179066 -0.10751046 -0.063592166 -0.073217824 -0.122863315
-0.09589504 0.14693478 0.041799612 -0.024543371 -0.0202792 -0.058298312 -0.051606916 -0.1415059
0.05049549 -0.019162556 0.010304328 -0.0056826416 -0.09552897 -0.055221025 -0.19593596 -0.16403885
0.021931604 -0.009053055 -0.091602124 -0.11536174 -0.02570543 0.054748613 -0.16120824 -0.040812757
0.0026133265 -0.0482768 -0.19943324 -0.019162117 -0.041845273 -0.09271441 -0.02399636 -0.19379483
0.019270426 -0.13464062 -0.09852932 0.015103569 -0.071561575 -0.1344382 0.05364152 -0.020304395
-0.15145957 0.13301012 -0.033426438 -0.13560252 0.17096293 -0.10254559 0.11901253 -0.09711864
-0.05627117 -0.124549754 0.05093828 0.06346414 0.062674336 -0.01675875 0.0065856664 -0.10064878
-0.049253225 -0.1572402 -0.13673693 -0.15533242 -0.04678917 0.094696246 0.06360606 0.074226946
-0.050604023 -0.10238478 -0.14479688 0.03925546 0.07021743 0.07648783 0.052437793 -0.061969455
0.14700525 0.056691747 0.051694352 0.0017245797 0.0023180025 -0.024088372 -0.037926484 0.01914149
-0.00799528 0.055946756 -0.0055865026 -0.048906766 0.12890807 -0.07591603 0.017945299 0.082078844
-0.029827068 -0.10594361 -0.04301951 -0.0017529206 0.11941461 0.12363659 0.01919029 0.14615549

weight f4 [1, 64]
00000000: be60 89bd 4d40 22be f20a c7bd a959 49bc
00000010: 09f6 4e3d 9b8e 9bbd 43de 123e ab20 a6bd
00000020: f695 e1bd 575e d73d 5759 ea3d 6ee0 a9bd
00000030: 44cf 3d3c 22e6 41bd 50f5 953d a23f a9bd
00000040: 4178 88bd a3fd 2cbd c416 1b3e d1a6 18be
00000050: c931 0c3e 35e1 a5bd f242 e03d 5d54 d6bd
00000060: 4194 87bd 8df4 593d 2295 0dbe f8e0 b0bd
00000070: 0fe4 83bd 41da 333d 0e07 0d3e 2a85 02be
00000080: 1451 1e3e 1741 563d 40b5 a3bd 0ca1 1d3e
00000090: e573 c6bd eb43 1fbe 0727 d5bd 54be 043e
000000a0: 4f8b 193e b932 1ebe 6f99 593d ce9c 32bd
000000b0: 66fd 2c3e 492f eb3d 14db cf3d 956b 35bd
000000c0: 0f13 173e 2008 233d 0e9e cbbb 7982 eebd
000000d0: afd1 ee3d 9680 da3d 4741 2fbe 4f9b 113c
000000e0: 49f1 b33d 3cb4 e6bc c05f 6fbd d667 9fbc
000000f0: dcfd 3a3d f7f6 e23d 28df f7bb c888 3dba
-0.06707905 -0.15844841 -0.097188845 -0.012289443 0.050527606 -0.07595559 0.14342599 -0.081117
-0.11014931 0.10516041 0.114428215 -0.0829476 0.0115850605 -0.047338612 0.0732218 -0.0826409
-0.066635616 -0.042234074 0.15145403 -0.14907385 0.13690867 -0.080995955 0.10950269 -0.1046531
-0.06620074 0.053211737 -0.13826421 -0.086366594 -0.06439983 0.043909315 0.13772222 -0.1274611
0.15460616 0.05230817 -0.07993555 0.15393466 -0.09690074 -0.15553252 -0.104078345 0.1296323
0.14994548 -0.15449037 0.05312484 -0.04360657 0.16893539 0.11483628 0.10149208 -0.04429205
0.14753364 0.03980267 -0.00621391 -0.116459794 0.11661088 0.10669057 -0.17114745 0.008887126
0.08786256 -0.028162114 -0.058440924 -0.019458693 0.045652255 0.11082261 -0.007564444 -0.000723016

welford_state_mean f4 [3]
00000000: 3aa2 403f 5919 3e3f 63d2 293f
0.7524754 0.7425743 0.6633665

welford_state_mean_diff f4 [3]
00000000: 8e6d 9741 4ecf 9b41 a5fc b341
18.928493 19.476223 22.498362

hidden f4 [6, 64]
00000000: 3ea8 24be aa4b 973d 40bf c5bd 5817 153d
00000010: fb35 30be 2c35 533e e912 67be 8282 953e
00000020: 3af1 42be 6e55 c93d c1f8 323d 1ee2 273e
00000030: ec52 043f 1248 cabe 12d5 313e d61e 3e3e
00000040: f32b bf3d 7e1d d2be bc00 fdbe 71f5 cb3e
00000050: a798 a7bd 637a 923d 8cf2 103e a640 723e
00000060: e014 44be 1cd6 a33d 2650 0e3e b400 863d
00000070: 9f5b d3bd acb0 8b3e 128c a3bd 2a8e c33e
00000080: 4283 cfbe eff5 a93e 561c 203e be9b ecbe
00000090: e4b1 b83e b2a2 4a3e e4ff e13e a5cc 27be
000000a0: e6d8 0f3d dcef 933e f44c f13d 3fa0 5b3c
000000b0: 10a1 9e3d 8074 3ebd b4de f0bd b899 4a3e
000000c0: d2e9 26bd e7bf 85be 29d0 c33e 30aa da3b
000000d0: 1239 563e ad1e afbe b7d9 c33d d6ed bcbe
000000e0: b8ad d6bd 2c27 c9be 3dc8 c43d 1d21 973e
000000f0: 84b5 e53c 3506 59be ba24 893d 010c 413e
00000100: f5b0 22be 2b1d 013d 5f2d 96bd 0254 933d
00000110: 46db 03be cf7f 403e 0e02 4fbe 3365 a53e
00000120: 79ac 5ebe dee7 723d de9f bd3d 65c5 213e
00000130: 63f2 0a3f 7c0b d3be 90f8 893e 59dc 2c3e
00000140: fd90 763d fd57 c8be 168d f3be 4107 c73e
00000150: 0163 49bd 32cc db3d 10d6 b93d 5c6c 573e
00000160: fbd0 62be 2919 ec3d 6f26 0c3e 57cb 083e
00000170: d6b2 34be 0c93 913e 1e8e d8bd d11e a23e
00000180: e861 d9be 13b4 aa3e 72f4 2b3e 6c3f f3be
00000190: 4da4 be3e 552f 603e 2a05 e13e de07 43be
000001a0: a0f8 593d f634 843e 3762 c23d 6fc6 e0bb
000001b0: b207 263d 5bdc 98bd 5765 1dbe 5108 543e
000001c0: caea bebc 1442 96be eef1 af3e cc08 713d
000001d0: 6660 423e 166f d5be fe54 bb3d 9f08 cfbe
000001e0: 8d7e b0bd 21ed e3be 9043 e73d 45e4 9e3e
000001f0: 8195 983c c2df 3bbe 5639 353c baed 1a3e
00000200: 6182 97be 946c 0d3e ee62 84bd e4bd 8f3d
00000210: 27a5 e4bd 2694 ed3d b883 44be 06b3 913e
00000220: 4294 6bbc be75 1c3e 515e 013e 23a3 c83c
00000230: cbd6 cf3e 6552 b4be 164f 983e eeff 8c3e
00000240: e7b0 293e b901 60be c137 c0be 3222 6b3e
00000250: b57f 143e fbc5 c53d dc24 3ebd 12d4 2f3e
00000260: 1ad3 53bd 18fc 54be 4a0b e83d 87d6 44bd
00000270: dcc4 18be 2402 dd3d d43e 8dbc 3bac 183e
00000280: f2fa c6be 7fce 813e 1496 903d 207d f0be
00000290: 7652 8f3e ddd2 3a3e 8d66 943e 64a3 4cbe
000002a0: 2228 4c3c 8a57 5c3e 4336 163e 920a 39bd
000002b0: 1967 7fbd 2cd6 313c aa9a 2fbe 58ee 0f3e
000002c0: 54c9 8ebd c173 28be 08c1 453e 85e7 b93c
000002d0: ecba 483c 2112 9abe 84cf 993e cc57 d5be
000002e0: 55fc 9bbe 1c01 abbe f2eb 743d 412d 823e
000002f0: a21d 833e 30e5 44be 7616 c93d 92e4 983e
00000300: 527e 42be f3e0 6ebe 3484 40be 082d c73c
00000310: e740 d8bd 9b44 f4bd c057 94ba 96c8 0b3e
00000320: 6b7c c3be be7f 1b3e 68d2 873e d7b1 a6bd
00000330: 661c 1c3f 4008 bdbe 0af7 ec3e 2a14 1dbd
00000340: 9912 45be 8846 dfbe 7dd2 9bbd df6d f93d
00000350: 3097 573d 7804 bbbd 7030 a23e 52fe cdbc
00000360: 34d9 d5be be95 563e ba1e ddbd 7e76 39be
00000370: 7db3 9dbe 8203 d53e 55e3 293e e062 93b9
00000380: ae11 00be 86e9 8c3e d479 00bd cb8a 80be
00000390: ac7e 473e c003 8f3b dd96 0c3e 5ff4 323e
000003a0: e140 803e 5144 0b3e bc81 003e 128e 5ebe
000003b0: 1783 ab3e fc2b e03d eb7d 433e 1acc f8bc
000003c0: 4e38 833e 6281 64bd 156b e73e 4e90 afbd
000003d0: 9ef0 bb3e 0c81 eebd 9aeb 25be 7089 92be
000003e0: 9b6e 433e 7267 cdbe 1ac0 12be 9df7 9b3e
000003f0: 1b0f b83d 9e48 32bd 090a aabd d349 233e
-0.16079804 0.07387479 -0.09655619 0.036399215 -0.17208092 0.20625752 -0.22565807 0.29201132
-0.19037333 0.098307475 0.04369426 0.1639485 0.5168903 -0.3950811 0.17366436 0.1856645
0.093345545 -0.41038126 -0.49414623 0.39835694 -0.08183413 0.0715225 0.14155024 0.23657474
-0.19148588 0.079998225 0.13897762 0.06543103 -0.1032021 0.27283227 -0.07985701 0.381944
-0.4052983 0.33195445 0.1563581 -0.46212572 0.3607322 0.19788626 0.44140542 -0.1638666
0.03511896 0.28893936 0.11782256 0.013404905 0.07745564 -0.04649782 -0.11761227 0.19785202
-0.040750332 -0.26122972 0.3824475 0.00667312 0.20920208 -0.3420309 0.0956301 -0.36900204
-0.10482353 -0.39287698 0.09608505 0.2951745 0.028040655 -0.21193774 0.06696458 0.18852235
-0.15887816 0.031521957 -0.073328726 0.071937576 -0.12876615 0.18798755 -0.20215628 0.3230377
-0.2174548 0.059303157 0.09259008 0.15797956 0.542761 -0.412197 0.2694745 0.16880931
0.060196865 -0.3912963 -0.47568578 0.38872722 -0.049166683 0.107323065 0.09074032 0.2103743
-0.22150032 0.115282364 0.13686536 0.13358818 -0.17646345 0.284325 -0.10573982 0.31664136
-0.4245751 0.3334051 0.16792467 -0.47509325 0.37234727 0.21893056 0.43949252 -0.1904597
0.053215623 0.25821656 0.09491389 -0.0068595926 0.040534683 -0.074639045 -0.1537069 0.20706297
-0.023305316 -0.2934729 0.34364265 0.05884628 0.18982086 -0.41686314 0.0914707 -0.40436265
-0.08617888 -0.44516852 0.112921834 0.3103353 0.018625977 -0.18347076 0.011061033 0.15129748
-0.2959166 0.1381095 -0.06464182 0.07018641 -0.11164313 0.11600523 -0.19190872 0.28456897
-0.014378609 0.1527929 0.12633635 0.024491852 0.40593562 -0.35219112 0.29747838 0.2753901
0.16571389 -0.21875657 -0.37542537 0.22962263 0.14501841 0.096569024 -0.04642187 0.17170742
-0.051714994 -0.20799291 0.11330278 -0.04805615 -0.14918846 0.10791424 -0.017241873 0.1490945
-0.3886333 0.25352857 0.07059875 -0.46970463 0.279926 0.182445 0.2898449 -0.19984204
0.01246074 0.21517769 0.14669137 -0.045176096 -0.06235418 0.010854285 -0.17148843 0.14055765
-0.06971994 -0.16450407 0.19311917 0.022693405 0.012251597 -0.30091956 0.30041134 -0.41668546
-0.30465952 -0.33399284 0.059795327 0.2542515 0.25608546 -0.19228053 0.09818737 0.29861885
-0.189935 -0.23327999 -0.18800431 0.024313465 -0.10559254 -0.11927148 -0.0011317655 0.13650736
-0.3818086 0.15185449 0.26527715 -0.08139389 0.6098083 -0.36920357 0.46282226 -0.038349308
-0.19245376 -0.436085 -0.07608507 0.121791594 0.052634418 -0.09131712 0.3167758 -0.025145683
-0.41767275 0.2095556 -0.10796876 -0.18111607 -0.30801 0.4160424 0.16590627 -0.00028111693
-0.12506744 0.27521914 -0.031366184 -0.2510589 0.19481915 0.0043644607 0.13729425 0.17476033
0.250495 0.1360028 0.1254949 -0.21733883 0.3349845 0.10945889 0.19091003 -0.03037076
0.25628895 -0.05578745 0.45198885 -0.08572446 0.36707014 -0.116457075 -0.16203156 -0.28620481
0.19085161 -0.40117985 -0.14331093 0.3046235 0.08987256 -0.043526284 -0.08302695 0.1594613
