minigrid/r2l/MiniGrid-LavaCrossingR2LS11N5-v0_with_library_logs/MiniGrid-LavaCrossingR2LS11N5-v0/3c54b8-seed107/critic.pt (torch, 62127 bytes, 8 tensors)

weight_ih f4 [192, 7]
0	0x3ad6e605	0.0016395455
1	0xbb412294	-0.0029470073
2	0x3dee29ac	0.11629042
3	0xbd2d1e0a	-0.042264976
4	0xbe1d3bd9	-0.15354861
5	0xbdef87dc	-0.11695835
6	0xbc7dd9f2	-0.015493857
7	0xbd9fc874	-0.07801905
8	0xbd86842a	-0.06568177
9	0xbdf116a4	-0.117718965
10	0xbda00756	-0.07813899
11	0x3e14089b	0.14456408
12	0x3de3f2c4	0.11130288
13	0xbe0c8ef9	-0.13726415
14	0xbd960485	-0.07325081
15	0x3e1057e7	0.14096032
16	0x3bca7467	0.006178427
17	0x3da721e5	0.08160762
18	0xbe2d9f1e	-0.1695523
19	0xbdabfd08	-0.08397871
20	0xbde3b766	-0.11118965
21	0x3dfe269c	0.12409708
22	0x3df97425	0.12180356
23	0xbd4ff7a2	-0.05077327
24	0xbcbb77b9	-0.022884237
25	0xbdbb6376	-0.0914983
26	0xbd56eb08	-0.052470237
27	0xbdf1b8ee	-0.11802851
28	0x3c1c483e	0.009538708
29	0xb99c1ecf	-0.00029777593
30	0xbd0395a2	-0.032125123
31	0x3d0a85a1	0.033818845
32	0xbe3aa610	-0.1822741
33	0xbdac16d6	-0.08402793
34	0xbcf2cb24	-0.02963788
35	0x3ab3979b	0.0013701798
36	0x3d933c55	0.07189242
37	0x3db51a78	0.08842939
38	0xbbeef5a2	-0.0072924653
39	0x3d9eab82	0.07747556
40	0x3dfc082e	0.12306248
41	0xbc9d7a6f	-0.01922342
42	0x3d96f036	0.07370035
43	0x3d0fe51a	0.035130598
44	0x3d27b785	0.040946502
45	0xbcaee77f	-0.02135062
46	0xbcdec412	-0.027193103
47	0xbd10b210	-0.035326064
48	0xbcbda543	-0.023150092
49	0x3d21bc60	0.03948629
50	0xba50387c	-0.0007942987
51	0x3c139cb2	0.009009527
52	0xbe53e4f3	-0.20692806
53	0xbdc34057	-0.09533756
54	0xbdebebdc	-0.11519596
55	0xbe3ae294	-0.18250495
56	0x3d1cc0ea	0.038269915
57	0x3d0218f7	0.03176209
58	0xbd3cfc9f	-0.046139356
59	0xbe31b286	-0.17353258
60	0xbbd4674f	-0.006482042
61	0x3d646e20	0.055769086
62	0x3ce0ecd8	0.027456686
63	0x3e08c6ea	0.1335713
64	0x3b99b2cd	0.004690504
65	0xbda2e06b	-0.079529606
66	0xbd941986	-0.07231431
67	0x3db8abe8	0.090171635
68	0x3da3e524	0.080026895
69	0xbc22ef9a	-0.009944821
70	0xbcf6e0b9	-0.030136453
71	0x3d03797d	0.032098282
72	0x3d45685c	0.048195228
73	0xbd736000	-0.059417725
74	0xbe17977c	-0.1480388
75	0x3dfea562	0.12433888
76	0xbdff8266	-0.124760434
77	0xbdab22f4	-0.08356276
78	0x3c80c077	0.015716774
79	0xbc88df0f	-0.016707925
80	0xbc026c80	-0.007960439
81	0x3cd69f91	0.026199134
82	0xbc026f90	-0.007961169
83	0x3d1a615b	0.0376905
84	0x3d95f1e8	0.073215306
85	0xbda9a7b6	-0.082839414
86	0xbb64c2f7	-0.0034906247
87	0xbd796504	-0.06088735
88	0xbd953dac	-0.072871536
89	0x3d360a44	0.044443384
90	0x3d4cbb11	0.049983088
91	0xbd4ff109	-0.05076698
92	0x3dfd3867	0.123642735
93	0xbc628b49	-0.0138271535
94	0xbd9333d8	-0.07187623
95	0xbd00bb64	-0.03142871
96	0x3dbe3af8	0.09288591
97	0xbe17f419	-0.1483921
98	0x3ddeecbd	0.10884998
99	0x3d9d0edb	0.07668849
100	0xbc8c70a0	-0.017143548
101	0xbd720b0e	-0.059092574
102	0xbd1fbcb8	-0.038998336
103	0xbc2107f0	-0.009828553
104	0x3d3a0bc1	0.045421366
105	0xbe2d05f0	-0.16896796
106	0x3d671da8	0.056424767
107	0xbd638c9b	-0.055554014
108	0xbdce3dcc	-0.100703806
109	0xbd2aa833	-0.041664314
110	0xbda60c66	-0.081078336
111	0xbdb33230	-0.08749807
112	0xbe144a67	-0.14481507
113	0x3e097efa	0.13427344
114	0x3d309689	0.04311231
115	0x3d5107fa	0.051032998
116	0xbcf8c707	-0.030368341
117	0xbd0f399c	-0.03496705
118	0x3ded96d6	0.11601035
119	0xbbf9e615	-0.007626305
120	0x3d964e0b	0.07339104
121	0x3d4c4b77	0.049876656
122	0xbdd0884d	-0.10182247
123	0xbd2105e0	-0.039312243
124	0xbc9d3bf8	-0.019193634
125	0xbdca0cb7	-0.098657064
126	0x3c9d9278	0.01923488
127	0xbcc9dcf6	-0.024641495
128	0x3d4e0eea	0.050307192
129	0xbd9b1910	-0.0757314
130	0xbdba9013	-0.09109511
131	0x3dc1fcaa	0.0947202
132	0xbd9b7710	-0.07591069
133	0x3d66bc6b	0.056332033
134	0xbcba2752	-0.022723828
135	0xbd64dd3b	-0.055875044
136	0x3ce539a0	0.02798158
137	0xbe219cf7	-0.15782534
138	0xbdaca47c	-0.084298104
139	0x3d59ee48	0.05320576
140	0x3c62a66b	0.013833622
141	0xbcf37b54	-0.029721893
142	0x3c90f9f7	0.017697318
143	0x3d9d55a2	0.07682349
144	0xbd94a0ba	-0.07257219
145	0xbdb7efbe	-0.08981274
146	0xbba42f6d	-0.0050105364
147	0x3bb9599a	0.0056564333
148	0xbd72b6bd	-0.059256304
149	0x3e211c0c	0.15733355
150	0x3de5acfa	0.11214633
151	0x3d1e6d55	0.038678486
152	0xbc1168a0	-0.008875042
153	0xbd2e5743	-0.042563688
154	0xbdd7df7a	-0.10540672
155	0xbd7a8b9b	-0.061168294
156	0xbc5513d0	-0.013005212
157	0x3dab7f83	0.0837393
158	0xbdc13871	-0.094345935
159	0x3c021490	0.007939473
160	0x3db00ac7	0.085958056
161	0x3ba88129	0.00514235
162	0x3c8c442d	0.017122352
163	0x3e116ecb	0.1420242
164	0x3e0c6e7a	0.13714018
165	0x3d14c3d8	0.036319584
166	0x3d842092	0.06451525
167	0xbd9656d5	-0.07340781
168	0x3cf0e044	0.029403813
169	0x3ca43729	0.020045834
170	0x3dca0162	0.09863545
171	0x3da0d5b2	0.07853259
172	0xbdb8c66a	-0.090222195
173	0xbd60c0d4	-0.054871395
174	0x3dbef81a	0.09324665
175	0xbc871bb1	-0.016492696
176	0x3d86367e	0.06553362
177	0x3da6c811	0.081436284
178	0xbd1b8e42	-0.037977464
179	0xbc0b8d5f	-0.008517592
180	0xbde1f5fe	-0.110332474
181	0x3dcb063b	0.09913298
182	0xbd2f3ad1	-0.0427807
183	0xbdc29839	-0.095016904
184	0x3b20d51e	0.002454109
185	0xbcf1e132	-0.029526327
186	0xbe25912e	-0.16168663
187	0x3d96faac	0.073720306
188	0x3de63bf8	0.11241907
189	0xbdd1ab4c	-0.102377504
190	0xbcfa29d3	-0.030537521
191	0xbd18a9da	-0.037271358
192	0xbc82c6b0	-0.015963882
193	0xbd35ffba	-0.044433333
194	0xbdd9c296	-0.106328174
195	0xbbd24af8	-0.0064176284
196	0x3e042e3c	0.12908262
197	0x3d9833f5	0.07431785
198	0x3d339e93	0.0438524
199	0xbdb74686	-0.08948998
200	0xbe0abada	-0.1354784
201	0xbde431ba	-0.11142297
202	0xbdd81a79	-0.10551924
203	0x3d4e714b	0.050401013
204	0xbd428049	-0.047485624
205	0x3d5dc1c9	0.054139886
206	0x3d64a1bd	0.05581831
207	0xbe01c821	-0.12674
208	0xbdcd2fc0	-0.10018873
209	0x3da87f3e	0.082273945
210	0xbe05a004	-0.13049322
211	0x3e12351d	0.14278074
212	0xbe123941	-0.14279653
213	0xbe1630be	-0.14667031
214	0xbc1945a9	-0.009354987
215	0xbd705a68	-0.058679968
216	0xbc1fbd1b	-0.009749676
217	0x3c8873f4	0.016656853
218	0x3e0147c9	0.1262504
219	0x3e142b46	0.14469633
220	0xbdada83e	-0.08479355
221	0x3cb7889d	0.02240401
222	0xbdd73594	-0.10508266
223	0x3d339054	0.043838814
224	0x3dcca6de	0.09992765
225	0x3d80f86c	0.06297383
226	0xbd4bd37d	-0.049762238
227	0x3bb8ade9	0.005635966
228	0xbd0ae5f5	-0.03391071
229	0x3d1316dc	0.035910472
230	0x3d9ca1a0	0.07648015
231	0xbd62ccf9	-0.05537126
232	0xbcb8e181	-0.022568466
233	0xbda5e921	-0.081011064
234	0xbe373bdf	-0.17893933
235	0xbd8592d5	-0.065221466
236	0x3de009fa	0.10939403
237	0x3d311b05	0.04323866
238	0x3caedf41	0.02134669
239	0xbd5a9552	-0.05336506
240	0xbd0a5ac7	-0.03377798
241	0xbd3c1042	-0.045913942
242	0x3baa0772	0.005188876
243	0xbd617558	-0.05504355
244	0xbcc2ccc1	-0.023779275
245	0xbd9f031f	-0.07764267
246	0x3e417aa1	0.18894435
247	0xbd74a642	-0.05972887
248	0x3d20c4ff	0.03925037
249	0x3c99acec	0.018759213
250	0x3cba4cf0	0.022741765
251	0x3d82204f	0.063538186
252	0xbbb0f2d9	-0.0054000434
253	0xbd98e825	-0.07466153
254	0xbc63120d	-0.013859284
255	0xbdc988b1	-0.09840525

weight_hh f4 [192, 64]
0	0xbcaafea9	-0.020873385
1	0x3d468d52	0.048474617
2	0x3d947340	0.07248545
3	0x3e3bd959	0.1834463
4	0xbd91dd81	-0.07122327
5	0xbc14139e	-0.00903788
6	0x3e036572	0.12831667
7	0xbd702287	-0.058626678
8	0xbd64e597	-0.055883016
9	0xbdd1336f	-0.10214888
10	0xb8dbf458	-0.00010488246
11	0xbd7f1f3c	-0.062285647
12	0xbc9a03d3	-0.018800652
13	0x3e1cf2f5	0.15327056
14	0xbd98f512	-0.074686185
15	0x3ce4a9c8	0.02791299
16	0x3cc3ae06	0.023886692
17	0x3e253195	0.16132195
18	0xbdaded8b	-0.08492573
19	0xbdf6a6b5	-0.120435156
20	0xbcd1bf35	-0.02560387
21	0xbdce452a	-0.10071786
22	0xbc4a85cc	-0.012361001
23	0xbd9423e6	-0.072334096
24	0x3dbda34a	0.092596605
25	0x3e09f708	0.13473141
26	0xbdd6b5eb	-0.10483917
27	0xbd43fe04	-0.04784967
28	0x3d83936a	0.064246014
29	0x3c9309f0	0.017949075
30	0xbb821129	-0.003969331
31	0xbdf7ef1e	-0.12106155
32	0x3de40d2d	0.111353256
33	0xbce07754	-0.02740065
34	0x3d699d58	0.05703482
35	0xbdac6263	-0.08417203
36	0xbb1483f7	-0.0022661665
37	0x3e17d96a	0.1482903
38	0x3d6b55cf	0.05745488
39	0xbd42ba24	-0.0475408
40	0xbe21722f	-0.15766214
41	0x3ddb6e95	0.10714451
42	0xbe2703d5	-0.16310056
43	0x3d882b18	0.066488445
44	0xbd8a0976	-0.06740086
45	0x3dd627ae	0.10456787
46	0x3d94cc12	0.07265486
47	0xbd98beec	-0.074582905
48	0x3dd7ff34	0.10546723
49	0xba2d1790	-0.00066029374
50	0x3e169046	0.14703473
51	0xbc472082	-0.012153747
52	0x3da2f4fc	0.07956883
53	0xbd1a7168	-0.03770581
54	0x3bac25f0	0.005253546
55	0xbe094ff1	-0.13409401
56	0x3d8dfaf5	0.06932632
57	0x3c13a7d5	0.009012182
58	0xbd17b14c	-0.037034318
59	0x3d343112	0.04399211
60	0x3e32a5de	0.17446086
61	0x3d582440	0.052768946
62	0xbd5a57d8	-0.05330643
63	0x3d76438e	0.06012302
64	0x3d48c99d	0.0490204
65	0xbc98e894	-0.01866559
66	0xbbd6087f	-0.0065317745
67	0x3daec13b	0.085329495
68	0xbd76e475	-0.060276467
69	0x3d9ca584	0.07648757
70	0x3d27d532	0.040974803
71	0x3df950c1	0.12173606
72	0xbd64bb1e	-0.05584251
73	0xbdf035f4	-0.11729041
74	0x3d710cb8	0.05885002
75	0xbad13128	-0.0015960084
76	0x3dec25f2	0.11530675
77	0xbcdece90	-0.027198106
78	0xbbffea0e	-0.007809884
79	0xbd8056e5	-0.06266574
80	0xbcd5d971	-0.02610466
81	0xbd9d981d	-0.07695029
82	0xba38ce98	-0.0007049828
83	0x3cbc4ec0	0.02298677
84	0x3d37b92d	0.04485433
85	0x3d41a8b3	0.047280025
86	0xbdef9772	-0.11698808
87	0xbd4d62c6	-0.050143026
88	0xbbda9bc6	-0.0066714017
89	0xbc9e536b	-0.019326886
90	0xbd43b701	-0.047781948
91	0xbc7fd991	-0.015615837
92	0xbd9a70d4	-0.075410515
93	0xbd973e0b	-0.07384881
94	0x3d2be4ca	0.041966237
95	0x3c942ba7	0.018087221
96	0xbd950087	-0.07275491
97	0xbdef540e	-0.11685954
98	0x3c9e3e30	0.019316763
99	0x3dcd2d27	0.10018378
100	0xbde095f2	-0.109661
101	0xbda5f106	-0.08102612
102	0x3c8cade5	0.017172763
103	0xbc5a27f4	-0.01331519
104	0x3dd166a0	0.10224652
105	0x3dea6df2	0.11446752
106	0x3c7b0c95	0.015322824
107	0x3c13eb11	0.009028212
108	0xbdede9d5	-0.116168655
109	0x3d863b28	0.06554252
110	0x3c93b8f2	0.018032525
111	0x3e09fe20	0.13475847
112	0x3dcfe626	0.10151319
113	0xbd528d0d	-0.051404048
114	0xbdf7b035	-0.12094156
115	0xbe01808a	-0.1264669
116	0xbdc846e1	-0.09779144
117	0xbca4ef1b	-0.020133546
118	0xbd4d72ff	-0.050158497
119	0x3da239ce	0.079211816
120	0xbc8250f0	-0.015907735
121	0x3d2dd60e	0.042440467
122	0xbd4fe444	-0.0507548
123	0xbd8441e8	-0.06457883
124	0xbc829806	-0.015941631
125	0xbda9b579	-0.08286566
126	0xbda84e92	-0.08218111
127	0x3daa0c0e	0.083030805
128	0x3dcdfde2	0.1005819
129	0x3d551980	0.05202627
130	0x3d7df6b4	0.062002853
131	0x3e467305	0.19379814
132	0xbdcacb23	-0.099020265
133	0x3dc6c29d	0.09705088
134	0x3e1c4400	0.15260315
135	0x3c05f495	0.008175989
136	0x3e026005	0.12731941
137	0x3d37cc13	0.044872355
138	0xbe0dbd57	-0.13841759
139	0xbddee0ef	-0.108827464
140	0xbd05edb2	-0.032697387
141	0xbb2113b1	-0.0024578387
142	0xbd8cbad3	-0.068715714
143	0x3b9b63e5	0.004742133
144	0xbdb05ce5	-0.08611468
145	0xbe0b5b14	-0.13608962
146	0x3ba9c76f	0.005181245
147	0xbcc823af	-0.024431078
148	0xbdbb29d8	-0.091388404
149	0xbdb4073d	-0.08790443
150	0xbd21bcc1	-0.03948665
151	0x3d1a8c4f	0.037731465
152	0xbcd6cfa6	-0.026222061
153	0x3e3d1487	0.18464862
154	0x3dacee57	0.08443897
155	0x3dbaf481	0.09128667
156	0x3d021cd2	0.031765766
157	0x3d9106ba	0.07081361
158	0x3e403e9f	0.18773888
159	0x3c6bdb95	0.014395614
160	0xb9b416d9	-0.00034349298
161	0xbdda04e0	-0.10645461
162	0x3d611e26	0.054960392
163	0xbd257382	-0.04039336
164	0xbe159c47	-0.14610396
165	0xbd14656d	-0.03622954
166	0x3d3d570d	0.046225596
167	0x3d0b1759	0.033957813
168	0xbe26120f	-0.16217826
169	0x3d6d6407	0.05795672
170	0xbd8641f2	-0.06555547
171	0xbd19fd43	-0.037595045
172	0xbde6640f	-0.112495534
173	0xbc515130	-0.012775704
174	0xbbdd024b	-0.006744658
175	0x3e443c44	0.19163615
176	0x3c96c785	0.018405685
177	0xbd954600	-0.07288742
178	0x3d138e37	0.0360243
179	0x3ce74fc6	0.028236281
180	0xbe48963f	-0.19588564
181	0xbd675e2c	-0.056486294
182	0x3a9b291f	0.0011837817
183	0x3cd52ebf	0.026023267
184	0xbcd19207	-0.025582327
185	0xbdfa63ec	-0.1222609
186	0x3d545898	0.051842302
187	0x3dff2356	0.12457912
188	0x3e3a6106	0.18201074
189	0x3d34f595	0.044179518
190	0xbd8c2f5c	-0.068449706
191	0xbc99aeae	-0.018760052
192	0x3e1fda24	0.15610558
193	0xbdb25e1b	-0.087093554
194	0x3caa64b9	0.020799981
195	0x3e11eb50	0.14249921
196	0xbe02c770	-0.12771392
197	0x3de1f566	0.11033134
198	0x3d06ba2f	0.032892402
199	0x3d27ea38	0.040994853
200	0x3dd93bb4	0.106070906
201	0x3dac8f97	0.08425825
202	0xbbabc033	-0.005241418
203	0x3d8918f3	0.06694212
204	0x3e02c4be	0.12770364
205	0x3e09c9c8	0.1345588
206	0x3b9857e9	0.0046491516
207	0x3bf5809e	0.007492139
208	0x3dc40305	0.095708884
209	0xbd148b52	-0.03626568
210	0x3c03d7e0	0.008047074
211	0x3cbae42d	0.02281388
212	0x3cf3c6dc	0.02975791
213	0x3cd60b6e	0.026128497
214	0xbcec3e1d	-0.028838212
215	0x3d223a54	0.039606407
216	0xbd317c13	-0.043331217
217	0xbd3937fa	-0.0452194
218	0x3da7e3d4	0.08197752
219	0x3ddeed5c	0.108851165
220	0xbc53fcc5	-0.012938683
221	0xbd345f7b	-0.04403637
222	0xbd085d44	-0.03329207
223	0x3d63db75	0.055629212
224	0xbd317987	-0.043328788
225	0xbd69296e	-0.056924276
226	0x3dbee715	0.09321419
227	0xbd0d9c57	-0.034572925
228	0x3cacb478	0.021082148
229	0xbcf51300	-0.029916286
230	0x3e260b3d	0.16215225
231	0x3d79dee0	0.061003566
232	0x3d1215da	0.03566537
233	0x3e1cc89c	0.15310901
234	0xbdf077ed	-0.11741624
235	0x3e1d139c	0.15339512
236	0x3da6fc5b	0.08153602
237	0xbd3fbcc1	-0.04681087
238	0x3cf4ce0c	0.029883407
239	0x3cf6ccbf	0.030126927
240	0x3e04d0d8	0.12970293
241	0x3d8bd6d6	0.06828086
242	0xbb7c236e	-0.0038473266
243	0x3da1aeb0	0.07894647
244	0x3d738da4	0.05946125
245	0xbd8d7399	-0.06906814
246	0xbd3b85da	-0.045781948
247	0xbd8a6180	-0.06756878
248	0xbd540cf9	-0.051770184
249	0x3e0c4cbc	0.13701147
250	0xbdd74ebc	-0.10513064
251	0x3bccbb4d	0.006247914
252	0x3dcda64b	0.100414835
253	0xbdb3d087	-0.08780008
254	0xbd314d41	-0.043286566
255	0xbe125974	-0.14291936

bias_ih f4 [192]
0	0x3bfa86e4	0.0076454747
1	0xbbc18def	-0.0059068124
2	0xbd1137fb	-0.035453778
3	0x3e1a9840	0.15097141
4	0x3da45cb9	0.08025498
5	0x3da0bf03	0.078489326
6	0x3c8dd203	0.017312055
7	0x3e38582c	0.18002385
8	0x3def3270	0.11679542
9	0xbb993690	-0.004675694
10	0x3de3e8bc	0.11128375
11	0x3d4250a3	0.047440182
12	0x3df5b184	0.11996749
13	0x3de85413	0.11344161
14	0x3d6089c5	0.054818887
15	0xbdc8f929	-0.098131485
16	0x3ceafe5a	0.028685737
17	0x3c726d23	0.014796528
18	0x3cd28b19	0.025701093
19	0x3de5a741	0.11213542
20	0x3da610af	0.08108651
21	0x3dd2a07d	0.10284517
22	0x3dab73b5	0.08371679
23	0xbc78726b	-0.015163998
24	0x3a16df10	0.0005755285
25	0x3c96a82a	0.018390734
26	0x3e1573bd	0.14594932
27	0x3e0916f5	0.13387664
28	0xbdc09a54	-0.09404436
29	0x3dde582e	0.10856663
30	0x3d0700bd	0.03295969
31	0x3cd217f2	0.025646184
32	0x3d846eeb	0.064664684
33	0xbd860f46	-0.06545882
34	0x3e0f0258	0.13965738
35	0x3da7ea95	0.0819904
36	0x3d227034	0.039657786
37	0x3d92d651	0.07169784
38	0xbd6d14f7	-0.05788132
39	0x3db6195c	0.08891556
40	0xbd607b09	-0.054804835
41	0x3db93d8b	0.090449415
42	0x3d0a8329	0.03381649
43	0x3dee2ccc	0.11629638
44	0x3d08b25f	0.033373233
45	0x3da65fa7	0.08123713
46	0x3da4915d	0.08035538
47	0x3deeff1e	0.116697535
48	0xbcec5690	-0.02884987
49	0x3bee1447	0.007265601
50	0x3de3050b	0.11084946
51	0xbc28ad51	-0.010295228
52	0x3d8b050f	0.06788074
53	0xbcecb4be	-0.028894778
54	0xbd9d4070	-0.07678306
55	0xbdbbbe65	-0.09167174
56	0x3d534d25	0.051587243
57	0xbd42110f	-0.04737955
58	0x3d495328	0.04915157
59	0x3d2e378d	0.042533446
60	0x3e4ed421	0.20198108
61	0x3dde0326	0.10840444
62	0x3dc6eeca	0.09713514
63	0x3dedee1e	0.11617683
64	0x3e314315	0.17310746
65	0xbe4a353d	-0.19746871
66	0xbd92d2f1	-0.0716914
67	0x3cc051e0	0.023476541
68	0xbe8415de	-0.25797933
69	0x3e349ca7	0.17637883
70	0xbe685ae1	-0.22690918
71	0xbd8423d8	-0.06452149
72	0xbae7f546	-0.0017696999
73	0xbe8e4c44	-0.2779256
74	0x3db88fa3	0.090117715
75	0xbea3b8cc	-0.31976926
76	0xbd322852	-0.043495484
77	0xbe69140e	-0.22761557
78	0x3e23bf53	0.15990953
79	0xbec3023e	-0.38087648
80	0xbe24f032	-0.16107252
81	0xbea4dbce	-0.32198948
82	0xbddb0b4d	-0.10695515
83	0xbea8951f	-0.3292627
84	0xbdc959cb	-0.0983158
85	0xbe758c7a	-0.23979369
86	0xbe0f11c7	-0.13971625
87	0xbe04d0ff	-0.1297035
88	0x3d4328f5	0.04764648
89	0x3d517a0e	0.05114179
90	0xbe104403	-0.14088444
91	0xbe585185	-0.21124847
92	0x3d5b0d6d	0.0534796
93	0xbe091c79	-0.13389768
94	0xbdc1da2e	-0.094654426
95	0xbe6aa2b7	-0.22913633
96	0x3d4e11ea	0.050310053
97	0x3e2642ef	0.1623647
98	0xbb033f2f	-0.0020026674
99	0x3df602ce	0.12012254
100	0x3e51a88b	0.2047445
101	0xbc96123c	-0.018319242
102	0xbcb182fc	-0.021668904
103	0xbd8970f5	-0.06710998
104	0xbd83c59a	-0.06434174
105	0x3cdb2e88	0.026755586
106	0xbc403368	-0.011731006
107	0xbddbc812	-0.1073152
108	0xbe91089e	-0.28326887
109	0xbee820af	-0.45337436
110	0x3d478f3f	0.048720594
111	0x3e3109ef	0.17288946
112	0xbe9fa024	-0.31176865
113	0xbe8f60fa	-0.28003675
114	0x3d3733b4	0.044727042
115	0xbe832def	-0.25620982
116	0xbe942982	-0.28937918
117	0xbe1ef2f8	-0.15522373
118	0xbdc96732	-0.09834136
119	0x3e1a406b	0.15063636
120	0xbdfea44a	-0.124336794
121	0xbde56204	-0.112003356
122	0xbb84e450	-0.0040555373
123	0x3bc1e8b4	0.005917633
124	0xbe8a3084	-0.2699014
125	0xbdbde75c	-0.09272644
126	0xbe70b48b	-0.23506372
127	0x3d89904e	0.06716977
128	0x3da9fc7b	0.0830011
129	0x3d04b23d	0.032396544
130	0x3db4058f	0.08790123
131	0x3dab4539	0.083628125
132	0xbe0ed43e	-0.13948151
133	0x3da2e2cc	0.07953414
134	0xbd1d230d	-0.038363505
135	0xbe054237	-0.1301354
136	0xbd7dee60	-0.06199491
137	0xbdbf1b3f	-0.09331369
138	0xbcdcad38	-0.026938066
139	0x3e267d1b	0.16258661
140	0x3c87ff1f	0.016601143
141	0x3e7461d6	0.23865446
142	0xbe06c387	-0.13160525
143	0x3e4bef3e	0.19915482
144	0xbdf507fb	-0.11964413
145	0x3d1334f8	0.035939187
146	0xbd41ebf9	-0.04734418
147	0xbd89f236	-0.06735651
148	0xbd6ac377	-0.057315316
149	0xbd818218	-0.063236415
150	0x3dd9d54a	0.10636385
151	0xbbe74252	-0.0070574665
152	0x3c1e1509	0.00964857
153	0xbd20fd7f	-0.039304253
154	0x3bef5d46	0.00730482
155	0x3e24cdb1	0.1609409
156	0xbd057544	-0.032582536
157	0x3dac4d19	0.08413143
158	0xbcdf6066	-0.027267646
159	0xbdff8501	-0.1247654
160	0xbd182a4a	-0.037149705
161	0xbdb12698	-0.08649939
162	0x3d42da55	0.0475715
163	0x3c00f9de	0.007872073
164	0xbcf7ee19	-0.030264901
165	0x3c5a2eef	0.013316854
166	0x3d73dcec	0.05953686
167	0x3d0cd50f	0.034382876
168	0xbd913c86	-0.07091622
169	0x3db2bcd7	0.087274246
170	0x3aa81581	0.0012823791
171	0x3dd22cae	0.10262428
172	0xbe0c52c0	-0.13703442
173	0x3dba42b6	0.09094755
174	0xbd4c4515	-0.04987057
175	0x3d0ad4c7	0.033894327
176	0x3e33e085	0.17566116
177	0xbb3b4d19	-0.002857989
178	0x3dd88c01	0.105735786
179	0xbdf2c365	-0.11853675
180	0x3c24eab2	0.010065721
181	0x3c55136e	0.013005121
182	0x3deab5e5	0.11460475
183	0xbc245aa3	-0.010031375
184	0x3d5c9cef	0.0538606
185	0x3d0ad596	0.033895098
186	0xbc58d426	-0.013234174
187	0xbc8a54cc	-0.016886137
188	0x3e8cb315	0.2748038
189	0x3d7740d8	0.060364574
190	0xbdd55b7d	-0.10417841
191	0xbda26330	-0.07929075

bias_hh f4 [192]
0	0x3d93de94	0.07220188
1	0xbd0ba705	-0.03409483
2	0xbbfc6ead	-0.0077036233
3	0x3db2b30a	0.08725555
4	0xbcf60b79	-0.030034767
5	0xbca5dbf8	-0.02024649
6	0x3baa470b	0.0051964573
7	0x3e330cce	0.17485353
8	0x3b9f8938	0.0048686527
9	0x3dfa6034	0.122253805
10	0x3c1ecfef	0.00969313
11	0x3d823546	0.06357817
12	0x3cb448a2	0.02200729
13	0x3e602301	0.21888353
14	0x3dfaadff	0.12240218
15	0x3d9395e1	0.072063215
16	0x3b77df9c	0.003782249
17	0x3e4bfcff	0.19920729
18	0x3e35f68e	0.17769834
19	0x3d7e1d91	0.062039915
20	0x3e1e7cfa	0.15477362
21	0xbd543e24	-0.051817074
22	0xbb96cb65	-0.0046018832
23	0x3e19b00e	0.15008566
24	0xbd104217	-0.03521928
25	0x3dd920d7	0.10601967
26	0xbae26b20	-0.0017274357
27	0x3e31948b	0.17341821
28	0x3dc1b55a	0.09458418
29	0x3e03517d	0.12824054
30	0x3df788ef	0.12086665
31	0x3d459f43	0.048247587
32	0x3c847666	0.016169738
33	0x3d9eaa2b	0.07747301
34	0x3df1a236	0.117985174
35	0x3d19511a	0.03743086
36	0x3d94f869	0.07273943
37	0x3e1e595a	0.15463772
38	0x3db4732c	0.0881103
39	0x3e3b0bd0	0.18266225
40	0x3c8041de	0.015656408
41	0xbd8ac567	-0.06775933
42	0x3e3d4125	0.18481882
43	0x3dc3e4e8	0.09565145
44	0xbd826426	-0.06366758
45	0x3de40061	0.11132885
46	0x3dfc28bd	0.12312458
47	0x3e3bbe34	0.18334275
48	0x3d485a2f	0.04891413
49	0x3db05e87	0.0861178
50	0xbd846af1	-0.0646571
51	0x3d8053a0	0.0626595
52	0x3e510fc7	0.20416175
53	0x3e33280f	0.1749575
54	0xbd30475c	-0.043036804
55	0x3deaa62d	0.11457477
56	0xbd1d9e31	-0.03848094
57	0x3cf519b5	0.029919485
58	0xbbba069f	-0.005677059
59	0x3d944be3	0.07241037
60	0x3e5d7ec3	0.21630387
61	0x3d9aff69	0.07568247
62	0x3dc54b96	0.096335575
63	0x3ccb2472	0.024797652
64	0xbbc51ee3	-0.006015645
65	0xbdae94b2	-0.08524455
66	0xbda11ca9	-0.078667946
67	0xbcea96e9	-0.028636413
68	0xbe7c9ee8	-0.24669993
69	0x3cac8d60	0.021063507
70	0xbdd36f07	-0.10323911
71	0xbe5bc83b	-0.214631
72	0xbe2a025b	-0.16602461
73	0xbe8e91d5	-0.27845636
74	0x3e1ebde6	0.15502128
75	0xbe739be8	-0.23789942
76	0xbe00d4e0	-0.12581205
77	0xbed8b074	-0.42322123
78	0xbd785ec6	-0.060637258
79	0xbeb191a2	-0.34681422
80	0xbe1d49d2	-0.15360191
81	0xbe9f1db8	-0.3107736
82	0x3d1b6fd7	0.037948456
83	0xbe568b34	-0.2095154
84	0xbe831e11	-0.25608876
85	0xbd8436f8	-0.06455797
86	0xbe001fb5	-0.12512095
87	0xbe4d7969	-0.20065846
88	0x3e3907ba	0.18069354
89	0x3d5314f6	0.05153366
90	0xbc6ac282	-0.014328601
91	0xbe9db521	-0.30802253
92	0xbd471297	-0.048601713
93	0xbe03c9fd	-0.12870021
94	0xbd9e1cba	-0.07720323
95	0xbe98a2f4	-0.29811823
96	0x3dd44c46	0.103661105
97	0x3df6547c	0.12027833
98	0xbc52b92b	-0.01286153
99	0xbd2dcdca	-0.042432584
100	0x3d9fb00f	0.077972524
101	0xbe7064cc	-0.23475951
102	0xbe4c7b21	-0.19968845
103	0x3d235fa8	0.039886147
104	0xbddceb69	-0.107870884
105	0xbc3a6347	-0.011376209
106	0xbc625b11	-0.013815657
107	0xbae24316	-0.0017262425
108	0xbe6bdd40	-0.23033619
109	0xbe947f6f	-0.29003474
110	0x3e1bd875	0.1521929
111	0x3e14923b	0.14508907
112	0xbe22f288	-0.15912831
113	0xbdf070d9	-0.11740274
114	0xba2e8073	-0.00066567137
115	0xbe93dd95	-0.2887999
116	0xbda1b1d1	-0.07895244
117	0xbe00e545	-0.1258746
118	0xbe34a9d7	-0.17642914
119	0xbc836330	-0.016038507
120	0xbb81284b	-0.003941571
121	0x3d0b0f49	0.033950124
122	0xbe2cb6b5	-0.16866572
123	0xbd7f352b	-0.062306564
124	0xbecda174	-0.4016224
125	0xbdba3c9b	-0.09093591
126	0xbe8e4dd5	-0.27793756
127	0x3c54f423	0.01299766
128	0xbd962cdc	-0.07332775
129	0xbcf76656	-0.030200165
130	0xbc7a6bce	-0.015284492
131	0xbd0fb0d7	-0.035080757
132	0x3cea81e9	0.0286264
133	0xbdc52fb4	-0.09628239
134	0xbd9e6209	-0.077335425
135	0xbe0c5477	-0.13704096
136	0xbdf81974	-0.1211423
137	0xbe0d623e	-0.13807008
138	0xbda9924e	-0.082798585
139	0x3a4c6ce7	0.000779821
140	0xbdc8fb2e	-0.09813534
141	0x3e0c9604	0.13729101
142	0x3d4f70fb	0.050644856
143	0x3ccd990e	0.025097396
144	0xbd2e979a	-0.042625047
145	0x3e5b9633	0.21444015
146	0x3dde0b4d	0.10841999
147	0xbe01c601	-0.12673189
148	0xbda5c82c	-0.080948204
149	0xbda73ea7	-0.08166247
150	0xbd3958e9	-0.045250807
151	0xbe196bd0	-0.14982533
152	0x3c79ea5a	0.015253628
153	0x3d2e97a9	0.042625103
154	0xbcf14a25	-0.0294543
155	0x3df1233f	0.11774301
156	0x3bc98c53	0.006150761
157	0x3dcde108	0.10052687
158	0xbcf09b14	-0.029370822
159	0xbe37d593	-0.17952566
160	0x3dd1ba2f	0.1024059
161	0x3d4d2599	0.050084684
162	0x3d7ff344	0.062487856
163	0xbd438792	-0.04773671
164	0x3d7d5a94	0.06185396
165	0x3db716fc	0.08939931
166	0x3d387b50	0.045039475
167	0xbe141e87	-0.1446477
168	0x3d691f03	0.05691434
169	0xbdda3b4b	-0.106558405
170	0x3dd566bf	0.10419988
171	0x3d2e3e63	0.042539965
172	0xbde4d971	-0.11174286
173	0x3e1494eb	0.14509933
174	0xbd1c6baf	-0.038188633
175	0xbdfd2d56	-0.12362163
176	0x3bdb9bd3	0.0067019253
177	0xbe34d766	-0.17660293
178	0x3dddd1bc	0.10831019
179	0xbdc93eba	-0.09826417
180	0x3de40c98	0.111352146
181	0x3d6f0c6e	0.058361463
182	0xbc1e0798	-0.009645365
183	0xbd801626	-0.062542245
184	0x3c177253	0.009243566
185	0x3e0ca270	0.1373384
186	0x3cb99730	0.0226551
187	0xbc92f27c	-0.017937891
188	0x3e75adc7	0.23992072
189	0xbba50804	-0.005036356
190	0xbbf1ffc5	-0.0073852264
191	0x3dca46be	0.09876774

weight f4 [1, 64]
0	0xbcfb8e7f	-0.030707596
1	0xbc0d4a99	-0.0086237425
2	0x3e0f248f	0.1397879
3	0x3cf59401	0.0299778
4	0xbe34997e	-0.17636678
5	0xbdcae864	-0.09907606
6	0xbe40b209	-0.18817915
7	0xbd841151	-0.06448615
8	0xbdc65aee	-0.09685312
9	0xbe41ca9d	-0.18924947
10	0x3ce674a5	0.028131792
11	0x3db489db	0.08815356
12	0xbd20b100	-0.0392313
13	0x3e0f5e6d	0.14000864
14	0xbc588623	-0.013215574
15	0x3df5faec	0.1201075
16	0xbdf13618	-0.11777896
17	0x3e1d8d96	0.15386042
18	0x3da6374d	0.081160165
19	0xbdc2f09a	-0.09518547
20	0xbdafee7e	-0.08590411
21	0xbd9f3ed7	-0.077756576
22	0x3e2f0c23	0.17094474
23	0xbdfa883a	-0.122330144
24	0x3d5abbf1	0.05340189
25	0xbd791ea7	-0.060820248
26	0xbd576438	-0.05258581
27	0x3dee5125	0.11636571
28	0x3d781d47	0.060574796
29	0x3e090fad	0.13384886
30	0xbdb5bb10	-0.0887357
31	0xbd8cf045	-0.06881765
32	0x3de56efb	0.112028085
33	0x3db94c7b	0.090477906
34	0x3e0ed7b8	0.13949478
35	0xbd942db5	-0.072352804
36	0x3d3bdeb2	0.045866676
37	0x3da16f5a	0.07882567
38	0x3db65542	0.089029804
39	0xbdaf899a	-0.08571167
40	0xbbfd8ab0	-0.00773748
41	0x3c7e01d3	0.015503365
42	0x3d88c330	0.06677854
43	0x3d484dc2	0.04890228
44	0xbe1a595f	-0.15073155
45	0x3d8d021a	0.068851665
46	0xbd01ae77	-0.031660523
47	0xbdac47c2	-0.08412124
48	0x3e04209f	0.12903069
49	0xbb3eec83	-0.0029132671
50	0x3a9692eb	0.0011487877
51	0xbd70bafe	-0.05877208
52	0x3de2bfba	0.11071725
53	0x3d36c18e	0.044618182
54	0x3e07333f	0.13203143
55	0x3d29dc0f	0.04146963
56	0x3df00c95	0.1172115
57	0x3d554733	0.052069854
58	0xbdc23b2b	-0.09483942
59	0xbdf28a8b	-0.11842831
60	0x3df14263	0.117802404
61	0x3d901b7d	0.07036493
62	0xbe4816ac	-0.19539899
63	0x3d3d7bec	0.04626076

welford_state_mean f4 [7]
0	0x3f10b215	0.5652173
1	0x3ea92ebf	0.33043477
2	0x3f011cf2	0.5043479
3	0x3d8e7835	0.069565214
4	0x3d321643	0.04347826
5	0x00000000	0.0
6	0x3e79525a	0.24347821

welford_state_mean_diff f4 [7]
0	0x41e3ec2a	28.490314
1	0x41cb3845	25.402475
2	0x41e4c30a	28.595234
3	0x4105e9fc	8.369625
4	0x40b414d6	5.6275434
5	0x3f800000	1.0
6	0x41ad10c7	21.633192

hidden f4 [6, 64]
0	0x3c86bf38	0.016448602
1	0xbdf95fe8	-0.12176496
2	0x3e3d1793	0.18466024
3	0xbd8c23dc	-0.06842777
4	0xbdd08701	-0.10182
5	0x3e1512cb	0.1455795
6	0xbd15710a	-0.036484756
7	0xbdfd0965	-0.123553075
8	0xbd8321d7	-0.06402939
9	0xbdd9792a	-0.10618813
10	0xbdc3d8e6	-0.095628545
11	0x3eac1e37	0.33616802
12	0x3dfeb32f	0.1243652
13	0x3ef7e173	0.48414192
14	0xbece8dfa	-0.40342695
15	0x3d7abb19	0.061213586
16	0xbe2a2326	-0.1661497
17	0x3e84bfe0	0.2592764
18	0xbd017006	-0.031600975
19	0xbe0996a9	-0.13436379
20	0xbd19f25a	-0.03758464
21	0xbdbb4ebf	-0.09145879
22	0x3ceaa088	0.028641
23	0x3d20a65d	0.039221156
24	0xbe017e8a	-0.12645927
25	0xbd87fcc8	-0.06640011
26	0xbd1a6df4	-0.037702516
27	0x3ea6edc8	0.32603288
28	0x3eb416fa	0.3517378
29	0xbdc10083	-0.09423926
30	0xbeaf0fa2	-0.34191614
31	0xbe5bca9c	-0.21464008
32	0x3dbeafe0	0.09310889
33	0xbe52206d	-0.20520182
34	0xbda16be1	-0.078819044
35	0xbc707c98	-0.014678143
36	0xbe3fd302	-0.18732837
37	0x3d58c97b	0.05292652
38	0x3ec39b62	0.38204485
39	0xbd25e164	-0.040498152
40	0xbe2cafb5	-0.16863902
41	0xbe596c0c	-0.21232623
42	0x3e2d016c	0.16895074
43	0x3c9a8e0e	0.018866565
44	0xbb3db6d9	-0.0028948097
45	0x3dca2499	0.09870262
46	0xbd0e3b63	-0.034724604
47	0xbe049013	-0.12945585
48	0x3ed71141	0.4200535
49	0x3cd47ab6	0.02593742
50	0x3d74354b	0.059621137
51	0xbe60a2eb	-0.21937148
52	0x3e2d42e8	0.16920054
53	0xbd9e0b6a	-0.07717021
54	0xbe330a15	-0.17484315
55	0x3e11b536	0.14229283
56	0xbdb8f540	-0.09031153
57	0x3c29bec7	0.010360426
58	0xbe5be2a2	-0.21473172
59	0xbd30d1ae	-0.043168716
60	0x3ecdd989	0.4020503
61	0x3c9aa7e4	0.018878885
62	0xbdd7d889	-0.10539348
63	0xbe486a39	-0.1957177
64	0x3f1af582	0.60530865
65	0xbe37c763	-0.17947154
66	0x3f2fd8bf	0.68690103
67	0x3f0e425e	0.5557002
68	0xbda3ab18	-0.07991618
69	0x3f123618	0.5711379
70	0x3edd5822	0.43231302
71	0xbf5a1608	-0.85189867
72	0x3eef12ad	0.46693936
73	0x3d202572	0.03909821
74	0xbeeea86e	-0.46612877
75	0xbbaa9c20	-0.0052066
76	0x3e84e1f4	0.2595364
77	0x3f720f34	0.9455445
78	0x3e40bbba	0.18821612
79	0x3dbbb20e	0.091648206
80	0xbcdc8d70	-0.026922911
81	0x3eab2065	0.33423153
82	0x3d946db6	0.07247488
83	0x3dc3a5c2	0.095531
84	0xbe9cdffb	-0.30639634
85	0x3bbe1dfa	0.0058019133
86	0xbe9e07a0	-0.30865192
87	0xbde797b0	-0.11308229
88	0x3e305872	0.17221239
89	0x3ee70094	0.4511763
90	0xbda04794	-0.078261524
91	0x3f05ae0a	0.5221869
92	0xbef8e286	-0.48610324
93	0xbed2cb5e	-0.41170782
94	0xbe88f304	-0.26747906
95	0xbea58dc8	-0.32334733
96	0x3d0df590	0.034658015
97	0xbee1f778	-0.44134116
98	0xbdb384fb	-0.087655984
99	0xbd6fb3f8	-0.05852124
100	0xbe9d3a50	-0.3070855
101	0x3d9f3599	0.07773895
102	0x3f07c438	0.5303378
103	0xbd491180	-0.049088955
104	0xbeae14ec	-0.34000337
105	0x3ddbb6a0	0.10728192
106	0xbe246c69	-0.1605698
107	0x3f155c7d	0.5834425
108	0xbd996ff3	-0.07492056
109	0x3f1860e5	0.5952285
110	0x3f31f4f2	0.6951438
111	0x3f082e76	0.53195894
112	0x3e0d8e9c	0.13823932
113	0x3e3a3a3a	0.18186274
114	0x3e33842f	0.17530893
115	0x3c587110	0.01321055
116	0xbebe1bcd	-0.37130585
117	0xbe9f490a	-0.31110412
118	0xbe67201d	-0.22570844
119	0xbe9b4d6b	-0.30332503
120	0xbe419714	-0.18905288
121	0xbd75b5df	-0.0599879
122	0xbdaed7fd	-0.0853729
123	0xbec3da38	-0.38252425
124	0x3f719f39	0.9438358
125	0x3df953e2	0.121742025
126	0x3e994ac7	0.29939863
127	0xbe2afdb3	-0.16698341
128	0x3c83fd3b	0.01611196
129	0xbdf94122	-0.12170626
130	0x3e3cd58e	0.1844084
131	0xbd8cd72d	-0.06876979
132	0xbdd0ba75	-0.10191814
133	0x3e14cc07	0.14530955
134	0xbd1665ea	-0.036718287
135	0xbdfc1098	-0.123078525
136	0xbd83ca4f	-0.06435072
137	0xbdd994ce	-0.10624085
138	0xbdc37190	-0.09543145
139	0x3eac3126	0.33631247
140	0x3dfe82c0	0.12427282
141	0x3ef7a8dd	0.4837102
142	0xbece9f86	-0.40356082
143	0x3d7abe6a	0.06121675
144	0xbe2a4496	-0.16627726
145	0x3e84bfbf	0.2592754
146	0xbd015e28	-0.031583935
147	0xbe09b36e	-0.13447353
148	0xbd194205	-0.037416477
149	0xbdbb91f1	-0.091586955
150	0x3cec467a	0.0288422
151	0x3d20f153	0.039292645
152	0xbe01a292	-0.12659672
153	0xbd886c56	-0.066612884
154	0xbd1a9821	-0.037742738
155	0x3ea6d75c	0.3258618
156	0x3eb432aa	0.35194904
157	0xbdc06d11	-0.09395803
158	0xbeaf118d	-0.34193078
159	0xbe5bd739	-0.2146882
160	0x3dbee5c9	0.09321172
161	0xbe51e8c1	-0.20498945
162	0xbda1480d	-0.07875071
163	0xbc721d01	-0.014777423
164	0xbe3fa3b1	-0.18714787
165	0x3d58f6f0	0.052969873
166	0x3ec38e87	0.38194677
167	0xbd260dd1	-0.04054052
168	0xbe2c99b3	-0.16855507
169	0xbe59952c	-0.21248311
170	0x3e2d33eb	0.16914336
171	0x3c98b218	0.01863961
172	0xbb446012	-0.002996449
173	0x3dc98dc4	0.09841493
174	0xbd1033c3	-0.035205614
175	0xbe04f547	-0.12984191
176	0x3ed7181a	0.42010576
177	0x3cd30671	0.025759907
178	0x3d73e4e7	0.05954447
179	0xbe60baf3	-0.21946315
180	0x3e2d8928	0.16946852
181	0xbd9dbb59	-0.07701749
182	0xbe32e706	-0.17470941
183	0x3e11e7c5	0.1424857
184	0xbdb8b756	-0.090193436
185	0x3c2a2048	0.010383673
186	0xbe5be6db	-0.21474783
187	0xbd3009e6	-0.04297819
188	0x3ecda1aa	0.40162402
189	0x3c9a809e	0.018860158
190	0xbdd8664e	-0.10566388
191	0xbe485461	-0.19563438
192	0x3c5d0ef5	0.013492336
193	0xbdf851b5	-0.121249594
194	0x3e3ad501	0.18245317
195	0xbd9247ac	-0.071425766
196	0xbdd24b0f	-0.102682225
197	0x3e12a644	0.14321238
198	0xbd1dd27a	-0.038530804
199	0xbdf483f5	-0.11939231
200	0xbd88e65c	-0.066845626
201	0xbdda6bee	-0.10665117
202	0xbdc04e9e	-0.09389995
203	0x3eacc40d	0.33743325
204	0x3dfd0969	0.123553105
205	0x3ef5f114	0.4803549
206	0xbecf27b9	-0.40459993
207	0x3d7ad79e	0.061240785
208	0xbe2b48b8	-0.16726959
209	0x3e84bed7	0.2592685
210	0xbd00d372	-0.03145165
211	0xbe0a934a	-0.13532749
212	0xbd13e604	-0.036108032
213	0xbdbd9ca2	-0.09258391
214	0x3cf910ce	0.03040352
215	0x3d23391a	0.03984938
216	0xbe02bae2	-0.12766603
217	0xbd8bce42	-0.0682645
218	0xbd1bdeb1	-0.038054172
219	0x3ea628d9	0.3245304
220	0x3eb50964	0.35358727
221	0xbdbbf3f2	-0.09177388
222	0xbeaf2071	-0.34204438
223	0xbe5c396e	-0.21506283
224	0x3dc08986	0.094012305
225	0xbe503819	-0.203339
226	0xbda031b3	-0.078219794
227	0xbc7ec561	-0.0155499885
228	0xbe3e337b	-0.18574326
229	0x3d5a5ae8	0.05330935
230	0x3ec32a88	0.38118386
231	0xbd276763	-0.04087008
232	0xbe2beeb4	-0.16790277
233	0xbe5ad52b	-0.2137038
234	0x3e2ebc89	0.17064108
235	0x3c8a477f	0.016879795
236	0xbb783450	-0.0037872978
237	0x3dc4f903	0.09617808
238	0xbd1f87e0	-0.03894794
239	0xbe0807e3	-0.13284259
240	0x3ed74d55	0.42051187
241	0x3cc7b81f	0.024379788
242	0x3d717307	0.05894759
243	0xbe61759c	-0.2201752
244	0x3e2fab17	0.1715511
245	0xbd9b4d12	-0.07583059
246	0xbe31d673	-0.17366962
247	0x3e137046	0.14398298
248	0xbdb6d529	-0.08927376
249	0x3c2d1984	0.010565165
250	0xbe5c07a7	-0.21487294
251	0xbd29fa32	-0.04149837
252	0x3ecbf002	0.3983155
253	0x3c994eb2	0.018714283
254	0xbddcb3a9	-0.10776455
255	0xbe47aa5e	-0.19498584
