r2l/karel-doorkey-2000-long.pt (torch, 60363 bytes, 9 tensors)

weight_ih f4 [192, 4]
0	0xbde5092a	-0.111833885
1	0xbdf301b4	-0.11865559
2	0x3b98bba2	0.0046610394
3	0xbde60ba4	-0.11232689
4	0xbdea3563	-0.11435964
5	0xbd9164ba	-0.0709929
6	0xbdb8579b	-0.090010844
7	0x3d6496ac	0.055807754
8	0xbd8e500c	-0.069488615
9	0xbbd5abd1	-0.0065207263
10	0xbd98a21f	-0.07452797
11	0x3d4159bd	0.04720472
12	0xbc86f9b8	-0.016476497
13	0x3de39fdd	0.11114476
14	0x3d0c990a	0.034325637
15	0x3db2207d	0.08697603
16	0x3dcd0264	0.100102216
17	0xbb95e83c	-0.0045748036
18	0xbdb1a6ca	-0.086743906
19	0x3d0ea23c	0.034822688
20	0x3de1dda3	0.11028602
21	0xbb516f07	-0.0031957047
22	0x3be868ac	0.007092556
23	0x3d983cbb	0.074334584
24	0x3da580b2	0.08081187
25	0xbc40da83	-0.011770847
26	0x3d4ef77f	0.050529
27	0x3d98e9d1	0.07466472
28	0x3dcb5089	0.0992747
29	0x3d559cef	0.052151617
30	0xbd9f5295	-0.07779423
31	0x3ddd169a	0.107953265
32	0x3d38669a	0.045019723
33	0x3d977a42	0.07396366
34	0xbd40752e	-0.04698675
35	0x3b64a95e	0.003489099
36	0xbde489fb	-0.1115913
37	0xbd939316	-0.07205789
38	0xbdc21c92	-0.094781056
39	0xbc9dcb58	-0.019262
40	0xbdeba185	-0.11505417
41	0x3d8a13c7	0.067420535
42	0x3db03a3b	0.086048566
43	0xbdca967b	-0.09891983
44	0x3d5bdbd7	0.053676452
45	0xbde29b69	-0.110647984
46	0x3d39e5de	0.045385234
47	0xbde50a79	-0.11183638
48	0x3ddb9cca	0.107232645
49	0xbdca750e	-0.09885608
50	0xbd3f925b	-0.046770435
51	0x3d1e8fc8	0.03871134
52	0xbd1370a0	-0.03599608
53	0xbcc58e14	-0.0241156
54	0xbdf3688f	-0.11885177
55	0x3dd0d86e	0.10197531
56	0xbdc53f80	-0.09631252
57	0xbd008f55	-0.031386692
58	0x3d44c955	0.048043568
59	0x3db4b3cd	0.08823357
60	0x3d57f1d9	0.05272088
61	0xbd71d908	-0.059044868
62	0x3d822fb9	0.063567586
63	0xbcf3104c	-0.029670857
64	0x3d343447	0.043995168
65	0xbd13cabc	-0.036082014
66	0x3d10c75e	0.03534638
67	0x3cd28262	0.025696937
68	0x3df64e5a	0.12026663
69	0x3d9f23eb	0.07770523
70	0xbd2458ed	-0.04012387
71	0xbd6d5826	-0.057945393
72	0x3dfd73db	0.12375613
73	0x3d8ed8ed	0.06974969
74	0xbdc8d459	-0.09806127
75	0xbdc5fd20	-0.096674204
76	0xbd86d4c7	-0.06583553
77	0xbdea4ee7	-0.11440831
78	0xbdc438a0	-0.09581113
79	0x3da835b8	0.08213371
80	0x3db38e8b	0.08767422
81	0xbdb4011e	-0.087892756
82	0x3d35bc1d	0.044368852
83	0x3d17703b	0.036972266
84	0x3d8e0ef7	0.06936448
85	0xbd8bd298	-0.06827277
86	0x3b1f3e26	0.0024298518
87	0xbdcc0dfe	-0.09963606
88	0xbdbb02dd	-0.091314055
89	0x3d68c151	0.056824986
90	0x3d313708	0.043265373
91	0xbd923386	-0.071387336
92	0xbcc1409a	-0.023590375
93	0x3c9b6ca0	0.018972695
94	0xbcdc7ae8	-0.026914075
95	0xbda5d965	-0.08098105
96	0x3bc5e1bd	0.006038873
97	0x3c881c7e	0.016615149
98	0xbd86d2db	-0.06583186
99	0x3dfa7930	0.12230146
100	0xbdbd7e23	-0.09252574
101	0x3db08f48	0.08621079
102	0x3c61a946	0.013773268
103	0x3d576acf	0.052592095
104	0xbcb7c24f	-0.02243152
105	0x3de365ea	0.11103423
106	0xbd96ff36	-0.073728964
107	0x3d216ee9	0.039412413
108	0xbd46bf8a	-0.04852251
109	0xbc296c1b	-0.010340716
110	0x3dcbd6db	0.0995309
111	0xbd5af975	-0.053460557
112	0xbd1c57cb	-0.038169663
113	0x3da2b975	0.07945529
114	0xbd5af51c	-0.05345641
115	0x3d9d04a4	0.07666901
116	0x3d216e64	0.039411917
117	0xbd125e6b	-0.035734575
118	0xbd5015c7	-0.05080202
119	0x3c95c673	0.018283105
120	0x3d23816d	0.039918352
121	0xbd43b406	-0.047779106
122	0xbdad0dfb	-0.08449932
123	0x3c9fbe70	0.019499987
124	0xbc3cc165	-0.011520718
125	0xbd43150e	-0.0476275
126	0xbd383fd9	-0.044982765
127	0x3d583bc9	0.05279139
128	0x3d397da6	0.045285843
129	0x3d0dc6bf	0.034613367
130	0xbc45dcae	-0.01207654
131	0x3d8c55fe	0.06852339
132	0x3dcc9464	0.09989241
133	0x3dee5b6e	0.116385326
134	0xbdceff06	-0.101072356
135	0xbd4cc143	-0.049988996
136	0xbdf9d518	-0.121988475
137	0xbde65b6d	-0.11247907
138	0x3d03f28b	0.03221373
139	0x3deacaba	0.11464448
140	0xbcf1f0f2	-0.029533837
141	0x3d506f27	0.050887253
142	0xbd957834	-0.072983176
143	0x3dad985d	0.084763266
144	0xbc845b3e	-0.016156789
145	0x3ddd362c	0.10801348
146	0x3da61526	0.081095025
147	0xbdec8ff6	-0.11550896
148	0x3dc72543	0.09723904
149	0x3d9f4db3	0.07778492
150	0x3aacd8b4	0.0013187141
151	0xbc9d43ec	-0.019197427
152	0xbd693064	-0.056930915
153	0xbd13e57d	-0.03610753
154	0xbdcb69d8	-0.099322975
155	0x3cac50c7	0.021034611
156	0x3dd38ed7	0.10329979
157	0x3beae410	0.0071683004
158	0x3dc66b8d	0.096884824
159	0xbd8152b8	-0.063146055
160	0x3cc1077d	0.023563141
161	0xbdbdfb7b	-0.09276482
162	0x3dbfc222	0.093632
163	0x3de5283e	0.11189316
164	0xbc9b68f5	-0.018970946
165	0xbd3b1ccb	-0.045681756
166	0xbd2bf797	-0.041984167
167	0x3dbd24c5	0.09235529
168	0xbd99bd0f	-0.07506763
169	0x3c1baa32	0.009501027
170	0xbdeaf0e8	-0.114717305
171	0xbd72235c	-0.059115753
172	0xbdbbcf10	-0.091703534
173	0xbdbbfdb6	-0.09179251
174	0x3cad2b01	0.02113867
175	0x3de0e692	0.10981478
176	0x3db39f75	0.087706484
177	0x3dbc0dd4	0.09182325
178	0xbc89daae	-0.016827907
179	0x3db6681f	0.08906578
180	0xbdba8cb6	-0.0910887
181	0x3de1802c	0.11010775
182	0xbd597966	-0.05309429
183	0xbb883c95	-0.0041576126
184	0x3d4e4afd	0.050364483
185	0x3d012beb	0.031536024
186	0xbd2b7ca1	-0.041866902
187	0xbd797850	-0.060905755
188	0xbd84c130	-0.0648216
189	0xbc471093	-0.012149948
190	0xbdbbaa9d	-0.09163401
191	0x3d874ed6	0.06606834
192	0x3d16af3c	0.03678821
193	0x3d4d6e7d	0.050154198
194	0xbd8ddc98	-0.069268405
195	0xbde85704	-0.11344722
196	0xbdd370ee	-0.10324274
197	0x3dd3df3c	0.10345313
198	0xbd5860c6	-0.052826665
199	0x3da51ea4	0.08062485
200	0xbcf44afb	-0.02982091
201	0x3d336a0b	0.043802302
202	0xbd61e006	-0.055145286
203	0x3d18273e	0.0371468
204	0x3de6ace2	0.112634435
205	0xbdae5711	-0.085127
206	0x3d6fc807	0.05854037
207	0xbdc46d09	-0.09591109
208	0xbd301afc	-0.042994484
209	0x3d1b4db0	0.037915885
210	0x3c5420cc	0.0129472725
211	0xbb86dfb0	-0.004116021
212	0x3dffba35	0.12486688
213	0xbc8d48b0	-0.017246574
214	0x3debae45	0.11507849
215	0x3dc6b584	0.0970259
216	0xbdbb5ddb	-0.09148761
217	0x3d73f594	0.059560373
218	0xbc974456	-0.018465202
219	0xbd00a296	-0.031405054
220	0xbd87ca55	-0.06630389
221	0xbdb6727e	-0.089085564
222	0xbc2c429c	-0.010513928
223	0x3d76d83c	0.06026481
224	0x3d9b36fa	0.07578845
225	0xbde1b21e	-0.11020301
226	0x3d0e639b	0.03476296
227	0xbd497d14	-0.04919155
228	0x3ddd9d97	0.108210735
229	0xbca6e612	-0.020373378
230	0xbd7610bb	-0.06007455
231	0x3d642e64	0.055708304
232	0xbdb6b3c9	-0.0892101
233	0xbd85be1d	-0.06530402
234	0x3d339b3d	0.04384922
235	0x3dbecad4	0.0931603
236	0xbd190e0c	-0.03736691
237	0x3d8fa76f	0.07014357
238	0xbc9906f8	-0.01868008
239	0xbdeaf0c1	-0.114717014
240	0xbdd7b0ff	-0.10531806
241	0xbd1dfbfa	-0.03857038
242	0x3d82a35a	0.06378813
243	0x3dbf8438	0.093513906
244	0x3ded8e7a	0.11599441
245	0xbde5d643	-0.11222508
246	0x3de9ef1e	0.11422561
247	0x3dde03ec	0.10840592
248	0xbb78bc9d	-0.003795422
249	0xbc7a6544	-0.015282933
250	0x3cad884c	0.021183155
251	0x3cedc620	0.029025137
252	0x3df84a9e	0.12123607
253	0xbca04d3f	-0.019568084
254	0xbdbf16e8	-0.09330541
255	0xbbb2a979	-0.0054523316

weight_hh f4 [192, 64]
0	0xbde9b017	-0.114105396
1	0xbcebad00	-0.028769016
2	0xbde81ff3	-0.11334219
3	0xbcc046f5	-0.023471335
4	0x3da3caa4	0.07997635
5	0x3d6f7f9d	0.05847131
6	0x3cdf7b1e	0.027280387
7	0xbd81f2dc	-0.0634515
8	0x3dab48e6	0.08363514
9	0xbcf8ae03	-0.030356413
10	0xbd67770c	-0.056510016
11	0x3d8a9e98	0.067685306
12	0x3c551f78	0.013007991
13	0x3db8d971	0.09025849
14	0xbdedf27a	-0.11618514
15	0x3d3ab8b5	0.045586307
16	0x3d297cff	0.04137897
17	0x3d6306dc	0.055426463
18	0xbd6b8060	-0.057495475
19	0x3d2878ba	0.04113076
20	0x3da188d7	0.07887428
21	0x3ded962f	0.11600911
22	0xbd6ff7b1	-0.058585826
23	0x3d99411b	0.07483121
24	0x3df99430	0.12186468
25	0x3d957e0a	0.07299431
26	0x3d8e9427	0.069618516
27	0xbd9953f1	-0.07486714
28	0x3dec7459	0.11545629
29	0x3d376241	0.044771437
30	0xbd6a12b5	-0.057146747
31	0x3d4bc3bc	0.049747214
32	0x3d92d4aa	0.07169469
33	0x3cf96b5d	0.030446703
34	0xba9d2ece	-0.0011992098
35	0x3d894ed9	0.06704492
36	0xbd990a62	-0.074726835
37	0x3d8fa2f7	0.07013505
38	0x3da7382f	0.08165013
39	0x3d080e86	0.033216976
40	0xbde6d0b1	-0.112702735
41	0x3ddeba8f	0.10875427
42	0xbb0c936b	-0.0021450173
43	0xbdcfbc16	-0.101432964
44	0x3d440255	0.047853786
45	0x3d8ea756	0.069655105
46	0x3d071bea	0.032985605
47	0xbd88b653	-0.066754006
48	0xbd8d1795	-0.068892635
49	0x3d4ff88c	0.050774142
50	0x3cf5cab6	0.030003887
51	0xbd6275de	-0.05528819
52	0xbde6bce1	-0.112664945
53	0xbd9d0cff	-0.076684944
54	0xbdf8f6ca	-0.12156446
55	0xbdd5dd15	-0.10442559
56	0xbc1e32c6	-0.00965566
57	0x3cb7b42e	0.022424784
58	0xbd38310e	-0.044968657
59	0xbd07b552	-0.033131905
60	0x3dacf36e	0.08444868
61	0x3dd6b374	0.10483447
62	0xbd1a19c8	-0.037622243
63	0xbdafe594	-0.085887104
64	0xbc6df4e8	-0.014523722
65	0xbd9427f6	-0.072341844
66	0xbd8c6b8a	-0.06856449
67	0x3d6d5447	0.0579417
68	0xbbe5d4df	-0.0070139016
69	0xbd9f007a	-0.07763763
70	0xbde18df9	-0.11013407
71	0x3d98c10a	0.07458694
72	0x3ce76ab7	0.028249128
73	0xbc7037ee	-0.014661772
74	0x3d99cfb7	0.075103216
75	0xbdeeac77	-0.11653989
76	0xbdefcdf4	-0.11709204
77	0x3e00629f	0.12537621
78	0x3c19add0	0.009379819
79	0x3ce1b305	0.027551183
80	0xbde1eb4f	-0.1103121
81	0x3d7d7304	0.061877266
82	0xbd2c2134	-0.042023852
83	0xbc41faed	-0.0118396105
84	0xba624834	-0.0008631975
85	0xbd5b8729	-0.053595696
86	0xbdfa1255	-0.12210528
87	0xbdf06cda	-0.11739512
88	0xbdf779f0	-0.120838046
89	0x3acde3c9	0.0015708144
90	0xbc15a412	-0.009133356
91	0xbdb57f30	-0.0886215
92	0x3bab8af5	0.005235071
93	0xbc743e13	-0.014907378
94	0xbc9ede44	-0.019393094
95	0x3d3b45b2	0.045720764
96	0x3db0957c	0.08622262
97	0xbdb1f469	-0.08689196
98	0x3d89da95	0.06731144
99	0x3cf0d23a	0.029397119
100	0xbc0ac0ae	-0.00846879
101	0x3def40e6	0.116823
102	0xbdab75fe	-0.083721146
103	0xbde92bdd	-0.113853194
104	0xbca8f401	-0.020624163
105	0x3d8c63bb	0.068549596
106	0xbda51242	-0.08060123
107	0xbd98e07a	-0.074646905
108	0xbd9c7067	-0.076386265
109	0x3db5d2d1	0.08878101
110	0x3de1685f	0.11006235
111	0xbd128f08	-0.035780936
112	0xbccd7b15	-0.025083104
113	0xbdd78796	-0.10523908
114	0x3c8f5c32	0.017500017
115	0xbd9a37cf	-0.07530176
116	0x3d2c0f44	0.042006746
117	0x3cfe73f6	0.031061154
118	0xbd6780ed	-0.056519438
119	0x3dab4921	0.083635576
120	0xbc2cec5a	-0.0105543975
121	0xbde5e4d9	-0.1122529
122	0xbc0b3b60	-0.008498043
123	0x3d10542f	0.035236534
124	0xbda36445	-0.07978109
125	0xba29eaa0	-0.00064818
126	0x3d9a46b8	0.0753302
127	0xbd8beeac	-0.068326324
128	0xbdf95186	-0.121737525
129	0x3dcd677f	0.10029506
130	0x3dcb1bb2	0.09917392
131	0xbd92eefd	-0.0717449
132	0x3d29a7b8	0.041419715
133	0x3d18b089	0.037277732
134	0xbb5f7b2d	-0.0034100518
135	0x3d633e16	0.05547913
136	0x3c7fab83	0.015604856
137	0x3ce6d1ea	0.028176267
138	0x3d5b61ed	0.053560186
139	0xbd186b77	-0.03721186
140	0x3c5c6576	0.013451925
141	0x3d894ae8	0.0670374
142	0xbd9c2ff5	-0.076263346
143	0x3d1b7c47	0.037960317
144	0x3d9b974c	0.07597217
145	0xbd380794	-0.044929102
146	0xbde867a6	-0.11347894
147	0x3d286e47	0.041120794
148	0xbdba4e8f	-0.09097015
149	0x3c983d67	0.018583966
150	0x3d26533d	0.040606726
151	0x3d6e9b8b	0.058253806
152	0x3db711f8	0.08938974
153	0xbdf92320	-0.12164903
154	0xbc5e54cc	-0.013570022
155	0x3d46aa84	0.04850246
156	0xbc151f48	-0.009101696
157	0x3d2f1227	0.04274192
158	0xbd9308f3	-0.07179441
159	0x3d53abbf	0.05167746
160	0xbd9580c6	-0.07299952
161	0x3c128c90	0.0089446455
162	0x3db47bb4	0.08812657
163	0xbc45b5e1	-0.012067289
164	0x3d73c346	0.0595124
165	0xb9f63f39	-0.0004696788
166	0xbddcd816	-0.107834026
167	0xbda2593a	-0.07927175
168	0x3df961d1	0.1217686
169	0x3d7c65c0	0.061620474
170	0xbc795306	-0.015217548
171	0x3c7621a0	0.015022665
172	0x3da92ca0	0.08260465
173	0xbdfd75a1	-0.123759516
174	0x3ccfb45b	0.025354555
175	0xbba5f57b	-0.005064664
176	0x3d9a5c50	0.075371385
177	0x3cca8929	0.024723606
178	0x3d9f14b9	0.077676244
179	0xbde3afe7	-0.11117535
180	0xbd1d4e93	-0.038405012
181	0xbda9ea89	-0.08296687
182	0xbc277835	-0.010221531
183	0x3c05c5f5	0.008164872
184	0x3d347598	0.04405746
185	0x3adc5f8d	0.0016813144
186	0xbd1d19b4	-0.03835459
187	0x3dabaae0	0.08382201
188	0x3de5e9fb	0.11226269
189	0x3d4fd854	0.050743416
190	0x3c6f70fb	0.014614339
191	0x3def1a43	0.11674931
192	0x3dcaf4f1	0.0991
193	0xbde381ae	-0.11108719
194	0xbdd55213	-0.10416045
195	0xbcfd0612	-0.030886684
196	0xbdc0cce6	-0.09414081
197	0xbcf26d45	-0.02959312
198	0x3cdfccc4	0.02731932
199	0xbcdf6a02	-0.027272228
200	0xbdd19d57	-0.10235088
201	0xbded419e	-0.11584781
202	0x3da6b5b4	0.08140126
203	0xbde70499	-0.11280174
204	0xbdf1dd67	-0.11809807
205	0xbc84a3d5	-0.016191402
206	0x3d2da097	0.04238948
207	0x3dd9a026	0.10626249
208	0xbc2168df	-0.009851663
209	0xbd1b2373	-0.037875604
210	0xbdae4409	-0.085090704
211	0x3d651463	0.055927645
212	0xbd9254a0	-0.07145047
213	0x3db4fcf0	0.088373065
214	0x3d8ea36b	0.06964763
215	0x3da2a8a5	0.07942323
216	0xbd1bc045	-0.03802516
217	0x3d771619	0.06032381
218	0xbd8c0867	-0.0683754
219	0x3df7d86f	0.12101828
220	0xbdc9d5c8	-0.09855229
221	0x3d86ee97	0.06588476
222	0xbd969712	-0.07353033
223	0xbdd2c2ba	-0.102910474
224	0xbda2ef52	-0.07955803
225	0xbda972d5	-0.082738556
226	0x3d301ecb	0.042998116
227	0x3d54d70b	0.051962893
228	0xbdc527f6	-0.096267626
229	0xbc90b502	-0.017664436
230	0xbd92914c	-0.071566194
231	0xbc858f62	-0.016303722
232	0x3da42080	0.080140114
233	0xbd8be944	-0.06831601
234	0x3d15ce8f	0.036573943
235	0x3bff04b8	0.007782545
236	0x3de8c6eb	0.113660656
237	0x3ce720d1	0.02821389
238	0xbdb5b99f	-0.08873295
239	0x3da65b3c	0.0812287
240	0xbd9b29f1	-0.07576359
241	0xbb02a2d6	-0.0019933484
242	0x3da21abc	0.079152554
243	0x3d80b5f6	0.06284706
244	0xbdad3a48	-0.08458382
245	0xbdc6dae7	-0.09709721
246	0xbda1dead	-0.079038
247	0x3d8b85d3	0.06812634
248	0x3d5962ea	0.053072847
249	0xbb44d368	-0.0030033235
250	0xbdb885d1	-0.090098985
251	0xbc32290d	-0.010874045
252	0xbd4eb718	-0.05046758
253	0xbdaf50a7	-0.08560305
254	0xbd0a1a1f	-0.033716317
255	0xbc51cc67	-0.012805081

bias_ih f4 [192]
0	0x3dcd26c1	0.10017157
1	0xbd21b21a	-0.03947649
2	0xbd321666	-0.043478392
3	0xbd2ef5fb	-0.042715054
4	0xbd959b14	-0.073049694
5	0x3df681ad	0.120364524
6	0xbdc4d165	-0.09610251
7	0xbd9b6cd9	-0.075891204
8	0xbcb5e4dc	-0.022203855
9	0xbd74687c	-0.059669957
10	0xbdb7a433	-0.089668654
11	0x3d2c9df8	0.04214284
12	0x3cb9eb9f	0.02269536
13	0x3d9c0584	0.076182395
14	0xbcd60d85	-0.026129493
15	0xbd9b3eae	-0.075803146
16	0x3cb876e5	0.02251763
17	0xbde8c221	-0.11365152
18	0x3dcd82e8	0.10034734
19	0xba2b7ffd	-0.0006542204
20	0xbc596dc8	-0.013270803
21	0x3da01735	0.078169264
22	0xbdce307d	-0.10067842
23	0xbd156b86	-0.036479495
24	0x3d063bbf	0.032771822
25	0x3dfe79c5	0.124255694
26	0x3dccbcfe	0.09996985
27	0xbda64806	-0.08119206
28	0xbdfb4e4c	-0.12270793
29	0x3d76fdf9	0.0603008
30	0x3d1e68cc	0.03867416
31	0xbdb357d3	-0.087569855
32	0xbd25159e	-0.04030382
33	0x3d947940	0.07249689
34	0x3d677855	0.056511242
35	0xbcee2dfe	-0.029074665
36	0xbcc7ec70	-0.024404734
37	0xbdc934a2	-0.09824492
38	0x3cb8ab24	0.022542544
39	0xbcda540f	-0.02665141
40	0x3d8600b6	0.06543104
41	0x3d7a00bb	0.061035853
42	0xbde58b2b	-0.11208185
43	0x3c817bea	0.015806157
44	0x3cab8a24	0.020939894
45	0x3d32399c	0.04351197
46	0x3d6e2cce	0.058148198
47	0xbd34b5e3	-0.044118773
48	0xbda27aa1	-0.07933546
49	0xbcf7228d	-0.030167842
50	0xbcae3d2b	-0.021269402
51	0x3d919d97	0.07110136
52	0x3df4f19a	0.11960144
53	0x3db3a7ac	0.08772215
54	0x3deaaace	0.1145836
55	0xbdd9e2f6	-0.106389925
56	0x3c0b0671	0.0084854225
57	0x3d2ded4e	0.04246264
58	0x3d8e2716	0.06941049
59	0xbda2e247	-0.07953315
60	0xbd2290d6	-0.039688908
61	0x3b698d48	0.0035637189
62	0x3d6418fd	0.055687893
63	0xbbd53306	-0.0065063266
64	0x3dfbfd9f	0.12304234
65	0xbce6b07c	-0.028160326
66	0xbcb1bd74	-0.021696784
67	0xbde5f641	-0.1122861
68	0x3d7a30fa	0.061081864
69	0xbcae2d00	-0.021261692
70	0xbd2e9491	-0.042622153
71	0xbddda1c3	-0.10821869
72	0xbd13f6f0	-0.03612417
73	0xbdd0fae1	-0.10204101
74	0xbd095362	-0.033526786
75	0x3df121df	0.117740385
76	0xbd476771	-0.048682634
77	0xbdd70fd8	-0.10501069
78	0xba4be426	-0.0007777832
79	0x3dbc2d92	0.09188379
80	0x3cb76e29	0.022391396
81	0x3dbdfa2a	0.09276231
82	0xbdbe3321	-0.09287096
83	0xbdf8db1b	-0.12151166
84	0xbd236129	-0.03988758
85	0x3dad5003	0.08462527
86	0xbd5bb261	-0.053636912
87	0xbb6e1e14	-0.0036333846
88	0xbd64d65f	-0.055868503
89	0xbc130c8b	-0.008975158
90	0xbc0179a2	-0.007902535
91	0x3df7fca5	0.12108735
92	0xbd8b95c8	-0.06815678
93	0xbdc41708	-0.09574705
94	0x3ddd3cfc	0.108026475
95	0x3d4f42c0	0.050600767
96	0x3dc2995d	0.09501908
97	0x3df6d764	0.12052801
98	0x3b6539dd	0.0034977116
99	0xbce0ff9b	-0.027465632
100	0xbcb23dd9	-0.021758007
101	0xbdca93c0	-0.09891462
102	0xbd1279c1	-0.035760645
103	0x3c8b0ff5	0.016975382
104	0x3cbd8944	0.023136742
105	0x3c7c1246	0.015385216
106	0x3df6e15d	0.120547034
107	0x3dfc0410	0.12305462
108	0x3dc0c0ab	0.094117485
109	0x3d6ad069	0.05732766
110	0xbd607490	-0.054798663
111	0xbcfac0b1	-0.03060946
112	0x3de4b1fa	0.11166759
113	0x3d6552bd	0.05598711
114	0x3dc58d4b	0.0964609
115	0x3d92a046	0.07159476
116	0xbdb3b015	-0.08773819
117	0xbd6d9206	-0.058000587
118	0x3d9d80b5	0.076905645
119	0x3d2173b4	0.039416984
120	0xbd70ca95	-0.058786947
121	0x3b532ba6	0.0032222061
122	0xbd44a241	-0.0480063
123	0x3d15b7e5	0.03655233
124	0xbd68ad87	-0.056806114
125	0x3d94f260	0.07272792
126	0xbb3da737	-0.002893878
127	0x3d6f11e4	0.05836667
128	0xbdc6c688	-0.097058356
129	0x3dc16dc2	0.09444763
130	0xbda8b75f	-0.082381
131	0xbd65bf12	-0.056090422
132	0xbd97b11f	-0.0740683
133	0xbd0c59f5	-0.034265477
134	0x3d37aed8	0.04484448
135	0xbdb522f6	-0.08844559
136	0x3dec60fe	0.11541937
137	0xbdacab54	-0.08431116
138	0xbddc0e92	-0.107449666
139	0xbb8be18d	-0.004268831
140	0xbde18b1e	-0.110128626
141	0x3d8c444f	0.06848966
142	0xbd86167f	-0.065472595
143	0x3dfa9cd5	0.122369446
144	0xbcdb3a45	-0.026761184
145	0x3dc1e751	0.09467948
146	0x3db70a81	0.0893755
147	0x3dac292d	0.08406291
148	0xbdb9bce2	-0.0906923
149	0x3d76f467	0.060291674
150	0x3dd1b26b	0.10239109
151	0x3d885562	0.066569105
152	0xbde5a39c	-0.11212847
153	0xbda95a97	-0.08269232
154	0xbd4a26fc	-0.049353585
155	0x3d268ced	0.04066174
156	0xbd048c64	-0.03236045
157	0xbcc7781c	-0.024349265
158	0x3cef961b	0.02924638
159	0x3d0f2e26	0.03495612
160	0x3b8534fe	0.004065155
161	0x3da21733	0.07914581
162	0xbc8fc507	-0.017550005
163	0xbd7a9cb6	-0.061184607
164	0x3d1cf832	0.038322635
165	0xbd451aa7	-0.04812112
166	0xbd36a116	-0.044587217
167	0x3c8d0b18	0.017217204
168	0x3df23feb	0.11828598
169	0xbd13a38f	-0.036044654
170	0xbdafa505	-0.08576397
171	0xbd968b32	-0.07350768
172	0xbd860b63	-0.065451406
173	0x3d6f2c74	0.058392003
174	0x3d8c1aed	0.06841073
175	0xbce1999d	-0.027539069
176	0x3df2ca29	0.11854965
177	0xbca23dcf	-0.019804863
178	0xbdbead2b	-0.09310373
179	0xbd7fb30a	-0.062426604
180	0x3cae350b	0.021265527
181	0x3da27e2f	0.07934224
182	0xbdd26ad1	-0.1027428
183	0xbdf7cd7d	-0.12099741
184	0x3ddc2674	0.10749522
185	0xbdd831b0	-0.10556352
186	0x3d217e4c	0.039427087
187	0xbd429f10	-0.047514975
188	0xbd83fa82	-0.06444265
189	0xbda45801	-0.08024598
190	0x3da1ebd7	0.07906311
191	0xbd0170eb	-0.031601828

bias_hh f4 [192]
0	0x3df668b5	0.1203169
1	0x3ddc1797	0.10746687
2	0xbdf2bd5d	-0.118525244
3	0xbc1ed7d9	-0.009695017
4	0x3c653db0	0.013991758
5	0xbdaca079	-0.08429045
6	0x3dd1b013	0.102386616
7	0x3de6f391	0.11276925
8	0xbd0f273f	-0.034949537
9	0x3de36fdb	0.11105319
10	0xbd4b646c	-0.049656317
11	0xbd90f98d	-0.07078848
12	0xbdbb9679	-0.0915956
13	0x3c87918e	0.016548898
14	0x3da61c18	0.08110827
15	0x3b99381d	0.0046758787
16	0x3d17fd63	0.037106883
17	0x3de73fd3	0.112914704
18	0xbd8007fc	-0.06251523
19	0xbdddf601	-0.10837937
20	0xbd4f1965	-0.050561327
21	0xbd771f15	-0.060332377
22	0x3dc943a1	0.09827352
23	0x3d58876e	0.05286353
24	0x3dd548b0	0.10414255
25	0xbdb942ef	-0.0904597
26	0x3df39ba2	0.11894919
27	0xbdd6c504	-0.104867965
28	0xbd86c9f2	-0.06581487
29	0xbcf12fd8	-0.029441759
30	0xbcd0756a	-0.025446612
31	0x3c639e20	0.01389268
32	0x3d4c7142	0.0499127
33	0x3dbce4de	0.092233405
34	0x3dd96ab2	0.10616054
35	0xbd67b723	-0.056571137
36	0x3da13dc4	0.07873109
37	0xbc292afd	-0.010325191
38	0x3c893ac4	0.016751654
39	0xbd82fad2	-0.063954964
40	0xbdb0ba58	-0.08629292
41	0xbd9c1ad7	-0.07622307
42	0xbcb44aea	-0.022008378
43	0xbd43aca0	-0.04777205
44	0x3d4aeba2	0.049541123
45	0xbde9f202	-0.114231125
46	0xbdd0ac38	-0.10189098
47	0x3d8d51a3	0.069003366
48	0x3d89c299	0.0672657
49	0x3df659ca	0.12028845
50	0x3da504c3	0.08057549
51	0xbd8d3a57	-0.06895893
52	0xbda2124c	-0.07913646
53	0xbd8c304a	-0.06845148
54	0xbdf14ebc	-0.117825955
55	0x3df1026e	0.117680416
56	0x3dbb7f7e	0.091551766
57	0x3dda0f50	0.10647452
58	0x3db948e6	0.090471074
59	0x3ddb72d3	0.1071526
60	0xbdbd6811	-0.09248365
61	0xbd2643d4	-0.04059203
62	0x3d9e62ba	0.07733674
63	0xbcc23cc9	-0.023710625
64	0xbdcf3bd3	-0.101188324
65	0x3b6c2da6	0.003603795
66	0xbdc9249d	-0.098214366
67	0xbd82ffd3	-0.06396451
68	0x3d1251a2	0.035722382
69	0x3c737e62	0.014861675
70	0x3cd538f7	0.02602814
71	0xbd944107	-0.072389655
72	0x3d2bfc80	0.04198885
73	0x3d4d4539	0.050114844
74	0xbdc58297	-0.09644049
75	0xbb133253	-0.0022460415
76	0x3cbc8d45	0.023016581
77	0x3d7f222e	0.062288456
78	0xbdbc08a3	-0.09181335
79	0x3dcec7a2	0.10096671
80	0xbd0753fe	-0.033039086
81	0x3d340838	0.04395315
82	0x3dd147f1	0.102188
83	0x3c6a9fca	0.014320323
84	0xbd9d6da4	-0.07686928
85	0xbd4c9f9d	-0.049956907
86	0xbcec3fa8	-0.028838947
87	0xbca675c2	-0.020319823
88	0xbb47bcaa	-0.0030477443
89	0x3d8a73e9	0.06760389
90	0x3b011cfd	0.0019701116
91	0x3dc55b43	0.096365474
92	0xbd0602b3	-0.032717418
93	0x3d6fb1db	0.058519226
94	0x3cbf915d	0.023384744
95	0x3d3de920	0.046364903
96	0xbc4fbdf9	-0.01267957
97	0xbdb7ccc6	-0.08974604
98	0x3d8f4c8b	0.06997021
99	0x3db3533d	0.08756111
100	0x3dc01fdc	0.09381077
101	0xbdb29a7c	-0.08720872
102	0xbdc6621e	-0.09686683
103	0xbd055ace	-0.0325573
104	0xbde60845	-0.11232046
105	0xbda0a3a7	-0.07843714
106	0xbc86040f	-0.016359357
107	0x3dc1ab30	0.094564795
108	0xbdf4dabd	-0.119557835
109	0xbc853986	-0.01626278
110	0xbdf0db08	-0.11760527
111	0x3d92ffba	0.07177682
112	0x3ca3f865	0.020015905
113	0x3ccf8353	0.025331175
114	0xbd3a6158	-0.04550299
115	0xbd3c7add	-0.04601561
116	0xbc4f7846	-0.012662953
117	0xbdf9b328	-0.121923745
118	0x3d440db1	0.04786462
119	0x3de9ab94	0.11409679
120	0xbd97e3e3	-0.07416513
121	0x3db80df3	0.089870356
122	0x3d911fd2	0.07086147
123	0x3d3ba6d9	0.045813415
124	0x3c3ad4ab	0.011403243
125	0xbd05ff2c	-0.032714054
126	0x3d9f9c9d	0.077935435
127	0x3dca6fc3	0.09884598
128	0x3dc0c54c	0.094126314
129	0x3dde54d2	0.10856022
130	0xbdcbd316	-0.09952371
131	0xbdf9cc1e	-0.121971354
132	0xbcac2516	-0.021013778
133	0xbdef92d3	-0.11697926
134	0x3de76a39	0.11299557
135	0xbd981c50	-0.07427275
136	0x3d32b424	0.043628827
137	0xbd5ef06b	-0.0544285
138	0x3c18a02c	0.009315532
139	0x3cacf81c	0.021114402
140	0xbd9cc60e	-0.076549634
141	0xbd007bcc	-0.031368062
142	0xbbfe417e	-0.007759272
143	0xbda6fef3	-0.081540965
144	0xbdfa8581	-0.12232495
145	0x3d2fb49e	0.04289686
146	0xbdfc8422	-0.1232989
147	0xbd6130aa	-0.05497805
148	0xbc8b4dc6	-0.017004859
149	0xbc9c0a41	-0.019047858
150	0xbc28d307	-0.010304219
151	0xbddccd1b	-0.10781308
152	0xbcc538e5	-0.024074981
153	0x3bbed164	0.005823301
154	0xbda00d2c	-0.07815012
155	0xbc2b1c75	-0.010443796
156	0xbdbb3b9a	-0.091422275
157	0xbcd0c169	-0.02548285
158	0xbdbbbf31	-0.09167326
159	0x3de18927	0.11012488
160	0x3c7ed952	0.015554743
161	0xbcd57369	-0.026056008
162	0xbdad74e5	-0.084695615
163	0xbc56cdae	-0.013110561
164	0xbc17d704	-0.009267572
165	0xbd257537	-0.040394988
166	0xbc7ae073	-0.015312302
167	0xbd88f89a	-0.06688042
168	0x3d6a698f	0.057229575
169	0x3a4b77bd	0.0007761678
170	0x3c6d801e	0.014495878
171	0xbdc579ef	-0.096423976
172	0x3dede7f1	0.11616505
173	0x3c6c24c6	0.014413064
174	0x3d92675b	0.0714862
175	0x3c833ca0	0.01602012
176	0x3b8c99e0	0.0042908043
177	0x3d8f2c73	0.069909
178	0x3d9dd0cd	0.07705841
179	0xbdc8b5b4	-0.09800282
180	0x3d13a40e	0.036045127
181	0x3d9327bf	0.07185315
182	0xbdf76cb6	-0.12081282
183	0xbdf8d18c	-0.12149343
184	0xbd949f36	-0.072569296
185	0xbccc0d5a	-0.02490871
186	0x3d963204	0.073337585
187	0x3cd5df92	0.026107583
188	0x3d0242e1	0.031802062
189	0x3dc765a9	0.09736187
190	0xbc840a4f	-0.016118197
191	0x3d5ca1cf	0.05386525

weight f4 [5, 64]
0	0x3d6ff9e6	0.05858793
1	0x3db29775	0.087202944
2	0xbd772542	-0.060338266
3	0x3dbfc0c9	0.09362943
4	0xbd310934	-0.043221667
5	0x3c8dfe0d	0.017333055
6	0xbdfb6ee4	-0.1227701
7	0x3d8f945c	0.07010719
8	0x3ca351dc	0.019936495
9	0x3d8bee07	0.068325095
10	0x3c56b24d	0.013104034
11	0x3c4c9d2c	0.012488645
12	0xbceadac5	-0.02866877
13	0x3d7efeaa	0.062254585
14	0x3dea8d92	0.11452784
15	0xbd00471f	-0.031317826
16	0xbd8a6e33	-0.067593
17	0xbcb0ebf6	-0.02159689
18	0xbd9c76f3	-0.07639875
19	0xbbe0323f	-0.0068419273
20	0xbda57c73	-0.080803774
21	0x3ded628f	0.11591064
22	0x3d6b89ab	0.057504337
23	0xbce80516	-0.028322738
24	0xbcd20d09	-0.025640981
25	0x3ddb05e1	0.10694481
26	0x3d899e82	0.06719686
27	0x3df872c7	0.12131267
28	0xbd8ab604	-0.06772998
29	0x3d3470bb	0.04405282
30	0xbd58d577	-0.05293795
31	0xbd75776e	-0.05992835
32	0x3dea1078	0.114289224
33	0xbd3bf39e	-0.04588663
34	0xbd83ce73	-0.064358614
35	0xbda6e08c	-0.08148298
36	0x3d958256	0.0730025
37	0xbdb32b86	-0.08748536
38	0x3d862ba1	0.0655129
39	0x3c19c52c	0.009385388
40	0xbd9ba2ae	-0.07599388
41	0xbdecd824	-0.11564663
42	0xbd262021	-0.040557984
43	0x3bd0e42d	0.006374857
44	0x3c13831d	0.009003428
45	0xbc8035be	-0.015650626
46	0xbdf2b9d2	-0.11851849
47	0xbdf1846c	-0.117928356
48	0x3cf97490	0.03045109
49	0xbce4dd9b	-0.027937701
50	0x3d46fb3c	0.04857944
51	0x3cf6dcc3	0.030134564
52	0xbcf47434	-0.029840566
53	0x3d149ff1	0.036285345
54	0xbcef4182	-0.029206041
55	0x3d56b278	0.052416295
56	0xbcba40aa	-0.022735912
57	0x3c29947b	0.010350342
58	0xbdc04c39	-0.09389538
59	0xbdb2603a	-0.0870976
60	0x3d722471	0.059116784
61	0x3da999ad	0.082812645
62	0x3da1b79a	0.07896347
63	0x3d37f26c	0.044908926
64	0xbd3ef227	-0.046617653
65	0x3dd48a6e	0.10377966
66	0xbdf60333	-0.12012329
67	0x3da721ff	0.08160781
68	0xbcb82f25	-0.022483418
69	0x3d1ba91b	0.03800307
70	0x3df8ef4a	0.12155016
71	0x3ddba282	0.10724355
72	0xbc888640	-0.016665578
73	0x3d9612eb	0.07327827
74	0xbd8fb198	-0.07016295
75	0xbdd761da	-0.105167106
76	0xbdb8a99f	-0.09016728
77	0xbdd0c1ed	-0.101932384
78	0x3da25e1c	0.07928106
79	0x3d9bf00d	0.076141454
80	0xbcc4685c	-0.023975544
81	0xbd5fa18d	-0.054597426
82	0xbd908c2a	-0.07057984
83	0xbdbc0a5b	-0.09181663
84	0xbd791e8e	-0.060820155
85	0xbdd7c45a	-0.10535498
86	0xbd049703	-0.03237058
87	0x3dbbddf6	0.09173195
88	0xbd850f08	-0.064970076
89	0xbdfa2784	-0.12214568
90	0xbd837229	-0.06418259
91	0x3be2e482	0.006924213
92	0xbc40355a	-0.01173147
93	0x3d63c141	0.055604223
94	0x3cfcfb81	0.030881645
95	0xbda1f749	-0.07908494
96	0xbdcba90e	-0.09944354
97	0xbca632af	-0.02028784
98	0x3d875316	0.06607644
99	0xbbd9000a	-0.006622319
100	0xbc66c2b4	-0.014084507
101	0x3cf5dd9e	0.030012902
102	0xbbbd9f0c	-0.005786782
103	0xbdc74e41	-0.097317226
104	0x3c212a53	0.009836751
105	0xbdd44837	-0.103653364
106	0xbac1ea06	-0.0014794476
107	0x3c118ff8	0.0088844225
108	0x3dbdd45a	0.092690185
109	0xbd1a006c	-0.03759806
110	0x3de98450	0.1140219
111	0xbd167e64	-0.03674163
112	0x3ddebbd6	0.108756706
113	0xbdca98f4	-0.09892455
114	0xbc1a9db2	-0.009437012
115	0x3dd4c147	0.10388427
116	0x3da77c3c	0.08177993
117	0xbd854539	-0.06507344
118	0x3dca9e7e	0.09893511
119	0xbd38292e	-0.044961147
120	0x3dbf5e2e	0.09344135
121	0x3df0cf49	0.117582865
122	0x3d8fd977	0.070239
123	0x3c3ff9ea	0.011717299
124	0xbd9f2c00	-0.07772064
125	0xbd9bf994	-0.076159626
126	0x3d3b317a	0.04570148
127	0xbde76a8b	-0.11299618
128	0x3d23d02c	0.03999345
129	0xbc96d16e	-0.01841041
130	0x3d8d7c27	0.06908446
131	0xbde13d11	-0.109979756
132	0xbde16ec6	-0.110074565
133	0x3d85ef6d	0.065398075
134	0x3dc3e690	0.09565461
135	0xbd737110	-0.059433997
136	0xbdb21d05	-0.08696941
137	0xbc9b7b24	-0.018979616
138	0xbdaa3945	-0.083117045
139	0x3d56c54b	0.052434247
140	0xbdc45bec	-0.09587845
141	0xbdd17c8d	-0.10228834
142	0x3d94d226	0.07266645
143	0x3da4168c	0.08012113
144	0xbd011721	-0.031516198
145	0xbc49ea41	-0.012323917
146	0x3df2c254	0.118534714
147	0xbd9a8f9c	-0.075469226
148	0xbdb13ca4	-0.086541444
149	0xbd4a616b	-0.04940931
150	0x3da9b7b4	0.08286992
151	0x3d30cd75	0.04316469
152	0x3cb72561	0.02235669
153	0x3db50270	0.088383555
154	0xbdd3fd3c	-0.10351035
155	0x3d75d0f6	0.060013734
156	0x3d0397ee	0.032127313
157	0x3c8f2102	0.017471794
158	0xbc4851f7	-0.012226573
159	0xbdabcbd9	-0.0838849
160	0x3df56fd6	0.11984222
161	0x3c9cb974	0.0191314
162	0x3df35300	0.11881065
163	0xbd78432b	-0.06061093
164	0x3d8593b9	0.065223165
165	0x3d9f9eb4	0.07793942
166	0x3b954a57	0.004555981
167	0xbda81aff	-0.08208274
168	0x3b12c048	0.002239244
169	0x3dc85b72	0.09783067
170	0x3d96c66f	0.07362067
171	0x3bd0a638	0.006367471
172	0x3dd28bbe	0.1028056
173	0xbd85d42d	-0.0653461
174	0xbdbb6bb8	-0.09151405
175	0x3bd81f19	0.006595504
176	0x3deafef6	0.11474411
177	0xbdf69049	-0.12039239
178	0x3df2a243	0.11847355
179	0xbdde046f	-0.108406894
180	0xbdd91cb5	-0.106011786
181	0x3dcda90e	0.1004201
182	0xbdb98ff5	-0.09060661
183	0xbd204a1e	-0.039133184
184	0xbdee6a9c	-0.11641428
185	0x3db291f2	0.08719243
186	0x3c1199a6	0.00888673
187	0xbcade0b3	-0.021225309
188	0x3c51c056	0.012802204
189	0xb5bf5040	-1.4253965e-06
190	0x3df67692	0.12034334
191	0xbd3940fd	-0.045227993
192	0x3b540c5b	0.0032355997
193	0x3d900451	0.07032073
194	0xbb6cb259	-0.0036117046
195	0x3dc5f9b5	0.096667685
196	0x3bfbec50	0.0076880828
197	0xbda77fa2	-0.08178641
198	0xbd6073be	-0.05479788
199	0xbc5aed67	-0.013362265
200	0x3dab94c4	0.08377984
201	0x3dcdc479	0.1004724
202	0x3d893241	0.06699038
203	0xbdb2bcf6	-0.08727448
204	0x3de091dd	0.10965321
205	0x3d83f8d9	0.06443948
206	0xbdcab91e	-0.098985896
207	0xbc737236	-0.014858773
208	0xbdaa4e18	-0.083156765
209	0x3dd14827	0.1021884
210	0x3dd0e384	0.10199645
211	0x3dbe16c3	0.09281685
212	0xbda958bc	-0.08268878
213	0xbce16966	-0.027516078
214	0xbdc6edca	-0.097133234
215	0x3d3ec662	0.04657591
216	0xbde0b4ef	-0.1097201
217	0x3dd95fb1	0.10613955
218	0x3dbf8bf9	0.093528695
219	0xbd74ce42	-0.059767015
220	0x3dd51492	0.10404314
221	0x3d5af5bc	0.053457007
222	0x3df5c696	0.12000768
223	0xbdd28afd	-0.10280416
224	0x3dc0a427	0.094063096
225	0xbd76bf70	-0.060241163
226	0x3d0c14a1	0.03419936
227	0xbd21ace1	-0.03947151
228	0xbdb276aa	-0.087140396
229	0xbd421a10	-0.047388136
230	0x3d661adf	0.05617797
231	0x3d90f0ee	0.07077204
232	0xbd569883	-0.05239154
233	0x3d135f0c	0.035979316
234	0x3a07853b	0.0005169694
235	0xbcf44a0a	-0.02982046
236	0x3dfaee4f	0.12252485
237	0xbdab39fe	-0.083606705
238	0x3d5cbc87	0.05389073
239	0x3d0b0117	0.033936586
240	0xbd8f7203	-0.07004168
241	0x3d53e987	0.05173638
242	0xbda9c6ef	-0.08289897
243	0x3d2eb664	0.04265441
244	0x3cf0c4fc	0.029390804
245	0x3d6604c3	0.056156885
246	0xbdfb2056	-0.12262027
247	0x3dea78ee	0.11448847
248	0xbc9d5eec	-0.019210301
249	0x3d93445e	0.071907744
250	0x3d47adce	0.048749737
251	0xbdfaccc2	-0.12246086
252	0xbdf14fc7	-0.117827944
253	0x3d6cf37b	0.05784939
254	0xbdfccbba	-0.12343545
255	0xbc920585	-0.017824898

bias f4 [5]
0	0xbd4cd038	-0.05000326
1	0x3dda8d14	0.1067144
2	0x3d2aac52	0.041668244
3	0xbdf7eaf7	-0.12105363
4	0x3c544f05	0.012958293

welford_state_mean f4 [4]
0	0x3f2353f1	0.6379996
1	0x3f424dd4	0.75900006
2	0x3f3851ed	0.7200001
3	0x3f428f5b	0.75999993

welford_state_mean_diff f4 [4]
0	0x43669107	230.56651
1	0x4336b098	182.68982
2	0x434949ed	201.28877
3	0x4336262c	182.14911

hidden f4 [6, 64]
0	0xbd9b4deb	-0.07583221
1	0x3e1bbd8d	0.15209027
2	0xbe2a7f82	-0.16650203
3	0x3ae5b120	0.0017524101
4	0xbd91a77c	-0.07112023
5	0x3ba3d020	0.0049991757
6	0x3e8751e8	0.26429677
7	0xbe450528	-0.19240248
8	0x3e62f22e	0.22162697
9	0xbe85fe33	-0.261705
10	0xbe1a17ce	-0.15048143
11	0xbd81fc62	-0.06346966
12	0xbc01c8e0	-0.0079214275
13	0xbd92d53b	-0.07169577
14	0x3d81310e	0.063081846
15	0xbbe5a3a0	-0.007008031
16	0x3d08e45c	0.033420905
17	0x3e3946cc	0.18093413
18	0xbde41f7a	-0.11138816
19	0x3e5987dc	0.21243232
20	0xbdeb0b5f	-0.11476778
21	0x3e7dcdf7	0.247856
22	0x3e6f7203	0.23383336
23	0x3d71b986	0.05901482
24	0xbe67bbac	-0.22630185
25	0xbe4fc195	-0.2028869
26	0xbe3e1d4c	-0.18565863
27	0xbd3b887b	-0.045784455
28	0x3dfb7e36	0.12279932
29	0xbdce7cf0	-0.10082424
30	0xbe28dc76	-0.16490349
31	0xbd9b82f2	-0.07593335
32	0xbe4ce386	-0.20008668
33	0x3eb0d230	0.3453536
34	0xbbaceec0	-0.0052774847
35	0x3d9dbb73	0.07701769
36	0x3dd52bbc	0.10408732
37	0xbdc7c4a0	-0.097543
38	0xbd4334df	-0.047657844
39	0x3c84c928	0.0162092
40	0x3e69e11b	0.22839777
41	0xbdc9e5d3	-0.098582886
42	0x3dff0957	0.12452953
43	0xbea5224b	-0.32252726
44	0x3e2c0839	0.16800012
45	0x3ce57ee4	0.028014608
46	0xbd3c7962	-0.046014197
47	0xbd3fe74e	-0.04685145
48	0x3d27b58d	0.040944625
49	0xbba48ffe	-0.005022048
50	0x3e1531b4	0.14569741
51	0xbe8f62cc	-0.28005064
52	0x3d13ed7e	0.036115162
53	0xbdaf9079	-0.08572478
54	0xbe6b0f54	-0.22955066
55	0xbdc0c8cb	-0.09413298
56	0x3e363bc2	0.17796233
57	0xbc409048	-0.011753149
58	0x3e72f127	0.23724805
59	0x3da6cf18	0.08144969
60	0x3e0017d6	0.12509093
61	0xba8fcdc0	-0.0010971352
62	0x3e366ca5	0.17814882
63	0xbe0041a7	-0.12525044
64	0xbdf2a560	-0.11847949
65	0x3e3f22f1	0.18665673
66	0xbd97636a	-0.073920086
67	0xbdb25c60	-0.087090254
68	0xbd937fd1	-0.072021134
69	0xbe133212	-0.14374569
70	0x3dac0108	0.08398634
71	0xbe3460e5	-0.17615087
72	0x3e95aa16	0.29231328
73	0xbdf4a6df	-0.11945891
74	0xbd5a5852	-0.053306885
75	0x3dad3419	0.084572025
76	0xbdc35f6c	-0.09539685
77	0x3dc2537a	0.09488578
78	0xbdf3b537	-0.11899798
79	0x3ded186f	0.11576926
80	0xbdab1f1e	-0.083555445
81	0x3e6ba5d0	0.23012471
82	0xbce42680	-0.02785039
83	0x3e7490f4	0.2388342
84	0x3d782164	0.06057872
85	0x3d9532b6	0.07285063
86	0x3e2e2076	0.1700457
87	0x3d7eb90b	0.06218819
88	0xbe5f22f6	-0.2179068
89	0xbcbc60a8	-0.022995308
90	0xbe83f92a	-0.25776035
91	0xbd9547aa	-0.072890595
92	0xbd3b7fa2	-0.045776017
93	0xbc8ec25c	-0.017426662
94	0x3bd5b6b0	0.006522022
95	0x3d9f6ef2	0.07784833
96	0xbdeac92c	-0.11464152
97	0x3dfd5288	0.12369257
98	0xbc6216f4	-0.013799418
99	0xbc1bdc08	-0.009512909
100	0x3d511326	0.051043652
101	0xbd23227f	-0.03982782
102	0xbde74a1b	-0.11293431
103	0x3c103546	0.008801764
104	0x3dcf9418	0.101356685
105	0xbd2fcd19	-0.042920206
106	0xbdd62b07	-0.104574256
107	0xbe6d7acf	-0.23191379
108	0x3c70a450	0.014687613
109	0x3d904498	0.07044333
110	0x3e466b4e	0.19376871
111	0xbdbe4f68	-0.09292489
112	0x3d80251c	0.06257078
113	0xbdbbe58e	-0.091746435
114	0x3ddd8006	0.10815434
115	0xbe02bac0	-0.12766552
116	0x3ce76e6e	0.0282509
117	0x3dff2d7f	0.124598496
118	0xbdb6a79a	-0.08918686
119	0xbe779ead	-0.24181624
120	0xbd3e05e6	-0.046392344
121	0xbe2e7d29	-0.17039932
122	0x3db96900	0.0905323
123	0x3c61c0e4	0.013778899
124	0xbd639cb0	-0.05556935
125	0x3e0e01aa	0.13867822
126	0x3df2c624	0.118541986
127	0xbdb924ea	-0.09040244
128	0xbe227c62	-0.15867761
129	0x3e967db9	0.29392794
130	0xbdcde63a	-0.10053678
131	0xbdd10efc	-0.10207936
132	0xbd4252d2	-0.047442265
133	0xbd82356e	-0.06357847
134	0x3e109c4f	0.14122127
135	0xbdc72aa6	-0.097249314
136	0x3d5c03c4	0.05371453
137	0x3d47ce6d	0.048780847
138	0xbe73ceac	-0.23809308
139	0x3df7786d	0.12083516
140	0xbe3f1b11	-0.18662669
141	0x3de29176	0.11062901
142	0xbe38a338	-0.18031013
143	0x3d75517e	0.05989217
144	0xbde5998e	-0.11210929
145	0x3dd3f621	0.1034968
146	0x3d817cf6	0.063226625
147	0xbc01d6a8	-0.007924713
148	0xbcc60a4c	-0.024174832
149	0xbdb817ba	-0.089889005
150	0x3e4c1006	0.19927987
151	0xbd481f49	-0.04885796
152	0xbe34d47c	-0.17659181
153	0xbcdf6872	-0.027271483
154	0xbe0c3d53	-0.13695268
155	0xbde3ef6e	-0.11129652
156	0xbddfa637	-0.10920375
157	0x3e211f6e	0.15734646
158	0xbd0b0a88	-0.03394559
159	0x3d1154b5	0.035481174
160	0x3d98bfbe	0.07458447
161	0xbd606f3c	-0.05479358
162	0xbe621450	-0.22078061
163	0xbdd6e7c7	-0.10493427
164	0x3c563968	0.01307521
165	0x3d8632a2	0.06552626
166	0xbe48fa12	-0.19626644
167	0x3d9b2c4c	0.07576808
168	0x3d90a858	0.07063359
169	0xbe275e5a	-0.16344586
170	0xbde92a22	-0.11384989
171	0xbd8c3df4	-0.06847754
172	0xbde807ae	-0.1132959
173	0xbd01fc88	-0.031734973
174	0x3e177760	0.14791632
175	0xbca493fc	-0.020090096
176	0x3d6a5cec	0.057217523
177	0xbc886874	-0.01665137
178	0x3de14d05	0.110010184
179	0x3d1bd830	0.03804797
180	0x3d3b9cb0	0.045803726
181	0x3dca48f0	0.09877193
182	0xbdbe8df6	-0.09304421
183	0xbecbc2fa	-0.39797193
184	0x3d8051c4	0.062655956
185	0xbe6e54ae	-0.2327449
186	0xbcbaa920	-0.022785723
187	0x3ce730ea	0.028221566
188	0xbd43c96f	-0.047799524
189	0x3d3dc8ef	0.046334203
190	0xbca66458	-0.02031152
191	0xbd6d935a	-0.058001854
192	0xbc3191e2	-0.010838004
193	0x3da96041	0.08270312
194	0xbe131269	-0.14362492
195	0xbc602250	-0.013680056
196	0x3d61a9b4	0.055093482
197	0xbe597806	-0.21237192
198	0x3d608994	0.054818705
199	0xbd362d49	-0.04447678
200	0x3e06d02b	0.13165347
201	0xbc2d5667	-0.010579682
202	0xbe0f9d79	-0.14024915
203	0x3e25df65	0.161985
204	0xbecb1fa1	-0.39672568
205	0xbcd827de	-0.026386198
206	0x3df602d5	0.12012259
207	0x3d3e339c	0.046435937
208	0x3d41be2a	0.047300495
209	0x3e69050b	0.2275583
210	0x3e60e222	0.21961263
211	0x3dabd46e	0.08390127
212	0x3d522e1b	0.0513135
213	0x3ccc3112	0.024925742
214	0xbd59c7a5	-0.05316891
215	0xbe3c3ae8	-0.18381846
216	0x3d665651	0.05623466
217	0x3d31a72e	0.043372326
218	0xbdca8d04	-0.09890178
219	0x3e17c5bb	0.14821522
220	0xbcbdccbe	-0.023168918
221	0xbdd2a6b7	-0.102857046
222	0xbdc4cc32	-0.0960926
223	0x3d9b6544	0.07587674
224	0xbd979f48	-0.07403427
225	0x3e81bacb	0.25337824
226	0xbe8cb63d	-0.27482787
227	0xbe4e80f6	-0.20166382
228	0x3e2749f6	0.16336808
229	0xbe6fbf81	-0.23412897
230	0x3d1e1772	0.038596578
231	0x3e43ceb4	0.1912182
232	0xbbc545ac	-0.0060202684
233	0xbcffc1b6	-0.031220298
234	0xbd1ba7b7	-0.038001742
235	0xbdbc7e2e	-0.09203754
236	0xbce0b55a	-0.027430225
237	0x3dfe51ef	0.12417971
238	0x3e05796a	0.13034597
239	0x3df9012e	0.12158428
240	0x3c3d549a	0.011555815
241	0xbe24a708	-0.16079342
242	0xbe78cace	-0.24296114
243	0xbe431877	-0.19052301
244	0x3ea9b9f8	0.33149695
245	0x3dea625b	0.11444541
246	0xbd85f325	-0.06540517
247	0xbe0dceea	-0.13848463
248	0x3e1b956b	0.15193717
249	0x3d394c41	0.045238737
250	0x3e3a5c46	0.18199262
251	0x3df800dc	0.12109539
252	0xbc9766ca	-0.01848163
253	0x3d591f84	0.05300857
254	0x3e83844a	0.25686866
255	0x3cdb6f4d	0.02678647
