r2l/logs_demo/ppo/karel-harvester-0/eb90c2-seed0/critic.pt (torch, 59147 bytes, 8 tensors)

weight_ih f4 [192, 4]
0.1564387 0.20193706 -0.14575271 0.06164276 0.14358528 -0.10335416 -0.05456028 0.108296156
-0.03265183 0.095151946 0.031093491 -0.00063205796 0.049060006 0.11765255 0.011614878 0.107891284
-0.096671626 0.03609658 0.06546138 -0.09753874 -0.0044280207 -0.09963074 -0.13381493 0.12766165
-0.03321872 -0.1092017 -0.032448422 0.061304245 0.07708082 0.18803789 0.010125051 -0.08798486
-0.021425307 0.030579448 -0.04234361 -0.11128036 -0.08106941 -0.0089050615 -0.045704193 -0.08656364
-0.09746948 -0.12584965 -0.006663214 -0.07119436 -0.02836543 -0.07999516 -0.13369927 -0.05475119
-0.09444739 0.018353477 0.04833781 0.07744123 -0.022018285 0.012300323 -0.049814858 -0.06903444
0.097648695 -0.0073951525 0.0037584598 -0.019805193 0.12894799 0.083404094 -0.07129702 -0.06285096
-0.025576593 0.00074147526 -0.048022844 -0.011651103 0.0018139026 -0.11917886 -0.101586945 0.007568271
-0.049341276 -0.08593672 -0.17579749 0.06668806 -0.09012908 -0.069672205 0.050734818 -0.14354423
-0.0395469 -0.08006541 -0.11777463 0.0113669215 0.04581139 0.052227844 0.115550175 0.021716904
-0.03707308 -0.10275 -0.1807358 -0.08076364 -0.07420312 -0.06187402 0.030945878 0.079194024
0.100456804 0.08947002 -0.029350737 0.08667959 0.18909281 0.06467977 -0.22366126 -0.15786263
0.096269265 0.041556064 -0.22601078 -0.04133894 -0.024477828 -0.041178115 -0.109317936 0.027886836
-0.034313314 0.034834325 -0.0024394398 0.007892689 0.14961892 0.05246275 -0.12172935 0.055525042
0.06374183 0.051964596 -0.0018470938 -0.12528135 -0.021877877 0.04796714 -0.00776126 -0.08546055
-0.024885667 0.08537092 -0.010816667 -0.28060657 -0.01280345 0.12537962 -0.08012579 0.05973323
-0.07537976 0.071025044 -0.1843593 -0.10842107 -0.066279106 -0.0876995 -0.025195181 0.124659754
-0.03058229 0.06485894 -0.22158395 0.11372795 -0.024487521 -0.02412295 -0.13071856 0.02090416
0.06889523 -0.029679354 -0.26632953 0.10760515 0.021403648 -0.05633275 0.12368107 -0.022162896
-0.079518855 0.017147694 -0.18271606 -0.04441194 -0.0031630213 -0.0878316 -0.013498745 -0.08547513
-0.05241523 0.07696861 -0.096349046 0.015975844 0.033365022 0.06262449 -0.16709013 -0.09331118
0.16314654 -0.013679843 -0.10441401 0.03057238 -0.032644656 -0.0921094 0.18625547 -0.0086238785
0.00305873 -0.09763566 0.050995715 0.003679117 0.05797885 0.029970108 -0.07076661 0.05897163
-0.062277257 0.045374267 0.08496631 0.04718579 0.03657917 0.13557334 -0.022354871 -0.08507696
0.079012744 0.07707567 -0.117098466 -0.095701136 0.048299268 -0.051711675 -0.050448496 0.029561866
0.035623163 0.09545977 -0.005473885 -0.08068069 -0.034470785 -0.077167474 -0.1824512 -0.07533025
-0.034400303 -0.051359028 -0.031098906 0.03255473 0.097092435 -0.09201528 -0.26199764 -0.0021051792
-0.025647053 -0.09957204 -0.14303784 -0.014309648 0.023656918 0.023235053 -0.012400206 -0.07750287
0.077790454 0.08760943 -0.017486162 0.09383717 0.102707535 -0.026340894 -0.047539167 -0.10043683
-0.008650726 -0.09536564 0.06259922 0.002462442 -0.09031752 -0.03166982 -0.15274593 -0.09677513
0.060397383 -0.09390035 -0.09745689 -0.12655865 -0.009829566 -0.07984839 0.115209244 0.005652327
00000000: 7731 203e 97c8 4e3e 3340 15be 1e7d 7c3d
00000010: 0508 133e 59ab d3bd 9a7a 5fbd 60ca dd3d
00000020: edbd 05bd 06df c23d c7b7 fe3c b1b0 25ba
00000030: 25f3 483d d2f3 f03d 544c 3e3c 1bf6 dc3d
00000040: c6fb c5bd 02da 133d 9e10 863d 64c2 c7bd
00000050: ee18 91bb 340b ccbd c806 09be bcb9 023e
00000060: 5a10 08bd 24a5 dfbd a3e8 04bd 291a 7b3d
00000070: 8ddc 9d3d 018d 403e 8be3 253c 6831 b4bd
00000080: 2084 afbc c081 fa3c 7e70 2dbd f5e6 e3bd
00000090: b807 a6bd 89e6 11bc 5234 3bbd 4748 b1bd
000000a0: 149e c7bd bbde 00be 1757 dabb 59ce 91bd
000000b0: 9e5e e8bc 81d4 a3bd 76e8 08be c942 60bd
000000c0: a26d c1bd 085a 963c defd 453d 8299 9e3d
000000d0: b15f b4bc 4b87 493c aa0a 4cbd ee61 8dbd
000000e0: 0afc c73d 0953 f2bb 7e50 763b 803e a2bc
000000f0: f10a 043e c4cf aa3d 2c04 92bd 01b8 80bd
00000100: 0186 d1bc 905f 423a 9ab3 44bd 45e4 3ebc
00000110: 79c0 ed3a 0c14 f4bd d10c d0bd 42ff f73b
00000120: 141a 4abd 97ff afbd 4204 34be c093 883d
00000130: 9895 b8bd 4db0 8ebd 50cf 4f3d 42fd 12be
00000140: eefb 21bd 55f9 a3bd d333 f1bd 533c 3a3c
00000150: b9a4 3b3d ddec 553d 92a5 ec3d a6e7 b13c
00000160: f1d9 17bd 986e d2bd ce12 39be 6867 a5bd
00000170: cef7 97bd 9d6f 7dbd 3682 fd3c 7a30 a23d
00000180: 4cbc cd3d 0f3c b73d f570 f0bc 1285 b13d
00000190: 8ca1 413e d476 843d 7507 65be bea6 21be
000001a0: d228 c53d b136 2a3d 5f6f 67be 0553 29bd
000001b0: ba85 c8bc 62aa 28bd 15e2 dfbd ef72 e43c
000001c0: 1e8c 0cbd 70ae 0e3d 02df 1fbb 5650 013c
000001d0: b435 193e 2ee3 563d 3d4d f9bd 3a6e 633d
000001e0: 148b 823d d4d8 543d 2f1a f2ba c149 00be
000001f0: 3c39 b3bc 3179 443d 2b52 febb f105 afbd
00000200: 07dd cbbc f3d6 ae3d 6438 31bc aaab 8fbe
00000210: 90c5 51bc 8463 003e fd18 a4bd d5aa 743d
00000220: b460 9abd 9475 913d afc8 3cbe de0b debd
00000230: 57bd 87bd cc9b b3bd 2066 cebc 9d4d ff3d
00000240: b687 fabc c4d4 843d e7e6 62be 33ea e83d
00000250: 0e9a c8bc 7e9d c5bc 16db 05be 333f ab3c
00000260: f118 8d3d 1e22 f3bc 585c 88be 1760 dc3d
00000270: b456 af3c 2bbd 66bd 804c fd3d f68e b5bc
00000280: c8da a2bd 5279 8c3c eb19 3bbe 4be9 35bd
00000290: b14a 4fbb 0ee1 b3bd d729 5dbc 960d afbd
000002a0: 5ab1 56bd b8a1 9d3d a652 c5bd c6df 823c
000002b0: c3a9 083d 4541 803d ad19 2bbe ef19 bfbd
000002c0: e30f 273e 6c21 60bc 03d7 d5bd ee72 fa3c
000002d0: 67b6 05bd daa3 bcbd c1b9 3e3e 2b4b 0dbc
000002e0: f974 483b 34f5 c7bd e2e0 503d 571d 713b
000002f0: 3b7b 6d3d df83 f53c 16ee 90bd 3c8c 713d
00000300: 7016 7fbd 5eda 393d d102 ae3d e345 413d
00000310: 0ad4 153d bdd3 0a3e 9021 b7bc d43c aebd
00000320: 6fd1 a13d d9d9 9d3d 52d1 efbd f5fe c3bd
00000330: 74d5 453d 9fcf 53bd 15a3 4ebd ba2b f23c
00000340: 98e9 113d 6980 c33d 475e b3bb eb3b a5bd
00000350: 3d31 0dbd fb09 9ebd 7dd4 3abe bf46 9abd
00000360: 55e7 0cbd d85d 52bd 22c3 febc 1c58 053d
00000370: 66d8 c63d 8272 bcbd 8e24 86be 0cf7 09bb
00000380: c519 d2bc 6dec cbbd 8378 12be 0473 6abc
00000390: 27cc c13c 7057 be3c 3c2a 4bbc d3b9 9ebd
000003a0: 9a50 9f3d 936c b33d 243f 8fbc b42d c03d
000003b0: 5458 d23d dcc8 d7bc 6eb8 42bd d3b1 cdbd
000003c0: c6bb 0dbc 104f c3bd 0534 803d ec60 213b
000003d0: 64f8 b8bd 37b8 01bd 6e69 1cbe 0a32 c6bd
000003e0: 3f63 773d d44e c0bd 7a97 c7bd 9798 01be
000003f0: 300c 21bc 8d87 a3bd d3f2 eb3d 2837 b93b

weight_hh f4 [192, 64]
-0.07040193 0.06242967 0.04096401 -0.02119243 0.18198946 -0.048699323 0.085011855 -0.033766028
-0.07473014 -0.046459965 0.03312799 -0.14982145 -0.023606354 0.078399874 0.09341441 0.06272791
0.015447637 0.106868155 -0.0414566 0.0046565183 -0.1261926 -0.05950511 -0.07310968 0.047559526
0.060106356 -0.11445285 0.04109423 0.07894563 -0.11750207 -0.06373162 -0.1330502 -0.0534388
0.08646692 0.047399834 0.0065827696 0.01507853 -0.04109599 -0.026040837 0.057899304 -0.11003509
-0.04238976 -0.06691927 0.100257196 -0.11812791 0.055866092 0.040005483 -0.060421694 0.11469567
0.070477776 -0.04201261 0.1550295 -0.045020755 -0.017723676 0.05862018 0.075161405 -0.10868662
-0.15714699 -0.02313506 0.022238938 -0.04470318 0.1101215 0.060977023 -0.13160795 0.055790164
-0.065153986 0.11152699 -0.044285037 -0.15973192 0.15659237 0.019723175 -0.017331593 -0.059609316
0.0709244 0.0878806 -0.03728869 -0.120571 -0.04098864 -0.06295499 -0.011872306 0.07016711
-0.022172932 0.038646754 0.1606263 -0.07688312 -0.13681842 -0.04040332 0.010263713 -0.04070688
0.095718004 -0.08890824 0.02945919 0.103068456 -0.121429384 0.22726457 -0.16722225 -0.06434
0.047976494 0.089520425 0.06846862 0.0012470633 -0.13648327 -0.0033203212 0.022247469 -0.10521497
-0.16893919 -0.18515399 -0.024123356 -0.039712083 0.06234264 -0.038959548 -0.10480308 0.16408637
-0.18212037 0.08176175 0.015512717 0.15264544 0.11858279 -0.008127221 -0.07878243 -0.18817945
-0.11385543 -0.06247876 0.15612608 -0.062485103 -0.037274223 -0.020224927 -0.06061871 0.10455187
0.039520428 0.08195022 -0.07274235 -0.02923021 0.0909417 0.017139016 0.02329177 0.09203125
0.06657048 0.09605021 0.09277287 0.04740042 0.022800215 -0.047702275 -0.014651991 -0.06915977
-0.021095734 -0.016195243 0.1406399 -0.108857386 -0.1130282 0.0093445955 0.13519241 -0.112329155
0.057539444 0.053947244 -0.061126266 0.22855625 0.04117165 0.11706975 -0.029074341 0.051973287
-0.012327554 0.071781665 0.13703045 -0.020723602 -0.060333207 0.12707695 -0.021512665 -0.09762826
-0.04239688 -0.07853314 -0.035980236 -0.009920963 0.09870397 0.11090821 -0.042204082 -0.059149846
0.074219 0.08976782 -0.13033435 0.11672291 0.14746559 0.049778152 0.0842849 -0.128387
0.11895359 0.07822711 -0.050650258 0.024125187 -0.039432015 0.12189952 -0.09891614 0.07692605
-0.017986462 0.08314255 -0.07037872 0.0141787715 0.04389114 0.014426089 -0.00066172465 0.04547693
0.018054474 0.037379652 0.0101267295 -0.03524489 -0.06509556 -0.06665429 0.15047842 0.020215137
-0.049251944 -0.00081277423 0.04660111 0.064493455 -8.1296945e-05 0.051286593 0.08531577 -0.036766123
0.032966297 -0.13433684 -0.0152407065 0.023281204 -0.1069398 0.18496881 -0.14905258 -0.037921097
0.004202589 0.0014011698 0.032516517 0.10867666 -0.13174254 0.08748256 -0.041974466 -0.09014229
-0.15243521 -0.0692269 -0.0060807993 0.032014694 -0.04901025 0.14337242 0.07199203 0.047876798
-0.13734332 -0.085233286 0.009003123 0.09962796 0.16578957 -0.06741382 0.036516808 -0.0910391
-0.096822396 0.041746795 0.016353022 0.0073171398 -0.01760279 0.14067395 -0.13613175 0.07791251
00000000: e32e 90bd 41b6 7f3d e1c9 273d bf9b adbc
00000010: 725b 3a3e f178 47bd b21a ae3d 3f4e 0abd
00000020: 1e0c 99bd ce4c 3ebd 37b1 073d cb6a 19be
00000030: 1d62 c1bc 1d90 a03d 0e50 bf3d 7e77 803d
00000040: 1618 7d3c b1dd da3d 65ce 29bd b595 983b
00000050: a238 01be a1bb 73bd 87ba 95bd c7cd 423d
00000060: 1532 763d 4166 eabd 6c52 283d 3fae a13d
00000070: eda4 f0bd b985 82bd 503e 08be a5e2 5abd
00000080: 9215 b13d 5426 423d 46b4 d73b f00b 773c
00000090: 4554 28bd 9853 d5bc d227 6d3d 145a e1bd
000000a0: e3a0 2dbd f80c 89bd a553 cd3d 0ced f1bd
000000b0: d8d3 643d cadc 233d bd7c 77bd 90e5 ea3d
000000c0: a756 903d 6a15 2cbd 0ec0 1e3e af67 38bd
000000d0: 3e31 91bc b71b 703d 39ee 993d 1797 debd
000000e0: 24eb 20be bd85 bdbc 6f2e b63c af1a 37bd
000000f0: 6287 e13d 0bc3 793d 3cc4 06be 3a84 643d
00000100: 746f 85bd 4368 e43d 3a64 35bd c490 23be
00000110: c059 203e 7f92 a13c fcfa 8dbc e628 74bd
00000120: d040 913d befa b33d 07bc 18bd eeed f6bd
00000130: b4e3 27bd 8cee 80bd 0f84 42bc c6b3 8f3d
00000140: 02a4 b5bc 0f4c 1e3d 397b 243e e674 9dbd
00000150: 211a 0cbe f47d 25bd 2229 283c 42bc 26bd
00000160: cd07 c43d 8615 b6bd 6654 f13c 8e15 d33d
00000170: f8af f8bd 0bb8 683e 4f3c 2bbe b1c4 83bd
00000180: 0083 443d 7c56 b73d 4739 8c3d 8074 a33a
00000190: 45c2 0bbe bf99 59bb 5340 b63c f27a d7bd
000001a0: 65fe 2cbe 0299 3dbe 589e c5bc 23a9 22bd
000001b0: ff5a 7f3d 0c94 1fbd ffa2 d6bd 4206 283e
000001c0: c37d 3abe b472 a73d 0d29 7e3c 164f 1c3e
000001d0: 89db f23d 0928 05bc af58 a1bd 1db2 40be
000001e0: 092d e9bd bae9 7fbd 84df 1f3e 61f0 7fbd
000001f0: dbac 18bd bfae a5bc 534b 78bd 4a1f d63d
00000200: 2ce0 213d 84d5 a73d f1f9 94bd 3274 efbc
00000210: a43f ba3d 1f67 8c3c 62ce be3c e17a bc3d
00000220: 1b56 883d f9b5 c43d b4ff bd3d f126 423d
00000230: 84c7 ba3c 7663 43bd e80e 70bc a3a3 8dbd
00000240: f6d0 acbc e3ab 84bc e803 103e 9ff0 debd
00000250: 547b e7bd 131a 193c e16f 0a3e d40c e6bd
00000260: 7bae 6b3d c9f7 5c3d 895f 7abd a60a 6a3e
00000270: 9ba3 283d 44c2 ef3d 502d eebc f1e1 543d
00000280: 82f9 49bc 4402 933d b651 0c3e 8bc4 a9bc
00000290: f41f 77bd 7620 023e 543b b0bc 53f1 c7bd
000002a0: 5aa8 2dbd fcd5 a0bd 0360 13bd 898b 22bc
000002b0: 4f25 ca3d d823 e33d 30de 2cbd 1c47 72bd
000002c0: 2200 983d 31d8 b73d 5e76 05be 6c0c ef3d
000002d0: 3801 173e 2de4 4b3d 909d ac3d e277 03be
000002e0: f19d f33d 8935 a03d a576 4fbd 2fa2 c53c
000002f0: 7783 21bd 75a6 f93d 8c94 cabd 688b 9d3d
00000300: 5858 93bc a446 aa3d b822 90bd 144e 683c
00000310: 32c7 333d 675b 6c3c 9777 2dba 0446 3a3d
00000320: fae6 933c 681b 193d 95ea 253c f25c 10bd
00000330: d250 85bd 0b82 88bd 0417 1a3e 379a a53c
00000340: 68bc 49bd 5b10 55ba cee0 3e3d 2515 843d
00000350: f77d aab8 e411 523d 09ba ae3d 1398 16bd
00000360: ab07 073d 998f 09be 28b4 79bc 39b8 be3c
00000370: 4103 dbbd 7768 3d3e 3da1 18be 2753 1bbd
00000380: dfb5 893b 75a7 b73a 0a30 053d de91 de3d
00000390: 84e7 06be 0e2a b33d 6bed 2bbd 859c b8bd
000003a0: fa17 1cbe d5c6 8dbd 7141 c7bb d721 033d
000003b0: f9be 48bd 38d0 123e 8f70 933d 761a 443d
000003c0: baa3 0cbe ca8e aebd d681 133c be09 cc3d
000003d0: bec4 293e 4210 8abd a692 153d b572 babd
000003e0: d24a c6bd b0fe 2a3d c6f6 853c 9ec4 ef3b
000003f0: ba33 90bc d50c 103e 1f66 0bbe 9890 9f3d

bias_ih f4 [192]
0.10063318 0.021877548 0.0050177635 0.10359098 0.13960403 -0.080604084 -0.0055506043 -0.0105103245
0.07560673 0.09936104 0.074870005 0.06319958 0.16497236 -0.080072075 0.17038421 0.16605161
-0.034454264 -0.030410407 0.10854032 -0.05388614 -0.046489332 0.13692178 0.090799175 -0.027633402
0.07433773 0.09775379 0.00076134596 -0.04803938 -0.07987971 0.073844396 -0.00649404 -0.0011683352
0.12327282 0.13378906 -0.03620257 0.10378927 0.15330586 0.011002261 0.121967494 0.057280283
0.05226975 0.04340431 0.08162181 0.3379381 0.037199065 0.009832425 0.12758692 0.13160895
-0.0292314 0.20693895 0.0828942 0.09711229 0.052061096 0.034957122 0.00020330067 0.04146661
0.13403487 0.02441541 0.12270466 0.1500003 -0.015894137 0.10973071 0.12045299 0.13319299
0.17800902 -0.42249486 0.066098265 0.1557597 0.1945877 -0.15015554 -0.28561044 0.06108134
0.16833843 0.025203275 -0.2538822 0.1535775 -0.32168263 -0.24581721 -0.091556355 -0.11894962
-0.36368707 -0.2056431 -0.2812461 -0.24623987 0.10449066 -0.22082141 0.036077235 0.122440845
0.13324843 -0.24770938 -0.022633225 0.012942308 0.038167007 -0.346066 -0.12693861 -0.12993063
0.124778405 -0.029741941 0.10571282 -0.100486934 -0.18492551 -0.19448505 -0.46242827 -0.2816883
0.0804074 -0.28037643 0.0551789 -0.28396145 0.08618864 -0.08207248 0.06753878 -0.13518195
-0.3288906 -0.32137412 0.13683823 -0.06125624 -0.33675092 -0.21692201 -0.120242074 -0.26821443
-0.50484926 0.1793909 -0.08255225 -0.1557849 -0.08619056 0.008552044 -0.09454768 0.14414072
0.12559141 0.08228509 -0.13704146 -0.1501004 0.13814327 -0.14484513 -0.024699919 -0.020490455
-0.20129916 0.04101371 0.07448193 -0.03763505 0.14046666 -0.09935971 0.18398796 -0.11910172
-0.1922425 0.09677776 -0.030292561 -0.15705517 -0.125474 0.1496188 0.055159345 0.030922832
0.08327412 -0.22799018 0.1109177 0.026170459 0.035864454 0.0019704164 0.007058646 -0.12222339
-0.056001067 0.03782428 0.115076646 0.07380024 0.05406056 0.10850078 0.020917935 -0.08668776
-0.1469168 -0.08030837 -0.012003119 -0.064668044 0.11490815 0.11400583 -0.10157719 0.03906586
-0.15799052 -0.06450832 -0.06481665 0.15947446 0.113837205 -0.04178969 0.018349836 -0.091172054
-0.1277432 -0.05648499 0.08947319 -0.12294606 0.12729727 0.0885274 -0.10374044 0.07080408
00000000: c518 ce3d 8b38 b33c 0d6c a43b 8227 d43d
00000010: 5cf4 0e3e c113 a5bd d8e1 b5bb 7f33 2cbc
00000020: b4d7 9a3d cd7d cb3d 7255 993d c86e 813d
00000030: 84ee 283e d4fc a3bd 3379 2e3e 6f09 2a3e
00000040: ea1f 0dbd 3f1f f9bc 634a de3d b7b7 5cbd
00000050: 996b 3ebd 3935 0c3e ebf4 b93d 725f e2bc
00000060: 613e 983d 2433 c83d 1095 473a f1c4 44bd
00000070: f997 a3bd bb3b 973d f5cb d4bb d322 99ba
00000080: 7676 fc3d 0000 093e 2549 14bd 788f d43d
00000090: 36fc 1c3e d442 343c 18ca f93d bb9e 6a3d
000000a0: ce18 563d b8c8 313d 5629 a73d 3906 ad3e
000000b0: 0c5e 183d 2e18 213c 25a6 023e 7fc4 063e
000000c0: b076 efbc cee7 533e 6fc4 a93d cfe2 c63d
000000d0: 043e 553d 332f 0f3d 1c2d 5539 e4d8 293d
000000e0: 7040 093e d302 c83c 954c fb3d ae99 193e
000000f0: 6c34 82bc 7fba e03d 0fb0 f63d be63 083e
00000100: ff47 363e 3f51 d8be 875e 873d 797f 1f3e
00000110: ff41 473e 60c2 19be 883b 92be 6d30 7a3d
00000120: e960 2c3e 1977 ce3c d9fc 81be 6c43 1d3e
00000130: 96b3 a4be 82b7 7bbe e681 bbbd dc9b f3bd
00000140: 3135 babe 1b94 52be 7dff 8fbe 4e26 7cbe
00000150: 33ff d53d 021f 62be b9c5 133d 44c2 fa3d
00000160: 4772 083e 87a7 7dbe 5069 b9bc f90b 543c
00000170: 0255 1c3d 902f b1be 32fc 01be 890c 05be
00000180: d28b ff3d 5fa5 f3bc f77f d83d 18cc cdbd
00000190: 1d5d 3dbe 1727 47be 66c3 ecbe 7339 90be
000001a0: a3ac a43d 808d 8fbe 4503 623d 6563 91be
000001b0: ab83 b03d 9e15 a8bd c651 8a3d 236d 0abe
000001c0: 5964 a8be 268b a4be 521f 0c3e d3e7 7abd
000001d0: 9e6a acbe ce20 5ebe 7a41 f6bd 6753 89be
000001e0: cd3d 01bf 40b2 373e 2711 a9bd 1486 1fbe
000001f0: ad84 b0bd df1d 0c3c 37a2 c1bd a099 133e
00000200: 099b 003e 1685 a83d 9954 0cbe ebb3 19be
00000210: 6e75 0d3e 4852 14be 7c57 cabc 99db a7bc
00000220: 5e21 4ebe fefd 273d fb89 983d 3627 1abd
00000230: 7ed6 0f3e 1b7d cbbd 5767 3c3e 9aeb f3bd
00000240: 38db 44be 6b33 c63d 1b28 f8bc 12d3 20be
00000250: 427c 00be ac35 193e c4ee 613d e151 fd3c
00000260: 9f8b aa3d 4276 69be d228 e33d 6e63 d63c
00000270: 9be6 123d 1a22 013b 374c e73b 4250 fabd
00000280: 6061 65bd a2ed 1a3d 4ead eb3d 9524 973d
00000290: 9b6e 5d3d a835 de3d 175c ab3c 5a89 b1bd
000002a0: 5c71 16be b778 a4bd bba8 44bc ae70 84bd
000002b0: f754 eb3d e37b e93d b407 d0bd 8603 203d
000002c0: 44c8 21be f01c 84bd 97be 84bd 464d 233e
000002d0: 7b23 e93d aa2b 2bbd 6552 963c 6ab8 babd
000002e0: 1dcf 02be ce5c 67bd b83d b73d 25cb fbbd
000002f0: 375a 023e da4d b53d de75 d4bd bb01 913d

bias_hh f4 [192]
-0.07285846 0.15093969 0.057778195 0.12179702 -0.07900445 -0.09261354 0.14110103 0.14582019
-0.02096625 -0.045316435 0.09977725 0.026989695 -0.009865178 -0.09014131 0.08801473 0.1544901
0.1676584 -0.090213835 0.15553236 0.026139487 0.046217266 -0.055012103 -0.022359027 0.059879526
0.03560155 0.18691607 0.01944635 0.07288302 0.043207366 0.017591383 0.17025985 -0.009880583
0.0883025 -0.032899946 0.086844526 0.124824196 -0.061892647 0.11021649 0.15147856 0.15307198
0.17144547 -0.015490777 0.17203029 0.16768463 0.0557936 0.09636657 -0.06861089 0.018885717
0.17760922 0.10230196 0.03514958 0.008828282 0.07906449 0.01829578 0.010335534 0.081728354
0.25080052 0.1254842 0.04509674 0.121521644 0.030007482 0.12995885 0.113138534 0.15307158
0.0633761 -0.49371615 0.005974021 0.16467471 0.2475196 -0.18325129 -0.2808378 0.2451312
0.06152443 0.02992761 -0.27511185 0.14434208 -0.24069978 -0.043022852 0.007967414 -0.06600001
-0.29808724 -0.3452199 -0.15266939 -0.24601728 0.14826648 -0.21482901 -0.05233645 0.087125085
0.032659825 -0.33550206 -0.0055937115 -0.01930705 0.073626764 -0.4426698 -0.2109535 -0.15199076
0.15810932 0.1235691 0.054893248 -0.1974536 -0.2934621 -0.101132706 -0.28456676 -0.3473139
-0.14609325 -0.49158132 0.088991016 -0.27289402 -0.00055272976 -0.20659076 0.13399412 -0.17172845
-0.3834562 -0.35792065 0.12229429 0.11324984 -0.3227491 -0.3758373 -0.027358385 -0.37927595
-0.38326302 0.12932616 0.031243429 -0.13192073 -0.22610351 0.18517575 -0.19143029 0.1846988
-0.0646911 0.14186609 -0.0051828446 -0.15458103 -0.055239283 0.040733382 0.109242514 -0.056965888
-0.0016156081 -0.031014107 0.09657594 -0.18085793 0.085422516 -0.004269472 0.04444622 -0.0106671285
-0.06520833 0.033602938 0.115475535 -0.029712478 -0.15237536 0.14714682 -0.05079347 -0.110860065
-0.0153050115 -0.24924283 -0.023127861 0.13176864 -0.07455936 0.11180687 -0.124885045 -0.20177397
-0.06496075 0.12093737 0.04257653 0.0065472843 0.012221906 0.12261603 -0.119013 -0.108585544
-0.071185306 -0.12744732 -0.07536182 -0.2905675 0.09486517 0.10900271 0.06351086 0.054660942
-0.083168544 0.03940143 -0.08942534 0.17478435 0.07945786 0.050594658 -0.12152844 0.027390506
-0.14327727 0.14196517 0.1870308 -0.01711243 0.072775796 0.040405642 -0.23889405 0.11919667
00000000: d136 95bd ef8f 1a3e d4a8 6c3d b770 f93d
00000010: 16cd a1bd 2bac bdbd ca7c 103e e351 153e
00000020: 6ac1 abbc ba9d 39bd 0458 cc3d 7e19 dd3c
00000030: 8ea1 21bc 029c b8bd 1141 b43d a732 1e3e
00000040: a5ae 2b3e 08c2 b8bd e043 1f3e 7a22 d63c
00000050: 514e 3d3d 5f54 61bd 472a b7bc 3c44 753d
00000060: eed2 113d ed66 3f3e f44d 9f3c b143 953d
00000070: 35fa 303d ce1b 903c 9958 2e3e 2be2 21bc
00000080: f1d7 b43d 18c2 06bd 8bdb b13d d4a3 ff3d
00000090: 2583 7dbd 2fb9 e13d 321d 1b3e e7be 1c3e
000000a0: 678f 2f3e 07cd 7dbc b528 303e 85b5 2b3e
000000b0: d487 643d d65b c53d de83 8cbd 38b6 9a3c
000000c0: 31df 353e b183 d13d 02f9 0f3d 80a4 103c
000000d0: 90ec a13d 08e1 953c 5f56 293c 3261 a73d
000000e0: ed68 803e ee7e 003e 5cb7 383d 57e0 f83d
000000f0: 40d2 f53c ef13 053e 2db5 e73d ccbe 1c3e
00000100: 54cb 813d 5dc8 fcbe b8c1 c33b 7da0 283e
00000110: c775 7d3e 3aa6 3bbe f9c9 8fbe ac03 7b3e
00000120: 0a01 7c3d bf2a f53c 76db 8cbe 69ce 133e
00000130: 017a 76be bb38 30bd c289 023c 032b 87bd
00000140: e49e 98be aac0 b0be 5d55 1cbe f4eb 7bbe
00000150: 2bd3 173e 23fc 5bbe bf5e 56bd a36e b23d
00000160: 4fc6 053d edc6 abbe 744b b7bb d229 9ebc
00000170: a1c9 963d 9ea5 e2be 3204 58be 77a3 1bbe
00000180: 69e7 213e cc11 fd3d bed7 603d 4731 4abe
00000190: aa40 96be aa1e cfbd bcb2 91be 21d3 b1be
000001a0: 7899 15be 8cb0 fbbe ec40 b63d c4b8 8bbe
000001b0: 11e5 10ba 878c 53be c135 093e 95d9 2fbe
000001c0: 5f54 c4be 6041 b7be 6e75 fa3d 88ef e73d
000001d0: 5f3f a5be bf6d c0be b11e e0bc 7530 c2be
000001e0: 0d3b c4be 146e 043e 38f2 ff3c 3a16 07be
000001f0: ae87 67be b69e 3d3e 4d06 44be af21 3d3e
00000200: c47c 84bd 5845 113e dad4 a9bb 7d4a 1ebe
00000210: 9642 62bd 0cd8 263d 8aba df3d 1055 69bd
00000220: d0c2 d3ba 4c11 febc 9bc9 c53d d232 39be
00000230: 00f2 ae3d ede6 8bbb 3d0d 363d 2ec5 2ebc
00000240: f28b 85bd 3ca3 093d 707e ec3d 9567 f3bc
00000250: 4908 1cbe a8ad 163e d00c 50bd 9a0a e3bd
00000260: dfc1 7abc 8339 7fbe a476 bdbc 5cee 063e
00000270: 94b2 98bd 00fb e43d bbc3 ffbd d69d 4ebe
00000280: 240a 85bd 03ae f73d ba64 2e3d 9a8a d63b
00000290: 643e 483c 1d1e fb3d 16bd f3bd 1962 debd
000002a0: 9ac9 91bd 8d81 02be 4c57 9abd 43c5 94be
000002b0: ac48 c23d d03c df3d fb11 823d 27e4 5f3d
000002c0: 4554 aabd 6563 213d a224 b7bd abfa 323e
000002d0: cdba a23d 583c 4f3d e7e3 f8bd 0e62 e03c
000002e0: 47b7 12be 515f 113e 0185 3f3e 5e2f 8cbc
000002f0: 7a0b 953d 6380 253d a4a0 74be 621d f43d

weight f4 [1, 64]
-0.09857823 0.32409835 -0.27618352 -0.32223552 0.19096759 -0.25276747 0.29262578 0.2565031
-0.2378935 0.21409293 0.29768714 -0.3140048 0.3001122 -0.09663063 0.26085204 -0.1844004
-0.29406956 0.06392806 0.2754182 -0.15030378 -0.10213272 0.24289498 0.123005465 -0.3216231
0.12287557 -0.26384223 0.20471269 0.21563637 -0.31096226 0.25969762 -0.26256427 -0.22498737
0.1415413 0.25728592 0.30245876 0.32394716 -0.24896206 0.17811996 -0.27857307 -0.3071126
-0.07938141 -0.1972392 0.19904634 -0.2723854 0.093268864 0.17331189 -0.23461714 0.2333483
-0.31234762 0.23818737 -0.058413 0.28903604 0.29889598 -0.25268143 -0.26546246 -0.31391066
-0.2807519 0.24318767 0.2692452 -0.30637535 0.2784673 0.24269533 -0.28004602 0.26284
00000000: 62e3 c9bd 38f0 a53e ed67 8dbe 0efc a4be
00000010: 028d 433e bd6a 81be 0cd3 953e 6054 833e
00000020: 5b9a 73be 2d3b 5b3e 736a 983e 3dc5 a0be
00000030: 4ea8 993e 48e6 c5bd 668e 853e 75d3 3cbe
00000040: 4990 96be b7ec 823d 9d03 8d3e 3ce9 19be
00000050: f62a d1bd 76b9 783e 4aea fb3d c8ab a4be
00000060: 30a6 fb3d 5416 87be 34a0 513e c8cf 5c3e
00000070: 7236 9fbe 16f7 843e d36e 86be 1763 66be
00000080: 34f0 103e fbba 833e e0db 9a3e 67dc a53e
00000090: e9ef 7ebe 1465 363e 21a1 8ebe dd3d 9dbe
000000a0: b892 a2bd 13f9 49be ced2 4b3e 1976 8bbe
000000b0: bf03 bf3d ac78 313e 7a3f 70be dbf2 6e3e
000000c0: 07ec 9fbe 64e7 733e 7842 6fbd 88fc 933e
000000d0: e508 993e 765f 81be b2ea 87be e6b8 a0be
000000e0: b7be 8fbe 3006 793e 82da 893e 3bdd 9cbe
000000f0: 4493 8e3e 2085 783e 3162 8fbe f792 863e

welford_state_mean f4 [4]
0.73299986 0.783 0.8189997 0.77099985
00000000: e1a5 3b3f b072 483f f7a9 513f 3f60 453f

welford_state_mean_diff f4 [4]
195.51103 170.1015 148.40094 176.4173
00000000: d382 4343 fc19 2a43 a466 1443 d46a 3043

hidden f4 [6, 64]
-0.7387108 -0.005964908 -0.67068 -0.50519264 0.14739513 -0.48884064 -0.39337003 0.9672538
-0.79744273 0.5850487 0.06986127 -0.074158914 0.87553823 -0.60062313 0.5998617 0.03166725
-0.39814234 0.5229344 0.7252393 -0.5221486 0.090266906 0.73304904 0.24866873 0.2620654
-0.16504326 -0.99802464 0.43458915 -0.7660375 -0.36887723 -0.49621397 -0.5466655 -0.6880683
-0.8760881 -0.4725397 0.30895194 -0.12241521 0.59686816 0.5688179 -0.068103634 -0.8752029
0.46404454 -0.20398478 -0.6271958 -0.99867696 -0.86621183 0.242089 0.43368438 0.5427795
-0.5270958 -0.71766347 0.9386693 0.31686744 0.016464774 0.82070494 -0.74197966 0.78070194
-0.9966484 0.8640214 0.62334555 -0.7202509 0.22709781 -0.53242105 -0.96889865 0.59757525
-0.73896104 -0.00575003 -0.6707298 -0.50799036 0.14921299 -0.48916432 -0.39352828 0.96736073
-0.79783684 0.5845602 0.07063945 -0.074610636 0.87583584 -0.6005773 0.6001975 0.031617142
-0.3983758 0.5228895 0.72544366 -0.522363 0.09012314 0.73321193 0.24860778 0.2620205
-0.16515963 -0.9980295 0.4344667 -0.76628304 -0.36930722 -0.49627498 -0.5470688 -0.68866724
-0.87623465 -0.47247085 0.30912745 -0.122295536 0.59697545 0.568981 -0.06832033 -0.87536365
0.46430293 -0.20416655 -0.62747747 -0.99868035 -0.86652464 0.24295957 0.43385756 0.54305446
-0.52760446 -0.71796155 0.9388258 0.31720048 0.016357705 0.82076985 -0.7424521 0.78082293
-0.9966622 0.86445415 0.6234808 -0.72056097 0.22742869 -0.5325847 -0.9689474 0.59805304
-0.73150676 -0.015958 -0.6688463 -0.43704614 0.11807583 -0.4785616 -0.38993108 0.96428907
-0.78593457 0.57837045 0.04576977 -0.063713714 0.86735946 -0.6014201 0.59121406 0.03530515
-0.38871413 0.5238478 0.7178708 -0.5163916 0.093429595 0.72776455 0.2498419 0.26493043
-0.16250615 -0.9978744 0.435953 -0.75798124 -0.35694882 -0.49599183 -0.5339546 -0.67139155
-0.87207574 -0.47537875 0.30156517 -0.12693022 0.5932036 0.5627396 -0.057894953 -0.86959136
0.45741144 -0.19854002 -0.61999524 -0.9985632 -0.85679233 0.21879831 0.4292367 0.5362719
-0.513948 -0.70971406 0.93460447 0.3055992 0.017823046 0.8198115 -0.72742075 0.77768886
-0.99622035 0.85262 0.6178446 -0.71012485 0.21449414 -0.52832097 -0.967345 0.583933
-0.5028119 -0.3211069 -0.0007994473 0.05596614 -0.08721807 -0.17435735 -0.52372086 0.9099957
-0.6814922 -0.15658063 -0.022776376 0.056420483 0.6046141 -0.21310303 0.55801415 -0.020971283
-0.4975385 0.29134783 -0.17329228 -0.5492577 0.33284515 0.39321205 0.24838178 0.23832971
-0.20810409 -0.99038523 0.21665245 -0.69727975 0.081983104 -0.6553262 -0.3380919 -0.5584293
-0.8490441 -0.5386008 -0.41452706 -0.23815252 0.71376425 0.18662143 0.40105355 -0.42526695
0.5708199 0.14142154 -0.5511571 -0.9938855 -0.8031961 0.2879793 0.32244566 0.20210043
-0.29514575 -0.86337125 0.8686222 -0.12342901 0.17418674 0.7266056 -0.3818375 0.7656095
-0.91909766 0.7258688 0.2843221 -0.42635375 0.067636006 -0.4573024 -0.87156194 0.5233532
00000000: 271c 3dbf 4675 c3bb afb1 2bbf 4e54 01bf
00000010: c0ee 163e 5249 fabe cc67 c9be f29d 773f
00000020: 3525 4cbf c0c5 153f 6d13 8f3d a1e0 97bd
00000030: 4623 603f 70c2 19bf 8990 193f 85b5 013d
00000040: 50d9 cbbe 07df 053f 48a9 393f 88ab 05bf
00000050: dbdd b83d 1aa9 3b3f 04a3 7e3e 702d 863e
00000060: 1a01 29be 8b7e 7fbf 7882 de3e 091b 44bf
00000070: 7add bcbe c20f febe 45f2 0bbf 3e25 30bf
00000080: 4f47 60bf b9f0 f1be f32e 9e3e d3b4 fabd
00000090: 5acc 183f 0d9e 113f eb79 8bbd 4c0d 60bf
000000a0: 3f97 ed3e 63e1 50be e78f 20bf 4ba9 7fbf
000000b0: 0fc0 5dbf 2ee6 773e e10b de3e 99f3 0a3f
000000c0: c0ef 06bf cbb8 37bf a24c 703f 733c a23e
000000d0: 22e1 863c b819 523f 61f2 3dbf 15dc 473f
000000e0: 5924 7fbf 8230 5d3f 9393 1f3f 5d62 38bf
000000f0: 548c 683e bf4c 08bf be09 78bf b1fa 183f
00000100: 8d2c 3dbf bf6a bcbb f3b4 2bbf a80b 02bf
00000110: 4acb 183e bf73 fabe 8a7c c9be f4a4 773f
00000120: 093f 4cbf bda5 153f 6aab 903d 76cd 98bd
00000130: c736 603f 6fbf 19bf 8ba6 193f fa80 013d
00000140: eaf7 cbbe 16dc 053f adb6 393f 95b9 05bf
00000150: 7b92 b83d c7b3 3b3f 0a93 7e3e 8d27 863e
00000160: 9b1f 29be dc7e 7fbf 6b72 de3e 202b 44bf
00000170: d615 bdbe c117 febe b30c 0cbf 7f4c 30bf
00000180: ea50 60bf b3e7 f1be f445 9e3e 1576 fabd
00000190: 62d3 183f bda8 113f 87eb 8bbd d517 60bf
000001a0: 1db9 ed3e 0911 51be 5da2 20bf 84a9 7fbf
000001b0: 8fd4 5dbf 65ca 783e 9422 de3e 9e05 0b3f
000001c0: 1611 07bf 54cc 37bf e356 703f 1a68 a23e
000001d0: 9800 863c f91d 523f 5711 3ebf 03e4 473f
000001e0: 4125 7fbf de4c 5d3f 709c 1f3f af76 38bf
000001f0: 11e3 683e 7957 08bf f00c 78bf 011a 193f
00000200: 0744 3bbf 5aba 82bc 8339 2bbf 83c4 dfbe
00000210: bed1 f13d 0706 f5be 0ca5 c7be a6db 763f
00000220: 0233 49bf 1610 143f 1579 3b3d 567c 82bd
00000230: 450b 5e3f abf6 19bf ce59 173f 229c 103d
00000240: 8a05 c7be e41a 063f 61c6 373f 3d32 04bf
00000250: 0458 bf3d c74e 3a3f 8ed6 7f3e f6a4 873e
00000260: 0368 26be b274 7fbf 3b35 df3e 0f0b 42bf
00000270: ffc1 b6be a4f2 fdbe 40b1 08bf 51e0 2bbf
00000280: 5b40 5fbf d864 f3be c066 9a3e fff9 01be
00000290: 31dc 173f b40f 103f 4223 6dbd 8a9d 5ebf
000002a0: d531 ea3e 134e 4bbe 02b8 1ebf d6a1 7fbf
000002b0: be56 5bbf aa0c 603e eac4 db3e 1e49 093f
000002c0: 1992 03bf d2af 35bf 3d42 6f3f 8077 9c3e
000002d0: a301 923c 2bdf 513f 3f38 3abf 9e16 473f
000002e0: 4c08 7fbf 4e45 5a3f 102b 1e3f beca 35bf
000002f0: 5aa4 5b3e 0b40 07bf eca3 77bf a27c 153f
00000300: 48b8 00bf 2068 a4be 0092 51ba c03c 653d
00000310: 639f b2bd bc8a 32be 9212 06bf 7af5 683f
00000320: 4676 2ebf ac56 20be 8695 babc 2a19 673d
00000330: fdc7 1a3f ae37 5abe 04da 0e3f f8cb abbc
00000340: 5ebd febe 8b2b 953e 8873 31be 279c 0cbf
00000350: ae6a aa3e 1753 c93e cb57 7e3e b40c 743e
00000360: 3d19 55be e389 7dbf 24da 5d3e ed80 32bf
00000370: c2e6 a73d 75c3 27bf 621a adbe 39f5 0ebf
00000380: f45a 59bf bee1 09bf e43c d4be 41de 73be
00000390: 41b9 363f b019 3f3e e456 cd3e 97bc d9be
000003a0: 4121 123f cfd0 103e a218 0dbf 486f 7ebf
000003b0: 429e 4dbf 0672 933e 9917 a53e 6af3 4e3e
000003c0: 581d 97be e605 5dbf 065e 5e3f 59c8 fcbd
000003d0: 025e 323e d302 3a3f 3480 c3be fcfe 433f
000003e0: fc49 6bbf 8ad2 393f ab92 913e 0a4b dabe
000003f0: bf84 8a3d 8a23 eabe af1e 5fbf 7afa 053f
