r2l/logs_demo/ppo/karel-topOff-2000/9bb32c-seed2000/critic.pt (torch, 59147 bytes, 8 tensors)

weight_ih f4 [192, 4]
000000 42 63 be bd 8b 29 3c 3d 67 9f 98 bd b4 16 a2 bc
       -0.09296276 0.045938056 -0.074522786 -0.019786216
000010 b6 4b 74 bd f3 7a 8a bd 97 dc 6e bd b5 9a e2 bd
       -0.059642516 -0.06761732 -0.05831584 -0.11064664
000020 be 7f e3 bd 40 ce e6 bd dd ab 2f 3d cf 4d f0 bd
       -0.11108349 -0.11269808 0.04288851 -0.11733591
000030 1f c6 96 bc 4a 73 b1 3d 27 8b cb 3d ef 2b 66 bd
       -0.018405018 0.08664568 0.099386506 -0.056194242
000040 ad e6 fc 3d 5f f1 cb bb 43 f4 9f bd 78 99 03 3d
       0.123486854 -0.006223842 -0.07810261 0.03212878
000050 44 f0 70 bd 1d a7 c4 3d f8 ca c8 3d 28 72 bd 3d
       -0.058822885 0.09602187 0.09804338 0.09250289
000060 2a cc 70 3d b0 cc fa 3d 01 41 22 bd e2 07 f3 3d
       0.058788456 0.12246072 -0.039612774 0.11866738
000070 64 84 51 bd a1 23 53 bd f8 f4 26 3d 54 78 84 bc
       -0.05115165 -0.05154765 0.040760964 -0.016170658
000080 04 10 7c bd 92 e7 bc 3d 4e 8e ac 3d ba 7e 2d 3d
       -0.06153871 0.09223856 0.0842558 0.042357184
000090 e9 94 e5 3d ab 55 a2 bd 9b d1 a8 3d 02 19 fb 3b
       0.11210043 -0.07926496 0.08243104 0.0076628933
0000a0 a1 03 74 3c b8 7e 89 3d b9 8e c1 3d a7 77 ab 3b
       0.014893443 0.06713623 0.0945105 0.0052327695
0000b0 32 15 fa bb bc 62 3d bd a0 91 e5 3d 62 a6 b0 bc
       -0.007631921 -0.04623674 0.112094164 -0.021563713
0000c0 ba 46 16 bc b0 28 2c 3d 92 32 a0 3b db 12 47 3d
       -0.009172136 0.04203099 0.004888841 0.048601966
0000d0 7f 38 d3 3d b1 94 a4 3d 89 d0 a8 bc 51 5d 3b 3d
       0.1031351 0.08036173 -0.02060725 0.04574329
0000e0 d2 c3 d8 3a 97 0e d7 3d 9f 3c 78 3d 0e cb 4f bc
       0.0016537851 0.1050083 0.060604688 -0.012682689
0000f0 72 eb a5 bd 22 3d a4 bd fc 02 33 bd 16 3e de 3d
       -0.08101548 -0.08019473 -0.043704018 0.10851686
000100 54 71 b1 3d 04 9d 91 3d 31 27 b0 3d e8 55 c9 bd
       0.08664194 0.071100265 0.08601225 -0.098308384
000110 01 9d f6 bd c0 f6 bf bd c9 1c 40 be ad e3 41 bd
       -0.12041665 -0.09373236 -0.1876098 -0.04733627
000120 0c 52 d8 bd a5 23 a2 bd dc de d7 bd db 0a 4f 3d
       -0.10562524 -0.07916955 -0.10540554 0.050547462
000130 44 72 f4 3d 0f f6 88 bd 63 fc d0 3d f9 dc f6 bc
       0.11935857 -0.06687557 0.10204389 -0.030134665
000140 d2 6b b0 bc 49 fe a0 bc 1a 63 19 3b 54 b0 9c bd
       -0.021535788 -0.019652503 0.0023405016 -0.076508194
000150 b8 54 ff 3c 17 82 95 bd 91 e0 d7 bd 47 6b 9d 3d
       0.031168327 -0.07300203 -0.105408795 0.07686477
000160 1b 9e f5 3d bf 6b fd 3d e3 93 e1 3d 88 70 02 3d
       0.11993047 0.123740666 0.11014535 0.0318456
000170 3c 9f ba 3d 45 09 f2 ba 31 7f a3 bd 3a 56 ed ba
       0.09112403 -0.0018465897 -0.07983244 -0.0018107363
000180 5e ab fa 3d ef c2 00 3e 98 10 64 bd d8 80 10 3d
       0.12239717 0.12574361 -0.055679888 0.035279125
000190 b0 76 43 bd 13 09 20 bd 15 d6 76 3d 2f c9 9e bd
       -0.04772061 -0.039071154 0.06026276 -0.077532165
0001a0 ca 88 14 bd 47 33 77 3d dc 49 01 3c d7 e1 b2 3c
       -0.036263265 0.060351636 0.007891145 0.021836204
0001b0 c5 2f 9d bd 9c 97 9c bd 7b 4d 17 3d a7 ca 31 bd
       -0.07675127 -0.07646105 0.036939126 -0.043406155
0001c0 d5 10 03 3d b2 e3 a7 bc 42 fd 88 bd 6b 87 7e bd
       0.031998474 -0.020494316 -0.0668893 -0.062140863
0001d0 ae 4f d6 bc 43 5e 03 bd ad 67 a9 bd 26 f4 45 bb
       -0.026161041 -0.032072317 -0.08271728 -0.0030205338
0001e0 dc 0e 47 bd 2d c6 66 bd 13 60 90 bd 43 cb ca bd
       -0.048598155 -0.05634134 -0.07049575 -0.0990205
0001f0 dd 47 ad 3d 26 54 6d 3d d0 a4 e2 3d e4 ad 0b bb
       0.084609725 0.05794158 0.11066592 -0.0021313364
000200 b2 19 ea 3c 06 3a e6 3b 72 92 94 3d a5 5d 44 bd
       0.028576706 0.00702596 0.07254495 -0.04794087
000210 fa 08 c0 bd be 13 07 3e 9a 6b bd 3d 0c 30 6f bd
       -0.09376712 0.13191125 0.09249039 -0.05839543
000220 95 e6 87 bd e5 58 b1 3d 87 42 e2 bd 51 1f 2b bd
       -0.06635777 0.086595334 -0.11047845 -0.041777913
000230 0a 4f 71 3b 21 72 50 bd 0e 20 19 bd 94 bb ec 3d
       0.0036820793 -0.05089009 -0.037384085 0.11559215
000240 0e c1 32 3d b9 fa 33 3c 20 6f 55 bd fb c4 57 bd
       0.043641143 0.01098507 -0.05210793 -0.05267809
000250 e7 97 6d bd 3f 68 83 bb af ea a1 bd 7d 43 97 3d
       -0.058006193 -0.00401023 -0.079060905 0.07385919
000260 da 45 94 b9 c1 9d 03 bd d4 a2 50 bd 52 a8 e7 bd
       -0.00028280803 -0.032132868 -0.050936535 -0.113114014
000270 1c bb c2 bb 55 d7 c5 bc ff c0 fe bc 75 af 31 3d
       -0.0059427153 -0.02415053 -0.031097887 0.04338022
000280 34 03 40 bd 72 b7 7c bd fe 01 47 3d f4 e2 db 3d
       -0.046878055 -0.061698385 0.048585884 0.10736647
000290 85 a3 31 bb e3 9f 11 bc 35 6c 01 be 61 29 da bd
       -0.0027105522 -0.008888218 -0.12638934 -0.10652424
0002a0 1d bf 08 bd ab 63 02 bd 75 92 60 bd ee e1 b1 3d
       -0.033385385 -0.031833332 -0.054827172 0.08685671
0002b0 7e 8e d4 bd de c7 54 3b df 54 1d 3c 38 af 30 bd
       -0.10378741 0.0032467763 0.009602754 -0.04313585
0002c0 0b 7c 79 bd e6 2d 60 3d 48 18 c8 3d 1e 23 5f 3d
       -0.060909312 0.054731272 0.09770256 0.05447685
0002d0 a4 b4 61 bd eb 38 85 ba ab a2 aa 3d 63 f1 55 bd
       -0.055103913 -0.0010164058 0.08331808 -0.052232157
0002e0 3e e8 6e 3d 69 32 54 3d c0 a1 2a bd c0 50 ed 3d
       0.058326952 0.051805887 -0.041658163 0.115876675
0002f0 4e a4 0f 3c 72 7f cc 3d 40 da b1 3d ad 98 ed 3d
       0.008767201 0.09985246 0.08684206 0.11601386
000300 b0 15 de 3d 8c 9f ce 3d 91 c6 03 be b3 27 87 bd
       0.1084398 0.10089025 -0.12868716 -0.06599369
000310 7f 61 c4 3d c0 f9 95 3d d0 40 e2 3d 09 2c 33 bc
       0.095889084 0.07323027 0.11047518 -0.010935792
000320 27 85 7b bc 1e 86 a8 3a de 3b b4 3d 2b f5 50 bc
       -0.01535157 0.0012857353 0.08800481 -0.012753765
000330 ba 1a 7c 3b 12 cd 05 bb e8 96 f6 3c 52 b7 f2 bd
       0.0038468079 -0.002041642 0.030101255 -0.11851372
000340 61 0a 51 3d 7d 96 25 bd 08 6b 9c 3d fc f1 95 3c
       0.05103529 -0.04042672 0.07637602 0.018303864
000350 d1 91 93 3b 91 9e 8a bd ba 7e 42 bd 7a 4f bc bc
       0.0045034667 -0.067685254 -0.047484137 -0.022987116
000360 f4 db 49 bd 40 e4 b6 3d 6f aa bf 3d 3f 89 60 bd
       -0.04928203 0.08930254 0.093586795 -0.054818388
000370 fb dc d2 3d 9c fa 55 3d e4 16 09 bd 1d f2 f3 bd
       0.10296055 0.052240953 -0.033469096 -0.11911414
000380 f4 a1 2f 3d 20 e0 95 bd c5 f0 09 3e 56 a9 8b bd
       0.04287906 -0.07318139 0.13470753 -0.06819408
000390 42 51 93 bd 1c f3 83 3c 91 a7 85 bd f1 5e f1 3d
       -0.07193233 0.016107135 -0.065261014 0.11785687
0003a0 ee 0b e7 3d 42 f1 b8 3c 03 c5 f5 3b 2c 3e db bd
       0.11281572 0.022575978 0.0075002923 -0.10705218
0003b0 80 98 4c 3d d4 25 df bd 0c 4e 78 bd 20 b2 9f 3d
       0.049950123 -0.10895887 -0.060621306 0.077976465
0003c0 dc 55 99 bd 11 e1 02 bd 55 b6 23 3d ce 10 c5 3d
       -0.074870795 -0.03195292 0.039968807 0.09622346
0003d0 b0 29 85 bd bc 73 c9 3d 20 e2 ae 3d 9f 7b b2 3d
       -0.06502092 0.09836528 0.08539224 0.08714985
0003e0 9c 8d a1 3d cb 08 79 bd cc 59 5e 3d 00 2c b5 bd
       0.07888338 -0.0607994 0.054284856 -0.08846283
0003f0 b7 e5 55 3c 1a 79 91 bc b1 1f d3 3d 63 56 3d bc
       0.013055257 -0.017757941 0.10308779 -0.011556241

weight_hh f4 [192, 64]
000000 ae b8 c4 bd 57 65 6a 3d 1d 17 d0 bd f3 ce ee 3c
       -0.09605537 0.05722555 -0.101606585 0.029151415
000010 bd 53 49 bd 40 fd 89 3d 99 3f 1e 3c 55 42 99 3d
       -0.049152125 0.06737757 0.009658718 0.07483355
000020 c6 c7 38 3d a8 7a 24 3d b6 cb f1 bd 4f e8 f8 3d
       0.045112394 0.040156037 -0.11806433 0.12153684
000030 95 c6 c4 3c c3 a9 8d bc 37 38 9e bd 38 d4 bb bd
       0.024020473 -0.017292863 -0.07725566 -0.09171337
000040 a3 bb fe bd b1 4a 2a bd 26 8e 4b bd 58 98 c9 3d
       -0.124381326 -0.041575138 -0.04969611 0.098435104
000050 81 2c 9f bd e5 5d fa bd 2f ec 34 bd d5 12 ce 3d
       -0.0777216 -0.1222494 -0.044170555 0.10062186
000060 05 c8 71 bb ab 48 a1 bc 57 a1 2c bd ba c5 4c bd
       -0.0036892903 -0.019687971 -0.042146053 -0.049993254
000070 8e 59 e6 3d 5c 68 c9 3d e1 a8 c0 bd 09 f2 af 3d
       0.1124755 0.09834358 -0.09407211 0.085910864
000080 03 a8 67 3c f9 3f 00 bd 2d 4e 39 bd 41 1c b2 bd
       0.014139178 -0.03131101 -0.04524057 -0.08696795
000090 78 15 a6 bc bb 7f 9b 3d c7 92 4d 3d 29 7a 08 bd
       -0.020273909 0.07592722 0.050188806 -0.033319626
0000a0 56 90 c5 bc eb b4 ba 3d 2f 2c 3f bc 72 e0 f8 bc
       -0.024116676 0.091165386 -0.011668249 -0.030380461
0000b0 79 04 4f bc dd e1 6a bd 25 73 26 3d bb 33 04 3b
       -0.012635344 -0.057344306 0.040637154 0.0020172435
0000c0 64 f1 9e bd 00 e9 3c bd 20 eb 90 bd 09 d5 97 3a
       -0.07760885 -0.046120644 -0.070760965 0.0011583875
0000d0 5f 9d 88 3c c8 af d1 3d fc 0a 30 bd 6c e1 9b 3d
       0.016676603 0.10238606 -0.042979226 0.07611355
0000e0 02 da cb 3c 67 bf b9 bd 2a ab a4 bc d7 da 46 3d
       0.024884228 -0.0906971 -0.020101149 0.048548546
0000f0 7c 35 26 3d dc ff b0 3d f1 91 e9 3b 68 a0 b1 3d
       0.04057835 0.08642551 0.0071279933 0.08673173
000100 b4 cb 3c 3c b7 0f 85 bd a2 46 32 bd 8d 63 b0 bd
       0.011523176 -0.06497138 -0.043524392 -0.08612738
000110 82 18 e0 3d 6e 79 80 3d 7c da ff bc 11 5c b5 3d
       0.109421745 0.06273161 -0.031232111 0.08855451
000120 0c b8 fb 3d 40 eb d0 bd 47 6f f3 bc 32 c9 7a bc
       0.122909635 -0.102011204 -0.029716147 -0.015306758
000130 3c 19 db 3d ed 5b fd 3d 7b 03 d1 bd 18 cb 10 bb
       0.106981725 0.12371049 -0.10205742 -0.002209371
000140 50 dc b8 3d 3c 88 51 bd 17 d7 94 bd bb 90 83 3d
       0.09026396 -0.051155314 -0.07267588 0.064240895
000150 4b b4 5e bd a1 dc 85 bd 94 1d d7 bd 57 84 4a bd
       -0.05437116 -0.06536222 -0.105036885 -0.049442615
000160 11 ce 8f 3b 45 be 87 bd 84 6c 02 3e 80 73 4d bd
       0.0043885787 -0.06628088 0.12736708 -0.050158978
000170 c3 05 e6 bd f8 c4 0c 3d c4 75 88 bc f4 2f 8e bc
       -0.11231568 0.03436753 -0.016657718 -0.01735685
000180 41 8b 90 3d 8c 36 aa 3c 67 25 86 bd ca 72 08 bc
       0.070578106 0.020777963 -0.06550103 -0.008328149
000190 83 65 01 be 1e 32 91 3d 8a 2a c1 bd 58 ee c5 bd
       -0.1263638 0.07089637 -0.09431942 -0.09664601
0001a0 37 7b b0 3d d0 63 bc 3d 96 6c f6 3d c5 9f e3 3c
       0.08617251 0.09198725 0.1203243 0.027786145
0001b0 7b 0e a8 3d 8a 3c cc bd ea 6a 5b 3c 6f f2 c5 bc
       0.08205887 -0.099724844 0.0133921895 -0.024163453
0001c0 09 c2 d5 3d 0d 60 dd 3b 40 02 c9 3d 39 a9 ca bc
       0.104374 0.006755835 0.09814882 -0.024738895
0001d0 67 de dc bd 68 09 ec bd 38 80 2b bd 4f 57 f1 3d
       -0.107846074 -0.115252316 -0.041870326 0.11784231
0001e0 ea cf 93 bd 80 a7 87 bc 2f 90 52 3d 45 75 82 3d
       -0.07217391 -0.016559362 0.051407035 0.06370024
0001f0 76 48 e2 3d c9 03 dc 3d a8 d9 b1 3d 3b 4e 46 3d
       0.11048977 0.107429095 0.08684093 0.04841445
000200 a5 78 87 bb cc 37 df 3d a4 f0 01 be c4 73 8d bd
       -0.004134255 0.10899314 -0.12689453 -0.06906846
000210 34 2c 6a bd 7e eb d4 bc 2f 24 51 3d 1d b7 94 3d
       -0.05717106 -0.025991198 0.051059898 0.072614886
000220 a6 7e 2b 3d 21 a1 22 bd 94 80 0e 3d e6 1f cd bd
       0.04186883 -0.039704446 0.03479059 -0.1001585
000230 f7 1f 9c bd 9f 53 44 3d 7f 58 ec 3c 91 c1 a9 3d
       -0.07623284 0.04793131 0.028850792 0.08288873
000240 77 0a e5 3d 7b 1d bb bd 0e ed 8b ba 25 cd 47 bd
       0.11183637 -0.09136482 -0.0010675506 -0.048779625
000250 be 36 d0 3d 83 3a b8 3d 5a fc a6 bd c4 e0 60 bd
       0.10166691 0.08995535 -0.08153601 -0.054901853
000260 3e 64 0e b9 3d 70 79 3d f7 77 b0 bd 66 70 19 bc
       -0.00013579518 0.060898054 -0.086166315 -0.009365177
000270 a1 60 3f bd 97 fc 77 bd 48 22 97 3d e3 ae c7 3d
       -0.046723012 -0.060543623 0.073795855 0.09750154
000280 8d ca 61 bd 04 01 b9 bd dd 96 97 3d 45 56 ab 3c
       -0.055124808 -0.09033397 0.07401822 0.02091516
000290 f2 63 82 3d eb ba 25 bc 40 91 a2 3d 37 b5 ff bd
       0.06366719 -0.0101153655 0.079378605 -0.12485736
0002a0 06 54 f9 3d d0 4c ab bd 46 62 a0 3d 1b 30 b3 3d
       0.12174229 -0.0836426 0.07831244 0.0874941
0002b0 5d cf a1 bd 92 47 47 bd 42 bb 65 bd 75 63 21 3d
       -0.079008795 -0.04865224 -0.056086786 0.03940149
0002c0 ee 07 6f bd a7 aa 88 3d ca 68 25 3d 88 c6 01 be
       -0.05835717 0.06673174 0.040383138 -0.1267339
0002d0 20 d7 da bd cd 07 5c 3d 7e 90 51 3c 20 04 80 bb
       -0.10685563 0.053718377 0.012790797 -0.0039067417
0002e0 65 96 8e 3b d4 54 7e bd 5b 84 b8 3d 4a 72 fd bb
       0.0043514245 -0.062092617 0.0900962 -0.0077345716
0002f0 de 41 99 bd 2a d4 ea bd 95 3f 97 bd 17 7e 12 3d
       -0.07483266 -0.11466248 -0.07385174 0.03576478
000300 4d ba c4 3d fd a9 1e 3d 68 af 04 bd 8f 62 b6 3d
       0.096058466 0.038736332 -0.032393843 0.08905517
000310 5b 5f 30 3d 03 47 7a 3c c8 7c ec 3d df 7b eb bd
       0.043059688 0.01527572 0.11547238 -0.11498236
000320 f1 bf 93 bc e8 d7 8b 3b 84 c3 83 bd 8c 2c 85 3d
       -0.01803586 0.0042676814 -0.06433776 0.06502637
000330 ef 86 89 bd f3 45 88 bd 7d 3a f1 bd 30 78 83 3b
       -0.0671519 -0.06653967 -0.11778734 0.00401213
000340 a1 08 f4 bd 09 40 97 3d 19 45 50 3d f2 fe 72 3d
       -0.11915708 0.073852606 0.050847147 0.059325166
000350 97 a7 ac 3c 9e 21 ae bd 29 28 9f 3d 97 cb 35 3d
       0.021076007 -0.08502506 0.07771332 0.04438361
000360 be 11 a0 bb 6b f5 68 3c 14 7c c5 3d 0b 55 bc bd
       -0.0048849275 0.014218668 0.09642807 -0.09195908
000370 96 e2 51 3d 89 61 dd 3d d1 36 03 3d 1b 7c b6 bd
       0.05124148 0.10809619 0.0320347 -0.0891039
000380 e6 37 a3 39 95 51 be bc cc 76 6c 3c 82 85 39 bc
       0.0003113143 -0.02323226 0.01443262 -0.011323335
000390 18 4a 02 3d eb 01 86 bd 82 f4 db 3d 60 e0 d6 3d
       0.031808943 -0.065433346 0.107399955 0.10492015
0003a0 d7 de c6 bd 4c 35 0c 3d 5e 26 77 bd 41 1c eb 3b
       -0.09710472 0.034230515 -0.060339324 0.007174999
0003b0 aa e9 a0 bd 89 64 19 3d a2 90 df bd e7 2d ab bd
       -0.07857068 0.037449393 -0.109162584 -0.083583646
0003c0 8a e0 c7 bd 53 61 d4 bd c2 04 ea 3d 1b 4a 4c bb
       -0.09759624 -0.103701256 0.11426689 -0.00311721
0003d0 ff 4b b2 bd 0f d1 e2 3d 49 a4 01 be 9a c3 f2 ba
       -0.08705901 0.11075031 -0.12660326 -0.0018521429
0003e0 4a 46 45 3d 38 4b b1 3d 41 a7 c5 3d 04 f9 72 bd
       0.048162736 0.08656925 0.09651042 -0.05931951
0003f0 5e 9f 15 bd 86 f3 e1 3d bf 77 98 3b 81 5f be 3d
       -0.036528938 0.110327765 0.0046529467 0.0929556

bias_ih f4 [192]
000000 f2 49 ba bd fd 65 02 be e0 42 d8 bd de 8b 19 bd
       -0.09096135 -0.12734218 -0.105596304 -0.037486903
000010 12 a2 83 3d 59 2d 92 bc 3a 75 9d 3d 86 f5 0a bd
       0.06427397 -0.01784389 0.07688375 -0.033925556
000020 e3 cc 84 bd cd f2 a1 3d 63 f1 da 3d 8f 9a ae bc
       -0.064843915 0.07907639 0.10690572 -0.021313934
000030 d5 d2 97 bc fd ac 98 bd 05 dc c4 3c 46 32 33 bd
       -0.01853315 -0.0745487 0.024030695 -0.043749116
000040 f3 e6 57 3b 51 56 2c bc a3 6f da 3d b5 66 ff bd
       0.0032944053 -0.010518626 0.10665824 -0.12470762
000050 e5 e3 c8 3d 26 8d 7b bc fe 74 d0 3d 24 73 4c bd
       0.098090924 -0.015353477 0.101785645 -0.049914494
000060 c1 6c 33 bc d0 04 6f 3d f5 ac 87 bd 25 c4 ad bd
       -0.010951222 0.0583542 -0.06624786 -0.08484677
000070 32 07 3a bc 27 84 e8 3c b7 3c f6 3d f1 bd c6 bd
       -0.011354255 0.028383328 0.12023299 -0.09704197
000080 73 bb e4 3d 93 cf 9c 3d 77 fa c2 bc 50 c4 e8 3d
       0.111685656 0.07656779 -0.023801072 0.11365569
000090 23 21 a7 bd 8c 30 bb bd d8 09 83 bd 5e 75 d4 3d
       -0.08160617 -0.09140119 -0.06398362 0.103739485
0000a0 87 81 ed 3d 20 79 f8 bd fc a0 b0 3d d9 bd 93 3c
       0.11596971 -0.12132478 0.08624455 0.018034862
0000b0 70 fe fe 3d 34 dc b1 3d f6 07 1f 3d 79 82 3c bd
       0.12450874 0.086845785 0.03882595 -0.046022866
0000c0 c7 01 f4 3d 05 9b 2f 3d 02 34 d9 bc bc 9e c3 bd
       0.119144015 0.042872448 -0.026514057 -0.095517606
0000d0 a3 0f 9c 3d f4 e5 74 3d 69 f7 f6 bd 84 3e e6 bb
       0.0762017 0.059789613 -0.120589085 -0.0070264954
0000e0 6b 3b 8f 3d 31 93 88 bb f8 44 25 bc 78 84 5d bd
       0.06993755 -0.004167937 -0.010087244 -0.05408141
0000f0 2f 14 19 3b a4 5a 29 3d c1 e0 1d 3d 64 5d 71 bc
       0.0023357978 0.041346207 0.03854442 -0.014731739
000100 0d 77 94 bd 0e f1 14 3e 6e 30 1a 3a 41 cb b6 bd
       -0.0724927 0.1454508 0.00058818504 -0.08925486
000110 00 10 c6 bc a9 97 90 3d c0 a7 bb bd 5f 14 22 bd
       -0.024177551 0.07060177 -0.09162855 -0.03957021
000120 41 c8 c9 3d ee ae 72 bd 51 97 ce 3c 24 02 89 bd
       0.098526485 -0.059248857 0.025218638 -0.066898614
000130 5b b7 26 be 0b 2e d9 3d 2a 06 97 3d 06 c8 84 3d
       -0.16280882 0.10604485 0.073742226 0.06483464
000140 de ff 61 3c 96 7b 9e 3c 5d 3a 49 bd 0a 91 a7 3c
       0.013793914 0.01934604 -0.049127925 0.020454902
000150 90 32 e9 3d 68 7e a3 3c 8f ea be 3c 69 75 15 be
       0.11386597 0.019957736 0.023305206 -0.1459557
000160 62 63 d1 bd ab 23 8e bb ec 74 4a bd 84 1b b5 bd
       -0.10224034 -0.004337748 -0.04942791 -0.08843139
000170 c4 15 a1 3d 28 1d d6 bd 74 90 d9 bc fc ba c1 3c
       0.078654796 -0.1045478 -0.026558138 0.023648731
000180 72 de a3 3c 87 fa f7 3d f0 d5 c9 b9 70 60 83 3d
       0.020003531 0.12108331 -0.00038497103 0.06414878
000190 e4 39 d0 3d b9 3c 17 be ff 74 39 bd 16 32 d4 bd
       0.10167292 -0.14769258 -0.04527759 -0.10361116
0001a0 df a2 58 3c bb 4f 0e 3d 33 7d 0a bd d7 7f 44 bb
       0.013222425 0.034744006 -0.033810806 -0.0029983425
0001b0 9e c0 93 bd 8d c1 73 bc 55 d9 a8 bb 84 60 be bd
       -0.07214473 -0.014877689 -0.005152861 -0.09295753
0001c0 9b d9 ee bc 9e ed 0a be 99 b0 73 bd 10 ef 66 bd
       -0.029156497 -0.13567206 -0.05949459 -0.05638033
0001d0 b2 ed b8 bd db e0 86 3d 22 4a a0 bd 79 ea 0c 3d
       -0.09029712 0.065858565 -0.0782664 0.034403298
0001e0 bd 5b ba bd 97 2d 50 3d be 39 e0 3c 0c 49 89 bc
       -0.09099529 0.050824728 0.027371284 -0.016758464
0001f0 77 cb da bd a4 48 8a bd ca de 1f be 10 ff ac bb
       -0.10683339 -0.06752136 -0.15612331 -0.0052794293
000200 b5 f1 21 bd c0 4f 8b 3d cf 91 35 bd 65 09 42 3c
       -0.03953715 0.068023205 -0.044328507 0.01184306
000210 0a 52 09 3c 66 71 9b bd eb b4 db 3c 07 a1 c9 bd
       0.008381376 -0.075899884 0.026819667 -0.09845167
000220 f8 dd e5 bc 7e c9 f9 3c c8 7c 65 bb f5 39 c8 3d
       -0.028059945 0.030491587 -0.0035017002 0.097766794
000230 d3 2f e1 3d d6 13 8e bd e2 b2 e6 3d 66 99 49 bb
       0.1099545 -0.06937377 0.11264588 -0.0030761599
000240 c2 3c 4c 3d 8f 27 d6 bc 56 49 b8 bc 7f 6f e1 3d
       0.04986263 -0.02614191 -0.022495907 0.11007594
000250 b5 6e f7 3c 47 6f 27 bc e3 3c c2 bd cf 63 61 bc
       0.030204156 -0.010219402 -0.094842695 -0.013756706
000260 c1 0a 2e bd f0 f9 8c bd 2d 4f a3 bc cc a7 cb 3d
       -0.042490724 -0.06883609 -0.019935215 0.09944114
000270 65 c4 8b bd e8 be 97 3d 81 4a bf bd 05 2f 9f 3d
       -0.06824569 0.07409459 -0.09340382 0.0777264
000280 f9 03 c2 3d 4f 33 1b 3d 89 d7 9f bd ad 5e ce bd
       0.09473414 0.03789073 -0.07804782 -0.10076652
000290 51 d1 99 3d 23 7c cf bc 7e d8 41 bd a1 f5 28 bd
       0.07510627 -0.025327748 -0.047325604 -0.041249875
0002a0 9d 4a 65 3d 1c 62 96 3d 39 c1 b9 3c 95 92 42 bb
       0.05597936 0.07342932 0.022675144 -0.002968942
0002b0 41 f0 91 ba 31 45 ad bd cf 27 89 3d d1 d3 35 bd
       -0.0011134223 -0.08460463 0.06697046 -0.044391457
0002c0 55 6b a6 bc 88 d5 09 be fe 75 e8 3d b4 85 f6 bc
       -0.020314852 -0.13460362 0.1135063 -0.030093051
0002d0 6c 45 82 3c 8f 15 b4 bd fb 2e 84 3d b6 3d 6e bc
       0.015902244 -0.087931745 0.06454273 -0.01454108
0002e0 36 37 80 bc 2f 4f 34 3d ea be a9 bd 02 26 03 3d
       -0.015651327 0.044020828 -0.08288367 0.03201867
0002f0 59 5e 8e 3d 56 9a 90 bd ae 97 b0 3d e5 2d be bc
       0.06951589 -0.07060687 0.086226806 -0.023215244

bias_hh f4 [192]
000000 f1 61 f8 3c c0 13 b7 bd 55 d0 00 be 9c 10 99 3d
       0.03032014 -0.08939314 -0.12579472 0.07473871
000010 3c 08 0d bc 26 7a 88 3d bc 88 07 bd ba 3a b4 3d
       -0.00860792 0.06663923 -0.033089384 0.08800264
000020 f4 f9 0d bd 75 c7 31 3d 15 3e 90 bd 4e 9f 85 bd
       -0.034662202 0.043403108 -0.07043091 -0.065245256
000030 1e 10 48 bd 08 18 02 3d d4 94 98 3d eb 52 b9 3d
       -0.048843496 0.0317612 0.07450262 0.090490185
000040 6a d2 1f 3d 7f 13 85 3c 30 0f 7d bd 4e 3d 9c 3d
       0.039019026 0.016244648 -0.061782062 0.076288804
000050 75 db b6 bd 5d 43 dc bd 18 c7 d0 3d 1e 43 b5 3d
       -0.08928577 -0.10755036 0.10194224 0.08850692
000060 7f 76 cb bd 7f d8 37 bc 91 36 9b 3d ea a9 00 be
       -0.09934711 -0.01122105 0.07578767 -0.12564817
000070 f6 b9 b7 bd d7 30 dc 3c 15 14 8c 3d 2b 1f 0c bd
       -0.08971016 0.026878757 0.06839768 -0.03420941
000080 d9 a0 3f 3c 69 bc a0 3d a7 56 a6 3d 9e b8 f8 bc
       0.011696064 0.078484364 0.081219964 -0.03036147
000090 cc 3d 02 bc 2d 71 4f bd 67 8b 93 3c 36 90 e5 3d
       -0.007949304 -0.050645042 0.018010808 0.11209147
0000a0 03 d9 24 3d b4 8e 89 3d 2e 95 d3 bd 25 9c be 3d
       0.04024602 0.067166716 -0.10331188 0.09307126
0000b0 2a 63 67 3d 86 0a 91 3d 35 a4 bb bd 19 90 6b bd
       0.056491055 0.07082085 -0.091621794 -0.05751047
0000c0 d9 f9 69 bc 0a 54 a5 3b 91 7e 8f 3d 5e df 64 bd
       -0.01428076 0.0050454186 0.070065625 -0.055877082
0000d0 c3 78 8c bd 59 4d c7 3c dd af d8 bd 0b ec fe bd
       -0.06858971 0.024328874 -0.10580418 -0.124473654
0000e0 5c bc 26 3d c6 b6 9c bc 92 00 8f 3a e0 02 dd 3d
       0.040706977 -0.019130122 0.0010910204 0.10791564
0000f0 69 63 b3 bd 25 ef b5 3d 22 3e d6 bc 9d ce 05 3a
       -0.08759195 0.08883504 -0.026152674 0.0005104335
000100 97 07 bc bc 80 df aa bd e4 dc a7 3d bd f3 80 3d
       -0.022952838 -0.083434105 0.081964284 0.062964894
000110 eb 09 30 bc 44 95 aa bd 1e a8 a5 3d e7 49 3f bd
       -0.010744552 -0.083292514 0.080887064 -0.04670134
000120 b1 b9 ad 3d 19 5d bc 3d 4f e7 6a 3d f6 cd 89 3d
       0.084826834 0.091974445 0.0573495 0.06728737
000130 69 70 99 bd 19 8f 93 bb 3f 52 13 be e2 28 0c bd
       -0.07492144 -0.0045031426 -0.14386843 -0.034218676
000140 00 d0 f9 bd 74 ce e4 3b 40 c3 9b 3d 14 c8 b6 bd
       -0.12197876 0.006982619 0.076056 -0.089248806
000150 0f b9 7a 3d d5 44 e0 3d 2c c7 6d bd f8 06 fd bd
       0.061211642 0.10950629 -0.058051273 -0.12354845
000160 20 73 f5 bd 96 29 05 3c 9d e1 46 3b 8a 82 c7 bd
       -0.11984849 0.008127591 0.0030346878 -0.09741695
000170 a4 4e a5 bd 08 ca 19 bc 86 79 a5 bd 8b 2e 89 bd
       -0.0807164 -0.009386547 -0.080798194 -0.066983305
000180 49 d5 25 3e 1d c6 d2 3d 8b 4a 0e be 5e 65 80 3d
       0.16194643 0.10291693 -0.13895623 0.06269334
000190 b0 40 98 bd 9f 38 d8 bd 6a 6b b1 3b 99 52 2d be
       -0.07434213 -0.105576746 0.005414416 -0.1692604
0001a0 d7 a8 f8 bd 2f a7 a9 3d ef 56 f0 bd 86 df d8 bd
       -0.12141579 0.08283841 -0.11735331 -0.10589509
0001b0 eb 4e 2c bd 47 38 c6 3d 5c 9d 2c 3d a3 a7 75 bd
       -0.04206745 0.09678703 0.042142257 -0.059974324
0001c0 57 db d4 3d df d4 b6 3c b7 53 bb bc d6 4b fa bd
       0.10393398 0.022318302 -0.022867067 -0.12221496
0001d0 ec 87 96 3b b2 3c 07 3d 3a 4a 99 bd a9 57 fc bd
       0.00459384 0.033016868 -0.07484861 -0.12321407
0001e0 51 c3 9d bd ab 30 65 3d 93 1c bb 3c af 38 ad bd
       -0.07703269 0.055954617 0.022840774 -0.08458077
0001f0 9b db 70 bd c7 72 fb 3c 8d 12 dc bc 67 46 8f bc
       -0.058803182 0.030694379 -0.026864314 -0.017489625
000200 e5 3c a2 3c 01 d9 e6 3d a8 fb a9 3d 2b 1c 9d bd
       0.019804427 0.11271859 0.08299953 -0.07671388
000210 76 ce b4 3c a1 dc c9 bd a1 87 db bd a0 ac e6 3d
       0.022071104 -0.09856535 -0.107192285 0.11263394
000220 73 d6 ee 3d 14 ba 06 bd 25 b8 8c bd 81 75 f8 bd
       0.11661997 -0.0328923 -0.0687106 -0.12131787
000230 35 cf 61 3d 4a 78 4d 3d ce cf 6c 3d d9 56 fd 3d
       0.05512925 0.050163545 0.057815365 0.123700805
000240 46 db 61 3d f7 d2 38 bd b2 ab 76 bd 0d b3 1a 3d
       0.055140756 -0.045123067 -0.060222335 0.037768412
000250 00 d2 c0 39 d3 d0 a1 bb fc b8 4e 3d c5 82 d4 bd
       0.00036777556 -0.004938224 0.050469384 -0.10376505
000260 f2 e0 79 3c 77 09 80 bd aa cb de bd 5c f0 f2 3c
       0.015251385 -0.06251805 -0.108786896 0.029655628
000270 74 77 b1 bd 99 5f a2 3d a0 b4 86 bc 05 1a a4 3c
       -0.08665362 0.0792839 -0.01644355 0.020031938
000280 f8 28 5d 3d 90 ce e5 3d fb 50 d8 bd 94 2b c9 3d
       0.05399415 0.11221039 -0.10562321 0.09822765
000290 1f 38 a0 3b 65 cb 2a bd 09 67 ef 3c d5 7c ee bd
       0.0048895027 -0.04169788 0.029223936 -0.116449036
0002a0 a3 d6 c5 3d 66 4c 8c bd cc 98 50 bd d4 26 3d 3d
       0.09660079 -0.06850509 -0.05092697 0.046179608
0002b0 1c 14 00 3e b7 ad 5a bd 13 a9 8b bd 0b 3f bc bc
       0.12507671 -0.053388324 -0.06819358 -0.02297928
0002c0 b0 6e 9e bd dd 9b 43 3c 87 b5 de bc 1b 96 05 be
       -0.07735956 0.011939016 -0.027186168 -0.13045542
0002d0 82 62 11 3d 5a 20 2f 3c 87 94 90 bd d3 2b 10 bc
       0.035494335 0.010688866 -0.07059579 -0.008799511
0002e0 07 bb 5e 3d 9f ff 0a ba 26 08 31 bd 46 1c 79 3d
       0.054377582 -0.0005302373 -0.04322066 0.06081798
0002f0 d6 44 a3 bd 1f fe fb 3d 5c ea fd 3d 76 d8 23 bd
       -0.07972114 0.12304329 0.12398216 -0.040001355

weight f4 [1, 64]
000000 83 ae 6c 3d aa 13 dc bd d4 84 b7 bd df dc 11 3b
       0.057783615 -0.10745938 -0.08960882 0.0022256894
000010 a0 ca 9e 3b 66 73 2a 3d d4 d7 fb bc 19 75 f3 3c
       0.004845932 0.04161396 -0.030742563 0.029718922
000020 a7 43 f7 bb b3 ba f0 ba 68 3f 21 bd 69 52 5b bd
       -0.0075459066 -0.0018366188 -0.03936711 -0.05354539
000030 86 36 d6 3d 21 fd a8 bd b7 29 43 3c a4 d2 e6 3d
       0.10459618 -0.082514055 0.011911801 0.11270645
000040 1f 4c f6 3c 11 94 f9 bd 53 92 5b 3d 2e 63 bd 3d
       0.030065594 -0.121864446 0.053606343 0.09247433
000050 af f7 0d bc 3c ba ae bd e4 46 a0 bc 9b a7 e2 bd
       -0.008665009 -0.08531615 -0.019565053 -0.110671245
000060 79 d7 09 bd e9 20 e8 bd e4 2a 2e bc 36 62 79 bd
       -0.033652756 -0.11334402 -0.010630343 -0.060884677
000070 01 1e e3 bd a7 f8 9f 3c 3e 6b 8a bc 62 96 43 bd
       -0.11089707 0.019527746 -0.01689684 -0.047750838
000080 6f 57 f5 bd 75 ce 8b bd 04 bd a5 bd f7 81 a4 bd
       -0.11979567 -0.06826488 -0.080926925 -0.08032601
000090 10 47 d0 bd 82 00 48 bd f8 e0 8f bd 39 0e c6 bd
       -0.10169804 -0.04882861 -0.07025331 -0.096706815
0000a0 30 e8 7a 3d 7c 89 fd 3c c0 a6 28 3d 01 9e d1 bd
       0.061256588 0.030949347 0.04117465 -0.10235215
0000b0 76 e0 2a bb 48 b5 2f bd c9 83 67 3a cf fa 33 bd
       -0.002607373 -0.042897493 0.0008831588 -0.04394036
0000c0 c5 0e 99 3d 9b 4f 3b bd 36 95 57 bd 6f c7 9f bd
       0.0747352 -0.045730215 -0.052632533 -0.07801711
0000d0 db 46 8d bc d8 b6 4e bd 88 80 9e 3d 02 69 c2 bc
       -0.0172457 -0.050467342 0.07739359 -0.023731712
0000e0 62 ca bc 3c 00 b8 fb bc 64 4b ef 3c 3c 5d 81 3d
       0.023045722 -0.030727386 0.029210754 0.06316611
0000f0 95 24 c7 bd 4f 4c 97 3c 47 1f ee 3d 5f 0a c7 bd
       -0.09723774 0.018469004 0.116270594 -0.09718775

welford_state_mean f4 [4]
000000 15 04 56 3f e0 f9 5e 3f 8a 41 60 3f c8 20 10 3f
       0.8359998 0.8710003 0.87600005 0.5630002

welford_state_mean_diff f4 [4]
000000 73 b1 08 43 c4 52 e0 42 3e e2 d8 42 84 a6 75 43
       136.69316 112.16165 108.44188 245.65045

hidden f4 [6, 64]
000000 3a dc b0 3d 47 37 81 3d b4 14 2d bd 41 58 c5 bc
       0.08635755 0.063093714 -0.042256072 -0.024089934
000010 78 22 43 3d 32 d0 c3 bd 86 95 5b bd 20 00 1e be
       0.047640294 -0.095611945 -0.053609394 -0.15429735
000020 b9 e2 12 bd f9 40 64 3d fe 60 88 bd 8e 7b 68 3d
       -0.03586075 0.055726025 -0.06659125 0.056758456
000030 68 c0 75 3e 4a cf 8e 3d b4 1b d7 3d d6 e2 c4 3c
       0.23999178 0.06973131 0.10503331 0.024033945
000040 c3 ce c6 3d 40 41 1f 3b 5e 7f c0 bd ba a2 f8 3d
       0.097074054 0.0024300367 -0.09399293 0.12140413
000050 dc 06 50 bd d2 12 cd 3d 1d c0 cf 3c 25 fc f3 bc
       -0.05078779 0.10013355 0.025360161 -0.029783318
000060 3c 1e a5 bc 1c a7 2e be d2 79 19 bd b6 c0 1a 3e
       -0.020156018 -0.17055935 -0.037469693 0.15112576
000070 e8 08 d8 bd c6 02 11 3d b6 e3 f9 bd f6 48 a9 3d
       -0.10548574 0.035403036 -0.122016355 0.08265869
000080 0c b9 88 bc 08 39 0c 3e 36 d7 d2 bd d3 4e 0a be
       -0.0166898 0.1369363 -0.102949545 -0.13506632
000090 37 4c dd 3d 20 9d b1 bd 3b 71 0c 3d 70 84 19 be
       0.108055525 -0.08672547 0.034287672 -0.14991927
0000a0 08 f5 60 3c d2 4b 5b 3d dc 13 a2 bc c8 a1 a7 3c
       0.013730295 0.053539105 -0.01978486 0.020462885
0000b0 9f 2d 5b 3e ec 48 28 bd 76 51 13 3d a0 00 70 ba
       0.21404122 -0.04108517 0.03596636 -0.00091553666
0000c0 c7 83 04 be 02 30 27 be 5c 0f 0e 3e ba bd ed bd
       -0.12940894 -0.16326907 0.13873047 -0.11608453
0000d0 ab cf 9c 3d 38 dc 9e bd 3a 92 1a 3d 4e 9d 09 3d
       0.07656797 -0.07756847 0.03773711 0.033597283
0000e0 e6 95 1f 3d c2 05 05 bd d6 da aa bd fd 65 c5 3d
       0.038961314 -0.032476194 -0.08342521 0.09638593
0000f0 4a 77 99 3d 7a 27 8e bd 6b a7 cd 3d 37 2e 19 bb
       0.07493456 -0.06941123 0.10041698 -0.0023373493
000100 3d 89 a3 be c1 dd 7f 3e 2e af e4 3d 0c 3e 97 bd
       -0.31940642 0.24986936 0.111662254 -0.073848814
000110 04 3c e5 bd 60 9f 95 be 57 1f dc bd 9c 31 4f be
       -0.11193088 -0.29223156 -0.10748165 -0.20233768
000120 03 ec 15 3e 10 3e c3 3b fe 91 20 bd 6c 68 5c be
       0.14640813 0.005958326 -0.03920173 -0.21524209
000130 e3 7b f6 bc a0 49 6d be f6 b9 89 3e 32 c5 11 3e
       -0.03008837 -0.23172617 0.2689969 0.1423538
000140 03 52 24 3e 04 99 30 3d 3e 3e 0f be 8a f9 5e 3e
       0.1604691 0.043114677 -0.13988587 0.21774879
000150 ae 40 b7 3d 8f d3 55 be ad ae eb bd 65 5f 1f be
       0.089478835 -0.20881484 -0.11507926 -0.15563734
000160 e0 0b 2b 3c 4c 67 94 bd ae 6c 11 be 40 40 2c 3c
       0.010439843 -0.07246265 -0.14201614 0.010513365
000170 41 fc f0 3d 8c 87 2d 3e 8c 49 eb bd 50 82 38 3e
       0.117668636 0.16946238 -0.11488637 0.1801846
000180 73 93 71 3e 52 ee b3 3d 18 61 b0 bd 66 ec b6 3d
       0.23591404 0.0878569 -0.08612269 0.08931808
000190 f7 d7 6d 3e 77 5e 2f bd 28 84 6e 3d 40 f1 f6 bd
       0.23226915 -0.042814698 0.058231503 -0.120577335
0001a0 be 6d ab 3e 00 2d 3c 3d ef de 2a 3e 2a 4c ce bc
       0.33482164 0.045941353 0.16686605 -0.025182802
0001b0 c4 3e e2 bd 5e 34 df bd fc 5b b7 3e f9 25 14 be
       -0.11047128 -0.1089866 0.35812366 -0.1446761
0001c0 f9 4e 6c 3d c8 89 05 3d 2a f9 ed 3c f0 65 21 3d
       0.0576925 0.0326021 0.029049475 0.039403856
0001d0 c8 06 ef bc b5 af b6 bd 7a ea d2 3d bf 71 03 be
       -0.029178038 -0.08920232 0.10298629 -0.1283636
0001e0 76 6e 2e 3e e5 a9 1e 3e 00 62 4f bd 9e 98 51 3e
       0.17034325 0.15494497 -0.05063057 0.20468375
0001f0 14 d0 84 bd 20 c1 d0 bb ae d0 87 3e bc d1 85 3d
       -0.06485 -0.0063706785 0.26526397 0.06534144
000200 1a f6 9a be 8a d6 96 bc 7f 5e 15 bd 51 4a eb 3c
       -0.30265886 -0.018412847 -0.03646707 0.02872196
000210 96 59 7f 3d 72 89 82 be 10 9c 85 3a a6 d1 85 bc
       0.062341295 -0.25495487 0.0010193605 -0.01633532
000220 30 d9 66 3e d3 8d 38 be 6f 0a 6a be 80 40 86 be
       0.22543788 -0.18022852 -0.22855543 -0.26221085
000230 b9 25 1f be 30 a3 8e bc 0a 6a 0f bd f6 4e c3 3e
       -0.15541734 -0.017411798 -0.035013236 0.3814618
000240 6a dc bd 3e 69 2b 50 be c0 d5 ee bd 36 7d cd 3d
       0.37082225 -0.2032906 -0.11661863 0.10033648
000250 ba 63 86 bd 02 ef 12 be a0 1b 1e be 2c 19 0a bc
       -0.0656199 -0.14348987 -0.15440226 -0.008428853
000260 e4 23 25 be 4f a3 28 3e 59 6d 67 bd 4f 6c b1 3e
       -0.16126972 0.16468547 -0.056500766 0.34652945
000270 68 5f 8a 3d 5d 2b 1f 3e a5 92 5c 3e 40 8b f5 3a
       0.067564785 0.15543886 0.21540315 0.0018733516
000280 de 32 87 3e e1 f9 9e 3e 74 ae 69 be c4 22 2e 3e
       0.26405996 0.31050017 -0.22820455 0.1700545
000290 77 b7 98 3d dc 1a a5 3b 45 f5 74 3e 6f ad 04 3e
       0.07456868 0.0050386023 0.23921688 0.12956785
0002a0 ba 99 8b 3e 38 90 ed bd 4c 04 29 3e 68 47 e5 3a
       0.27265722 -0.11599773 0.16505545 0.0017492594
0002b0 10 48 6f bc ee 63 4a be da 53 8d 3e 17 ca 6a 3e
       -0.014604583 -0.19764683 0.27603036 0.22928654
0002c0 02 a2 53 3e c0 17 ce 3d 2f 20 7a 3d 2c b9 47 be
       0.2066727 0.10063124 0.06106585 -0.19504231
0002d0 ac c0 87 be a8 3a 7d be f9 d2 f4 3d 59 a0 36 3e
       -0.26514184 -0.24729407 0.11954302 0.17834605
0002e0 40 2f 73 3e fe b7 96 3e 59 f5 37 be 18 60 9c 3d
       0.23748493 0.2943725 -0.17964686 0.07635516
0002f0 0f fe 06 be ff 3c a6 3d de f1 79 3e 74 23 15 be
       -0.13182853 0.08117103 0.24408671 -0.14564306
000300 dd 43 92 be 91 e5 c7 3e 16 0e 5f 3e 24 d3 68 be
       -0.285674 0.39042333 0.21782717 -0.22736794
000310 51 6b 2a be 14 52 b1 be fb 58 56 be 5d f7 9f be
       -0.166425 -0.34632933 -0.20932381 -0.3124341
000320 07 12 51 3d bd a0 e2 3d a3 9f 13 3c 08 ae 94 be
       0.051042583 0.11065815 0.009010228 -0.29039025
000330 62 f3 95 3d 92 f9 5f be 16 35 c5 3e b2 c9 4d bd
       0.07321812 -0.21872547 0.38517064 -0.05024118
000340 30 75 a4 bc 26 e0 28 3e ca 26 ca bd 49 b4 db 3e
       -0.02007541 0.16491756 -0.0987068 0.42910984
000350 79 93 69 3e 5c 70 8a be 4c e8 4e be 47 17 4f be
       0.22810163 -0.27038848 -0.20205802 -0.20223723
000360 e1 96 47 3e 08 7e 8d be 80 25 57 be ca 66 48 be
       0.1949115 -0.27635217 -0.21010399 -0.19570461
000370 48 b7 f9 3d 40 3b ce 3d 30 96 b1 be 97 33 ba 3e
       0.12193161 0.10069895 -0.34684896 0.36367485
000380 72 ce 79 3e 60 00 17 be 70 b2 cb 3c 05 fc 46 3d
       0.24395159 -0.14746237 0.024865359 0.04858019
000390 cd c1 98 3e 44 97 00 be 2e 4e de bd 13 33 9a be
       0.29835358 -0.12557703 -0.10854755 -0.30117092
0003a0 b6 27 91 3e 07 3b 89 3e e5 fb 88 3e 6d 8a 14 bd
       0.2835061 0.26802847 0.2675468 -0.036264826
0003b0 82 d7 20 be ce fc 3c be 00 39 d6 3e d6 7d af be
       -0.1570721 -0.18455812 0.41840363 -0.34275693
0003c0 a4 95 1d be d5 b4 de bb d1 7a 8a 3d 4c cb 46 3e
       -0.15389115 -0.006796459 0.067617066 0.19413489
0003d0 65 17 26 3e f6 1d a5 bd e5 02 c6 3d 19 30 a0 be
       0.16219862 -0.08062355 0.09668521 -0.31286696
0003e0 47 93 1c 3e 99 a0 b8 3d 6a 5d 04 3d ac 03 87 3e
       0.15290557 0.090150066 0.03231565 0.2636999
0003f0 00 dc 83 bc a0 dd d8 bd cf 9a 63 3e c0 ed a8 3e
       -0.016096115 -0.105891466 0.22227024 0.3299389
