minigrid/r2l/MiniGrid-PutNearTwoRoomR2L-v0_logs/MiniGrid-PutNearTwoRoomR2L-v0/592f6d-seed107/critic.pt (torch, 65199 bytes, 8 tensors)

weight_ih f4 [192, 11]
00000000: 8265 0e3c 2a62 31bd 9674 56bd 7235 823d
00000010: 2083 823b f01c 113d 4075 9abd 9cfa ad3c
00000020: 9427 c43d 5b35 c3bc f4ae 37bd 14de d7bc
00000030: f4a5 1a3d 029c 533c 20f7 49bd a441 4dbd
00000040: 2ef6 a4bd 40e9 763d 5b64 513d ac5c 47bc
00000050: 1746 363c 2cfb d23d c77c 463c b657 3abd
00000060: 4b4c b1bc 6420 e83d 50c7 62bd 74bb 1abd
00000070: a827 4f3d cd4c febd 23ac cfbd 2a89 603b
00000080: 375f af3d fe35 3bbd 6a64 48bc 7485 3cba
00000090: d03a 093d e08f d03c 403d 86bd 2c77 5dbd
000000a0: a4ed 6e3d 30e2 2c3d 9344 95bd db75 043c
000000b0: be83 d33c e6a3 2e3c 48f0 cebd ecba ccbd
000000c0: b8a3 04bd 4c22 e5bd 8495 febd 61c9 06bd
000000d0: e6b1 e73d 3221 f93d 9d4c d9bd dfd0 023d
000000e0: 305f f23d b85a a9bc e090 4cbd 6865 853d
000000f0: 7681 b1bd a04a bd3c d23b c03d 7250 d73d
00000100: e8e4 8d3c 472e 9dbc 2811 8d3d 47bb c0bd
00000110: 929b 8bbd 80c3 9dbb be31 b93d 4667 b83d
00000120: e8d9 96bc a27a 723c 818e e0bd 974b e4bd
00000130: a98f 363b 4652 c8bd 7f21 c63c 8ebd a63d
00000140: 3669 81bd 18db 8d3c d020 bebd ce43 8a3d
00000150: aadf c8bd 8671 bebd 921d 42bc e265 b3bd
00000160: 8186 aa3c ad9f e8bd cc40 a83d b83d 98bd
00000170: 1eba 99bd 4044 f7bb a46b 2bbd e7d1 373d
00000180: 2760 a73d be17 963d 1fe9 f33d a64a cbbd
00000190: 8ce2 8a3d 0d33 38bd 0c27 553d 9c8c b83d
000001a0: 1af4 a2bd c23c ab3d dbf2 fe3d ef06 913d
000001b0: 9014 3abb 1b72 b6bd 9d86 44bd a663 0f3d
000001c0: 632a 3d3d 28c1 873c 5209 8fbd 1006 12bd
000001d0: 44c0 5d3d b810 3d3d a7f5 c8bd 2b49 5b3d
000001e0: 58d8 d0bd 59ab 83bd 912a 943d 765b ff3d
000001f0: ea85 96bd 74df 973d c4b9 773d b8c5 d83c
00000200: ba4c 91bd b438 5ebd ed4a 7b3c 9bad ef3d
00000210: 0f41 a03d d86b 3cbd 2215 8cbd 0023 7ebd
00000220: 1cf1 923d 6c13 48bd 361d fa3d 6f5a 28bd
00000230: f70c 66bd 0760 49bd 300d e3bd 4219 603c
00000240: a5b2 e639 a7d0 4dbd ccfb 60bd 08eb 9e3d
00000250: a07e 92bd f4e4 f4bd 1d8f 603d c4aa e13d
00000260: 1d8b a73d 37e8 d6bd a23a 063d 5d54 84bd
00000270: e316 b3bc 4cdb 73bd 209f 9abc 10ea f0bc
00000280: 3025 103c 0a02 acbd 1298 0e3d 352b dbbd
00000290: 3871 5b3b bf61 8a3d fb2e fbbc 021c 153c
000002a0: 9ada d43d c02c 39bb 48df b53d 44cd 813d
000002b0: 5480 9c3d b9ac 0e3c 9e91 fa3d 3230 5fbd
000002c0: ee4c cebd f927 a4bd bb00 ed3d 80c5 743d
000002d0: 3225 a4bd c620 e4bd 2a27 973d 6f30 883d
000002e0: 61a7 8a3d 21ac a4bd 77a6 d4bd b59d 2ebd
000002f0: 92d2 b9bd ff37 f6bd c01e c8bd 5449 f23d
00000300: 302f 8d3d 401f 953d 0235 d9bd ea22 f0bd
00000310: b34e b2bd 02db b9bd ed47 0d3c 5626 cdbd
00000320: 5fdd e0bc 606b 483d a204 943d 5495 c93d
00000330: f42e 9ebd 578b ab3d 5574 dbbc 8db1 92bd
00000340: e0b4 e5bc f19d a63a 2148 013d 998a 96bc
00000350: ecf0 7a3d cc2c ff3d ae89 8f3d f258 f43d
00000360: e1bf b6bd 1982 843c fa6d ba3d b7c1 e5bd
00000370: 63f9 003e 0739 683c bf9c 8cbd 5ce4 743d
00000380: 5c24 bfbd 5a8b ca3d 9c22 f1bd c0f9 cdbd
00000390: 00a2 a03d 89f7 c73c db39 e63d 1480 273d
000003a0: acf3 593d 072e 98bd a452 d1bd acf7 cbbd
000003b0: 68a7 a63d 40d6 71bc 80f3 ed3d ab60 e03c
000003c0: c9a5 d6bd 8898 ebbc f6d7 cebd b2fc 873d
000003d0: a4af eabd 64a6 363d 7cb5 73bd a4cb 2fbd
000003e0: f0b5 b3bd a72b 5b3d 3b32 893d 25c9 893d
000003f0: 9642 8bbb b0fc e33d 0c43 cc3d 222f 3e3c
0.008691194 -0.043306507 -0.05235728 0.0635785 0.0039829165 0.035427988 -0.07541895 0.021237664
0.095778614 -0.023829153 -0.044844583 -0.026351012 0.03775592 0.012915613 -0.049307942 -0.050111428
-0.080547675 0.06028104 0.051121097 -0.012168091 0.011125109 0.103018135 0.01211471 -0.045493804
-0.021642825 0.11334303 -0.05536586 -0.037776425 0.05057493 -0.12416992 -0.10140254 0.0034261444
0.08563083 -0.045705788 -0.012230972 -0.0007191517 0.033503354 0.02545923 -0.06554651 -0.05406873
0.0583321 0.042207897 -0.0728847 0.00808474 0.025819656 0.010659194 -0.10104424 -0.0999659
-0.032382697 -0.11188182 -0.124308616 -0.032906894 0.11313228 0.12164535 -0.10610316 0.031937476
0.11834562 -0.02067314 -0.04994285 0.06513482 -0.08667271 0.023106873 0.0938641 0.105133906
0.017321065 -0.019187106 0.06888038 -0.0941072 -0.06816782 -0.004814565 0.09042691 0.09004073
-0.018414453 0.014799746 -0.109646805 -0.1114723 0.0027856624 -0.097813174 0.024185894 0.081416234
-0.063188955 0.017316386 -0.09283602 0.06751214 -0.098082855 -0.092989966 -0.01184787 -0.08759667
0.02081609 -0.11358581 0.08215484 -0.07433647 -0.07506202 -0.007545978 -0.0418507 0.044877913
0.081726365 0.07328747 0.11909699 -0.099263474 0.06781492 -0.04497056 0.05203919 0.09011194
-0.07956715 0.08361198 0.12448665 0.070814006 -0.0028393604 -0.08908483 -0.04797994 0.03500714
0.046183 0.016571596 -0.069841996 -0.035650313 0.054138437 0.046158522 -0.098124795 0.053536575
-0.10197514 -0.06429166 0.072346814 0.12468617 -0.07349761 0.07415667 0.060479894 0.026461467
-0.070947126 -0.054253295 0.015337688 0.117030345 0.07824909 -0.046001285 -0.06839968 -0.062045097
0.07174894 -0.048846647 0.12212603 -0.04110187 -0.056164708 -0.049163844 -0.110865 0.013677897
0.0004400212 -0.050247815 -0.054927632 0.077596724 -0.07153058 -0.11957732 0.054823983 0.11018899
0.08180831 -0.1049351 0.03277076 -0.064614035 -0.0218615 -0.05953531 -0.018874705 -0.029408485
0.008797929 -0.083988264 0.034812994 -0.107016005 0.0033484232 0.06756925 -0.03066205 0.009100916
0.103932574 -0.0028255433 0.08880478 0.063379794 0.07641664 0.0087081725 0.122348055 -0.054489322
-0.10073267 -0.08015437 0.11572405 0.059758663 -0.08014907 -0.111390635 0.07380517 0.06649863
0.06770206 -0.080406435 -0.10383313 -0.04263087 -0.09073366 -0.12022399 -0.0977149 0.118303925
0.06893766 0.07281351 -0.106058136 -0.11725409 -0.08706417 -0.090749756 0.0086231055 -0.100170776
-0.027449308 0.048930526 0.07227446 0.09842935 -0.07723799 0.08376186 -0.02678887 -0.071627714
-0.02804035 0.0012711865 0.031562928 -0.018376635 0.061264917 0.12459716 0.07008682 0.119310275
-0.08923317 0.016175317 0.091030076 -0.11218589 0.12595133 0.014173753 -0.068658344 0.059788093
-0.09333107 0.098898605 -0.11774179 -0.10057402 0.07843399 0.024410026 0.11241504 0.04089363
0.0532109 -0.07430654 -0.102208406 -0.09959349 0.08137399 -0.014760554 0.116187096 0.027389845
-0.1048084 -0.028759256 -0.10099785 0.06639995 -0.11459282 0.044592276 -0.05949925 -0.042918816
-0.08774936 0.053508427 0.06699034 0.067278184 -0.004249881 0.11132181 0.09973726 0.011607917

weight_hh f4 [192, 64]
00000000: ee35 173d a4f5 d43d 4638 4b39 0100 173d
00000010: a436 e1bd 826d 673d 57ca 5abd 70e4 cd3d
00000020: f608 03bc 4ae5 cd3d 6539 a2bd 1bd1 4e3d
00000030: 26b4 723d f510 b3bd 7c22 c83a 135f c13d
00000040: e9f2 a6bd 05b7 c63d 4433 79bd 44d4 d53b
00000050: a877 b53d 48b1 3cbd 22a0 d73d d903 f6bc
00000060: f7bb 5ebd edb1 b83d 2175 dabd 72a2 58bd
00000070: 139f 04bd e90b cd3d f49f 093c 0c96 02be
00000080: 724c b43d 8ea3 113d 95e0 f03d cee5 fbbd
00000090: 5c1d c63b bf0a ddbd 4c28 f03d bc60 35bd
000000a0: 012b 203d 132a f0bd 3e35 12bc c9b2 8ebc
000000b0: 47c9 7f3d c451 89bd 694e 71bc 90f6 f23d
000000c0: 84b0 aa3d 05d6 f33c 9874 883c 5678 dcbd
000000d0: a0b8 d6bd 6139 c13d ed10 c8bb 2cd2 b8bc
000000e0: ee4f f63d 8f00 923d 5f6f 933d cab4 853d
000000f0: a493 e7bc df54 fabd 745f b2bd b640 ee3d
00000100: 3b7c 373c 76fb bc3d 808e bc3d 10ab afbd
00000110: 5407 a2bd f0be 8bbd b161 88bc 3bde 85bd
00000120: bffb 613d 0ef7 8e3d 674a b6bc 6f99 9c3a
00000130: f973 f03d 5a6f 8b3b 5129 6aba 617e 893d
00000140: cbda 633d 2964 de3c 58d0 923d cc60 293c
00000150: 3402 bf3d 8069 b7bd 79b4 68bd 16e3 84bd
00000160: 19d5 79bd 9123 67bc 66dc cdbd 0cfb ee3d
00000170: 6596 02be 8d3c eabd 98b4 d2bc 7c0f b5bd
00000180: d14c 7abc 72fa 023e eebe b63c 6700 9fbd
00000190: 5f81 8bbd 7f67 aabd bcba 813d d48c fabd
000001a0: f8ac 873d a74d c6bc e65f 70bd 2069 843d
000001b0: 717c 51bb bcd1 503d dd3d 50bd 899e 79bd
000001c0: a0ca 24bc 5584 8c3d 7ae8 123d 21ba 2abd
000001d0: 449c a9bb 2b6f 7e3d 6b37 1abc 7616 af3d
000001e0: 2d2e 473c edf9 3ebd 2855 ecbc cf8c 2f3c
000001f0: 2b27 5e3d cdfa c63d d286 253d 1386 41bd
00000200: 6804 aabd c0a3 73bd e672 c33d 27ec 25bd
00000210: 1461 febd 8ee7 87bc ee81 033e 1cc2 e93d
00000220: 3ebe b73b d4fc d7bd 2557 b53d 1044 63bd
00000230: 132f 69bc 0ab3 70bd ac75 493d 8451 a93d
00000240: 5677 4cbd 69ad eebd 022f e83d 5bc3 84bc
00000250: e73a b43d e4d9 47bd 133f ddbd 9da1 e53d
00000260: 6ce4 d03d 2df1 fd3c c6b3 393d ce7f 90bb
00000270: b125 03bd 90d3 9bbd e40a 8dbc 3bd2 c8bd
00000280: 82fa 23ba 329c 2e3d aefb 25bd b284 bc3d
00000290: 2a85 f7bd bbe9 bd3d be22 41bc 58bf 8c3d
000002a0: 6a80 f0bc 8108 903d cc31 f0bc 1484 253d
000002b0: 004c f03d 1da3 163d 60ed ffbc a506 953d
000002c0: 5034 8c3d 94a6 d4bd 81c5 9dbb c1aa d7bd
000002d0: 2df5 dcbd 5a15 5f39 f00f c83c d824 7fbc
000002e0: 8363 773c e415 cabd 5212 cdbd 62a6 6dbd
000002f0: c9a7 ba3d 8aa4 223d 570e 01be 5cac fb3c
00000300: 66b8 6d3d 27cc b43c ba7f 983d f375 23bd
00000310: 15b7 afbc 2f6a 933c 7cc7 4abd b2a7 a43c
00000320: 484f 2cbd 9b7b be3d c0c2 883d bd6f 9fbb
00000330: 64d8 e53d ff05 ecbd 87e9 a4bb f6f1 813d
00000340: 14a9 913d 79b3 b1bd 362d e0bd e36e 783c
00000350: 30c5 fbbc 127c a6bd 4657 90bd 8b73 1d3d
00000360: eb6d 953d 55c0 763d 059c 93bd 2aeb e93d
00000370: bbf9 25bc 75a2 ed3d 265f d53d e428 eb3c
00000380: 13dd c23d f975 f83d de36 8fbd 998b 68bc
00000390: 89d8 ddbd 2e65 4d3d 783e dd3d fe14 753a
000003a0: ab31 c83d bc21 81bd 39be d33d d05e b03d
000003b0: ac1b c53d d191 c1bc 1405 b4bc fe04 b6bc
000003c0: a83d c33c dc89 1d3d 9cb2 aebc 1e50 cc3c
000003d0: a5f4 4bbd 0386 25ba ecae 9e3c c898 8bba
000003e0: d347 e83d 5e0c ce3d 126b b13d 5bfb 1dbd
000003f0: c046 fa3b e223 e9bd 3aa7 58bb 4796 97bd
0.036916666 0.10398415 0.00019380552 0.036865238 -0.1099675 0.05650092 -0.053415623 0.100533366
-0.007997742 0.10053499 -0.079211034 0.050492387 0.059253834 -0.08743469 0.0015269066 0.09441962
-0.081518 0.09702877 -0.060839906 0.006525548 0.08860713 -0.046067506 0.1052859 -0.030031132
-0.054378476 0.09018312 -0.10666872 -0.052889295 -0.032378267 0.10012037 0.008399952 -0.12752551
0.08803643 0.03555637 0.117615856 -0.12299691 0.0060459804 -0.10793065 0.11726436 -0.044281706
0.03910351 -0.11726775 -0.008923827 -0.017419236 0.062447812 -0.06705049 -0.014728167 0.11863434
0.08334449 0.029765138 0.016657159 -0.1076514 -0.10484433 0.09434772 -0.0061055333 -0.022561155
0.12026964 0.07129013 0.07198977 0.065286234 -0.028268643 -0.12223219 -0.087096125 0.116334364
0.011199052 0.0922765 0.09206867 -0.085775495 -0.07911554 -0.06823528 -0.016648145 -0.06536528
0.055171724 0.06980716 -0.022252275 0.0011947582 0.1174087 0.0042552175 -0.0008932548 0.06713558
0.05562858 0.02714737 0.07168645 0.01033802 0.09326592 -0.089556694 -0.056812737 -0.06488626
-0.06099424 -0.014107601 -0.10051803 0.11668977 -0.12752683 -0.114373304 -0.02572088 -0.08840844
-0.0152771035 0.1279085 0.02230784 -0.077637486 -0.06811785 -0.083205216 0.06334445 -0.12233892
0.06624788 -0.02420695 -0.058685206 0.064653635 -0.0031965042 0.05098127 -0.050840247 -0.060942207
-0.010058075 0.06861178 0.03586624 -0.041681413 -0.005176099 0.062117737 -0.009412627 0.08549206
0.012157005 -0.046625067 -0.0288492 0.010714724 0.054236572 0.09715805 0.040411778 -0.047247004
-0.08301622 -0.059482336 0.095433995 -0.040508416 -0.1242086 -0.016589906 0.12842533 0.114139766
0.0056073954 -0.1054627 0.08854512 -0.05548483 -0.014232415 -0.058764495 0.049184486 0.08267501
-0.049918495 -0.11654169 0.11337091 -0.016206434 0.08800297 -0.04879178 -0.10803046 0.11212466
0.10199818 0.03099879 0.04533746 -0.0044097668 -0.032018367 -0.07608712 -0.017217107 -0.09805723
-0.0006255285 0.04262943 -0.040523224 0.09204997 -0.12085946 0.09273096 -0.011788068 0.068724334
-0.029358108 0.07032872 -0.02932062 0.040409163 0.11733246 0.03677665 -0.031241119 0.07276658
0.06845915 -0.10383335 -0.004814804 -0.105306156 -0.10788951 0.00021274891 0.024421662 -0.015572749
0.015099409 -0.098674566 -0.1001326 -0.058020003 0.09114034 0.039707698 -0.12603126 0.030721836
0.058037184 0.022070004 0.07446237 -0.039907407 -0.021449605 0.017994968 -0.04950665 0.020099495
-0.042067796 0.093009196 0.066777706 -0.004865615 0.11222914 -0.11524581 -0.0050327214 0.063449785
0.07112327 -0.0867681 -0.10946123 0.015163156 -0.030733675 -0.08129133 -0.07047896 0.03844027
0.07296356 0.060242016 -0.07207493 0.11421807 -0.010130341 0.11603252 0.10418539 0.028706022
0.09514823 0.121318765 -0.06992887 -0.014193439 -0.108323164 0.05014532 0.108029306 0.00093491364
0.097750984 -0.063052624 0.103390165 0.08611834 0.096244186 -0.023629101 -0.021975078 -0.022219177
0.02383311 0.03846155 -0.021325402 0.024940547 -0.049793858 -0.000631422 0.019370519 -0.0010650391
0.113418244 0.100609526 0.08663 -0.03856979 0.0076378286 -0.11383797 -0.003305866 -0.0740171

bias_ih f4 [192]
00000000: 4615 a03c 99f6 d8bd a031 003d 154b 933d
00000010: 80b8 46bd 7d8e 4d3d 1191 65bc 5f2e 40bd
00000020: ff7c b93c 4ea1 fcbd 372d 913d 4996 da3b
00000030: 5bfb 2e3d 1244 73bd 2d12 03be 0806 873d
00000040: 4c5c 07bd 448e a43c ffc5 a8bd 4c36 d5bd
00000050: 6963 e33d 9516 a4bd ea58 723d ada8 bc3d
00000060: 1756 dd3c 8483 c93d 06c4 dbbd 4dbe 13bd
00000070: cd2a a63d cd96 353d 321f f43c 2609 b33b
00000080: 7dba e53b dc84 863c 77b9 723c 3784 e9bd
00000090: 4557 cc3d ea40 9a3c 69a4 4ebd f9ad 233d
000000a0: eb3e acbc ba7e 56bd 96e0 a53d b324 b4bd
000000b0: 1d69 5cbb d204 4dbd 5a45 10bc 6514 123d
000000c0: 5cbc d33d 64c8 b83c e51c a7bc b8b1 d53c
000000d0: 40dd 89bd a8fc dd3c 3e61 673d c589 313d
000000e0: 0734 2fbd 3b8b be3d 823d 5e3b 59ce 763d
000000f0: 58c4 38bb 4e98 d7bd 8eb6 8b3d 0ffe 52bd
00000100: 1307 303d 1eb8 2cbb f154 bf3b aae4 523d
00000110: e4dc b83d 8a77 02bd 4813 3ebd aef1 b83d
00000120: 4f6b b6bb fb4e 6b3d 654e 9d3d 6493 f2bc
00000130: e153 b63c 930a ee3c be51 b8bb b8c1 42bc
00000140: 3ae7 b7bc 8159 7d3d e13e d03d b44e b43c
00000150: 9f80 1a3d 2905 abbd 3640 663d 203e 5fbd
00000160: 3280 c13d 7db8 7c3d 7f45 4c3d 5d19 f5bd
00000170: f5ac 24bd dd31 eabd de26 75bd 7506 1b3d
00000180: 627e b43c b8e8 f0bc 588d e13d c458 8c3d
00000190: c529 94bd 4219 d7bd 3927 3a3d dd27 a3bd
000001a0: ab70 88bd df4c 35bd 87ba dfbc b50a 7dbc
000001b0: c596 90bd 3520 083d f366 c43d 958b a93d
000001c0: 269b ac3a 7ff5 e4bc b43e c8bd 2113 c63c
000001d0: 5e15 c33c e0f8 37bd bf01 bcbd e2da f03d
000001e0: 0c42 533d 0ef3 ebbd 1a08 393d a8fb 25bc
000001f0: 6dea 79bd b3ec b93d 3c1b ce3d 1c60 8cbd
00000200: b859 663d b6a9 c53d faa0 ed3c f7dc 08bc
00000210: c815 9cbd 6dfd a8ba aec1 e43d 8d66 e7bd
00000220: a763 30bd 9981 a63d 6fce b33d 6388 833d
00000230: 3918 663d 93e8 fc3d 2b4e d03d 6500 debd
00000240: 4dac d43c 7fb8 a2bd 5d37 c2bd 21ed e13b
00000250: 402a 4dbd 5517 ddbd 7010 b33c 9a66 773c
00000260: b744 d93c e1b9 9f3d 6150 e73d 9d2f 52bc
00000270: 28cd 80bd c4e5 d5bc 4e88 953c 31b3 0dbd
00000280: 0ccd b83d 000b f43d 807a eb3d cec3 ed39
00000290: 3954 a03b fc40 fd3c 0bf4 59bd 52b7 e43d
000002a0: 4928 483d bcca c83d a84c 81bd 045e ecbc
000002b0: 7766 c53d 1596 6b3c 68b5 ec3c 0ea5 623d
000002c0: de0c 6abd 8feb da3d 2fa5 823d 61e1 b53d
000002d0: 307c 7e3d 19e3 4bbc 626f 84bd f352 393d
000002e0: 82dc cf3d e520 01bc b644 753d a87b 573a
000002f0: 3aec b53d 3a8a 9c3d a775 b0bd 54ea 893d
0.019541394 -0.1059391 0.031297326 0.07192055 -0.048515797 0.050184716 -0.014011637 -0.046919223
0.02264261 -0.12335454 0.07088702 0.0066707474 0.04272018 -0.05939109 -0.12799902 0.06592947
-0.033047006 0.020087369 -0.0824089 -0.10410747 0.11102945 -0.0801212 0.059166826 0.0921186
0.02701859 0.09839538 -0.10730748 -0.036070157 0.08113632 0.044333268 0.029800031 0.005463737
0.0070107565 0.016420774 0.014814726 -0.11402171 0.09977583 0.018829782 -0.050449762 0.039960835
-0.021026095 -0.05236695 0.08099477 -0.08796062 -0.0033631988 -0.050053425 -0.008805597 0.03566398
0.10338661 0.022556491 -0.02039952 0.02608572 -0.06731653 0.027098015 0.05648922 0.043344278
-0.042774227 0.093039 0.0033911173 0.060255382 -0.0028193202 -0.10527097 0.06821929 -0.05151182
0.042975497 -0.002635486 0.005838983 0.051487602 0.090265065 -0.031852283 -0.046405107 0.09030472
-0.0055669914 0.05744837 0.07680968 -0.029611297 0.022256793 0.029057777 -0.005624979 -0.011887006
-0.022449125 0.061852936 0.10168243 0.022010185 0.03772032 -0.083505936 0.05621358 -0.054502606
0.094482794 0.06169938 0.049870964 -0.11967728 -0.040204007 -0.11435292 -0.05985152 0.037847955
0.02203292 -0.029407844 0.11013287 0.06852868 -0.072345294 -0.105028644 0.045447562 -0.07966588
-0.06662115 -0.044262763 -0.027310623 -0.015444447 -0.07060007 0.03323384 0.095899485 0.08278576
0.0013168796 -0.027949093 -0.09777585 0.024179043 0.0238139 -0.04491508 -0.091800205 0.117604986
0.05157666 -0.115209684 0.045173742 -0.0101308 -0.06101458 0.0907835 0.10063788 -0.06854269
0.056237906 0.096515104 0.029007424 -0.008353463 -0.07621342 -0.001289291 0.11169754 -0.11298857
-0.043063786 0.081301875 0.087796085 0.06422498 0.056175444 0.123490475 0.10171159 -0.10839919
0.025961066 -0.07945346 -0.09483216 0.006894723 -0.05008912 -0.10795466 0.021858424 0.015100146
0.026522024 0.077991255 0.11294628 -0.012828735 -0.062891304 -0.026110537 0.018253472 -0.03459472
0.090234846 0.119161606 0.114979744 0.00045350048 0.0048928526 0.030914776 -0.053211253 0.11167778
0.048866544 0.098042935 -0.06313449 -0.028853424 0.09638684 0.014379044 0.028895095 0.05533319
-0.057141177 0.106894605 0.063791625 0.08880878 0.062130153 -0.012444281 -0.06466557 0.045245122
0.101494804 -0.007881378 0.05987998 0.00082200253 0.08882947 0.07643552 -0.086161904 0.06734148

bias_hh f4 [192]
00000000: e82f 733d 1937 afbd f32d fb3d 73fa 99bd
00000010: 9974 3a3b 84d9 cabd 1616 8fbd 2012 20bc
00000020: bfe4 e83c f216 fb3b 05ab f3bb a543 4fba
00000030: 3bf6 2b3d f8d4 7ebd 2b5a 1dbd 2a62 de3d
00000040: cd25 843c 93ba afbd 33c8 de3d 52ef b3bd
00000050: 8ac6 b33c 108a d6bc 645c 75bd 7dbc be3d
00000060: d219 c53d b3e6 58bd 8e54 973d 3c57 b2bb
00000070: 9d17 f53d 8de6 79bd 3cc7 3aba 8c59 c3bd
00000080: a171 a33b 93a9 d5bd 6e6b d7bd 83a7 d6bd
00000090: 4443 5a3d 734e 723c e1f2 22bd a1ea 4e3d
000000a0: 6e67 5b3d 3e57 a13d 5566 aa3c d2d4 4e3d
000000b0: c042 bfbd adda e03d f5a6 073d 0885 7f3d
000000c0: 4189 673d f518 40bd 59cd cbbd 3016 263d
000000d0: 3e89 693b 2f3e 24bd e265 5dbd e238 b8bb
000000e0: c74f 29bd da26 ce3c 64c2 8fbd 10b3 03bc
000000f0: 4d4f dcbd cf48 d5bc 63e1 1cbd 417f d6bd
00000100: 237d 953c 3a70 23bd 1ef8 94bd 9aed c2bd
00000110: a46a d33b 69d8 cebd 88a5 4e3d cd7b 593d
00000120: d161 8cbd ca19 f13d 2b80 ec3d bb65 bcbd
00000130: f11c 99bd ce9d 4fbd edbc 773c 3f33 7f3d
00000140: b717 7cbd d6f3 dcbd 9545 a0bd 3946 d2bd
00000150: 044a e13d bd1e fe3d ce56 793d 24b0 773d
00000160: 240f ffbd 6183 0a3d 6fd5 3a3d bddc cb3d
00000170: 1d61 ff3d 7f8c 9b3d 31c3 073c 0aec 863a
00000180: 923d d73c 3137 d13d 0ee6 e03c ab30 7fbd
00000190: 81eb bdbd 728c d03d 5919 433d be37 3c3d
000001a0: 9afd 61bd 9187 f6bd 2ccd b6bd 1738 7cbd
000001b0: 7dcc c4bd 2115 8e3d f053 46bd 574f 223d
000001c0: 9fd7 a0bc 0acf c33c 82fb 48bd 3d92 af3d
000001d0: a071 d2bd bbce 80bd 29c0 50bc 79ef 82bb
000001e0: e8de 27bd e280 10bb 041d d03d 848f 7f3d
000001f0: 100f bcbd 47be 1cbd c4f5 903d 725e 00bd
00000200: a032 e6bd 5a9a 943d c091 02be d2b0 95bb
00000210: 77b1 db3c 8cd9 f0bd cc86 0abd 94e6 5ebd
00000220: 8db6 9dbd 6ed7 f33d ac7e 5e3c bac9 973d
00000230: 9a5b 81bd 5b14 963d ec1f 973d ceae 34bd
00000240: 643f ec3d f5ce ea3d 449e b3bd ceb0 9e3d
00000250: 8102 9b3d 20a0 c6bd adef d13d f96a cd3d
00000260: 0e21 b53c 41cb ed3d 9223 98bd cd8f 3bbd
00000270: c18b febd c7d0 843d 332f c93d c067 86bc
00000280: d7e6 ab3b b155 643d 9d14 db3d 3e0f c0bd
00000290: 3e21 e53d 3518 613d 50cf 8e3d 54ba f23d
000002a0: f31e 8fbd 8a8d b5bd 819d 6f3d 32d4 e53d
000002b0: e8d9 a1bd d12f fdba 8e2d 83bd d842 c8bb
000002c0: 6ec4 06bc 900c 2ebd 4590 d4bd 8af9 9e3b
000002d0: 9bc0 8d3a 49e7 4a3d 58d8 c43d 381c d23d
000002e0: 3e37 ea3d 72ca d5bc bbdf 9e3d bbeb b5bd
000002f0: f5b1 c4bd 14e2 60bd c390 fdbc abb5 f43d
0.05937186 -0.08555431 0.122646235 -0.075184725 0.0028450845 -0.09904769 -0.069866344 -0.009769946
0.028429387 0.0076626474 -0.0074361586 -0.0007906503 0.04198287 -0.06221482 -0.03841607 0.10858567
0.016131306 -0.08580508 0.10878029 -0.08785881 0.021945257 -0.02618888 -0.059902564 0.09313295
0.096240655 -0.052954387 0.073891744 -0.005442528 0.119673945 -0.061010886 -0.0007125025 -0.09538564
0.004987911 -0.10432734 -0.105185375 -0.10481169 0.053286806 0.014789212 -0.03978241 0.05051673
0.053565435 0.07877968 0.020800749 0.05049593 -0.093389034 0.10979209 0.033118207 0.062382728
0.05652738 -0.0468988 -0.09951276 0.040548503 0.0035634781 -0.040098365 -0.05405224 -0.0056220153
-0.041335847 0.02516501 -0.07019499 -0.008038297 -0.10757313 -0.026035694 -0.038300883 -0.104734905
0.018248146 -0.03990195 -0.07273887 -0.09517975 0.0064519215 -0.10099871 0.05045083 0.05309658
-0.068545945 0.11772497 0.115478836 -0.09199091 -0.07476223 -0.050687604 0.015120727 0.06230473
-0.061546054 -0.107886955 -0.07825772 -0.102673 0.110004455 0.124082066 0.0608738 0.060470715
-0.1245406 0.0338167 0.045613702 0.09954212 0.12469695 0.07595157 0.008286283 0.0010293734
0.026274476 0.10215605 0.027453449 -0.062302273 -0.092734344 0.10183038 0.047631595 0.045951597
-0.055173494 -0.12037576 -0.08925852 -0.06157693 -0.096093155 0.06937624 -0.048419893 0.039626446
-0.019634066 0.023902435 -0.04906798 0.085728146 -0.102755785 -0.06289431 -0.012741127 -0.0039958325
-0.040984064 -0.0022049476 0.10161784 0.062392727 -0.091825604 -0.0382674 0.07078126 -0.03134007
-0.11240125 0.07256003 -0.12750912 -0.0045681978 0.02681802 -0.11760244 -0.03381996 -0.054419115
-0.077008344 0.11906324 0.013580006 0.07411523 -0.063163 0.07328101 0.073791355 -0.04411202
0.11535528 0.11465255 -0.08770421 0.077485666 0.07568837 -0.0969851 0.10250793 0.10030169
0.022110488 0.11611033 -0.074286595 -0.045791436 -0.12429 0.064851336 0.09823456 -0.016406894
0.005246024 0.055745784 0.10697291 -0.09377907 0.11187981 0.054954726 0.069731355 0.118519455
-0.06988325 -0.08864887 0.058499817 0.11222114 -0.079028904 -0.0019316619 -0.06405173 -0.006111484
-0.008225543 -0.04249245 -0.1037908 0.0048515247 0.0010814847 0.049536977 0.09611577 0.102592885
0.11436318 -0.02609751 0.07757517 -0.08882853 -0.09604255 -0.054903105 -0.030952817 0.11948713

weight f4 [1, 64]
00000000: e9c6 523d 3527 f1bb 5e44 f83a 8a6e ef3d
00000010: a6c7 59bc 972c 86bd 1290 e23d f086 bfbd
00000020: 4b8c 9c3d a0f5 8bbb 247c 6bbc dcfe 173d
00000030: 2dd3 c13c cbac 4abc 778d 513d 0256 93bd
00000040: 0dfa f6bd 396e 6bbd de1f 9ebd 1147 35bc
00000050: 6962 a03c cf82 d2b9 66dc 383d ccb2 f6bd
00000060: fced cbbd bda8 e3bd 5efd c83d 9c3c a5bd
00000070: 9a97 1d3d e378 2ebc 21e5 183d 57c0 da3d
00000080: 3e91 b93d 726e ca3b 019e c3bc 44c0 6ebd
00000090: d51a ebbc 4d11 04bc 2fe8 85bc ab5b 88bd
000000a0: ee56 cb3d 22f4 cebd eff3 923d ea65 033e
000000b0: df8a 75bc 9b6c b73a cf65 e53d 908d 73bd
000000c0: d5bb ef3c 1252 833d 25bd dd3d ebc1 e03d
000000d0: 8395 7dbd 12cc 8a3d a85e d43d af8d 1e3d
000000e0: ba20 803b e1df b13d b721 b4bd c7e4 d9bd
000000f0: bb39 1ebd 3d82 a23d 809e 92bd 28e9 e0bd
0.051459227 -0.00735941 0.0018941273 0.116910055 -0.013292229 -0.065514736 0.110626355 -0.09351909
0.07643946 -0.004271224 -0.014372859 0.037108287 0.023660267 -0.012370299 0.051160302 -0.07194139
-0.12059412 -0.057478163 -0.07720922 -0.011064307 0.019578176 -0.0004015178 0.045132063 -0.120458215
-0.09957501 -0.11116169 0.09813951 -0.08068201 0.038474657 -0.010648939 0.03732789 0.10681217
0.09060906 0.006177717 -0.023879053 -0.058288828 -0.028699318 -0.008060765 -0.016346065 -0.06658109
0.0992869 -0.101051584 0.07175433 0.12831846 -0.014986723 0.0013994159 0.11201059 -0.059461176
0.02926437 0.06412138 0.10827092 0.10974487 -0.061910164 0.067772046 0.10369617 0.03870934
0.0039101513 0.0868528 -0.08795493 -0.10639339 -0.038629275 0.07934997 -0.07159138 -0.10981971

welford_state_mean f4 [11]
00000000: 9999 193f 15ae 073f 6766 263f 0000 0000
00000010: 0000 0000 0000 0000 0000 0000 0000 0000
00000020: 0000 0000 8ec2 753d 08d7 a33c
0.59999996 0.53000003 0.65000004 0.0 0.0 0.0 0.0 0.0
0.0 0.059999995 0.019999996

welford_state_mean_diff f4 [11]
00000000: d661 bf41 a9d5 c641 9829 b841 0000 803f
00000010: 0000 803f 0000 803f 0000 803f 0000 803f
00000020: 0000 803f 4267 d040 be90 3a40
23.922771 24.854326 23.02031 1.0 1.0 1.0 1.0 1.0
1.0 6.5126047 2.9150844

hidden f4 [6, 64]
00000000: d8a2 523c 78b5 fd3d a11c 1bbd 809a 103d
00000010: e0f8 44be 981f 93bc 473f 773e e033 06bd
00000020: 7375 3cbd 4c41 0e3e 407d 913e 6ce7 cabc
00000030: 11db 1b3e 02d9 053e ec64 dd3d 56b3 47bd
00000040: aaa5 37be 0843 ce3c 8620 c9bd b7d6 7bbe
00000050: 5c5e cf3a f1a1 2fbe fd62 c63d 1270 2bbd
00000060: e979 943e 74a5 3a3e a687 3bbd 89d6 1cbe
00000070: 19c2 70be bc28 693e 1f58 d73c 8a76 a3bc
00000080: 7a09 9c3d a266 c23e e1da 643e 762d 22bc
00000090: 4607 8c3e 1847 4cba 3a9f 963d a26e 8a3e
000000a0: 4a00 773e 2cc0 4d3e c03d e6bd e2b0 2bbe
000000b0: 4924 5e3e 5de6 7dbd 3594 773e c156 2a3e
000000c0: cb8b f43d afe6 64be b51f 6fbe 6444 253e
000000d0: 0eab fe3b 89e7 22be 78c6 54be 4f5a 383c
000000e0: 8c8a 173e f630 823d 213c 88bd 6402 b8bc
000000f0: 12fc 763d 78b0 64bd 2412 37be ec19 88bc
00000100: 6afe 5dbe fd46 593e 9915 9dbe 780b 46be
00000110: 7952 a83c 2904 4abd 0760 9f3d c0ce bd3d
00000120: fe3e 7fbe c1a7 553e 7445 2abe 789b 253e
00000130: efe9 86be 49c7 a13e 27d7 a5bc 3198 85be
00000140: 02f6 403e 0c05 003e 43d4 3bbe e6c5 493e
00000150: 7257 c93d 9c04 cdbd 23dc 8c3d 8fdb 2c3e
00000160: 9a4d 08be f22f aa3c f494 cc3a 15e4 203e
00000170: 0a37 b3be 0c45 a5bd a94e bfbc 284c 36be
00000180: a4ca 473e 02ba 14bd 99f3 4b3e cb61 f9bd
00000190: ea60 35bd 2277 823e b360 cebd 6181 023e
000001a0: 67f3 76b8 c549 343e 38f5 bebd 3d5a 2e3d
000001b0: 0c3a c5bd 787e 09bd 99cf 3a3d 81e9 29be
000001c0: a38c c1bd 169d 043e f1ad f23d f910 fb3d
000001d0: 40c7 0e3d 9223 503e a418 9b3b fa8a 663e
000001e0: 525e 8f3e d988 6ebe 0093 d33d 0296 50be
000001f0: 4c65 fbbd fdbb 283e dc82 f3bc 07eb 4f3e
00000200: 1b13 95bd 424e 063e e111 1dbe 0fae dbbd
00000210: 7173 fabd ac65 74bd 794f 453e 9b30 2fbd
00000220: 46b7 d7bc 7363 8a3e cbe0 c23c e5be ea3d
00000230: 4926 92bc 6164 983e b03d 75bd a7dd 4abe
00000240: 2262 b83c 3e6e 22bc 6a25 a4bd 28da 523b
00000250: 3d64 9fbd 3a91 2abe dddb 943d 00d6 e3ba
00000260: 7cad 833d d81b 9a3d 778a a7bd 1acd 783c
00000270: 87a6 52be 8fd7 0e3e 31d1 a2bd 3655 45be
00000280: c25b 393e 3c42 343e d974 6e3e 5036 39be
00000290: 64af df3d 9a85 fc3d 2981 38bd f8f7 283e
000002a0: 3e03 e83d 89db 1f3d 8c4d dcbd 68d4 0bbe
000002b0: 26d8 a63d 9a40 8cbc de9f 003e 54c7 14bd
000002c0: 1c6b a7bd e47b 7e3d f03d 073d 3e56 0dbd
000002d0: 1720 9d3d da73 303c 00ae 12b8 78d3 3b3e
000002e0: 02dd 583d 9460 36bd 4039 0a3e 9095 81bd
000002f0: 8a7d 5dbd 0ee2 4b3d 2006 223b 8ece 3b3e
00000300: 7cc8 dbbd cabe 0f3e 5cac 2dbe f813 e5bd
00000310: d260 f7bd 1400 32bd f483 5c3e 24c4 2dbc
00000320: 745e 88bd 725f 883e 52d8 983c 7aba b13d
00000330: 3295 e3bc 8298 a03e 7e54 e0bd 9027 70be
00000340: ca40 c7bc 6884 733b 5fac 8cbd a428 e7bc
00000350: 401c bdbd bab3 5abe 34fb dc3d 3770 5abc
00000360: 65f7 ba3d cceb 373d c46c cdbd b4ff fd3a
00000370: eee4 89be 09e1 223e dc81 d7bd f25d 4dbe
00000380: 13d3 393e 19c1 3d3e 38bf 503e a8ed 2fbe
00000390: cd13 ff3d 6f65 ea3d f35d b4bc a8aa 143e
000003a0: 9fc1 363e 3e98 6e3d 8e56 0ebe 721a 21be
000003b0: 59c2 7c3d b291 febb 9020 413e b5b0 32bd
000003c0: 1fc1 3dbd 7d8a 90bc ddea 6b3c 026b dabc
000003d0: 4c91 663d 13cf 85bc f8bc 84bb 0b51 553e
000003e0: 13f5 833d 482b 92bd ea6b ed3d 2e2b 8dbd
000003f0: 24a5 c1bd 8922 873d e437 8abd 0a7c 383e
0.012856208 0.12388128 -0.0378691 0.035303593 -0.19235563 -0.017959401 0.24145232 -0.032764316
-0.046010446 0.13892096 0.2841587 -0.024768554 0.15220286 0.13071063 0.10810265 -0.048755012
-0.1793429 0.025178447 -0.098206565 -0.24593626 0.0015820968 -0.1715162 0.09686849 -0.041854925
0.2899926 0.18227178 -0.04578366 -0.15316214 -0.23511542 0.22769445 0.026287137 -0.019953985
0.07618995 0.37968928 0.2234912 -0.009898534 0.273493 -0.0007792576 0.07354589 0.2703753
0.24121204 0.20092839 -0.11242247 -0.16766694 0.21693529 -0.06198727 0.2417763 0.16634656
0.11940726 -0.22353624 -0.23351939 0.1613937 0.007771856 -0.15908636 -0.20778835 0.011252
0.14798945 0.06356995 -0.06652094 -0.022462077 0.060298987 -0.055832356 -0.17878014 -0.016613923
-0.21679083 0.21218486 -0.3068054 -0.19340312 0.020547139 -0.049320374 0.07781988 0.0926795
-0.24926373 0.20864774 -0.16628057 0.16172588 -0.26350352 0.31597355 -0.020244194 -0.26092675
0.18843845 0.12501925 -0.1834269 0.19704399 0.09831132 -0.10010645 0.06877925 0.1688063
-0.13310853 0.020774815 0.0015608356 0.15712006 -0.3500293 -0.0806981 -0.023352938 -0.17802489
0.19510895 -0.036310203 0.19917144 -0.12176856 -0.044281878 0.25481516 -0.10077038 0.12744667
-5.8877657e-05 0.17606266 -0.093241155 0.042566527 -0.09630212 -0.033567876 0.045608137 -0.16592981
-0.094506525 0.12950549 0.11849583 0.12259097 0.03485799 0.20326069 0.004733162 0.22513953
0.28001648 -0.2329439 0.103307724 -0.20369723 -0.1227518 0.16477962 -0.029725485 0.203045
-0.07279035 0.1311579 -0.15338852 -0.107265584 -0.1222905 -0.059667274 0.19268598 -0.042770963
-0.026332509 0.27029 0.02378883 0.114621915 -0.017840521 0.29764083 -0.059873283 -0.19811116
0.02250773 -0.009913979 -0.08014949 0.0032173488 -0.07782791 -0.16656962 0.07268498 -0.0017382503
0.06429574 0.07524842 -0.08180707 0.015185619 -0.20571338 0.13949417 -0.07950056 -0.19270787
0.18101409 0.17603391 0.23286761 -0.18087125 0.10922125 0.1233017 -0.04504505 0.16500843
0.113287434 0.039027724 -0.107569784 -0.13655245 0.08146696 -0.017120648 0.12560984 -0.036322907
-0.08174726 0.06212987 0.033018053 -0.034506075 0.07672136 0.010769809 -3.4971163e-05 0.18342388
0.052945144 -0.044525698 0.13498402 -0.06327355 -0.0540748 0.04977613 0.002472289 0.18340513
-0.10731599 0.14037624 -0.16960281 -0.11185449 -0.12079014 -0.043457106 0.21534711 -0.010605846
-0.066586405 0.2663532 0.018657837 0.08678146 -0.027781103 0.31366354 -0.109536156 -0.23452592
-0.024322886 0.0037157778 -0.06868815 -0.028217621 -0.09233904 -0.21357623 0.10790101 -0.013332418
0.09129218 0.044902608 -0.10030511 0.0019378574 -0.26932472 0.15906157 -0.105228156 -0.20055369
0.18146925 0.18530692 0.20385444 -0.17180502 0.124549486 0.11445128 -0.022017455 0.14518225
0.17847298 0.05825066 -0.13900205 -0.15732744 0.061708782 -0.007768833 0.18860078 -0.043625552
-0.046326753 -0.017644161 0.0143992575 -0.026662353 0.05629091 -0.016334092 -0.004050847 0.20831697
0.064432286 -0.071371615 0.115928486 -0.068930015 -0.09455326 0.06598384 -0.067489415 0.18016067
