r2l/logs_demo/ppo/karel-harvester-1000/c08e84-seed1000/critic.pt (torch, 59147 bytes, 8 tensors)

weight_ih f4 [192, 4]
0	0xbde71252	-0.11282791
1	0xbdb3ea48	-0.0878492
2	0xbe1a188a	-0.15048423
3	0x3c525c89	0.012839445
4	0xbd64a45f	-0.05582082
5	0x3cda0524	0.02661378
6	0xbcd76d86	-0.026297342
7	0x3d94ab31	0.07259215
8	0xbd7c9dbc	-0.061673865
9	0xbdd07c43	-0.10179951
10	0x3da847ad	0.08216796
11	0xbc613bf8	-0.013747208
12	0xbe090b92	-0.1338332
13	0xbdcff63a	-0.10154386
14	0xba467a21	-0.0007571299
15	0x3e22eb62	0.15910104
16	0x3c6c34dc	0.0144168995
17	0x3d507148	0.050889283
18	0xbe309a5e	-0.17246386
19	0x3d31f7a9	0.043449078
20	0x3af4f54b	0.0018688826
21	0xbd8d320f	-0.068943135
22	0xbdd0da13	-0.10197844
23	0x3d6cb0e1	0.057785872
24	0xbbdb909c	-0.0067005884
25	0x3d587d0a	0.05285362
26	0xbe0c1941	-0.13681509
27	0x3e14ea44	0.1454249
28	0xbca80ebb	-0.020514837
29	0xbd8ce32f	-0.06879269
30	0xbda9b4fb	-0.082864724
31	0xbdb33fff	-0.08752441
32	0xbde71620	-0.11283517
33	0xbd6cd0d5	-0.057816345
34	0x3cb7bdff	0.022429464
35	0x3cd05c74	0.02543471
36	0xbd4881ba	-0.048951842
37	0xbce9aa75	-0.028523663
38	0x3c50d8b5	0.0127469795
39	0x3b9adbda	0.0047259154
40	0xbdc194e4	-0.09452227
41	0x3ca8c2cd	0.0206007
42	0xbd9675d0	-0.0734669
43	0x3dd13f46	0.102171466
44	0x3c68d237	0.014210275
45	0x3dfb0a36	0.12257807
46	0x3ccdec7c	0.025137179
47	0x3de3c01a	0.11120625
48	0x3db36c1b	0.08760854
49	0xbe0560c1	-0.1302519
50	0x3cd99f01	0.026565077
51	0x3df44cef	0.119287364
52	0xbd8fe33b	-0.07025763
53	0x3ccad06f	0.024757592
54	0xbd9fc486	-0.07801156
55	0x3d2577cc	0.04039745
56	0xbce7a106	-0.028275024
57	0x3c95f7d1	0.018306645
58	0xbd668537	-0.056279387
59	0x3e0d8102	0.13818744
60	0x3bf1b637	0.007376458
61	0x3e12fe5e	0.14354846
62	0x3e247a2b	0.16062228
63	0xbce8dc80	-0.028425455
64	0xbca7f3d4	-0.020502008
65	0xbd5a1581	-0.053243164
66	0xbd96cb02	-0.073629394
67	0x3df8205f	0.12115549
68	0xbe19ef4f	-0.15032695
69	0xbde1868e	-0.110119924
70	0xbe0bff01	-0.13671495
71	0xbc7fbd11	-0.015609042
72	0xbc57998e	-0.013159169
73	0x3d3b8a9e	0.045786493
74	0xbd9e7f7f	-0.07739162
75	0x3df7790a	0.12083633
76	0xbdaf199f	-0.08549809
77	0x3cb0c942	0.021580342
78	0xbc3ba2e2	-0.0114524085
79	0x3b8a6471	0.0042233993
80	0xbda966aa	-0.08271535
81	0xbd3a2f91	-0.04545552
82	0xbe0e439b	-0.13892977
83	0xba6b9565	-0.00089868
84	0xbdbdd02a	-0.0926822
85	0xbd6bbeca	-0.057554998
86	0x3d4ad84c	0.049522683
87	0xbca1c991	-0.019749435
88	0x3e052eaa	0.13006082
89	0xbdfebfce	-0.124389276
90	0xbe7e6265	-0.24842222
91	0x3d8f1fbc	0.06988475
92	0xbcca5cb8	-0.024702415
93	0x3dd07e83	0.1018038
94	0x3dc7fc90	0.09764969
95	0x3db9e1a1	0.090762384
96	0x3affb65b	0.0019509302
97	0xbdc9e6a0	-0.09858441
98	0xbd9b86a7	-0.07594042
99	0x3de364d5	0.111032166
100	0xbe207f9e	-0.15673682
101	0xbe234280	-0.15943336
102	0xbe1a076a	-0.1504189
103	0xbd46bda8	-0.048520714
104	0xbce70687	-0.028201355
105	0xbd5d9857	-0.05410036
106	0xbe08d1bc	-0.13361257
107	0x3d9c7fa4	0.07641533
108	0xbdf15c9c	-0.11785242
109	0xbc746dc0	-0.014918745
110	0x3e0bc3a5	0.13648851
111	0xbd1e6436	-0.038669787
112	0xbd468f5e	-0.04847657
113	0xbd54b1d1	-0.05192739
114	0xbcb13fc5	-0.021636853
115	0xbde28d3f	-0.11062097
116	0xbd32273f	-0.04349446
117	0xbe33206b	-0.17492835
118	0x3dad63b0	0.084662795
119	0xbdc4075e	-0.09571718
120	0x3d9e31a8	0.07724315
121	0xbe020379	-0.12696637
122	0xbc700262	-0.014649006
123	0x3e145d23	0.14488654
124	0x3cf2de32	0.029646967
125	0x3d92c442	0.071663395
126	0xbceeaa0b	-0.029133817
127	0xbdb78514	-0.089609295
128	0xbdce2e9d	-0.100674845
129	0x39d2f39c	0.00040235824
130	0x3d1e356d	0.03862517
131	0xbda466f2	-0.08027448
132	0x3cbfb165	0.023400018
133	0xbd721703	-0.059103977
134	0xbd64a530	-0.055821598
135	0xbc8d53b3	-0.017251825
136	0x3d33027a	0.043703534
137	0xbd038491	-0.032108847
138	0x3d24d774	0.040244535
139	0x3de9a40f	0.11408245
140	0x3db788c0	0.0896163
141	0xbc6a3e77	-0.014297119
142	0xbdae34b3	-0.08506145
143	0x3d07e765	0.03317966
144	0x3ca769f2	0.02043626
145	0xbdb85570	-0.09000671
146	0x3c5656b6	0.013082197
147	0x3d982ccd	0.0743042
148	0x3dbae15f	0.091250174
149	0x3d5bd36e	0.053668432
150	0x3d878d13	0.06618705
151	0x3d805c2c	0.062675804
152	0x3da131ac	0.07870802
153	0xbdcac3c0	-0.099006176
154	0xbcae054a	-0.021242756
155	0xbd6a1200	-0.057146072
156	0x3dc4238f	0.09577095
157	0x3dea0fcb	0.114287935
158	0x3db03ede	0.08605741
159	0xbc71ba79	-0.014753931
160	0xbcb9c8a5	-0.022678683
161	0xbdf62368	-0.12018472
162	0xbdc8daf7	-0.09807389
163	0x3db85861	0.09001232
164	0x3d990dd9	0.07473344
165	0xbdd2126b	-0.10257419
166	0xbe0535a3	-0.13008742
167	0x3d30881b	0.04309855
168	0x3cea0402	0.028566364
169	0xbccb3a65	-0.024808118
170	0xbe8a16eb	-0.2697061
171	0xbe4701b7	-0.19434248
172	0x3dc28e04	0.094997436
173	0xbdece39e	-0.11566852
174	0xbd9f3df2	-0.07775487
175	0x3d7a2258	0.06106791
176	0xbdc2db00	-0.09514427
177	0x3d672a14	0.056436613
178	0x3e4ba0ac	0.1988551
179	0xbd91f79e	-0.07127307
180	0x3d9ca6ee	0.07649027
181	0x3d173a2a	0.036920704
182	0x3e07a2b3	0.13245659
183	0xbd3ef9bf	-0.046624895
184	0x3d7edf7c	0.06222485
185	0xbde363ca	-0.11103018
186	0x3cdfd886	0.027324926
187	0xbbab137c	-0.0052208286
188	0x3df7126d	0.12064061
189	0x3b7f0eb9	0.0038918687
190	0xbd2839d3	-0.04107077
191	0xba11b562	-0.0005558339
192	0x3b24277d	0.002504795
193	0x3da020f9	0.07818789
194	0x3e1e80f0	0.15478873
195	0xbd346626	-0.04404273
196	0x3e00a4a4	0.12562805
197	0x3ce618d0	0.028088003
198	0xbe41b779	-0.18917646
199	0xbdbd5f38	-0.09246677
200	0xbdb10aa2	-0.08644606
201	0x3d5804e8	0.052739054
202	0x3de2863e	0.11060761
203	0x3d1ff74b	0.039054196
204	0x3c4c72c0	0.01247853
205	0x3c4bc6b3	0.01243751
206	0x3db5cb14	0.08876625
207	0x3c16fff0	0.009216294
208	0xbdaa76cb	-0.08323439
209	0x3d3efcd8	0.04662785
210	0x3cc847db	0.024448326
211	0x3e3bdb48	0.18345368
212	0x3d95f128	0.073213875
213	0x3bcfefdb	0.0063457317
214	0xbe653168	-0.22382128
215	0xbd3108a5	-0.043221135
216	0xbc0c4ce2	-0.008563252
217	0xbd5f245e	-0.05447804
218	0xbd8eb012	-0.069671765
219	0x3de8c85e	0.11366342
220	0x3d5c42e6	0.053774737
221	0x3cbbf96b	0.02294608
222	0x3d85a8b5	0.06526319
223	0x3db53de8	0.08849698
224	0x3dad1dd3	0.08452954
225	0x3de2bc9a	0.11071129
226	0xbc0ad50b	-0.008473645
227	0x3dc5002d	0.09619174
228	0x3de20f6f	0.110381
229	0x3d368ba7	0.044566777
230	0xbd134901	-0.035958294
231	0xbcf3af6f	-0.02974674
232	0x3c2ea422	0.0106592495
233	0x3cb30de9	0.021857219
234	0xbe2141d9	-0.15747775
235	0x3d981f9a	0.074279025
236	0xbd7a8066	-0.061157607
237	0xbe343bb1	-0.17600895
238	0xbe0adf82	-0.13561824
239	0xbdc52cbe	-0.096276745
240	0xbdd79af9	-0.105276056
241	0xbe352e6c	-0.1769349
242	0x3c286f85	0.010280495
243	0x3d6cb222	0.05778707
244	0x3d61a508	0.055089027
245	0xbe18f421	-0.14936878
246	0xbdf3bbf2	-0.11901082
247	0xbb1f9e7e	-0.0024355943
248	0xbd770eaf	-0.060316738
249	0x3c827cb3	0.015928602
250	0xbe5eaffc	-0.2174682
251	0xbcfccce6	-0.030859422
252	0x3d9f6dc6	0.077846095
253	0xbe214e9b	-0.15752642
254	0x3db8f8e2	0.09031846
255	0xbdb1266b	-0.08649906

weight_hh f4 [192, 64]
0	0xbd1ad288	-0.037798434
1	0xbdbcbcdb	-0.09215709
2	0x3d6f1fef	0.058380064
3	0xbd6fba70	-0.05852741
4	0xbddc4364	-0.10755041
5	0x3d87cd97	0.0663101
6	0x3d6ed593	0.05830915
7	0x3d2d8d58	0.042371124
8	0xbdad0499	-0.084481426
9	0xbd84c8a0	-0.06483579
10	0xbe30671b	-0.17226832
11	0x3dc80c4c	0.097679704
12	0x3c31d39b	0.010853673
13	0x3c4626a1	0.012094171
14	0x3e0395a9	0.1285006
15	0x3e0490c0	0.12945843
16	0xbcd5ccea	-0.026098687
17	0xbe1be33e	-0.15223405
18	0xbe0a7047	-0.13519393
19	0x3deb4328	0.114874184
20	0x3d6c6d28	0.057721287
21	0xbd08be50	-0.03338462
22	0xbdf2012f	-0.11816632
23	0x3e27fa46	0.16404065
24	0x3da093bc	0.07840678
25	0x3e223d9b	0.15843813
26	0xbb0a08b7	-0.0021062323
27	0xbdbfe16d	-0.093691684
28	0xbc8e65ac	-0.017382465
29	0xbd9ff217	-0.07809847
30	0xbdb201e0	-0.08691764
31	0xbdf36f9d	-0.11886523
32	0xbbbe004b	-0.005798375
33	0xbdfaee82	-0.12252523
34	0x3c32ca11	0.010912434
35	0xbd1c14ab	-0.038105648
36	0x3e162dbe	0.14665887
37	0x3d02c189	0.03192285
38	0x3d72c16b	0.05926649
39	0xbd1ff96f	-0.039056238
40	0xbc8948e5	-0.016758392
41	0xbe2084f9	-0.15675725
42	0xbcaab324	-0.020837374
43	0x3b6c1b5b	0.0036027047
44	0x3db23ff2	0.08703603
45	0x3da2dfff	0.0795288
46	0x3e28f57b	0.16499893
47	0x3e6f1aa7	0.23350011
48	0xbd985232	-0.074375525
49	0x3e0a55ce	0.13509294
50	0x3d380d37	0.044934478
51	0x3de63405	0.11240391
52	0x3cc06603	0.023486143
53	0xbca00a64	-0.019536205
54	0xbdad7ddd	-0.08471272
55	0xbd845dee	-0.06463228
56	0xbdba24ef	-0.09089076
57	0x3c166048	0.009178229
58	0x3e1a00f2	0.15039423
59	0xbc8a6fba	-0.016898979
60	0xbe3f6ef3	-0.18694668
61	0x3d8677f9	0.06565852
62	0xbd34853e	-0.044072382
63	0xbd990225	-0.07471112
64	0x3d86aa2c	0.065754265
65	0xbdf5a201	-0.119937904
66	0x3d5acbaf	0.053416904
67	0x3d293954	0.041314438
68	0xbddea8f8	-0.10872072
69	0x3e1079fe	0.14109036
70	0xbcfced89	-0.030874984
71	0x3d65f950	0.056145966
72	0x3cd55837	0.02604304
73	0xbd503562	-0.05083216
74	0xbe0aeb1c	-0.1356625
75	0xbd62a953	-0.05533726
76	0xbe0b125d	-0.13581224
77	0xbd792d65	-0.060834307
78	0xbd1600e4	-0.036621943
79	0xbd7945e6	-0.060857676
80	0x3e1398dd	0.14413781
81	0xbd736f87	-0.059432533
82	0xbca369c8	-0.019947901
83	0x3b52b9cb	0.0032154198
84	0xbd50bb3f	-0.05095982
85	0x3d45e80a	0.048316993
86	0xbe1b5999	-0.15170898
87	0x3d934071	0.071900256
88	0x3dc17a87	0.09447198
89	0x3d891020	0.06692529
90	0xbd50ec3c	-0.05100654
91	0xbdc94b0d	-0.09828768
92	0xbd7e77c5	-0.06212594
93	0x3d003f67	0.031310465
94	0xbd47bdbb	-0.048764925
95	0xbdb3ad5b	-0.08773299
96	0x3cc45510	0.023966342
97	0x3d185fd7	0.037200775
98	0x3de263d4	0.11054197
99	0x3df77d78	0.12084478
100	0xbd9ba06e	-0.07598959
101	0x3d94ae14	0.07259765
102	0x3d1ecd4e	0.038770013
103	0xbc900e16	-0.017584842
104	0x3d07dd0f	0.033169802
105	0xbd87cb34	-0.06630555
106	0xbd5356f6	-0.051596604
107	0x3d7536ce	0.05986672
108	0x3cc2aaf7	0.023763163
109	0xbe252c8d	-0.16130276
110	0xbd2f66c5	-0.042822618
111	0xbcd8eea8	-0.026480988
112	0xbcf5ecd5	-0.030020157
113	0x3e1c5443	0.15266518
114	0xbd1be31e	-0.038058393
115	0xbdf9ff55	-0.12206904
116	0xbd99e4eb	-0.07514366
117	0x3e3580dc	0.17724937
118	0x3dc46b62	0.09590794
119	0xbc841d86	-0.01612736
120	0xb9854f80	-0.0002542697
121	0xbdd3bd16	-0.103388
122	0xbc3dea44	-0.011591498
123	0x3e0c9d4e	0.13731882
124	0xbe2143a3	-0.15748458
125	0x3e1b809a	0.15185776
126	0xbdeedcdc	-0.11663219
127	0x3de68211	0.11255277
128	0xbe1b978b	-0.15194528
129	0xbd8ca698	-0.06867713
130	0x3db81706	0.08988766
131	0xbda38bbc	-0.079856366
132	0x3d440c0e	0.04786306
133	0x3dfe7783	0.12425139
134	0x3daed041	0.08535815
135	0x3e3f4cad	0.18681593
136	0xbdd8216e	-0.10553251
137	0x3d94d0b1	0.07266367
138	0xbd2bdcb2	-0.04195852
139	0xbd47fd38	-0.048825473
140	0xbe41d778	-0.18929851
141	0xbd2043ca	-0.03912715
142	0x3dbe39a5	0.092883386
143	0xbd8fb4f5	-0.07016937
144	0xbcb1de88	-0.021712556
145	0x3d23d241	0.039995436
146	0x3ce21667	0.027598573
147	0xbe18403f	-0.14868258
148	0x3cb61694	0.022227563
149	0x3e4c674f	0.19961284
150	0xbcf61ebd	-0.030043954
151	0x3ca115cf	0.01966372
152	0x3c7a2541	0.015267671
153	0xbca35433	-0.01993761
154	0xbd549b18	-0.05190572
155	0x3cefb461	0.029260816
156	0xbd4e2d9a	-0.050336458
157	0x3e236c69	0.15959324
158	0x3d5b3f81	0.05352736
159	0xbc9a4b5b	-0.01883476
160	0x3cc52d29	0.024069386
161	0x3d8bae21	0.06820322
162	0x3e1b1a2c	0.15146703
163	0xbc118e45	-0.008884017
164	0x3d80021f	0.062504046
165	0x3d783b86	0.06060364
166	0x3e198291	0.14991213
167	0xbd103039	-0.03520224
168	0xbe41d814	-0.18930084
169	0x3d4a13f8	0.04933545
170	0x3c10dd05	0.008841758
171	0x3dc5db35	0.09660951
172	0xbd6a47fb	-0.057197552
173	0xbd8bc87a	-0.06825347
174	0x3df56f48	0.11984116
175	0x3dbc3a6e	0.09190832
176	0xbd76b78d	-0.06023364
177	0xbcb10f8b	-0.021613857
178	0x3e1fc0b0	0.15600848
179	0x3d04e8f2	0.032448716
180	0xbdb0b0dc	-0.08627483
181	0xbb66dec1	-0.0035227987
182	0x3e0c188f	0.13681243
183	0x3bfd95c2	0.0077388
184	0xbd375eef	-0.04476827
185	0xbd3ecf77	-0.046584573
186	0x3daebb46	0.08531813
187	0x3d6ff092	0.058579035
188	0xbda1f060	-0.07907176
189	0x3cd7819f	0.026306925
190	0xbd2e245e	-0.04251515
191	0xbcb2a8f7	-0.021809084
192	0x3d3f8b10	0.04676348
193	0x3bc4e0f0	0.00600826
194	0x3bc56997	0.00602455
195	0xbc9b1aff	-0.018933771
196	0xbde2816f	-0.11059844
197	0x3d568c5e	0.05237996
198	0x3d4dcbe2	0.050243266
199	0x3e157d06	0.14598474
200	0x3d4209e3	0.04737271
201	0x3c8d1ba9	0.017225103
202	0xbda07702	-0.07835199
203	0xbd0d86aa	-0.034552254
204	0xbe0e0e8f	-0.13872741
205	0x3b1c684b	0.0023865874
206	0x3c7b61be	0.015343128
207	0xbd3ec643	-0.046575796
208	0x3d9b7336	0.07590334
209	0xbc0cf54f	-0.008603408
210	0xbe0ff91f	-0.14059876
211	0xbbeaed50	-0.007169403
212	0x3d9cc51d	0.07654784
213	0xbd71a8a2	-0.05899871
214	0xbbd5e29d	-0.0065272585
215	0x3e3b79da	0.18308201
216	0xbd075e49	-0.0330489
217	0xbcf56e55	-0.029959837
218	0x3d045ccb	0.032315057
219	0xbd89f9d4	-0.06737104
220	0xbabd5a3a	-0.0014446445
221	0xbcb6df40	-0.02232325
222	0xbdc03ae5	-0.09386233
223	0x3d24ba5f	0.0402168
224	0xbde915c7	-0.11381107
225	0xbe55ccb6	-0.20878872
226	0xbd9adca9	-0.07561619
227	0xbcaa3eb5	-0.020781854
228	0x3d889554	0.06669107
229	0xbe070ba4	-0.13188034
230	0xbd82ccf7	-0.0638675
231	0x3e2d2a1a	0.16910592
232	0x3d8ce332	0.068792716
233	0xbe05fd2d	-0.1308486
234	0x3e1d6e9a	0.15374222
235	0x3da328d7	0.07966774
236	0xbd4fe16e	-0.050752096
237	0x3d00e74e	0.03147059
238	0xbc52fdea	-0.012877921
239	0x3de5b4c5	0.1121612
240	0x3c57955f	0.013158171
241	0x3be4ec39	0.0069861677
242	0x3e057a04	0.13034827
243	0xbdf913a7	-0.121619515
244	0x3e1289db	0.143104
245	0x3deedd59	0.116633125
246	0x3df6395a	0.12022658
247	0xbc9acc32	-0.018896196
248	0x3c1e0db4	0.009646822
249	0xbe04bb11	-0.12961985
250	0x3e09fb05	0.13474663
251	0x3c9d6487	0.019212974
252	0xbc738e56	-0.0148654785
253	0x3d70cdfb	0.05879019
254	0xbde944ef	-0.11390101
255	0xbd64318f	-0.055711325

bias_ih f4 [192]
0	0x3dd68e66	0.10476379
1	0x3d8966f7	0.06709092
2	0xbd2693ea	-0.040668406
3	0x3d8d5619	0.069011874
4	0x3d959cb8	0.07305282
5	0x3de0e18e	0.10980521
6	0x3da1c7ae	0.07899414
7	0x3e16e44b	0.14735524
8	0xbd41ba80	-0.047297
9	0xbc5913be	-0.013249336
10	0x3e14acb9	0.14519013
11	0x3ddc8f79	0.10769553
12	0xbc4d7352	-0.012539702
13	0x3dc6f7c8	0.09715229
14	0x3d803654	0.06260362
15	0xbd8f263f	-0.06989717
16	0x3d7a05b5	0.0610406
17	0x3dc83796	0.09776227
18	0xbc91745a	-0.017755676
19	0x3d3b4892	0.045723505
20	0xbd6e8c02	-0.05823899
21	0x3d881003	0.06643679
22	0xbcdada10	-0.026715308
23	0x3dd00d0e	0.1015874
24	0x3ce11c5a	0.02747934
25	0x3d1e811b	0.038697343
26	0xbd73982e	-0.0594713
27	0xbd844abf	-0.06459569
28	0xbd619de6	-0.055082224
29	0x3dfdf80a	0.12400825
30	0xbd8c811c	-0.06860563
31	0x3e411d7d	0.18858905
32	0xbbde96e3	-0.0067928894
33	0x3e30d853	0.17270021
34	0x3d9e56f2	0.07731427
35	0xbcd5c20b	-0.026093503
36	0x3db6513a	0.089022115
37	0x3d878e2c	0.06618914
38	0xbcad2b40	-0.021138787
39	0x3b801856	0.003909151
40	0x3db17f80	0.08666897
41	0x3dc95eb3	0.098325156
42	0x3dd25c7c	0.10271546
43	0xbda4d59b	-0.080485545
44	0x3dc95a18	0.09831637
45	0x3e2004fc	0.15626901
46	0x3d4fa06a	0.050690092
47	0x3d461fd6	0.048370205
48	0x3c66942b	0.014073412
49	0x3e106402	0.1410065
50	0x3d67fe06	0.05663874
51	0x3c9483fa	0.018129338
52	0x3e2597bb	0.16171162
53	0x3dcd1b6d	0.10014997
54	0x3c6afa9d	0.014341977
55	0x3e270993	0.16312246
56	0xbd382b60	-0.04496324
57	0x3c0b4053	0.008499223
58	0xbd9b0400	-0.07569122
59	0x3cf97fab	0.030456385
60	0xbd837a36	-0.06419794
61	0x3e14e0b0	0.14538836
62	0x3d8893fa	0.06668849
63	0x3daada02	0.08342363
64	0xbd40c7a9	-0.04706541
65	0xbe84fbe9	-0.25973442
66	0xbe20fdd4	-0.15721828
67	0xbe6f2a01	-0.23355867
68	0x3cd6fdc3	0.02624405
69	0x3d4c34e2	0.04985512
70	0xbe080e7c	-0.13286775
71	0x3e296963	0.16544108
72	0xbdb7e2e6	-0.08978824
73	0xbd0a95f9	-0.03383443
74	0x3dea8d9c	0.11452791
75	0xbe8ee102	-0.27906042
76	0xbe252af2	-0.16129664
77	0x3e4be93c	0.1991319
78	0xbeba70df	-0.3641424
79	0x3e7a3f2c	0.2443816
80	0xbe4d6ed9	-0.20061816
81	0x3db446cb	0.08802565
82	0xbe920cfc	-0.2852553
83	0xba2a384b	-0.00064933737
84	0xbe684711	-0.2268336
85	0x3e19a3a0	0.15003824
86	0x3d1e519c	0.038652048
87	0xbe957c4c	-0.29196393
88	0xbec0f243	-0.3768483
89	0x3de2f237	0.11081355
90	0xbd4eaec0	-0.050459623
91	0x3d87504c	0.06607112
92	0xbdb729ff	-0.08943557
93	0xbd16c5c0	-0.036809683
94	0xbe823b84	-0.25436032
95	0xbe5c750b	-0.21529023
96	0xbcc9d0b0	-0.024635643
97	0x3dd7335b	0.10507842
98	0x3dbe5a6f	0.092945926
99	0xbd4e88b1	-0.050423328
100	0xbe300a06	-0.17191324
101	0xbea52df7	-0.3226163
102	0x3dc99e81	0.09844685
103	0xbe921b9a	-0.28536683
104	0xbd49a4e7	-0.04922953
105	0x3db4b310	0.08823216
106	0xbe3f68d2	-0.1869233
107	0xbeb6fdbe	-0.35740465
108	0x3c3deb19	0.011591696
109	0x3db3c2d4	0.08777395
110	0x3dc7357e	0.09727
111	0xbe97455b	-0.29545102
112	0x3d21538c	0.039386317
113	0xbdb96b2d	-0.09053645
114	0xbd2fafff	-0.042892452
115	0x3dee177b	0.11625572
116	0xbe63586b	-0.22201698
117	0xbece39f2	-0.40278584
118	0x3d333782	0.04375411
119	0xbe73b6fb	-0.2380027
120	0xbe949448	-0.2901938
121	0xbd8e9602	-0.069622055
122	0x3cff0460	0.031130016
123	0xbdc420e7	-0.09576588
124	0xbea71c59	-0.32638815
125	0xbe5be6b7	-0.2147473
126	0xbe9ba52b	-0.3039945
127	0xbdb621f5	-0.088931955
128	0xbdf2c012	-0.11853041
129	0x3c8dbdf8	0.017302498
130	0x3c24ae91	0.0100513855
131	0xbde97cf4	-0.11400786
132	0xbbfcd1b3	-0.007715428
133	0x3ddc0f01	0.10745049
134	0xbd69adfe	-0.057050698
135	0x3d37108d	0.04469352
136	0xbe259ad2	-0.1617234
137	0x3e487083	0.1957417
138	0xbd7482d8	-0.059695095
139	0xbbfe01b4	-0.007751668
140	0xbd9b1c62	-0.07573773
141	0xbd773de9	-0.060361777
142	0x3da18cfc	0.07888219
143	0xbc692323	-0.014229569
144	0xbcbd8d47	-0.023138655
145	0xbe2a3f25	-0.1662565
146	0xbe31ef2a	-0.1737639
147	0xbe2cddb8	-0.16881454
148	0x3d96592b	0.07341226
149	0x3e111fb9	0.14172257
150	0xbd3d5a78	-0.046228856
151	0x3d1f6306	0.038912795
152	0x3d362b66	0.04447498
153	0x3db73c41	0.089470394
154	0x3db1400a	0.086547926
155	0x3d8cac93	0.068688534
156	0x3dae4044	0.085083514
157	0x3e002c39	0.1251687
158	0xbd7e75ac	-0.06212394
159	0x3cbaaf04	0.022788532
160	0xbdcc9e38	-0.09991115
161	0x3dcdef67	0.10055428
162	0xbca2ac02	-0.01985741
163	0x3de1ce81	0.110257156
164	0x3cda9342	0.026681546
165	0xbe4bda84	-0.19907576
166	0x3dad1a88	0.08452326
167	0x3e1ae3a8	0.15125906
168	0xbdcbbcd2	-0.09948124
169	0x3c970373	0.018434262
170	0x3afaa02d	0.0019121222
171	0x3d22d554	0.039754227
172	0x3d4ef96b	0.050530832
173	0xbe28f522	-0.16499761
174	0x3dcdfd7d	0.10058115
175	0x3db9e3de	0.09076665
176	0xbdc40627	-0.09571486
177	0x3d1336d0	0.035940945
178	0x3e41fcf0	0.18944144
179	0xbd9a23ac	-0.07526335
180	0x3d6c0483	0.05762149
181	0x3db3c276	0.08777325
182	0x3d86863e	0.065685734
183	0xbde92122	-0.11383273
184	0xbe3819d1	-0.17978598
185	0xbe099547	-0.13435851
186	0x3c8dc175	0.017304162
187	0x3de8e0be	0.11370991
188	0xbd85d6d1	-0.065351136
189	0x3d9a364c	0.075298876
190	0xbd3af437	-0.045643058
191	0x3d15a7b2	0.03653688

bias_hh f4 [192]
0	0xbdac2bfc	-0.08406827
1	0xbd8062e4	-0.06268862
2	0x3e294278	0.16529262
3	0x3da019b8	0.078174055
4	0xbce44ad2	-0.027867708
5	0xbd9ead98	-0.07747954
6	0xbd2bf0bc	-0.04197763
7	0x3e0016b0	0.12508655
8	0xbdd1e8c9	-0.10249478
9	0xbd0e3465	-0.034717936
10	0xbc7e7a0f	-0.015532031
11	0xbd70bbda	-0.0587729
12	0x3dccb0c7	0.09994655
13	0x3dbef6f2	0.09324445
14	0x3dfd5bc4	0.123710185
15	0x3d285407	0.04109576
16	0xbd7d1d61	-0.061795596
17	0xbdf978ea	-0.12181266
18	0x3e2dee9c	0.16985554
19	0x3e02b39e	0.12763831
20	0x3d0cd244	0.034380212
21	0x3e0b515d	0.13605256
22	0x3db4052d	0.0879005
23	0xbd95919a	-0.07303162
24	0x3e168d8f	0.14702438
25	0xbacffe75	-0.0015868681
26	0xbd473d5e	-0.04864251
27	0xbc8a2964	-0.01686544
28	0xbd361afa	-0.04445932
29	0x3d7b3dc7	0.061338212
30	0x3e0616d5	0.13094647
31	0x3e3f5d27	0.18687879
32	0xbcabf9fe	-0.020993229
33	0x3d718f98	0.058974832
34	0x3c6a516e	0.014301641
35	0x3d9cbd4f	0.07653295
36	0x3e0e54d4	0.13899547
37	0x3bc8dc2f	0.0061297636
38	0x3ccdd662	0.02512664
39	0x3db66877	0.08906644
40	0x3c9289e9	0.017888026
41	0x3e0c326c	0.1369111
42	0x3d114468	0.035465628
43	0x3d74c941	0.059762243
44	0x3ae1cada	0.0017226592
45	0x3dff943b	0.124794446
46	0xbca85f21	-0.020553173
47	0x3e00397d	0.1252193
48	0xbd08443f	-0.03326821
49	0x3e2fb549	0.17158999
50	0xbdc2c5c7	-0.09510379
51	0x3d4c3b38	0.049861163
52	0xbd45a097	-0.048248854
53	0x3d961191	0.07327569
54	0xbc158409	-0.009125718
55	0x3df1535e	0.11783479
56	0xbd2d9f94	-0.042388514
57	0x3cd382dc	0.025819235
58	0x3d456775	0.048194367
59	0xbda1adfd	-0.07894514
60	0x3c90af80	0.01766181
61	0x3c97bbb9	0.01852213
62	0x3aea1e7c	0.0017861868
63	0x3da16b94	0.07881847
64	0xbd9cc53e	-0.076548085
65	0xbe8f2014	-0.2795416
66	0xbe1ac247	-0.15113173
67	0xbd657462	-0.056019194
68	0x3d8b1c17	0.06792467
69	0x3dea4889	0.11439616
70	0xbe0ab631	-0.13546063
71	0x3d86560a	0.065593794
72	0x3b93aed4	0.004506925
73	0x3c25118f	0.010074987
74	0x3e066e9c	0.13128132
75	0xbeeca054	-0.4621607
76	0xbdb68190	-0.08911431
77	0x3d09aae8	0.033610255
78	0xbeb395be	-0.35075182
79	0x3e122dd6	0.14275298
80	0xbe3056b3	-0.17220573
81	0xbd0db007	-0.0345917
82	0xbd487f03	-0.048949253
83	0xbd890179	-0.06689734
84	0xbec63ad4	-0.38716757
85	0x3e047c7f	0.12938116
86	0xbdd67dff	-0.104732506
87	0xbec06231	-0.37574914
88	0xbeade0f1	-0.3396068
89	0x3d70a619	0.058752153
90	0xbb7d9821	-0.0038695412
91	0x3e63cbb5	0.22245677
92	0x3d8e8d37	0.06960528
93	0x3cd5e70c	0.026111148
94	0xbea90d8b	-0.33018145
95	0xbe4007d2	-0.18752983
96	0x3de8803c	0.11352584
97	0x3d8f522d	0.06998096
98	0x3e297537	0.1654862
99	0xbde00ee1	-0.10940338
100	0xbe9c6fa7	-0.30553934
101	0xbe12d879	-0.1434039
102	0x3dccc6b9	0.09998841
103	0xbef0e75b	-0.4705151
104	0xbd1e9c81	-0.038723473
105	0xbd8f4762	-0.06996037
106	0xbe8c3203	-0.27381906
107	0xbe01bae4	-0.1266895
108	0xbd904034	-0.07043496
109	0xbd6ff4c0	-0.05858302
110	0xbda2cfd4	-0.07949796
111	0xbe4654aa	-0.19368234
112	0x3db8dc2a	0.09026368
113	0xbe8337fb	-0.25628647
114	0xbbcfd5b1	-0.0063426127
115	0x3e6a4efa	0.2288169
116	0xbedc885d	-0.43072787
117	0xbec495a0	-0.38395405
118	0x3d90d070	0.07071006
119	0xbe7f2cd3	-0.24919443
120	0xbec54f73	-0.38537177
121	0x3cbf8e86	0.02338339
122	0x3d1e109a	0.03859005
123	0xbd5ff6a1	-0.054678563
124	0xbe83d24b	-0.25746378
125	0xbe6de6af	-0.2323253
126	0xbea39a10	-0.31953478
127	0xbe0e86e0	-0.13918638
128	0x3d09be04	0.03362848
129	0xbe4e6348	-0.2015506
130	0x3e33b872	0.17550829
131	0x3d4b7ebb	0.049681406
132	0x3d89ce39	0.06728787
133	0x3d8c4477	0.06848996
134	0x3e213b6b	0.15745322
135	0x3d88a0ea	0.06671317
136	0x3c5f9501	0.013646365
137	0xbbc5c387	-0.0060352716
138	0xbd9ffaf2	-0.07811536
139	0x3d688c53	0.05677445
140	0xbdf91b1e	-0.12163375
141	0x3d17081e	0.036872976
142	0x3e078443	0.13234048
143	0xbd8e0fab	-0.06936582
144	0x3d8cb868	0.0687111
145	0xba72a255	-0.0009255757
146	0xbe271d98	-0.16319883
147	0xbe661621	-0.22469379
148	0x3d05efe6	0.032699488
149	0x3df331f2	0.11874761
150	0xbd8e46ea	-0.069471195
151	0x3ccf6342	0.025315885
152	0x3db0a12d	0.08624492
153	0x3db2c1b7	0.087283544
154	0x3c717e34	0.014739562
155	0xbd5a82c7	-0.053347375
156	0xbd464c01	-0.048412327
157	0x3df3079d	0.118666865
158	0xbd32a379	-0.04361293
159	0xbe286910	-0.16446328
160	0xbdcbfd86	-0.09960465
161	0x3d85c0f9	0.06530947
162	0x3e26d556	0.16292319
163	0x3e45758f	0.19283126
164	0x3dc8549b	0.09781762
165	0x3cc86a1d	0.024464661
166	0x3ce264fe	0.027636047
167	0x3d221af2	0.03957648
168	0xbe37e204	-0.17957312
169	0xbd9149cd	-0.070941545
170	0x3d31e361	0.043429736
171	0x3c324583	0.010880831
172	0x3d843488	0.06455332
173	0xbcd0fb62	-0.025510494
174	0xbcdbc38a	-0.026826639
175	0x3c72077e	0.014772294
176	0xbd858ead	-0.06521354
177	0x3e2486b3	0.16067009
178	0x3dd368f2	0.10322751
179	0xbe187dfb	-0.14891808
180	0x3dddd213	0.10831084
181	0x3d647b8f	0.055781897
182	0x3c1137fa	0.0088634435
183	0xbe229cea	-0.1588017
184	0xbd63d7e9	-0.05562583
185	0xbe33b6ba	-0.17550173
186	0x3da238d9	0.07920999
187	0xbc3f04a4	-0.011658821
188	0xbdb78eb1	-0.08962763
189	0x3e41df71	0.18932892
190	0xbe1452b5	-0.14484675
191	0x3e1236f0	0.1427877

weight f4 [1, 64]
0	0xbe8f263f	-0.27958867
1	0xbe6d8a1c	-0.23197216
2	0x3e97dc60	0.2966032
3	0xbe9b86c5	-0.30376258
4	0xbe457725	-0.19283731
5	0x3e84678e	0.25860256
6	0x3e7b0ac5	0.24515827
7	0x3e3d94c1	0.18513776
8	0xbe2f6eda	-0.1713213
9	0x3e4ac3b9	0.19801225
10	0xbe4441e0	-0.19165754
11	0x3e8e5dbc	0.2780589
12	0xbe491026	-0.19635066
13	0x3e40f668	0.18843997
14	0x3eac5e1e	0.33665556
15	0xbe1d6f01	-0.15374376
16	0x3e7623b2	0.24037054
17	0xbe34418a	-0.17603126
18	0xbe61e7c4	-0.22061068
19	0xbe39774a	-0.18111911
20	0x3e64e592	0.22353199
21	0x3e4a6d73	0.19768314
22	0xbdabb9a6	-0.08385019
23	0x3e9914de	0.29898733
24	0x3e603a42	0.21897224
25	0x3e8975e2	0.2684775
26	0x3e41ad20	0.18913698
27	0xbe6653e1	-0.22492935
28	0x3e87ab59	0.26497915
29	0x3e934c72	0.2876926
30	0xbe7529ab	-0.23941676
31	0xbe7c3d96	-0.24632868
32	0xbe321d6a	-0.17394033
33	0xbe704ced	-0.23466845
34	0x3e35aee7	0.17742501
35	0x3e5ea26e	0.2174165
36	0x3e5e5e6e	0.2171571
37	0xbe94ad04	-0.2903825
38	0x3e997df6	0.29978913
39	0x3ea7170a	0.32634765
40	0xbe593cb3	-0.21214561
41	0xbe78366e	-0.24239513
42	0x3e4c4c30	0.19950938
43	0x3eb3be49	0.35106114
44	0x3e87f809	0.26556423
45	0xbe980dfc	-0.2969817
46	0x3dba3c88	0.09093577
47	0x3e8db2c0	0.27675438
48	0xbe94a27e	-0.29030222
49	0x3e3ecaf3	0.18632106
50	0x3e2bcc38	0.16777122
51	0xbe5469fb	-0.20743553
52	0x3e9925d9	0.29911688
53	0x3e8bbd63	0.27292928
54	0x3e818610	0.25297594
55	0xbe863f10	-0.26219988
56	0xbe77fb2b	-0.24216907
57	0xbe796621	-0.24355365
58	0x3de59ac6	0.11211161
59	0x3e43153a	0.19051066
60	0xbeb12a31	-0.34602502
61	0x3e4e0119	0.20117606
62	0xbe9676c2	-0.2938748
63	0x3e2eaf92	0.17059162

welford_state_mean f4 [4]
0	0x3f4bc6a2	0.79599965
1	0x3f53f7ce	0.82799995
2	0x3f5f7ce7	0.8729996
3	0x3f4978db	0.78700036

welford_state_mean_diff f4 [4]
0	0x4322215d	162.13033
1	0x430e9177	142.56822
2	0x42ddb395	110.850746
3	0x4327dc3f	167.86034

hidden f4 [6, 64]
0	0xbf5847ad	-0.8448437
1	0xbf79f554	-0.97639966
2	0x3f7bb6c2	0.9832574
3	0xbf5c814c	-0.8613479
4	0x3ef8ccbf	0.4859371
5	0x3eea4c89	0.45761517
6	0x3f5a85d6	0.8536047
7	0xbcb12450	-0.02162376
8	0xbf64c9ff	-0.8937072
9	0x3f788599	0.97078854
10	0xbdc593f8	-0.096473634
11	0x3f74b8b2	0.9559432
12	0xbf4f40aa	-0.80958045
13	0xbf61b492	-0.88166153
14	0x3f6bf4c2	0.92170346
15	0xbf1f279c	-0.62169814
16	0x3f5d7dd9	0.86520153
17	0xbef6d366	-0.4820816
18	0xbf7a94fc	-0.9788358
19	0xbf79e11d	-0.9760912
20	0x3f4648c1	0.77454764
21	0x3e0eb11a	0.13934746
22	0x3e8d1d5e	0.27561468
23	0x3f795f88	0.97411394
24	0x3f32f713	0.69908255
25	0x3f38e4cb	0.7222411
26	0x3eebc7ab	0.46050772
27	0xbf5b5e4d	-0.85690767
28	0x3f334d1d	0.7003954
29	0x3f7e1a2d	0.9925869
30	0xbf755dd2	-0.95846283
31	0xbf778574	-0.9668801
32	0xbf5b68b2	-0.8570663
33	0x3f3051ca	0.688748
34	0x3ead74a7	0.3387806
35	0x3f6c7e15	0.92379886
36	0x3f7ffad9	0.9999214
37	0xbf7e0067	-0.99219364
38	0x3f23500b	0.6379401
39	0x3f4e3c25	0.80560523
40	0xbf620fd2	-0.8830539
41	0xbf01f662	-0.50766575
42	0x3f189684	0.5960467
43	0x3eb110fb	0.34583268
44	0x3f76626a	0.9624392
45	0xbf6990fd	-0.9123686
46	0xbe018fb9	-0.12652482
47	0x3e5050e1	0.20343353
48	0xbf697f16	-0.9120954
49	0x3ded9d64	0.116022855
50	0x3f6a3cf5	0.91499263
51	0xbeed391a	-0.46332628
52	0x3f7ea311	0.9946757
53	0xbda89828	-0.082321465
54	0x3f716ef2	0.94309914
55	0xbf784047	-0.9697308
56	0xbf7eeab9	-0.9957691
57	0xbf5ec933	-0.87025756
58	0xbe4aeb9d	-0.19816442
59	0x3f7d3204	0.9890444
60	0xbf4d4f35	-0.80198985
61	0x3f66b9d5	0.9012731
62	0x3f1c209a	0.60987246
63	0x3f55802c	0.833987
64	0xbf749050	-0.95532703
65	0xbf7e50d8	-0.9934211
66	0x3f7ecebf	0.9953422
67	0xbf77cd94	-0.9679806
68	0x3e7909e6	0.24320182
69	0x3f6c2c6a	0.9225527
70	0x3f783a66	0.9696411
71	0x3f17037a	0.5898968
72	0xbf7114ba	-0.9417225
73	0x3f7de9ce	0.9918488
74	0xbf07e9c6	-0.53091085
75	0x3f7df26c	0.9919803
76	0xbf6f40d3	-0.9345829
77	0xbf4d7fc8	-0.80273104
78	0x3f7b88ec	0.982558
79	0xbf58b31c	-0.846483
80	0x3f7a317f	0.97731775
81	0xbf48e4fa	-0.7847439
82	0xbf7e37e9	-0.9930406
83	0xbf7eeadd	-0.9957712
84	0x3f716af4	0.9430382
85	0x3f1f19f0	0.6214895
86	0xbd09849c	-0.03357373
87	0x3f7f6a79	0.9977184
88	0x3f6da30f	0.9282693
89	0x3f6f7925	0.93544227
90	0x3f48de8a	0.7846457
91	0xbf70960a	-0.9397894
92	0x3f6ca999	0.92446285
93	0x3f7f632e	0.9976071
94	0xbf7d9c74	-0.99066854
95	0xbf7e1b01	-0.99259955
96	0xbf7219da	-0.94570696
97	0x3e648af4	0.22318631
98	0x3f324e20	0.6965046
99	0x3f7b881d	0.9825457
100	0x3f7ffe6b	0.99997586
101	0xbf7f8062	-0.9980527
102	0x3f6ab133	0.91676635
103	0x3f75b750	0.9598284
104	0xbf7be95e	-0.98402965
105	0xbf49e21b	-0.78860635
106	0x3f68dce9	0.9096208
107	0x3f3e42ef	0.7432088
108	0x3f7d7652	0.9900867
109	0xbf751e85	-0.95749694
110	0x3da5fc96	0.081048176
111	0x3f1c2e0a	0.6100775
112	0xbf7928c6	-0.9732784
113	0x3eea1b4f	0.4572396
114	0x3f7ae88b	0.9801108
115	0xbf5cc71f	-0.86241335
116	0x3f7fd659	0.99936444
117	0x3f07979b	0.52965707
118	0x3f7bb404	0.9832156
119	0xbf7e2b91	-0.9928523
120	0xbf7fabcc	-0.99871516
121	0xbf7990f0	-0.9748678
122	0xbd8df231	-0.0693096
123	0x3f7f1762	0.99645054
124	0xbf703538	-0.93831205
125	0x3f79b905	0.9754794
126	0x3e7e9380	0.24860954
127	0x3f73bdc9	0.95211464
128	0xbf58f5f2	-0.8475028
129	0xbf79c842	-0.97571194
130	0x3f7b7099	0.98218685
131	0xbf5d4642	-0.8643533
132	0x3ed77a85	0.42085662
133	0x3ecfd591	0.40592626
134	0x3f58a7a7	0.8463082
135	0xbd4567f0	-0.048194826
136	0xbf649bee	-0.8930043
137	0x3f7849a6	0.9698738
138	0xbdc20904	-0.09474376
139	0x3f74a729	0.95567566
140	0xbf4da185	-0.80324584
141	0xbf5eaf63	-0.8698637
142	0x3f6bb8b6	0.9207872
143	0xbf183161	-0.59450346
144	0x3f5e4a5c	0.86832213
145	0xbef018e6	-0.46893996
146	0xbf7a297f	-0.9771957
147	0xbf78608e	-0.9702233
148	0x3f4566e6	0.77110136
149	0x3de1d440	0.110268116
150	0x3e6fad56	0.23405966
151	0x3f79896d	0.9747532
152	0x3f334f41	0.70042807
153	0x3f33459b	0.70028085
154	0x3eded37a	0.4352072
155	0xbf5640a9	-0.83692414
156	0x3f2be8bd	0.67152005
157	0x3f7e119f	0.9924564
158	0xbf75822b	-0.95901746
159	0xbf771c1c	-0.96527267
160	0xbf5796ab	-0.84214276
161	0x3f2fce67	0.6867432
162	0x3ea2214f	0.31666037
163	0x3f6b4018	0.91894674
164	0x3f7ffa09	0.999909
165	0xbf7dd118	-0.99147177
166	0x3f12f903	0.5741121
167	0x3f4d45f1	0.8018485
168	0xbf5d3f6a	-0.8642489
169	0xbf019b2f	-0.50627416
170	0x3f1fc717	0.6241316
171	0x3ebfe544	0.37479603
172	0x3f75abb8	0.95965147
173	0xbf67e80b	-0.90588444
174	0xbdc904e4	-0.09815386
175	0x3e6d7706	0.23189935
176	0xbf65ac49	-0.8971601
177	0x3e1e21c5	0.1544257
178	0x3f679778	0.904655
179	0xbed2f7c4	-0.41204655
180	0x3f7e95ca	0.9944731
181	0xbd7c6501	-0.061619762
182	0x3f70e86e	0.9410466
183	0xbf77e2f2	-0.96830666
184	0xbf7ec7e4	-0.9952376
185	0xbf5a4d25	-0.85273963
186	0xbe2fd736	-0.1717194
187	0x3f7d08e3	0.98841685
188	0xbf4d1553	-0.80110663
189	0x3f659441	0.8967934
190	0x3f13334d	0.57500154
191	0x3f54d13e	0.8313178
192	0x3da5a1fc	0.08087537
193	0xbf0a68d0	-0.5406618
194	0x3f1036ef	0.5633382
195	0xbd7612ea	-0.06007663
196	0x3f5fb53e	0.8738593
197	0xbd2d0b10	-0.04224688
198	0xbc61d520	-0.013783723
199	0xbe5b9386	-0.21442994
200	0xbde4e600	-0.111766815
201	0x3eff4883	0.4986001
202	0x3e50027c	0.20313448
203	0x3e24f71d	0.16109891
204	0x3dbd1b10	0.092336774
205	0xbf4489f8	-0.76773024
206	0x3e3acd8d	0.18242474
207	0xbf4d09b4	-0.8009293
208	0xbeb456ad	-0.35222378
209	0xbe432dec	-0.19060487
210	0xbf27e0e6	-0.6557754
211	0xbf5fa487	-0.87360424
212	0xbe5c589f	-0.21518181
213	0xbd5e9d81	-0.054349426
214	0x3f4214ab	0.75812787
215	0xbe3909b9	-0.18070115
216	0xbe679796	-0.22616419
217	0xbe3de0b4	-0.18542749
218	0xbe7b11cf	-0.24518512
219	0xbf632736	-0.88731706
220	0xbeb31df6	-0.34983796
221	0x3f0e36e8	0.5555253
222	0x3e229644	0.15877634
223	0xbeb6cf3c	-0.35704982
224	0xbf3d37c0	-0.7391319
225	0x3f6519eb	0.8949267
226	0x3e1ec9f4	0.15506727
227	0x3f000d7e	0.5002059
228	0x3f79cb8f	0.9757623
229	0xbf390cee	-0.72285354
230	0x3eca2d9e	0.39487928
231	0x3cd0b304	0.025475986
232	0x3d85493a	0.065081075
233	0x3edec04c	0.43506086
234	0xbf59927f	-0.8498916
235	0x3c1ea5be	0.009683071
236	0x3f087aa0	0.5331211
237	0xbf423e12	-0.7587596
238	0xbee73baa	-0.45162708
239	0xbed9563d	-0.42448607
240	0xbf5d8e13	-0.86544913
241	0xbe5af904	-0.21384054
242	0x3edc2243	0.4299489
243	0xbe966d54	-0.29380286
244	0xbdc939a2	-0.09825446
245	0xbf1cde89	-0.6127706
246	0x3e63049c	0.22169727
247	0xbeff30b5	-0.49841848
248	0xbf52e080	-0.8237381
249	0xbe4a6b32	-0.19767454
250	0xbefc8697	-0.49321434
251	0x3eeadd1b	0.45871815
252	0x3dd59ca1	0.10430265
253	0x3f0f3a39	0.55948216
254	0x3eac3396	0.33633107
255	0x3cee2626	0.029070925
