r2l/logs_demo/ppo/karel-randomMaze-2000/3aeaa1-seed2000/critic.pt (torch, 59147 bytes, 8 tensors)

weight_ih f4 [192, 4]
0	0xbe06abfa	-0.13151541
1	0x3cb9da92	0.02268723
2	0xbcb8f575	-0.02257798
3	0xbd9f5c66	-0.077812955
4	0xbd72f153	-0.059312176
5	0xbd553e33	-0.05206127
6	0xbd9ece58	-0.07754201
7	0xbe3ca6b3	-0.18422966
8	0xbe2d4c43	-0.16923623
9	0xbe06914e	-0.13141367
10	0x3db409cf	0.08790933
11	0xbe38865d	-0.18020006
12	0xbc9676ac	-0.018367134
13	0x3e10688b	0.1410238
14	0x3dafd7dd	0.085860945
15	0xbdc2cf3f	-0.09512185
16	0x3db2650b	0.08710679
17	0xbcd751f5	-0.026284197
18	0xbd017fce	-0.031616025
19	0xbc015df4	-0.007895935
20	0xbdcd3d1b	-0.100214206
21	0x3d423443	0.047413122
22	0x3e0f7cad	0.14012404
23	0x3cb08378	0.021547064
24	0x3e2eeea6	0.17083225
25	0x3e5954ea	0.21223798
26	0xbe062b3f	-0.13102435
27	0x3dd6da03	0.10490801
28	0xbdfa1775	-0.12211505
29	0xbe02bf02	-0.12768176
30	0x3e19c30f	0.15015815
31	0x3ce4f280	0.027947664
32	0xbded1b18	-0.11577433
33	0x3d4ed4f1	0.050496046
34	0x3e0c6988	0.13712132
35	0xbc8db1ac	-0.017296635
36	0x3d8a5824	0.06755093
37	0xbdee6f0d	-0.11642275
38	0x3e0d8c33	0.13823013
39	0xbcf9c1c8	-0.03048791
40	0xbc7896f0	-0.015172705
41	0x3dc23829	0.09483368
42	0x3e017d16	0.12645373
43	0x3d043ace	0.032282643
44	0x3cce5b1c	0.025189929
45	0xbc5c8a0a	-0.013460645
46	0x3db73c74	0.089470774
47	0x3c8684bf	0.01642072
48	0xbcf2e58a	-0.029650468
49	0x3d768585	0.060185928
50	0x3ce2dff0	0.027694672
51	0x3da408d8	0.08009499
52	0x3e6f7760	0.23385382
53	0x3e405894	0.1878379
54	0xbe1393b0	-0.14411807
55	0xbd07d227	-0.0331594
56	0xb986dd0c	-0.00025723164
57	0x3de5cbf3	0.11220541
58	0x3dafe8ca	0.08589323
59	0xbd76d505	-0.060261745
60	0xbe079cc6	-0.13243398
61	0xbe0e067b	-0.1386966
62	0x3cc9a2a9	0.024613695
63	0x3e24525b	0.16047041
64	0x3d8e977b	0.06962486
65	0x3d9b129d	0.075719096
66	0x3d876b26	0.06612234
67	0xbdbac815	-0.09120194
68	0xbe2748d0	-0.1633637
69	0xbe10fb02	-0.14158252
70	0xbd714b27	-0.05890956
71	0xbd81593f	-0.063158505
72	0xbe0c50ef	-0.13702749
73	0xbdebd8d9	-0.1151597
74	0xbd40938d	-0.047015715
75	0xbc9b36b5	-0.018946985
76	0x3db98059	0.090576835
77	0xbe0e1ee6	-0.13878974
78	0x3e27182a	0.16317812
79	0xbcec714b	-0.028862616
80	0x3c54577e	0.012960313
81	0x3d13e443	0.03610636
82	0xbd1af463	-0.03783072
83	0xbdf594e1	-0.11991287
84	0xbc388d80	-0.011264205
85	0xbdcecca0	-0.10097623
86	0xbd0554c6	-0.03255155
87	0xbb78545d	-0.0037892081
88	0x3e03c671	0.12868668
89	0x3e012485	0.12611587
90	0x3df18a6b	0.11793979
91	0x3c8817d3	0.016612923
92	0x3e1036ff	0.1408348
93	0x3d5b8800	0.053596497
94	0xbe0b9a88	-0.13633168
95	0x3d416006	0.047210716
96	0x3df0879d	0.11744616
97	0x3ddfa47e	0.10920046
98	0xbd2edb20	-0.042689443
99	0xbd19ae99	-0.037520025
100	0xbe285fad	-0.16442747
101	0xbdf1d1be	-0.11807583
102	0x3e349be3	0.17637591
103	0xbd5616ba	-0.052267767
104	0xbe26b68d	-0.16280575
105	0xbd46bdae	-0.048520736
106	0x3e044c95	0.12919839
107	0x3bfa89ba	0.007645813
108	0xbdbe6142	-0.09295894
109	0xbdf3261a	-0.11872502
110	0x3d42064d	0.04736929
111	0xbde56393	-0.11200633
112	0xbd0aa821	-0.033851746
113	0xbe089073	-0.13336353
114	0x3ce782ce	0.028260615
115	0xbd05e5fc	-0.032690033
116	0xbcc3cfe9	-0.02390285
117	0x3b25e5cb	0.002531397
118	0xbd4a7154	-0.049424484
119	0xbd2a7de3	-0.04162396
120	0xbddadcff	-0.10686683
121	0xbdbc16cc	-0.09184036
122	0xbc162822	-0.009164842
123	0xbe08ff39	-0.1337861
124	0x3d454f72	0.048171468
125	0x3dc0bc1a	0.094108775
126	0x3e050e06	0.12993631
127	0xbd7fa228	-0.062410504
128	0xbc9c3c99	-0.019071864
129	0x3b0ec2b5	0.0021783535
130	0x3dc285bb	0.09498163
131	0xbdbba0eb	-0.09161552
132	0xbdf858ca	-0.1212631
133	0x3dbd2dc6	0.09237246
134	0x3e04bfdd	0.12963815
135	0xbe00a231	-0.12561871
136	0xbe33541f	-0.17512558
137	0xbc87891f	-0.016544877
138	0x3c7df6dc	0.01550075
139	0xbbe9a8d4	-0.0071307216
140	0xbc6059f8	-0.013693325
141	0xbd206bfc	-0.039165482
142	0xbd1681e5	-0.03674497
143	0x3d68f571	0.056874696
144	0x3cb05686	0.021525633
145	0xbbd19c8d	-0.006396836
146	0x3d0afa19	0.033929918
147	0xbdfd2606	-0.12360768
148	0xbdd9c6ab	-0.10633596
149	0xbd2d000b	-0.04223637
150	0x3b419d76	0.0029543317
151	0x3cd90882	0.026493315
152	0xbd20b9d5	-0.039239723
153	0xbdbf1681	-0.09330464
154	0x3cf6ae4d	0.03011241
155	0xbe386b05	-0.18009575
156	0xbda4baa0	-0.080434084
157	0xbd9a3ab0	-0.07530725
158	0x3cbde629	0.023181038
159	0x3db29218	0.087192714
160	0xbd92cd7e	-0.07168101
161	0xbda14cc7	-0.07875972
162	0x3d483c07	0.04888537
163	0x3e104ee2	0.14092591
164	0xbca73d33	-0.020414924
165	0xbd74644c	-0.059665963
166	0xbd949333	-0.072546385
167	0xbe320902	-0.17386249
168	0xbd8c7d9d	-0.06859896
169	0xbd3f2ad5	-0.046671707
170	0xbc9c5a62	-0.019086067
171	0x3c080735	0.0083025
172	0xbc62ea7d	-0.013849852
173	0x3dee11eb	0.11624511
174	0xbdb4fac0	-0.08836889
175	0xbde9d086	-0.11416726
176	0xbd8fa182	-0.07013227
177	0x3c87fd86	0.016600382
178	0x3e0869d2	0.13321617
179	0xbc57ff60	-0.013183445
180	0xbd21c05a	-0.03949008
181	0x3c7eef84	0.015560035
182	0x3d89a2e5	0.06720523
183	0xbd551a96	-0.052027307
184	0x3c801625	0.01563556
185	0x3c275147	0.010212249
186	0x3c0bae1c	0.008525398
187	0x3e0feb6a	0.14054647
188	0xbd429618	-0.04750642
189	0x3d0c8192	0.034303255
190	0x3e02acfa	0.12761298
191	0x3d5ef042	0.054428346
192	0x3db73993	0.08946528
193	0x3dd666df	0.1046884
194	0xbde736f0	-0.11289775
195	0xbe0020ce	-0.12512514
196	0x3e06f820	0.1318059
197	0x3dd9112f	0.10598981
198	0x3d909786	0.07060151
199	0xbcc18dac	-0.023627125
200	0x3ceef71f	0.02917057
201	0x3dbc2bc7	0.09188037
202	0x3c356f9d	0.011073974
203	0xbd52e033	-0.051483344
204	0xbb78ef7a	-0.0037984536
205	0xbd00691d	-0.031350244
206	0x3d85b2ca	0.06528242
207	0xbd8fcd5a	-0.070215896
208	0xbb2149f5	-0.0024610732
209	0xbda3d5db	-0.07999774
210	0x3e02b7b9	0.12765397
211	0xbd312bbd	-0.043254603
212	0xbb5de372	-0.0033857492
213	0xbda5358c	-0.08066854
214	0xbd74d240	-0.059770823
215	0xbdb63d20	-0.088983774
216	0xbdcaa9cf	-0.0989567
217	0x3d59d1a8	0.05317846
218	0x3e1d0175	0.15332587
219	0xbdde6416	-0.10858934
220	0x3e3a65bf	0.18202876
221	0x3dbb0777	0.09132283
222	0xbd69d78b	-0.057090323
223	0xbe4c61f9	-0.19959249
224	0xb9eea7b0	-0.00045519834
225	0xbe02dc40	-0.12779331
226	0x3e496da3	0.1967073
227	0xbdb0426b	-0.08606418
228	0xbe16f541	-0.14741994
229	0xbcc20468	-0.023683742
230	0xbc278319	-0.010224127
231	0x3d96ee72	0.073696986
232	0x3d8e8432	0.06958808
233	0xbca23811	-0.019802125
234	0x3d493965	0.049127
235	0xbe26a668	-0.16274416
236	0x3ccd1f7d	0.025039429
237	0xbe082c24	-0.13298088
238	0xbd8d2164	-0.068911344
239	0x3dc7faa7	0.09764605
240	0xbe270c05	-0.16313179
241	0xbe0c5d12	-0.13707379
242	0x3e207544	0.15669733
243	0x3e002ae6	0.12516364
244	0xbe2d6f1b	-0.16936915
245	0x3cc0b465	0.023523519
246	0x3e4b8c08	0.19877636
247	0x3e10125d	0.14069505
248	0x3d92facf	0.07176744
249	0xbd86cd5a	-0.065821365
250	0x3d7e7345	0.06212165
251	0xbd267933	-0.04064293
252	0x3d337368	0.04381123
253	0x3ca9128a	0.020638723
254	0x3d809bda	0.06279726
255	0xbd8fb64d	-0.07017193

weight_hh f4 [192, 64]
0	0xbdddb031	-0.108246215
1	0x3d8b31e8	0.06796628
2	0xbdc68cb2	-0.09694804
3	0x3c89feac	0.01684507
4	0xbd3dbf55	-0.046325047
5	0x3d3f718f	0.046739157
6	0x3bc8b20b	0.00612474
7	0x3d8730dd	0.06601117
8	0x3d69ae74	0.057051137
9	0x3d15c81c	0.036567792
10	0xbe0a1408	-0.13484204
11	0x3df6c330	0.12048948
12	0x3ce6edba	0.028189529
13	0xbc51fe56	-0.012816986
14	0xbd899303	-0.067174934
15	0xbd760257	-0.060060825
16	0xbdad77f3	-0.08470144
17	0xbd7fef77	-0.06248423
18	0xbd82f928	-0.06395179
19	0x3dee89d6	0.11647384
20	0xbda426b0	-0.080151916
21	0xbdf048b0	-0.11732614
22	0xbd72aa49	-0.059244428
23	0x3dd41521	0.103555925
24	0xbca5af20	-0.020225108
25	0xbc97ceab	-0.018531164
26	0xbd19aeeb	-0.03752033
27	0xbcc9d1e1	-0.02463621
28	0x3db370cf	0.08761751
29	0x3de606c6	0.11231761
30	0xbdaca984	-0.0843077
31	0x3dcc41dd	0.099735
32	0x3d05e717	0.032691088
33	0xbc4d9170	-0.012546882
34	0xbda349b3	-0.079730414
35	0xbda46016	-0.080261394
36	0xbafb9500	-0.0019194186
37	0x3d9f0c02	0.07765962
38	0x3d7e71fe	0.06212043
39	0xbd1ec33b	-0.038760405
40	0xbc209a18	-0.009802364
41	0x3db7829b	0.08960458
42	0xbc23d1b6	-0.009998729
43	0xbcb9f275	-0.02269862
44	0x3b084e51	0.0020798633
45	0xbdbdd3d2	-0.09268917
46	0x3d5912f4	0.05299659
47	0x3c9a9cbd	0.018873567
48	0xbd972162	-0.07379414
49	0xbd472572	-0.048619695
50	0xbd4ba7b2	-0.049720474
51	0xbceecf65	-0.029151628
52	0x3c64db4d	0.013968301
53	0x3d83e5b3	0.06440296
54	0xbd35b933	-0.044366073
55	0x3dc58ec9	0.09646375
56	0x3d0ae9e6	0.03391447
57	0xbd996bb1	-0.07491244
58	0xbd166571	-0.036717836
59	0x3d923a0c	0.07139978
60	0x3d20b097	0.03923091
61	0x3da3da16	0.08000581
62	0x3ccb612e	0.024826612
63	0x3d94f453	0.07273164
64	0x3bc5adea	0.006032695
65	0xbd5d9bf7	-0.054103818
66	0xbd0e4cff	-0.034741398
67	0xbdbc265a	-0.091870025
68	0x3dd3b6f0	0.10337627
69	0x3d5b5b86	0.05355408
70	0xbce81e73	-0.028334832
71	0x3dabecfc	0.083948106
72	0x3e089472	0.13337877
73	0xbdba29ea	-0.09090026
74	0xbd50d6e4	-0.050986186
75	0xbb9b0c08	-0.004731659
76	0x3e0cafe0	0.13738966
77	0x3db2ffdc	0.087402076
78	0xbdbab064	-0.09115675
79	0x3c953278	0.018212542
80	0x3e0d8d5b	0.13823454
81	0xbd6d9e17	-0.058012094
82	0xbda6c7f4	-0.08143607
83	0x3daf483a	0.08558698
84	0xbd3c1939	-0.04592249
85	0xbd8d8ba0	-0.06911397
86	0xbe0482cc	-0.1294052
87	0xbdbdb11a	-0.09262295
88	0xbbce486c	-0.0062952545
89	0xbdd7d0e3	-0.10537889
90	0x3de5a8b6	0.1121382
91	0xbd195a47	-0.03743961
92	0xbe2dd1a4	-0.16974503
93	0x3d2ba3d1	0.041904274
94	0xbce64e16	-0.028113406
95	0xbc2bfbaf	-0.010497018
96	0x3da8368d	0.0821353
97	0x3d087b93	0.033320975
98	0xbde8e5f3	-0.11371984
99	0xbd0ce827	-0.034401085
100	0xbdef6f27	-0.116911225
101	0x3d64dae8	0.055872828
102	0xbddd9f05	-0.10821346
103	0xbe13cfc4	-0.14434725
104	0x3e073766	0.13204727
105	0x3dea64c4	0.11445001
106	0x3e026fe3	0.12737994
107	0x3d164122	0.03668321
108	0x3dc0ba4c	0.09410533
109	0xbe178cb1	-0.14799763
110	0x3c51dc0c	0.012808811
111	0xbd88ad72	-0.06673707
112	0x3dc17aff	0.09447288
113	0xbc3ec187	-0.01164282
114	0x3dda7142	0.106661335
115	0xbd9c12ca	-0.07620771
116	0xbdc7c51a	-0.09754391
117	0xbe254919	-0.16141166
118	0xbd52bcce	-0.05144959
119	0x3db3b1d8	0.087741554
120	0xbd99e1eb	-0.075137936
121	0xbc09889a	-0.008394385
122	0x3d1e3ce9	0.038632307
123	0x3de0a5da	0.10969134
124	0x3df4a5c4	0.1194568
125	0x3dcbdd42	0.09954311
126	0x3ded9ce3	0.116021894
127	0x3d2309fe	0.03980445
128	0xbc4f3a89	-0.012648233
129	0x3dee5695	0.11637608
130	0xbdfc9634	-0.123333365
131	0xbd8a998f	-0.0676757
132	0xbd63c51c	-0.0556079
133	0xbd21dd68	-0.03951779
134	0x3d85fee9	0.06542761
135	0x3d8e6aa8	0.06953937
136	0x3d60f3b3	0.05491991
137	0xbd187916	-0.03722485
138	0xbb99370d	-0.004675752
139	0xbdcb46a2	-0.099255815
140	0xbd46e50d	-0.048558284
141	0x3c84cfc5	0.016212353
142	0x3d14a4b8	0.0362899
143	0x3e0c7610	0.13716912
144	0x3e3784a8	0.17921698
145	0xbe000157	-0.12500511
146	0xbc57c88f	-0.0131703755
147	0xbce1a405	-0.02754403
148	0x3dc0a6aa	0.09406789
149	0x3daef202	0.08542253
150	0xbddc7f63	-0.107664846
151	0xbdc5bcfe	-0.09655188
152	0xbd146c73	-0.036236238
153	0x3d1c4f87	0.03816178
154	0xbdbc1e26	-0.09185438
155	0x3be7bcd8	0.0070720725
156	0xbddf0a1c	-0.108906
157	0xbd612558	-0.054967254
158	0x3d93f61a	0.072246745
159	0x3dcfe0c1	0.1015029
160	0xbd32c899	-0.043648336
161	0xbd9b190e	-0.07573138
162	0x3c756c6f	0.014979466
163	0x3be0320d	0.006841904
164	0x3d8ff783	0.07029631
165	0xbca0b2de	-0.01961654
166	0x3db54f52	0.0885302
167	0xbe2832a0	-0.16425562
168	0x3e306010	0.17224145
169	0xbd9f4f81	-0.07778836
170	0x3db0a24c	0.08624706
171	0x3dbdeb1e	0.09273361
172	0xbd8890c6	-0.06668238
173	0xbdd2d8a7	-0.102952294
174	0xbd600130	-0.054688632
175	0x3cf02228	0.029313162
176	0xbd783b46	-0.060603403
177	0x3d496a0f	0.04917341
178	0x3d57c362	0.052676566
179	0xbe44e0ed	-0.19226427
180	0xbdda6924	-0.10664585
181	0xbb8ad533	-0.004236841
182	0x3c10c39b	0.0088356985
183	0xbc031861	-0.008001418
184	0x3c44409e	0.011978297
185	0xbd42b7c2	-0.047538526
186	0x3d9c8321	0.07642198
187	0x3d126d98	0.035749048
188	0xbd8f9886	-0.070115134
189	0xbdf2b19d	-0.11850283
190	0xbd2c90cd	-0.04213028
191	0x3bbcc802	0.0057611475
192	0x3db02b1f	0.08601975
193	0x3d37f770	0.04491371
194	0xbd0aad28	-0.03385654
195	0x3db30f4f	0.08743154
196	0x3d63cc9e	0.05561506
197	0x37195d4c	9.141233e-06
198	0x3dee53cf	0.11637079
199	0xbdf1af22	-0.11800982
200	0xbb39bc28	-0.002834091
201	0xba3a9c16	-0.00071185955
202	0xbdc9ba27	-0.09849959
203	0x3d89167d	0.066937424
204	0xbd4210bf	-0.04737925
205	0xbd807cdb	-0.06273814
206	0xbde2b0e3	-0.11068895
207	0x3d409544	0.04701735
208	0xbd849882	-0.06474401
209	0x3d2b805b	0.041870456
210	0x3d193a00	0.03740883
211	0x3d825379	0.063635774
212	0x3bd7edf5	0.006589646
213	0xbd9f7eb8	-0.077878416
214	0x3d6c4459	0.05768237
215	0x3d2148fa	0.039376236
216	0xbcf82beb	-0.03029438
217	0x3c370e8c	0.011172902
218	0x3dc8a3e1	0.097968824
219	0xbd917dd5	-0.07104079
220	0x3c57c537	0.013169578
221	0x3defe29d	0.11713145
222	0x3d2b9631	0.04189128
223	0xbda69924	-0.08134678
224	0x3c56b489	0.013104566
225	0xbbc3f16e	-0.0059797084
226	0xbcd96199	-0.026535796
227	0xbbfc7910	-0.0077048615
228	0x3d314e65	0.043287653
229	0xbd856cb2	-0.065148726
230	0x3dfdc4e0	0.123910666
231	0x3db37a80	0.087635994
232	0xbd87f0c9	-0.06637723
233	0x3ceddca0	0.029035866
234	0xbd6775c3	-0.05650879
235	0x3ca262e3	0.019822543
236	0xbd806daf	-0.062709205
237	0xbb4128d6	-0.0029473803
238	0xbdd17302	-0.10227014
239	0xbd914e5b	-0.07095023
240	0xbdbeb08f	-0.0931102
241	0xbdf58af0	-0.11989391
242	0x3e034f10	0.12823129
243	0xbd4b63c2	-0.049655683
244	0xbdb49736	-0.08817904
245	0x3d83c12d	0.0643333
246	0xbe069ce6	-0.1314579
247	0x3c898613	0.016787564
248	0x3d65be94	0.056089953
249	0x3dd27fd2	0.10278286
250	0x3da53d22	0.08068301
251	0xbce418c1	-0.027843835
252	0xbd1a3a57	-0.037653293
253	0x3dd60915	0.10450951
254	0x3cc6141e	0.024179514
255	0x3d925b8c	0.071463674

bias_ih f4 [192]
0	0xbcd4e1e4	-0.02598662
1	0xbd565e4b	-0.05233602
2	0xbd2dffd0	-0.04248029
3	0x3d103ab5	0.035212237
4	0x3dc105fe	0.09424971
5	0x3d38da3d	0.045130003
6	0x3e169d58	0.1470846
7	0xbdb5444a	-0.08850916
8	0xbcc7122b	-0.024300655
9	0x3dcd0c0a	0.10012062
10	0x3ddb186b	0.10698017
11	0xbd7c4215	-0.06158646
12	0xbd1be6ef	-0.038062032
13	0x3d8acb2e	0.06777035
14	0x3daf6936	0.08564989
15	0xbde4b2ad	-0.11166892
16	0x3cb98566	0.022646617
17	0x3ca45b9d	0.020063216
18	0x3e3f1823	0.18661551
19	0xbdfc45f2	-0.123180285
20	0x3df78b24	0.12087086
21	0x3d6f9874	0.058495
22	0x3e2abea3	0.16674285
23	0xbd99a836	-0.07502787
24	0x3dbd582a	0.092453316
25	0x3d011a07	0.031518962
26	0xbd87a69c	-0.06623575
27	0xbccd1bac	-0.025037609
28	0xbcdba96b	-0.026814183
29	0x3d8c0d2e	0.06838451
30	0x3e1aa42a	0.15101686
31	0xbd2179eb	-0.03942291
32	0x3e3739e1	0.17893173
33	0x3dffff63	0.12499883
34	0xbda4f56e	-0.080546245
35	0x3e4df969	0.20114674
36	0xbcde5853	-0.027141726
37	0xbd121a84	-0.03566982
38	0xbccde6dd	-0.025134498
39	0x3d968eed	0.0735148
40	0x3dff97e6	0.12480144
41	0xbd49e46f	-0.049290117
42	0x3e3e2cce	0.18571779
43	0x3e152f96	0.14568934
44	0x3e2bdb16	0.16782793
45	0x3df94e58	0.12173146
46	0x3d108561	0.03528345
47	0x3c67f230	0.014156863
48	0x3e3a3062	0.18182519
49	0x3d82f09c	0.06393549
50	0xbb91b0c6	-0.004446122
51	0xbe1cb81c	-0.15304607
52	0x3e1e97da	0.15487614
53	0x3e17d540	0.14827442
54	0xbd813fd3	-0.06311002
55	0x3e173a42	0.14768317
56	0x3d85a270	0.06525123
57	0x3cd6dbcc	0.026227854
58	0x3d641c76	0.055691205
59	0xbcfb8923	-0.03070504
60	0xbc66b30b	-0.014080773
61	0xbbfea630	-0.007771276
62	0xbbad7973	-0.005294019
63	0x3d6ef986	0.058343433
64	0xbe489075	-0.19586356
65	0x3c7d066d	0.015443427
66	0xbdd10ecf	-0.10207903
67	0xbe43c9c8	-0.19119942
68	0xbe0e8d71	-0.13921143
69	0xbd9f22f4	-0.07770339
70	0xbe23846b	-0.15968482
71	0xbe197f91	-0.14990069
72	0xbc5b0a6f	-0.013369187
73	0xbe1a5612	-0.15071896
74	0xbd396203	-0.045259487
75	0xbe470517	-0.19435535
76	0xbd748c22	-0.059703954
77	0xbbc76251	-0.0060847183
78	0xbc3bbb79	-0.011458271
79	0x3c2a4f1f	0.0103948405
80	0xbd90efc8	-0.07076985
81	0xbc7b1b6a	-0.01532636
82	0xbe51f07f	-0.20501898
83	0x3dcb9b17	0.099416904
84	0x3d160a0f	0.036630686
85	0xbdabc5e4	-0.08387354
86	0xbceebdb1	-0.029143186
87	0xbe39e3d1	-0.18153311
88	0xbe69ce6e	-0.22832653
89	0x3db68457	0.089119606
90	0xbe318303	-0.17335133
91	0xbe71d66d	-0.23616953
92	0x3da59beb	0.080863796
93	0xbe51a142	-0.20471671
94	0xbde7f219	-0.11325473
95	0xbdce9782	-0.100874916
96	0xbe057fc7	-0.13037024
97	0xbc2cb1a0	-0.010540396
98	0x3971ac84	0.00023047818
99	0x3bce8501	0.0063024764
100	0xbd14ab07	-0.036295917
101	0xbe74e73c	-0.23916334
102	0xbdc751a1	-0.09732366
103	0xbc718c51	-0.014742927
104	0xbcf61ed8	-0.030044004
105	0xbd681bae	-0.056667022
106	0xbe263cf6	-0.16234192
107	0xbe2d9a18	-0.16953313
108	0xbe349515	-0.17634995
109	0xbda4532c	-0.08023676
110	0xbda9d88e	-0.08293258
111	0xbe27c33c	-0.1638307
112	0xbe1ffa95	-0.15622933
113	0xbe2e485b	-0.17019789
114	0xbe3ec560	-0.1862998
115	0xbdd2d3d3	-0.102943085
116	0xbe5fd2e2	-0.21857789
117	0x3bd0e2d7	0.0063746977
118	0xbe31fa39	-0.17380609
119	0xbddc3d20	-0.10753846
120	0xbe5dd3bf	-0.21662806
121	0xbcef3a5b	-0.02920263
122	0xbdf992cd	-0.12186203
123	0xbc416093	-0.01180281
124	0xbe74f8f9	-0.239231
125	0xbe3e90e1	-0.18609954
126	0xbd2b92c0	-0.041888
127	0xbdae48eb	-0.08510002
128	0xbdf8f856	-0.12156741
129	0x3e186ee5	0.14886053
130	0x3d34e99f	0.04416811
131	0xbd71f8c1	-0.05907512
132	0x3d9efdb4	0.07763234
133	0xbe2d0ab9	-0.16898622
134	0x3ad87bf4	0.0016516433
135	0xbe392955	-0.18082173
136	0x3d0a9ff7	0.03384396
137	0x3e029d23	0.12755255
138	0x3db4f193	0.08835139
139	0x3e4e4c8b	0.20146386
140	0x3d577849	0.052604947
141	0x3ce3c488	0.027803674
142	0x3e34811c	0.17627376
143	0xbdab75e8	-0.08372098
144	0xbceb29f4	-0.028706528
145	0x3d24f65c	0.04027401
146	0xbdee2127	-0.11627417
147	0x3d3d9469	0.046284113
148	0x3dd411ee	0.10354982
149	0x3da1e3c5	0.07904772
150	0xbd29f56d	-0.041493822
151	0x3d80cfb1	0.06289614
152	0x3d8ddc2c	0.0692676
153	0x3bc9ca06	0.0061581163
154	0x3e1410dc	0.14459556
155	0x3e3523ee	0.17689487
156	0x3c58f1a0	0.013241202
157	0x3e07f4ba	0.1327695
158	0xbe283361	-0.1642585
159	0x3e21743f	0.15767
160	0x3e30d790	0.1726973
161	0x3de00912	0.1093923
162	0x3bca202d	0.0061683864
163	0xbcbe58af	-0.023235647
164	0x3e1a7365	0.15083082
165	0x3dbed502	0.09317972
166	0x3cb59c49	0.02216925
167	0x3d2f4be7	0.042796995
168	0xbd008ba0	-0.031383157
169	0xbc6c8dab	-0.014438073
170	0xbdac225b	-0.0840499
171	0x3d976207	0.07391744
172	0x3d6d4506	0.057927154
173	0xbcff0143	-0.031128531
174	0x3e06dc26	0.13169917
175	0x3d8c7f13	0.06860175
176	0xbdcbac47	-0.09944969
177	0xbe048143	-0.12939934
178	0x3e3d62f3	0.18494777
179	0x3d915296	0.0709583
180	0x3e0d5170	0.13800597
181	0x3b3c4dd4	0.0028732913
182	0xbc45260c	-0.012032997
183	0x3dc4053d	0.095713116
184	0xbdde2816	-0.108474895
185	0x3de6c950	0.11268866
186	0xbe4ca901	-0.19986345
187	0xbd366aa8	-0.04453531
188	0x3e24fba2	0.16111615
189	0xbe2baf83	-0.16766171
190	0x3c97faf3	0.01855228
191	0x3d851891	0.06498826

bias_hh f4 [192]
0	0x3dc329d2	0.09529461
1	0xbc6bb6b7	-0.014386824
2	0xbd805da2	-0.06267859
3	0x3e16f9f7	0.14743792
4	0x3caf0bfd	0.021368021
5	0x3e04b94a	0.12961307
6	0x3d1802d3	0.03711207
7	0x3d08e299	0.033419225
8	0x3bc0b3ee	0.0058808243
9	0x3d83fd03	0.064447425
10	0xbd90170d	-0.070356466
11	0xbdd819b2	-0.10551776
12	0xbd8c06d4	-0.0683724
13	0x3e324219	0.17408027
14	0x3e0b637f	0.13612173
15	0x3cb8e549	0.02257027
16	0x3d6f16c8	0.058371335
17	0x3d3fcd2d	0.04682653
18	0x3c94e419	0.018175172
19	0x3d9f5e30	0.07781637
20	0xbd88342c	-0.06650576
21	0xbd0a0b1f	-0.033702012
22	0x3e2ae7b1	0.16689946
23	0x3d81d490	0.06339371
24	0x3b84f215	0.0040571787
25	0xbd1be0ff	-0.03805637
26	0x3d9b3cd6	0.07579963
27	0xbd86d69b	-0.065839015
28	0xbdd76374	-0.10517016
29	0x3d88f859	0.066879936
30	0x3dcb1fca	0.09918173
31	0x3cbfc57b	0.023409596
32	0x3da1ac70	0.07894218
33	0x3e01f61c	0.1269154
34	0x3cc8801d	0.024475152
35	0x3d6a001c	0.05712901
36	0x3d3e869b	0.04651509
37	0x3ba6ac29	0.005086441
38	0x3d68e5f7	0.056859937
39	0x3da7a9c5	0.08186678
40	0x3d4905f4	0.049077943
41	0x3e0e8ac9	0.1392013
42	0xbb7b8cee	-0.0038383561
43	0x3e6205e1	0.22072555
44	0x3dcc696e	0.099810466
45	0x3dd87caa	0.10570653
46	0xbdc2e5a1	-0.095164545
47	0x3b2eef38	0.0026692878
48	0x3d463f80	0.048400402
49	0x3cd5e110	0.026108295
50	0x3dbcb090	0.09213364
51	0xbde840fd	-0.113405205
52	0x3c2538e1	0.010084362
53	0x3de70ad4	0.11281362
54	0xbd45f08b	-0.048325103
55	0x3cf7b268	0.030236438
56	0x3d138a65	0.036020655
57	0x3c3893d9	0.011265718
58	0x3d88f2e0	0.0668695
59	0x3e06716a	0.13129202
60	0xbdd5027f	-0.10400867
61	0x3d22af05	0.039717693
62	0xbd8f578c	-0.0699912
63	0x3d96b410	0.07358563
64	0xbe15d5d8	-0.14632356
65	0xbe5a9038	-0.21344078
66	0xbca9990d	-0.020702863
67	0xbd1fa946	-0.03897979
68	0xbe00cc07	-0.1257783
69	0xbe6d27e2	-0.23159745
70	0x3c523843	0.012830797
71	0xbe20ccf7	-0.15703188
72	0xbcddbf8f	-0.027068881
73	0x3a04093e	0.00050367776
74	0xbc57189e	-0.013128428
75	0xbd767417	-0.060169306
76	0x3ce6e0cc	0.028183363
77	0xbdeedd1d	-0.11663268
78	0xbe6a910f	-0.22906898
79	0xbdb592a5	-0.08865861
80	0xbe537fef	-0.20654272
81	0xbce2d5a5	-0.027689764
82	0xbda380c9	-0.07983548
83	0xbc2889e6	-0.010286784
84	0xbc8343ff	-0.016023634
85	0x3bb9f48a	0.0056749033
86	0xbde24db3	-0.11049976
87	0xbe22f1ff	-0.15912627
88	0xbe7bd654	-0.24593478
89	0x3dd00bcd	0.10158501
90	0xbdf794b5	-0.120889105
91	0xbe7b09ed	-0.24515505
92	0xbda0c869	-0.07850725
93	0xbde05ea8	-0.10955554
94	0xbe2b83cf	-0.167495
95	0xbe441a5e	-0.19150683
96	0x3c3d9b5e	0.011572687
97	0xbceb2aa3	-0.028706854
98	0xbe0da92f	-0.1383407
99	0x3b9ed3c1	0.0048470204
100	0xbe596810	-0.21231103
101	0xbe49c6d4	-0.19704753
102	0xbd3f009a	-0.046631433
103	0xbda4a47f	-0.08039188
104	0xbe28a280	-0.16468239
105	0xbc0c7424	-0.008572612
106	0xbe7bc926	-0.24588451
107	0xbe8b7bef	-0.2724299
108	0xbe15c877	-0.14627253
109	0x3d00ba78	0.03142783
110	0xbd11f886	-0.0356374
111	0xbe05fd08	-0.13084805
112	0xbcbd8d01	-0.023138525
113	0xbc480262	-0.012207599
114	0xbe1943b1	-0.14967228
115	0xbe2cd3fd	-0.16877742
116	0xbdfd4fa1	-0.12368704
117	0xbcd8d182	-0.026467089
118	0xbe2e7a42	-0.17038825
119	0xbe87c28b	-0.26515612
120	0xbe4f8785	-0.2026654
121	0xbcc5342e	-0.024072733
122	0xbe016d0c	-0.12639254
123	0xbda3129d	-0.079625346
124	0xbe43ca23	-0.19120078
125	0xbdb3fc94	-0.0878841
126	0x3db2efa6	0.087371156
127	0xbdc74a8f	-0.09731018
128	0xbd7dadf2	-0.061933465
129	0x3e47c4c4	0.19508654
130	0x3e30ee3e	0.17278382
131	0xbe18debc	-0.14928716
132	0x3dbd8eaa	0.09255727
133	0xbe440d8e	-0.19145796
134	0xbe079861	-0.13241722
135	0x3ce85451	0.028360518
136	0x3e39293f	0.1808214
137	0x3d825881	0.06364537
138	0x3cb728ba	0.022358287
139	0xbc942de4	-0.018088289
140	0xbb10abc1	-0.002207503
141	0x3e1671d2	0.14691857
142	0x3dfe2026	0.124084756
143	0x3d36ad11	0.044598643
144	0xbcc9773b	-0.024592986
145	0x3caf9781	0.021434547
146	0xbe1eedbf	-0.1552038
147	0xbcdf8cca	-0.027288813
148	0x3d9661eb	0.07342895
149	0x3daf987b	0.08574005
150	0x3dd7e725	0.10542134
151	0xbcd0642e	-0.025438394
152	0x3e03747b	0.12837403
153	0x3c827d07	0.015928758
154	0x3d57450a	0.052556075
155	0x3ddb92ec	0.107213825
156	0xbb8297cd	-0.003985381
157	0x3e0f4598	0.13991392
158	0xbdb490e6	-0.088167
159	0x3dcdc4b7	0.10047286
160	0x3e091ea1	0.1339059
161	0x3e3ce1a5	0.18445452
162	0xbca93348	-0.020654336
163	0x3e32a98f	0.17447494
164	0x3da68444	0.081306964
165	0x3d9f0533	0.077646635
166	0x3dc95637	0.09830897
167	0xbd038dc0	-0.032117605
168	0x3c4d3879	0.012525671
169	0xbe222f2c	-0.15838307
170	0xbe23b068	-0.15985262
171	0x3df92833	0.121658705
172	0x3e3ca155	0.18420918
173	0xba393cf1	-0.0007066271
174	0xbba46089	-0.0050163907
175	0x3db779d4	0.08958784
176	0xbe2362a8	-0.15955603
177	0x3c8d7ff0	0.01727292
178	0x3d3e69f5	0.046487767
179	0xbcf0b986	-0.02938534
180	0x3e200cfb	0.15629952
181	0x3dd549d7	0.104144745
182	0xbe161495	-0.14656289
183	0x3dcc5c50	0.09978545
184	0xbd32624c	-0.043550774
185	0x3d887229	0.06662399
186	0xbe25b406	-0.16181955
187	0xbc81b2a8	-0.01583226
188	0x3c2f2848	0.010690756
189	0x3ce987a2	0.028507058
190	0x3d6229f0	0.055215776
191	0x3d43de3a	0.047819354

weight f4 [1, 64]
0	0x3dfce1d8	0.12347764
1	0xbe40692b	-0.18790118
2	0xbe290ab4	-0.16507989
3	0x3dcacaae	0.09901939
4	0xbd6f88ef	-0.0584802
5	0x3ddd03cd	0.107917406
6	0x3d219806	0.03945162
7	0x3dddb725	0.10825948
8	0xbd9a017b	-0.075198136
9	0xbd9df40b	-0.07712563
10	0xbd80743a	-0.062721685
11	0xbe1a6e79	-0.15081204
12	0x3d29921f	0.041399118
13	0xbe1c1116	-0.15240893
14	0xbd892864	-0.06697157
15	0x3e155c84	0.14586073
16	0x3bb9db5b	0.005671901
17	0xbe0dacc9	-0.13835444
18	0x3e0a6d95	0.13518365
19	0x3d941a1f	0.07231545
20	0xbd986a26	-0.07442121
21	0xbe2c0a89	-0.16800894
22	0x3d03855c	0.032109603
23	0xbe0d9b5e	-0.13828799
24	0xbdbb5a24	-0.09148052
25	0xbd9fe562	-0.07807423
26	0xbd8d8ca1	-0.069115885
27	0xbe1253fc	-0.1428985
28	0xbd4613b0	-0.04835862
29	0xbd7ed609	-0.06221584
30	0x3d706e41	0.058698896
31	0xbe0a4292	-0.13501957
32	0xbe3e171e	-0.18563506
33	0xbe0b0e04	-0.13579565
34	0xbd8ccb78	-0.06874746
35	0xbdaed781	-0.08537198
36	0xbe436715	-0.19082291
37	0xbde096d9	-0.10966272
38	0xbdd7b2fd	-0.10532186
39	0xbcee3716	-0.029079001
40	0x3bd17fea	0.0063934224
41	0x3d929356	0.07157008
42	0x3dee2a6e	0.116291866
43	0xbe6c7e64	-0.23095089
44	0xbdb307ae	-0.08741699
45	0x3d006be6	0.0313529
46	0xbcee1745	-0.02906383
47	0xbd6d7798	-0.05797538
48	0x3e1dccaa	0.15410104
49	0x3d118122	0.03552354
50	0xbe155c5c	-0.14586014
51	0xbd8dc3ac	-0.06922087
52	0xbde0428e	-0.10950194
53	0xbbd5ce81	-0.0065248613
54	0x3e1d67bf	0.15371607
55	0xbddb0456	-0.106941864
56	0x3de3eefe	0.111295685
57	0xbd9e7fb4	-0.07739201
58	0x3dc9caf2	0.09853162
59	0x3c75f30b	0.015011559
60	0xbe29057a	-0.16505995
61	0x3ddef813	0.1088716
62	0x3d89a934	0.06721726
63	0xbe1c295c	-0.15250152

welford_state_mean f4 [4]
0	0x3f260dd6	0.6486486
1	0x3f217101	0.63063055
2	0x3eb3e453	0.35135135
3	0x3c139a85	0.009009008

welford_state_mean_diff f4 [4]
0	0x41c9f4b7	25.24449
1	0x41ce615a	25.797535
2	0x41ca3e09	25.28029
3	0x3ffd8692	1.9806693

hidden f4 [6, 64]
0	0xbf0a4e0d	-0.54025346
1	0x3e6fb823	0.23410086
2	0x3e6ecad6	0.23319563
3	0x3d8868ab	0.06660589
4	0x3dbe4545	0.09290556
5	0xbec0aab7	-0.37630245
6	0x3e029c03	0.12754826
7	0x3ba34455	0.004982511
8	0x3ee76b3f	0.4519901
9	0x3d82eadb	0.063924514
10	0x3c5750da	0.013141835
11	0x3db20ee2	0.08694245
12	0xbd057c30	-0.032589138
13	0xbeb21eb6	-0.34789056
14	0x3e87925e	0.26478857
15	0x3e306277	0.17225061
16	0x3c87b625	0.016566345
17	0x3c2f6ee7	0.0107075935
18	0xbe892dd2	-0.2679277
19	0xbddce7b5	-0.10786382
20	0x3dc4e548	0.096140444
21	0xbdd780fe	-0.1052265
22	0xbd1dbe3c	-0.0385115
23	0xbe45dccc	-0.19322509
24	0x3aa238bc	0.0012376527
25	0x3eb5b01b	0.3548592
26	0x3e36393e	0.17795274
27	0x3e175a3a	0.14780512
28	0x3e850f50	0.25988245
29	0x3e6c2bb4	0.23063546
30	0xbea136ef	-0.31487224
31	0x3db2e702	0.087354675
32	0x3ee0856a	0.43851787
33	0x3ec6ad50	0.38804102
34	0x3ca837a9	0.020534353
35	0x3e922f5e	0.28551763
36	0x3e6dbceb	0.23216598
37	0x3eb05b95	0.34444872
38	0x3e956d8a	0.29185134
39	0x3e48d844	0.19613749
40	0x3e8b3446	0.2718832
41	0xbead500a	-0.33850127
42	0xbd7f8d25	-0.062390465
43	0x3e04bc68	0.12962496
44	0xbe14091b	-0.14456598
45	0x3e2aba2d	0.16672583
46	0x3e8bcd66	0.27305144
47	0x3cb41b98	0.021985814
48	0xbd4cc782	-0.049994953
49	0xbd632cda	-0.055462696
50	0xbdb2413c	-0.08703849
51	0x3ca89d7c	0.020582907
52	0x3df4be49	0.119503565
53	0x3e333654	0.17501193
54	0xbe83e081	-0.2575722
55	0xbc65fbde	-0.014037101
56	0xbe245557	-0.1604818
57	0x3ed7ec15	0.42172304
58	0xbee87d94	-0.45408309
59	0xbe475b74	-0.1946848
60	0x3e4d54d3	0.20051889
61	0xbd48c6a1	-0.049017552
62	0x3e96147f	0.29312512
63	0xbe333d9b	-0.1750397
64	0xbf0a4d45	-0.54024154
65	0x3e6f9ec7	0.23400412
66	0x3e6edb75	0.23325904
67	0x3d886e69	0.06661684
68	0x3dbe4460	0.09290385
69	0xbec0b126	-0.37635154
70	0x3e029744	0.12753016
71	0x3ba27763	0.0049580797
72	0x3ee769d0	0.45197916
73	0x3d8319fc	0.064014405
74	0x3c573302	0.01313472
75	0x3db206a7	0.08692675
76	0xbd0574be	-0.032582037
77	0xbeb220db	-0.34790692
78	0x3e8791d4	0.26478446
79	0x3e30a1c5	0.1724921
80	0x3c87f7d7	0.016597671
81	0x3c2f2210	0.0106892735
82	0xbe89309e	-0.26794904
83	0xbddcf726	-0.10789327
84	0x3dc4c93d	0.09608696
85	0xbdd771ed	-0.105197765
86	0xbd1db3d5	-0.03850158
87	0xbe45db76	-0.19321999
88	0x3aa6cffb	0.0012726778
89	0x3eb5b1eb	0.35487303
90	0x3e36452b	0.17799823
91	0x3e175f77	0.1478251
92	0x3e850eda	0.25987893
93	0x3e6c2916	0.23062548
94	0xbea13454	-0.31485236
95	0x3db301c3	0.087405704
96	0x3ee08974	0.43854868
97	0x3ec6aa7e	0.3880195
98	0x3ca83900	0.020534992
99	0x3e923100	0.2855301
100	0x3e6dbf81	0.23217584
101	0x3eb05cb7	0.34445736
102	0x3e956b68	0.29183507
103	0x3e48ddb1	0.19615819
104	0x3e8b39a5	0.27192417
105	0xbead5394	-0.33852828
106	0xbd7f9a24	-0.06240286
107	0x3e04bbb8	0.12962234
108	0xbe140fef	-0.14459203
109	0x3e2ab3ea	0.16670194
110	0x3e8bca1d	0.27302638
111	0x3cb419d8	0.02198498
112	0xbd4cba02	-0.04998208
113	0xbd63346c	-0.055469915
114	0xbdb244f5	-0.08704559
115	0x3ca8e6a6	0.020617794
116	0x3df4cfad	0.119536735
117	0x3e333cac	0.17503613
118	0xbe83deba	-0.25755864
119	0xbc6636ca	-0.014051149
120	0xbe24559c	-0.16048282
121	0x3ed7e742	0.42168623
122	0xbee87c98	-0.45407557
123	0xbe47619a	-0.19470826
124	0x3e4d5457	0.20051704
125	0xbd48c8d7	-0.04901966
126	0x3e961650	0.29313898
127	0xbe333479	-0.17500485
128	0xbf0a5085	-0.54029113
129	0x3e703754	0.23458606
130	0x3e6ea7e4	0.23306233
131	0x3d88f148	0.06686646
132	0x3dbe4dae	0.0929216
133	0xbec08ee4	-0.37609017
134	0x3e02a978	0.1275996
135	0x3ba75a76	0.0051072193
136	0x3ee769fb	0.45198044
137	0x3d82a54b	0.063791834
138	0x3c5675ba	0.013089592
139	0x3db23923	0.08702304
140	0xbd056ab9	-0.03257248
141	0xbeb22200	-0.34791565
142	0x3e8786bf	0.2646999
143	0x3e2fca71	0.17167069
144	0x3c86d6bd	0.016459817
145	0x3c2e3498	0.0106326565
146	0xbe891d12	-0.2677999
147	0xbddcb991	-0.107775815
148	0x3dc526cf	0.09626543
149	0xbdd7b111	-0.105318196
150	0xbd1de058	-0.03854403
151	0xbe45d540	-0.1931963
152	0x3a8d8599	0.0010797261
153	0x3eb5a972	0.3548084
154	0x3e36103e	0.17779633
155	0x3e174212	0.14771298
156	0x3e850b4d	0.25985184
157	0x3e6c2d10	0.23064065
158	0xbea14871	-0.3150058
159	0x3db2bae1	0.087270506
160	0x3ee075dc	0.4383992
161	0x3ec6b034	0.38806307
162	0x3caa6c2d	0.020803535
163	0x3e9222c5	0.28542152
164	0x3e6dac0e	0.23210165
165	0x3eb054e7	0.34439775
166	0x3e957398	0.29189754
167	0x3e48d4ee	0.19612476
168	0x3e8b2452	0.27176148
169	0xbead41e2	-0.33839327
170	0xbd7f3082	-0.06230212
171	0x3e04b98c	0.12961406
172	0xbe13ec0b	-0.14445512
173	0x3e2ab760	0.16671515
174	0x3e8bcd3a	0.27305013
175	0x3cb44125	0.02200372
176	0xbd4cf834	-0.050041392
177	0xbd6364ab	-0.055515926
178	0xbdb21f75	-0.08697406
179	0x3ca820d7	0.020523472
180	0x3df4ca9a	0.11952706
181	0x3e331d35	0.1749161
182	0xbe83db94	-0.25753462
183	0xbc6610a4	-0.014042053
184	0xbe244f7d	-0.16045947
185	0x3ed7f750	0.42180872
186	0xbee88530	-0.45414114
187	0xbe47552b	-0.19466083
188	0x3e4d61f4	0.20056897
189	0xbd485469	-0.048908625
190	0x3e960cf0	0.29306746
191	0xbe330999	-0.1748413
192	0xbf0a5309	-0.5403295
193	0x3e6d6dcd	0.23186417
194	0x3e6e4036	0.23266682
195	0x3d858ecf	0.06521379
196	0x3dbe893b	0.093035184
197	0xbec0ad94	-0.3763243
198	0x3e02a440	0.12757969
199	0x3ba7794f	0.0051108967
200	0x3ee791b1	0.4522834
201	0x3d819354	0.06326929
202	0x3c5ce94e	0.013483359
203	0x3db1f664	0.086895734
204	0xbd077731	-0.033072654
205	0xbeb1dc26	-0.34738272
206	0x3e880b82	0.2657128
207	0x3e2f671f	0.17129181
208	0x3c8a2688	0.016864076
209	0x3c337f4b	0.010955642
210	0xbe895cfb	-0.2682875
211	0xbddd159c	-0.10795137
212	0x3dc4b681	0.09605122
213	0xbdd800e8	-0.10547048
214	0xbd1cdf27	-0.038298752
215	0xbe46368f	-0.1935675
216	0x3acb17ce	0.0015494765
217	0x3eb5b731	0.35491326
218	0x3e3672a2	0.17817166
219	0x3e178be7	0.14799462
220	0x3e850371	0.25979188
221	0x3e6c6623	0.23085837
222	0xbea12c67	-0.3147919
223	0x3db2da8c	0.08733091
224	0x3ee0a0ee	0.4387278
225	0x3ec6d1f7	0.38832065
226	0x3c90163c	0.017588727
227	0x3e923657	0.28557083
228	0x3e6df4b1	0.23237874
229	0x3eb081f7	0.34474155
230	0x3e956c70	0.29184294
231	0x3e48a4a4	0.19594055
232	0x3e8b4ec7	0.2720854
233	0xbead688e	-0.3386883
234	0xbd8036cd	-0.062604524
235	0x3e048806	0.12942514
236	0xbe14441c	-0.14479107
237	0x3e2b56e1	0.1673236
238	0x3e8bf024	0.2733165
239	0x3cb4872d	0.022037113
240	0xbd4cea4a	-0.050028123
241	0xbd61650b	-0.055028003
242	0xbdb31cb9	-0.08745713
243	0x3ca6bc66	0.020353507
244	0x3df384d3	0.118905686
245	0x3e33271f	0.17495392
246	0xbe841cdc	-0.25803268
247	0xbc5f3061	-0.013622374
248	0xbe245cdd	-0.1605105
249	0x3ed7e6c2	0.42168242
250	0xbee86333	-0.45388183
251	0xbe476ac8	-0.19474328
252	0x3e4d4f31	0.2004974
253	0xbd4b13e0	-0.0495795
254	0x3e95ea13	0.29280147
255	0xbe338780	-0.17532158
