minigrid/r2l/MiniGrid-LavaCrossingR2LS11N5-v0/MiniGrid-LavaCrossingR2LS11N5-v0_seed_102_length_100.pt (torch, 64325 bytes, 9 tensors)

weight_ih f4 [192, 7]
000000 bc 34 99 bd dd 87 23 3d 0d 10 12 bd 55 c0 9a bb
       -0.074807614 0.03992449 -0.03565984 -0.004722635
000010 f2 da 1b 3d 88 64 b2 bc ef 63 9e 3c 01 3b c0 bc
       0.0380506 -0.021776453 0.019334761 -0.023465635
000020 93 a9 7c be 93 fe a6 bc fb 6d 55 be f2 4a 51 3b
       -0.24674062 -0.020385062 -0.20842735 0.003193554
000030 92 98 a1 3d 7d f8 c0 3d cb d1 46 3e a3 a7 05 be
       0.078904286 0.094223954 0.19415967 -0.1305223
000040 28 e8 ce 3d e8 90 6f be ee 8c 37 3d b8 88 78 bd
       0.10102874 -0.23395121 0.044812135 -0.06067726
000050 ab 71 83 bd 14 c2 7d 3e 28 2d b0 3c 39 85 90 3d
       -0.06418165 0.24781066 0.021505907 0.0705666
000060 0b 66 a7 bd 9a 2e 46 bd 90 1b 2e bc d3 53 df bd
       -0.0817376 -0.048384286 -0.010626689 -0.1090466
000070 c8 c8 73 bd 42 e8 18 bc 5f 1f 03 be c1 87 5b bd
       -0.05951765 -0.009332718 -0.12804936 -0.053596262
000080 1a 07 1a 3d 48 06 06 bd b4 4d 51 3e 74 23 d2 bd
       0.03760443 -0.032720834 0.20439798 -0.102606684
000090 fd 8a b5 3d 38 34 2e 3e 4e e6 ee bc 4d e7 15 bd
       0.088644005 0.17012107 -0.029162552 -0.03659754
0000a0 02 2b 8d bd dc 68 3e 3e e9 8e 7f bd d4 a7 ca bc
       -0.06892969 0.18594688 -0.06239215 -0.02473823
0000b0 53 c8 17 be 75 63 86 3d be 12 14 be 18 bd bc 3d
       -0.14822511 0.06561939 -0.14460275 0.09215754
0000c0 d7 2b 33 3e a3 4d 01 bd 1c 1e ed 3d 14 38 99 3e
       0.17497192 -0.03156818 0.115780085 0.29925597
0000d0 ef f1 d8 3d b6 02 0f 3c b2 85 b8 3d 74 96 f8 3d
       0.1059302 0.008728674 0.09009875 0.12138072
0000e0 77 44 df bd ab bf 10 3e fa 64 6a 3e c5 94 ba 3d
       -0.109017305 0.14135616 0.22890082 0.09110407
0000f0 20 ae 3d bd 30 40 64 bc 52 99 66 3e 44 e8 81 bd
       -0.046308637 -0.013931319 0.22519425 -0.06343129
000100 5c 56 78 bc cb d4 3f 3d 4f 2b 73 3d ca fa c9 bc
       -0.015157308 0.046833795 0.059367474 -0.024655718
000110 c2 43 da bd 51 3e 01 3e e6 34 92 bb a5 bb 1c be
       -0.10657455 0.12621428 -0.0044618724 -0.15305956
000120 18 5b 2e bd b1 20 e4 bd f1 25 9d bd 60 97 66 3d
       -0.042567343 -0.11139048 -0.076732524 0.056296706
000130 1e c5 9f 3d 76 17 2e 3e 56 01 88 3d 2c 3d 0c 3e
       0.07801269 0.17001137 0.0664088 0.1369521
000140 87 fe b0 bd e9 89 8b 3d 12 c2 d9 bd 93 3d 00 be
       -0.08642297 0.06813414 -0.10632719 -0.12523489
000150 05 be 65 3e ce 6c 00 3e 1f 2b 0c be 16 fc a0 3d
       0.22435768 0.12541506 -0.13688324 0.078605816
000160 78 a5 c1 bc 60 48 e2 bc 18 49 46 be 6e 33 50 be
       -0.023638472 -0.027622402 -0.1936382 -0.20332119
000170 e0 58 83 3d ae 94 3c 3e f8 6f 40 3d b8 c6 e4 3d
       0.06413436 0.18416092 0.04698178 0.11170715
000180 40 0d 3f 3d a6 7e 9c 3e de c4 af bd b6 10 2a bd
       0.046643496 0.30565375 -0.08582471 -0.041519843
000190 69 15 1b 3e 18 0e 41 3d 40 a8 97 bc 7c 13 99 bd
       0.15144886 0.04713258 -0.018512845 -0.074744195
0001a0 20 88 9d 3e 87 82 fa bd 11 30 ea 3d 4c 2c bb 3d
       0.30767918 -0.12231927 0.11434949 0.09139308
0001b0 2c 89 ca 3d 29 0d 0c 3e e6 5c dd 3d 22 d6 c6 3d
       0.09889445 0.13676895 0.108087346 0.09708811
0001c0 bb 2f 02 3e 8f 0e 82 3c 99 64 1a 3c 6b 8c 84 3c
       0.1271352 0.015876083 0.009423398 0.016180238
0001d0 12 4c 2a 3d cc 7f 0a 3d e6 a4 a1 3d 7b 25 48 3d
       0.041576453 0.033813283 0.0789278 0.04886387
0001e0 6c c7 fa bd 5d d9 0f 3e 5c 75 a8 3d d9 a4 2e 3e
       -0.12245068 0.14047761 0.082255095 0.17055072
0001f0 40 57 94 3c 14 a9 66 3e 10 4e 6e bd ef 83 09 3e
       0.01810801 0.22525436 -0.058179915 0.13429235
000200 50 1d 4d 3e c1 9b 17 bd 21 e9 a6 bd 8c 40 ce bd
       0.20030713 -0.037013773 -0.081499346 -0.10070905
000210 bb 9f a7 3d b2 23 b2 bd 58 f1 9a bd ca 22 7d 3e
       0.08184763 -0.086982146 -0.07565564 0.24720302
000220 bc e2 6c 3c 18 60 05 bb d0 86 0e bc b5 a9 54 3d
       0.014458355 -0.0020351466 -0.008699134 0.051919658
000230 f1 ff 4e bd d9 66 b3 3d 72 a1 38 3e 1b 0d 9c bc
       -0.050537053 0.08759851 0.18030336 -0.019049218
000240 b6 cb 18 3d 38 2e ca 3c 54 dc 94 bd 3f 87 e8 3d
       0.03730365 0.024680242 -0.07268587 0.11353921
000250 7c b9 d8 bc 4e d5 01 bd 9b 40 04 be 1a a9 cc bd
       -0.026455633 -0.031697564 -0.1291527 -0.09993191
000260 90 8d 61 3d 7e 23 84 be ab 87 ef 3d 02 ce 08 3d
       0.055066645 -0.25808328 0.116957985 0.03339959
000270 d1 e3 03 bc 0e d6 c2 3c b0 91 57 be 90 1c 6c bd
       -0.008049921 0.02378371 -0.21051669 -0.057644427
000280 28 35 dc bd 4d 47 32 3c 5e a7 a7 bc bf ae 6e bd
       -0.10752326 0.010881257 -0.02046555 -0.05827212
000290 fd 0c c1 3c 03 56 27 be a2 5a dd 3d 68 3a 24 be
       0.023565764 -0.16341405 0.108083025 -0.16037905
0002a0 d7 ba 55 3d 6e 92 0e 3e 13 25 98 be 08 21 ee 3c
       0.052180137 0.13923046 -0.29715785 0.029068485
0002b0 a6 fb 97 3c 58 d0 1b 3d b1 c6 9d 3d 5a 62 a3 3d
       0.018552613 0.03804049 0.07703913 0.079777434
0002c0 07 85 78 3b 7c 14 47 be 12 95 07 3d 67 a3 9b bd
       0.0037921087 -0.19441408 0.03310115 -0.07599526
0002d0 30 87 2f bd ca 88 e6 bc b5 4d 98 3c 01 1a 98 3d
       -0.042853534 -0.028141398 0.018591741 0.07426835
0002e0 2b 7e 88 3e 69 9b 09 3e 14 27 fb 3d 88 b2 81 bc
       0.2665876 0.1343819 0.12263313 -0.0158322
0002f0 3e 02 55 3e c9 37 12 3e a2 c4 03 3e 82 2c 41 3e
       0.20801637 0.14279093 0.12867978 0.18864635
000300 44 61 d5 3d c6 1c 1c 3d 70 60 fd bc ae cd a7 bc
       0.104189426 0.038113378 -0.030929774 -0.020483818
000310 15 92 d4 3d 78 bb a8 bd b1 16 a3 3d 86 72 e4 bc
       0.103794254 -0.08238882 0.079633124 -0.02788664
000320 57 d8 b7 bd 06 d7 e3 bd ab 27 94 3d bc 59 66 be
       -0.089768104 -0.11124997 0.072341286 -0.22495168
000330 a5 a3 11 3d bc 60 b2 3d ee c9 9b bd eb 47 48 3d
       0.035556454 0.08709857 -0.076068744 0.04889671
000340 54 b3 35 bd a1 4f 8a 3e 78 3e d0 3a 32 bb cc 3d
       -0.044360474 0.27013877 0.0015887758 0.09996642
000350 f1 4f a1 3c 54 3e 13 3e e2 74 69 3a 58 92 33 bd
       0.01969144 0.14379245 0.00089056615 -0.043840736
000360 13 f9 2d 3e 87 06 b0 3d b5 62 d2 bd fc f1 df 3c
       0.16989546 0.08594995 -0.10272733 0.027337067
000370 32 f3 56 be 91 17 22 3e 20 ff 92 bd 85 4c c1 bd
       -0.20991209 0.15829302 -0.071775675 -0.09438423
000380 d2 b9 bc 3d 5b 6d 1d 3e 5b db 88 3e 97 86 3c bd
       0.0921513 0.15373747 0.26729855 -0.046026792
000390 7f 93 6d 3d 3c cb 73 bd a7 90 15 3d f0 6e ad 3d
       0.05800199 -0.05951999 0.036514904 0.08468425
0003a0 d2 7e 3a be 2f d1 1c 3e d0 f2 4d be d6 57 f6 3d
       -0.1821244 0.15314172 -0.20112157 0.12028472
0003b0 0c 01 c1 bd 16 41 54 be e3 6c 8a bd f7 85 04 be
       -0.09424028 -0.20727953 -0.0675905 -0.12941729
0003c0 d1 b2 9e 3d 5b d0 25 3c 4e f4 8a bd d8 30 91 3c
       0.0774895 0.010120477 -0.06784879 0.017723486
0003d0 06 bb 5c bb f9 d8 99 3c 0e a0 8e 3d 42 9a 41 3e
       -0.003368081 0.018780218 0.06964122 0.18906501
0003e0 e2 43 84 bd 3e 91 10 3e d0 73 d4 bc 21 f3 0d 3e
       -0.0645826 0.14117905 -0.02593413 0.13862278
0003f0 53 d3 b7 bc 4a e0 bc 3d b2 3b 8e 3d 10 34 0b 3d
       -0.022439634 0.09222467 0.0694498 0.033985198

weight_hh f4 [192, 64]
000000 42 19 81 bc 6a 8e f6 3d f2 be f2 bd 97 f8 8a bb
       -0.015759114 0.12038882 -0.11852826 -0.00424106
000010 8c bb e9 bd b8 f9 d1 3d 75 97 01 bd 56 f8 d7 3b
       -0.11412725 0.10252708 -0.03163858 0.0065908832
000020 56 a7 73 bd 9d 1d cc 3d e7 90 84 bb 17 f5 1c 3e
       -0.059485756 0.09966586 -0.004045594 0.1532787
000030 d3 f9 36 3d d8 83 07 be 86 d8 8c bd 5b 5b df 3d
       0.044671845 -0.13233888 -0.06877236 0.109060965
000040 5d f6 8e bd b0 09 c3 bd 9c c8 95 3d 0b 87 b5 3d
       -0.06980584 -0.09523332 0.07313654 0.08863648
000050 a3 e9 36 3d 41 9c dc 3d 7e 6e 9d 39 e7 9e 1f 3d
       0.044656407 0.107719906 0.00030027697 0.0389699
000060 ce 74 b5 bd 19 3a 07 3e af 16 a3 3c 75 d0 a3 3d
       -0.08860169 0.13205756 0.019908277 0.079987444
000070 f8 62 dd bc 81 39 e9 3d a8 f7 2d be d1 ed c5 3d
       -0.027024731 0.11387921 -0.16989005 0.096645005
000080 85 32 d7 bb ec cd 01 3d 08 a5 1a 3d 8d dd c3 3d
       -0.0065673017 0.031690523 0.037755042 0.09563742
000090 b3 71 cd bd 1d 54 1e 3e a3 9f 7b 3d fc 1d 3d bd
       -0.10031452 0.15461774 0.06143154 -0.046171173
0000a0 94 e7 f3 3b 9c 4a 10 be 81 78 1b 3c ad 44 b3 3d
       0.0074433777 -0.14090961 0.00948918 0.08753333
0000b0 b6 b8 c5 bd 5d 42 86 bc f1 45 1a be 22 58 25 3d
       -0.096543714 -0.016389066 -0.15065743 0.040367253
0000c0 95 95 2a 3e a4 66 3f bd 29 a1 24 be 3f b0 91 3d
       0.16658624 -0.046728745 -0.16077103 0.071136944
0000d0 7c 8e f5 3d db ea d0 3d d6 68 30 bd 7f de 18 3e
       0.11990067 0.10201045 -0.04306873 0.14928626
0000e0 19 18 d7 bd ca 1d 2e be 2c 21 2b 3d b4 99 08 be
       -0.10502643 -0.17003551 0.041779682 -0.13339883
0000f0 58 65 00 bd 04 ed de bd 33 f8 f5 3d db 26 75 bd
       -0.03134665 -0.10885051 0.12010231 -0.05985151
000100 96 18 a0 3d 90 6d eb 3d f5 96 ba bd 26 09 c7 bd
       0.078171894 0.11495507 -0.09110824 -0.09718542
000110 a2 32 1d 3d c6 69 8d bd e7 ab 31 bd f4 13 84 bd
       0.038378365 -0.0690494 -0.04337683 -0.06449118
000120 7e 22 b0 bd fa 3f 08 bd 99 bf 91 bd 79 bc db bd
       -0.08600329 -0.033264138 -0.071166225 -0.10729308
000130 b8 32 ce bd 8a 4c a0 bd e8 d0 c1 bd 31 de 28 3c
       -0.100682676 -0.07827099 -0.09463674 0.010306881
000140 55 0e 63 bd fe 49 9d bd f0 9f a9 bd 23 15 09 be
       -0.05543359 -0.076801285 -0.08282459 -0.1338697
000150 b2 b4 cd bd ce 1e 9a 3b 51 0b 93 bd d2 43 b0 bc
       -0.100442305 0.0047033792 -0.07179893 -0.021516714
000160 37 4c 23 bd 5f e2 f0 3d 58 12 d0 bd dd c7 fa bb
       -0.039867606 0.11761927 -0.10159749 -0.00765322
000170 da ba 2b 38 40 21 c0 bd 0f 8a 72 bd 67 44 b2 3d
       4.0943596e-05 -0.09381342 -0.059213694 0.08704453
000180 62 0a fd bd 99 62 0b 3e 11 34 32 bd ac 87 fb 3c
       -0.12355496 0.13611831 -0.043506686 0.030704342
000190 75 15 bd 3c e8 b5 7d bd 37 33 b3 3d 3a 67 9b bd
       0.02308152 -0.061941057 0.08750003 -0.07588048
0001a0 5b 10 80 3d 00 6a eb bd e2 4f e4 3d 26 29 c1 3d
       0.062531196 -0.11494827 0.11148049 0.094316766
0001b0 a6 51 05 3e e6 3a 49 bd 28 48 1c be ab 8d ca 3c
       0.13019428 -0.049128436 -0.152619 0.024725756
0001c0 98 de 06 bd 39 01 ba bb 8c e7 ff bc 37 71 4f bd
       -0.032927126 -0.0056764153 -0.03123834 -0.05064508
0001d0 ef d3 e6 3d fa 42 60 3c f6 1d 96 bd f4 63 35 bd
       0.11270892 0.013687843 -0.07329933 -0.044284776
0001e0 8a 22 33 bb a1 e6 ac bd 26 34 3b 3d 28 4d e0 bd
       -0.002733382 -0.084424265 0.04570403 -0.109522164
0001f0 b9 cf 0a be 85 f1 bd bd 24 62 1c bb 4e 23 61 bd
       -0.13555802 -0.09274582 -0.0023862207 -0.05496531
000200 77 31 c6 bc fb 39 97 bc 79 d5 b3 bd 7d a8 db 3b
       -0.024193509 -0.018460264 -0.08780951 0.006703435
000210 df 2f 54 3d 96 a9 30 3d 94 c6 a8 bd 93 ee 13 bd
       0.051803466 0.04313048 -0.08241001 -0.036116194
000220 82 0c 24 3d 9a f7 00 3e b6 23 93 3d 83 26 d1 3d
       0.04005099 0.12594453 0.07184546 0.10212424
000230 37 5f d2 3d 30 4b b3 3d be b5 f5 bc e4 ac 33 3b
       0.10272067 0.08754575 -0.029993888 0.0027416283
000240 98 d2 f0 3d a2 5b 4b 3d 4e d0 a6 bd b5 cd c3 3a
       0.117589176 0.049647935 -0.081452 0.0014938625
000250 3d 53 b8 bd 29 5f ea bc d9 88 da bc 80 fe 6b bd
       -0.090002514 -0.028609829 -0.026676582 -0.057615757
000260 e5 59 be bd 02 0b ff 3d 8a f2 21 3c bc 56 d3 bc
       -0.0929449 0.124532714 0.009884486 -0.025798194
000270 ee 07 f1 3d d6 41 a5 3d ad 90 3c 3c 64 73 18 3e
       0.117690906 0.08069198 0.011509103 0.14887768
000280 f9 df 65 bd 47 35 89 bd ff 35 43 3d a4 27 ac bc
       -0.0561218 -0.06699615 0.047658917 -0.021014996
000290 6b 88 45 bd 85 67 b6 3d ec f7 29 bd c1 a2 b9 bd
       -0.0482258 0.089064635 -0.041496202 -0.09064246
0002a0 4c a7 72 bd 67 04 c6 bd 94 21 dd 3c 00 08 0c 3e
       -0.059241578 -0.096688084 0.02699355 0.13674927
0002b0 93 df b0 3d 5e 2c f6 3d dc 9c da bd 21 c1 ca 3a
       0.086363934 0.12020181 -0.1067445 0.0015468934
0002c0 83 19 07 3e dd 29 a6 bd ca f6 db bc 97 85 b5 3d
       0.13193326 -0.081134535 -0.026851077 0.08863371
0002d0 b5 71 cf bc 3a 66 55 bc 8e f1 0b 3e 49 43 a7 3d
       -0.025322774 -0.013024861 0.13666365 0.081671305
0002e0 d1 9d e6 bc 84 fd 20 3d 4e b3 95 bd e9 6a a4 3d
       -0.028151425 0.03930427 -0.0730959 0.08028204
0002f0 85 db 53 3d 26 9b 0e be f8 2a 14 bd 7e ce 0d bd
       0.051723022 -0.13926372 -0.03617379 -0.034620754
000300 34 b1 66 bd 57 10 a8 3d 32 d1 7e 3b 76 87 42 bd
       -0.056321338 0.082062416 0.0038882014 -0.047492467
000310 62 d4 c4 3d 3f e6 0f ba 51 ec 07 3e 8d b8 55 3c
       0.09610821 -0.00054893264 0.13273741 0.013044489
000320 ed e5 7d 3d 72 29 97 3d c7 0a 0f 3e c6 16 ac 3d
       0.061986852 0.07380952 0.13968955 0.08402781
000330 ba ce b4 bd 96 ec e3 bd 40 da 7e 3d 18 ef 36 bd
       -0.088284925 -0.111291096 0.06221986 -0.04466161
000340 81 bb 70 3b 6d c4 04 3d 2b bb 74 3d 4d 3c e5 3d
       0.0036732855 0.03241389 0.05974881 0.11193142
000350 d6 1f 9d 3d fb 8a 3c bc c4 1f 28 3d 37 ad 1f bd
       0.07672088 -0.011507745 0.04104592 -0.03898355
000360 ea 68 17 3d 41 d5 db bc 1b 44 cb bd 52 ea b3 bd
       0.03696529 -0.026835086 -0.099250995 -0.087849274
000370 27 ec df 3d 52 df 13 bd 29 a7 bb 3d 23 0d 72 3d
       0.10933714 -0.036101647 0.09162743 0.05909456
000380 cb 05 62 ba 75 e7 9f 3c 30 a5 a5 bb 52 3d e9 3c
       -0.0008622079 0.019519547 -0.0050550923 0.028471623
000390 85 d7 9e bc f2 d4 07 3e 75 18 88 3d ec 5d c0 3d
       -0.019389877 0.13264826 0.0664529 0.09392914
0003a0 28 5a 0d 3e 5b cd b1 bd db 3e d7 3c 4e fd 14 3d
       0.13803923 -0.086817466 0.026275089 0.036374383
0003b0 25 67 fb bd ad 7b 04 bd c1 10 0c bd 08 90 df bc
       -0.12275533 -0.03234451 -0.034195665 -0.02729036
0003c0 e6 e4 86 bd 1c 14 c6 3d a4 38 eb bd 2b 2e c2 3d
       -0.06586628 0.09671804 -0.11485413 0.09481462
0003d0 58 fd 29 bc b9 00 e1 3d e7 de cd bc 80 a8 33 3d
       -0.010375343 0.10986466 -0.025130702 0.043861866
0003e0 af 17 8f bd 1d 59 8b bd 16 c7 0b 3c bc c3 6b 3d
       -0.06986939 -0.068041064 0.0085313525 0.057559714
0003f0 46 fa 22 bd ac 69 f2 bd 35 61 c5 bd dd 5e a9 bd
       -0.03978946 -0.118365616 -0.096376814 -0.08270047

bias_ih f4 [192]
000000 9b 58 60 3e 45 59 80 3d e8 09 12 3b b9 20 a1 3c
       0.219088 0.06267027 0.0022283737 0.019668924
000010 6c 48 0e bc 49 4c a3 3d 5f 43 0b 3e f1 1a 05 3e
       -0.008684259 0.079735346 0.13599919 0.12998559
000020 75 ab d7 bc 94 c6 7f 3c 54 73 09 3e 37 bd 01 3d
       -0.026326874 0.01561131 0.134229 0.03167459
000030 f0 63 d0 bd 08 2f f5 3d 96 62 a0 3c d8 02 50 bd
       -0.101753116 0.11971861 0.01957826 -0.050783962
000040 65 71 ca bc 31 f4 97 3d 7f 29 46 bd b7 72 fd 3d
       -0.024712274 0.07419623 -0.048379418 0.12375396
000050 bb 2a a1 bd 58 a4 98 3d 09 5b d7 3c a4 48 be 3d
       -0.07869478 0.07453221 0.026288526 0.09291199
000060 3b 2b 6c bc 33 12 aa 3d e1 ba 99 3d 84 eb ae bb
       -0.014414604 0.083042525 0.075063474 -0.0053381342
000070 11 fc 8f 3d 99 64 fe bc 1e 75 64 bd e6 3b 00 3e
       0.070305 -0.031053828 -0.055775754 0.1252285
000080 d8 08 86 3d 04 f2 5e bd 70 5c 71 3d 1f d5 be 3d
       0.065446556 -0.054430023 0.058926046 0.093179934
000090 44 65 bf bb b4 d1 c2 3d 6e 0a 06 3d 3b 68 44 3d
       -0.005840929 0.09512654 0.03272479 0.047950964
0000a0 20 63 29 bd a9 ae 90 bd 3d 90 a3 3d 46 40 63 3d
       -0.0413543 -0.07064564 0.07986496 0.055481218
0000b0 d1 dd 99 bd b8 8b f0 bc 71 d0 c9 3d d3 e6 ff 3b
       -0.07513011 -0.029363498 0.0985421 0.007809499
0000c0 90 64 91 bc 87 42 83 3d 0a 3f 1b 3e 53 ad 3f bd
       -0.017748147 0.064091735 0.15160766 -0.046796154
0000d0 73 f4 85 3d 73 e6 05 3e 0e 7f ca 3c 9c 82 87 bb
       0.065407656 0.1307619 0.024718788 -0.004135443
0000e0 bf 2b f9 3d 7a 94 b7 bc c7 16 00 3e ce 2f 04 3e
       0.12166547 -0.022409666 0.12508689 0.12908861
0000f0 1d a7 84 bd 93 24 3f 3c 39 ff 99 bd 05 5b 1f 3e
       -0.06477187 0.011666435 -0.07519383 0.15562065
000100 59 fe ab bc 7f 27 ea bd 6f 60 8b be 67 29 d2 bc
       -0.020995306 -0.114333145 -0.2722201 -0.025654508
000110 58 f9 35 bd 64 3d 0f be 8a 06 35 3e f5 5e 15 be
       -0.044427246 -0.13988262 0.17678276 -0.14587004
000120 50 49 dc bd f9 4d 7a 3c 4f 66 24 bd 54 17 d8 bd
       -0.10756171 0.015277379 -0.04013663 -0.105513245
000130 3e c3 9a be 9a 8a 5b be f7 e5 b7 bd ad f0 32 be
       -0.30227083 -0.21439591 -0.08979409 -0.17474623
000140 b5 45 16 be f7 89 cb bd 54 70 fd bd b3 79 b3 bc
       -0.14675029 -0.09938424 -0.123749405 -0.021908617
000150 15 aa d3 bd 69 81 3e be bb b4 2b be 81 56 7b be
       -0.10335175 -0.18604054 -0.16768162 -0.24544717
000160 90 91 94 be 22 c1 b8 bd 92 52 b8 bd e6 86 4c be
       -0.29017305 -0.09021212 -0.09000124 -0.19973335
000170 bb b5 2f be 00 42 81 be 3c 8a 28 be d0 69 34 3c
       -0.17159168 -0.25245667 -0.16458982 0.011011556
000180 d0 4c 8f be ac ec 9a bd d2 c9 17 be 65 07 bf be
       -0.2798829 -0.07564673 -0.14823082 -0.3731033
000190 14 4e 11 be 32 a4 25 be 3a 32 b1 be 79 5b 0b be
       -0.1418994 -0.16175917 -0.34608632 -0.13609113
0001a0 84 bf f6 bc 49 c6 12 be 90 8a 91 be 6e d5 a6 be
       -0.030120619 -0.14333452 -0.28426027 -0.3258471
0001b0 36 f0 70 be f6 e8 97 bd 11 c6 48 be 64 e8 9c bd
       -0.23529133 -0.07417481 -0.19606806 -0.076615125
0001c0 e4 e1 8b 3d b2 71 40 be 2d 09 9b bc 10 33 9c be
       0.068301946 -0.18793371 -0.018925274 -0.30507708
0001d0 e9 ef b4 bc 45 da 44 be ab 7b d7 bd 18 d9 5b be
       -0.022087054 -0.19223888 -0.10521635 -0.21469533
0001e0 92 4b f8 bd 43 aa 27 3d d1 bb 40 be fe 73 3f be
       -0.12123789 0.04093386 -0.18821646 -0.18696591
0001f0 26 6b 13 be e6 2c b7 bd 64 45 3e be 9c 51 1a be
       -0.14396343 -0.089441106 -0.18581158 -0.15070194
000200 fa d4 0c 3e ef a6 fa 3d 62 c1 c7 bc 95 7d b6 3d
       0.13753119 0.12238871 -0.024384204 0.089106716
000210 5a bc b1 bd b2 e5 c4 3d 58 2e bd bb 01 e0 b6 bd
       -0.08678503 0.096141234 -0.005773347 -0.08929444
000220 d3 63 08 be c6 e1 3f 3e 53 ee b1 3d a3 bf 4a 3d
       -0.1331933 0.1873847 0.08688035 0.049499165
000230 f8 5f 80 3d 70 a6 15 3d 2f 18 07 be 5d 61 f9 3c
       0.062683046 0.03653568 -0.13192819 0.030441934
000240 95 18 22 be f2 98 cf bd 7f e9 35 3d 18 73 5b bd
       -0.1582969 -0.10136594 0.044412132 -0.05357656
000250 fe 56 a3 bd 67 01 4f 3b 12 85 36 3d 98 53 a9 3d
       -0.07975577 0.003158653 0.0445605 0.08267897
000260 72 f8 e7 bd b7 36 0c bc 50 00 bd 3d 5f ef a0 3d
       -0.11326684 -0.008557967 0.09228575 0.078581564
000270 40 2d d8 bd 63 85 f1 3d e3 3c 26 3d e6 e5 0e 3e
       -0.10555506 0.117930196 0.04058541 0.13954887
000280 e2 c4 76 bd d6 46 80 3d 71 89 ca bd f9 de c2 bd
       -0.060246356 0.06263511 -0.09889496 -0.09515185
000290 d1 db 46 bd b0 a2 47 3e a8 7e ac bc 73 d0 8a 3a
       -0.048549477 0.19495654 -0.021056488 0.0010590687
0002a0 5d ce b5 3c be e2 91 bd 83 0d 85 bd 7c ff c9 3b
       0.022193128 -0.07123326 -0.06496718 0.0061644893
0002b0 a9 65 82 3d 98 dd d8 3c 83 ff 82 bd 19 68 79 3d
       0.063670464 0.026472852 -0.06396391 0.06089029
0002c0 a8 6b 15 3d 9a 51 b8 3d b0 e6 11 be 42 3d 48 3d
       0.036479622 0.08999939 -0.14248157 0.048886545
0002d0 3a 5f 01 3d 4e 8e 99 3c aa 61 ed 3d 96 bf 1b 3b
       0.031584956 0.018744614 0.115908936 0.0023765317
0002e0 46 ec 06 bd 22 22 8f bd da 18 ee bd f3 1d c8 bd
       -0.03294017 -0.06988932 -0.11625834 -0.09771337
0002f0 6b 10 f8 bd 6a b5 5a bc 12 08 50 3d 32 7f 26 be
       -0.121125065 -0.013348917 0.050788946 -0.16259459

bias_hh f4 [192]
000000 11 32 ce 3d 26 a3 b9 bd 11 b9 f1 3d e0 9c 1f bd
       0.10068143 -0.09064321 0.11802877 -0.038967967
000010 c8 4d 1d bd af fd 6a bc d9 94 a2 3d ba d8 90 bc
       -0.038404256 -0.014342709 0.07938547 -0.017681468
000020 ff 33 ce 3c 16 88 06 3e 71 a3 fe 3d 78 60 aa bd
       0.025171278 0.1313785 0.12433518 -0.08319181
000030 24 3d e3 3d 38 4e c3 3b c4 ac d7 bc 47 c7 a6 3c
       0.11095646 0.005960252 -0.026327498 0.020358695
000040 3d 9a 80 bd b7 4e 16 3e a8 1a ff 3d 43 90 6f 3d
       -0.062794186 0.14678465 0.12456256 0.058487188
000050 6e ab 7d 3d 0a 3b a9 3d 87 0f 21 3e f0 f0 f5 3d
       0.061931066 0.08263214 0.1572858 0.12008846
000060 c6 29 5d 3d bf c7 50 3d bd 4d 7e 3d f3 2f c0 bc
       0.053994916 0.050971743 0.062085856 -0.023460364
000070 27 59 a1 bd 43 9f 5c 3d ee 9f 9e bd 08 44 07 bd
       -0.078783326 0.05386282 -0.07745348 -0.033023864
000080 f6 db 9f 3d 8f 7c 07 3e 02 fe 46 3d 87 82 22 3d
       0.07805626 0.13231109 0.048582084 0.03967526
000090 d9 5b ff 3d 7c 82 a0 3d e5 63 97 3c fe a4 bc 3d
       0.124686904 0.07837388 0.01848025 0.09211157
0000a0 e9 6a ba bc 6d 46 86 3d 6b 11 cf 3d 2c 33 e3 bc
       -0.022756057 0.065564014 0.10110744 -0.027734362
0000b0 97 53 ca 3d 9f bf ee 3d d3 b0 01 3e b6 9d c7 bc
       0.09879225 0.116576426 0.1266511 -0.024367195
0000c0 5b 92 60 bb 51 cf b3 bd 2a 64 25 3e b3 69 da bd
       -0.0034266922 -0.08779777 0.16151491 -0.10664692
0000d0 3e 38 8b bc d5 38 15 3e b5 08 91 bc b9 23 11 3d
       -0.016994592 0.14572461 -0.017704347 0.03543446
0000e0 5d 92 8c 3d bf 26 a7 ba 5c 09 98 3c 0a 37 53 bd
       0.06863854 -0.0012752636 0.01855915 -0.05156616
0000f0 e9 d6 32 3e a9 3f fa 3d 6c 66 76 3d cd 0d 2e 3e
       0.17464794 0.122191735 0.06015627 0.16997452
000100 50 e0 bb bb f5 7e f3 bd 98 06 ba bd 87 7b 23 be
       -0.0057335272 -0.118894495 -0.09083289 -0.1596509
000110 7f 20 f2 bd f1 fe 8b be 4e 10 8e bd e1 87 a2 be
       -0.118226044 -0.27342942 -0.069367036 -0.31744292
000120 d6 ed 02 be 69 c6 21 be 1b b6 ed bc 8b c8 90 be
       -0.1278604 -0.15798344 -0.029017499 -0.28278002
000130 74 19 76 be 90 74 13 be d2 65 6d be 35 cf da bd
       -0.24033147 -0.14399934 -0.23183373 -0.10684053
000140 2a 03 44 be 91 8c 49 be 5d 65 34 be 60 89 ad bd
       -0.19141832 -0.19682528 -0.17616792 -0.08473468
000150 3f 5f 9b 3d d5 b0 84 be 93 7d 75 be 6b b0 79 bd
       0.07586526 -0.25916162 -0.23973684 -0.06095926
000160 00 8e 90 bd b6 08 82 bc 22 58 ac bd c6 4e 63 be
       -0.07058334 -0.015873294 -0.084152475 -0.22198018
000170 60 7d 92 be 4d 9b 33 be 48 d3 20 3c 3f 8e f7 bd
       -0.2861128 -0.17539711 0.009815998 -0.12087678
000180 76 19 0d be ba 66 33 be 37 66 47 be ae fc 41 be
       -0.13779244 -0.17519656 -0.19472586 -0.18944046
000190 0a af 2f be 05 8b 6e be 67 d8 aa be b5 c8 37 be
       -0.17156616 -0.23295219 -0.33368227 -0.17947657
0001a0 7c b2 2b be 11 64 0f be dc 9f b6 bd 8f 57 67 be
       -0.16767305 -0.14003016 -0.089172095 -0.22591995
0001b0 7f d8 87 be 66 4d bf bd 91 8e 58 be 50 0f 98 bd
       -0.2653236 -0.093409345 -0.21148135 -0.07424796
0001c0 c9 17 32 bd 10 20 a7 bd 1c b0 de bd d5 95 2d be
       -0.043479715 -0.08160412 -0.10873434 -0.16951688
0001d0 21 42 87 be f8 ac 08 be 0c 30 ee bd 28 64 5c be
       -0.2641764 -0.13347232 -0.11630258 -0.21522582
0001e0 36 39 9d bc 57 86 b6 bd 0f c7 21 be 8e 8f 4f be
       -0.01919232 -0.08912342 -0.15798591 -0.20269606
0001f0 55 aa 82 be 30 bd c7 bd 28 b9 48 bc 51 7a 47 bd
       -0.25520578 -0.097528815 -0.012251176 -0.048700634
000200 77 9f 60 3e 8c 58 2d bb fe 8e 53 bc fb 5f 53 bd
       0.21935831 -0.0026450483 -0.01291251 -0.051605206
000210 5d 79 08 bd 7d a7 98 3d 03 71 26 3e 83 b9 b7 bd
       -0.033318866 0.07453821 0.16254048 -0.089709304
000220 08 72 b7 bd d6 40 a9 3d e3 36 4f bb 20 7a 7c 3c
       -0.089572966 0.082643196 -0.0031618408 0.015409976
000230 08 67 e9 bd 36 a7 d4 bd 6f e6 0f 3e 5a 75 00 3c
       -0.11396605 -0.103834555 0.14052747 0.007840479
000240 ac bc e8 bc 64 10 17 be f1 24 30 3d c2 74 e6 3d
       -0.028410278 -0.14752346 0.04300398 0.112527385
000250 ec 89 5d bd 6f c1 0e 3e 4e ea 99 3d 54 a7 c5 3d
       -0.05408661 0.13940977 0.07515393 0.09651056
000260 e9 f9 8a bd b9 8c 66 3d 2d c2 be bc 23 df 33 3c
       -0.06785948 0.056286547 -0.02328595 0.010978493
000270 34 62 d0 3d da 94 a0 3c 4d de b2 bd 8a 0a 04 3e
       0.10174981 0.019602228 -0.08733807 0.12894645
000280 0c 4a 6b bd f7 e7 20 be 74 35 32 3c 5d 85 02 3e
       -0.057443663 -0.15713488 0.010877002 0.12746187
000290 73 26 28 3b c3 b2 35 3e fb 75 00 bd f4 b8 78 3c
       0.0025657683 0.17743973 -0.031362515 0.015180815
0002a0 39 4a d2 bd ee 82 b5 3c 52 49 33 3d 78 94 30 3e
       -0.10268063 0.022157159 0.043771096 0.17244136
0002b0 d7 18 84 bd e1 86 01 3e f7 0c 07 be fc 3d 0f 3e
       -0.0645005 0.12649108 -0.1318854 0.13988489
0002c0 d5 6a 8c bd cd 56 de bc c2 a7 4d be e6 19 08 be
       -0.06856314 -0.027141 -0.20083526 -0.1329113
0002d0 f2 5f d0 3c d3 82 18 3e 32 f1 39 bd 13 85 ac ba
       0.025436375 0.14893655 -0.045396037 -0.0013162218
0002e0 1a 2d ec bd 1a 89 95 bb 39 6f 9f 3d 2a bd 14 bd
       -0.1153204 -0.004563463 0.07784886 -0.036313213
0002f0 94 c4 a6 bd 08 1e 2e bc e6 56 93 bd 58 9f 1e be
       -0.08142963 -0.010627277 -0.07194309 -0.15490472

weight f4 [3, 64]
000000 de 2b 08 be 67 2c 1a be 52 cb 6f 3e ba ad 54 be
       -0.13297984 -0.15056 0.23417404 -0.20769396
000010 0d aa 41 be dd 54 8f be c6 44 10 3d f4 d0 e8 bc
       -0.18912525 -0.27994433 0.035221837 -0.02841995
000020 8c 28 30 3e b7 ad 24 bb 56 58 96 bb 7c 55 3b be
       0.17202967 -0.0025127956 -0.004588167 -0.18294328
000030 f4 1e d6 bc 30 c7 40 bd 95 f5 56 3d c6 72 1a 3e
       -0.026137806 -0.04706496 0.0524803 0.15082845
000040 6e 8a 7c 3e 22 a1 34 bd aa 76 c6 3d ff 6c 5e be
       0.24662182 -0.04409898 0.09690602 -0.21721266
000050 18 23 06 bd f8 76 44 be d7 79 a9 3d 9d 4a 09 be
       -0.03274831 -0.19186008 0.08275192 -0.13407369
000060 e3 0a 04 bd e7 5e ce 3d 14 dd 1b 3e 05 ad 2b be
       -0.032236945 0.10076695 0.15221053 -0.1676522
000070 e7 24 bb 3e 9a 88 85 bd f0 8a 02 be c4 80 2f be
       0.36551592 -0.06520195 -0.12748313 -0.17138964
000080 50 7f a4 3c 13 14 a5 3e 47 ed 56 be a2 5a 14 3c
       0.020080239 0.32241878 -0.20988952 0.009054812
000090 93 76 05 be 8c 09 c9 bd d0 a8 23 be b4 20 d4 bd
       -0.13033514 -0.09816274 -0.15982366 -0.103578
0000a0 83 a4 51 be 62 b8 19 3d ae 52 11 3e 12 4e 1c 3e
       -0.20472912 0.037529357 0.14191696 0.15264156
0000b0 0b 4a ea 3d f3 1a ce 3d bb e7 2d be f6 8b 81 bb
       0.11439904 0.10063734 -0.1698293 -0.003953452
0000c0 7d 23 0c be 8b b6 11 3e 95 e5 4f 3c e6 ba 5c be
       -0.13685413 0.14229791 0.012689014 -0.21555671
0000d0 8d 7a 88 3d 73 71 26 3d 44 13 c5 bd 35 b7 56 bd
       0.06664 0.040635537 -0.09622815 -0.052420814
0000e0 5d 55 d8 bd 04 8b 2f be 9f c3 dc bd a8 4d 8e 3e
       -0.10563157 -0.17142874 -0.10779499 0.27793622
0000f0 72 0b b4 bd df 16 a6 bc 72 94 3e be b8 f3 e2 bd
       -0.087912455 -0.020274578 -0.18611315 -0.11081642
000100 d0 f1 0b bd 04 24 57 3e 3b f7 89 3d 88 f3 88 3d
       -0.034166157 0.21009833 0.067366086 0.06687075
000110 4d 4e 00 3e 80 92 50 bd d9 e1 b9 bd 3c 21 33 be
       0.1252987 -0.050920963 -0.0907628 -0.17493147
000120 1e b9 9f 3d ba 2d a3 3d 22 35 90 3d d4 7d fb 3c
       0.0779898 0.07967706 0.07041384 0.030699648
000130 db 2c 74 3e ac 5f 92 bd 9a b5 f8 3c a8 ae 27 3e
       0.23845236 -0.07147154 0.030360032 0.1637522
000140 e7 41 c1 bd 54 fa 10 be 5e 3c e9 3d 20 88 63 3e
       -0.09436398 -0.14157993 0.11388467 0.22219896
000150 45 41 ca bc 12 62 90 be ae 8d 77 be 95 ad a6 bd
       -0.024689326 -0.28199822 -0.2417514 -0.08138577
000160 ec 8a 3f 3e 57 c1 e6 bd 31 6d 0f 3e e9 0d 3f 3d
       0.18705338 -0.112673454 0.14006497 0.046644125
000170 e5 5f a7 be 74 c5 32 3e 76 dc 98 bb fb 3a 90 3b
       -0.3269035 0.17458135 -0.004664953 0.0044015623
000180 80 81 2e be de af 57 be 64 77 e4 3d 83 ea 0f 3e
       -0.17041588 -0.21063182 0.111555845 0.14054303
000190 a5 20 12 3e f3 57 24 bd 1d 1c 38 be 81 f6 a2 be
       0.14270265 -0.040122937 -0.17979474 -0.31828693
0001a0 4a 7a 66 3e 96 f1 83 3e a3 ef ac be 24 29 75 be
       0.22507587 0.25770253 -0.33776578 -0.23941475
0001b0 66 45 62 3e f4 f2 f6 bd 9a 2c 74 3d 06 1e 4d be
       0.22096786 -0.120580584 0.059612848 -0.20030984
0001c0 97 46 a3 3d 35 02 09 3e ae 88 8d bd 2f 09 01 be
       0.07972448 0.13379748 -0.06910835 -0.1260116
0001d0 03 30 01 3e 76 45 3f 3d dd 3f 8b 3c 19 94 83 be
       0.12615971 0.046697102 0.016998226 -0.25698927
0001e0 e4 e8 ce 3d de 46 b9 3d bb cb 24 3e 40 74 cb bd
       0.10103014 0.0904672 0.16093342 -0.09934282
0001f0 e0 93 5d be 20 80 0a be bf de 6f 3d 41 6c 65 bd
       -0.21638441 -0.13525438 0.058562037 -0.056011442
000200 b5 53 cc bd df 5b b6 bd 7a b1 a3 bd 43 8e 31 3e
       -0.09976903 -0.08904242 -0.07992835 0.17339425
000210 da bc 29 3e 9e a3 9e 3e d1 23 62 bd ab 74 de 3e
       0.16575947 0.30984205 -0.05520994 0.43448386
000220 78 06 2b be 0b 4c 87 3c 82 68 27 bd 1c ec a9 3e
       -0.16701686 0.016515752 -0.04087115 0.3318795
000230 2a 1c d6 be ea 9d 4a 3e a0 40 cd be e5 35 94 be
       -0.41818362 0.19786802 -0.40088367 -0.28947368
000240 68 46 36 be 82 63 03 3e 43 6a be be 26 71 c9 bd
       -0.17800295 0.12830928 -0.37190446 -0.098360345
000250 92 84 d6 3c 3e 22 cb 3e ad 4c 64 3e 32 1c 26 3e
       0.026186261 0.39674562 0.22294874 0.16221693
000260 54 f8 ee bc 87 f2 32 3e ff 07 66 be 9d bf 9d 3e
       -0.029171146 0.1747533 -0.22463988 0.30810252
000270 e2 8a d6 bc b4 48 23 be db a2 a4 3d 75 85 e6 bb
       -0.026189271 -0.15945703 0.08038875 -0.0070349523
000280 74 83 d0 3e de 68 10 be c0 b2 a9 3d 5a 47 ca be
       0.4072529 -0.14102504 0.08286047 -0.39507562
000290 73 c4 17 bd 9e 57 21 be 28 e5 a1 3e 2f 0d e2 3e
       -0.037052583 -0.1575608 0.31620145 0.44150683
0002a0 2a 58 f7 bd 03 45 a6 be c5 c3 5a 3e 5c a6 78 3e
       -0.12077363 -0.32474527 0.21363743 0.24282211
0002b0 8b 29 cd be 79 ce a3 be ce 8e 68 3e b0 69 32 3e
       -0.40070757 -0.31993464 0.22710726 0.17423129
0002c0 11 79 0d be 3e 2f a1 be 84 7b 27 bd 67 92 97 3e
       -0.13815714 -0.31481355 -0.040889278 0.29603884
0002d0 c2 80 3e be 98 5a 3f be 06 dd c2 3d 39 82 c1 3e
       -0.18603805 -0.18686903 0.09514813 0.37794665
0002e0 aa 97 25 be e2 ee 3c 3e b1 7c 78 be fa 31 e1 bd
       -0.16171136 0.18450502 -0.24266316 -0.109958604
0002f0 77 e3 5e 3e 2f 00 0c 3e 7c 49 19 3e 56 c8 5f 3d
       0.21766458 0.13671945 0.14969438 0.054634415

bias f4 [3]
000000 02 29 0d bd 43 1b a9 bd 33 21 9b bd
       -0.034462936 -0.08257153 -0.075746916

welford_state_mean f4 [7]
000000 95 24 c9 3e 92 24 a9 3e 4a 92 c4 3e 24 49 12 3c
       0.39285722 0.33035713 0.3839286 0.008928571
000010 6f db 36 3d 00 00 00 00 46 92 24 3e
       0.044642862 0.0 0.16071424

welford_state_mean_diff f4 [7]
000000 29 b4 d4 41 96 6a c8 41 64 a8 d2 41 90 60 fc 3f
       26.587969 25.052044 26.332222 1.9716969
000010 81 13 b6 40 00 00 80 3f 6e 90 7b 41
       5.689881 1.0 15.722761

hidden f4 [6, 64]
000000 94 f9 69 3f d5 45 3f 3f 8c 31 2a bf f6 6d e1 3e
       0.9139645 0.7471593 -0.6648185 0.44029206
000010 77 8c 13 bf 27 6e 77 be 05 04 57 3f cd e0 9d be
       -0.5763621 -0.24163114 0.8399051 -0.30835572
000020 50 59 84 be 7a 77 75 3f 64 ad 62 3f e3 b6 98 3e
       -0.2584939 0.9588543 0.88545823 0.29827031
000030 6a f4 08 bc 97 70 2d 3d 76 cf 13 3e 10 1e b6 3e
       -0.008359054 0.042343702 0.14434609 0.3556981
000040 ea 36 c9 be 58 94 24 bf 2b 5f 20 3e f2 12 d2 3d
       -0.3929971 -0.64288855 0.15661304 0.1025752
000050 73 f5 7f be 86 68 d2 3e 89 c6 8b bc e4 02 7f bd
       -0.24995975 0.4109537 -0.017062442 -0.062258616
000060 9b c7 1f bf 43 0d 2e 3f de 61 b6 3e d1 d9 d5 3e
       -0.6241395 0.67988986 0.35621542 0.41767743
000070 77 15 5a be 0b 72 5a 3e 25 f5 05 bf bf b2 67 3f
       -0.2129725 0.21332566 -0.52327186 0.9050712
000080 3f e5 a9 be 17 b1 b4 be bd 5b 7c be 87 1c 4a 3d
       -0.33182713 -0.3529136 -0.2464437 0.049343612
000090 34 d2 0d bf c9 f7 55 3f 57 81 ff be 50 c2 65 be
       -0.5539887 0.83581215 -0.49903366 -0.22437406
0000a0 17 78 81 be 20 bb e0 be 5b 31 a5 be 6e a6 26 3f
       -0.25286934 -0.43892765 -0.32264218 0.650977
0000b0 6e e4 15 be 2d 21 f6 3e 40 3c d2 be 71 cf ae 3e
       -0.1463792 0.48072186 -0.41061592 0.3414264
0000c0 86 6c 7a 3e 89 3c c8 3d 5e 73 68 bf 7f 6c ea be
       0.24455461 0.09777171 -0.90801036 -0.457859
0000d0 11 31 15 3f d6 a8 d4 3e 1c fe 3e 3f cd 5d 4b be
       0.58277994 0.41535062 0.7460649 -0.19860001
0000e0 6c 20 97 bd 5c 49 d8 be 29 65 76 be 03 ba 2b bf
       -0.07379231 -0.4224347 -0.24062027 -0.67080706
0000f0 15 e8 23 bf 0c 5e 43 be cf 5c d4 3e 56 8d 56 bf
       -0.64026004 -0.19078845 0.41477057 -0.8380941
000100 a5 f8 69 3f 68 42 3f 3f 18 2e 2a bf 1f 71 e1 3e
       0.91395026 0.747107 -0.66476583 0.44031617
000110 af 89 13 bf 4a 68 77 be cf cf 56 3f f5 db 9d be
       -0.57631963 -0.24160877 0.8391084 -0.30831876
000120 04 59 84 be 36 76 75 3f 31 ab 62 3f 76 ad 98 3e
       -0.25849164 0.958835 0.8854247 0.2981984
000130 e5 9e 08 bc 02 5e 2d 3d ee c2 13 3e aa 24 b6 3e
       -0.008338665 0.04232598 0.14429829 0.35574847
000140 8d 37 c9 be b4 95 24 bf 25 4f 20 3e 21 21 d2 3d
       -0.39300194 -0.6429093 0.15655191 0.10260225
000150 4e f0 7f be f4 6b d2 3e 95 e0 8b bc a3 a0 7e bd
       -0.24994013 0.41097987 -0.017074862 -0.062164914
000160 4f c5 1f bf 50 0d 2e 3f 5a 5f b6 3e da d2 d5 3e
       -0.62410444 0.67989063 0.35619622 0.4176243
000170 1b 01 5a be ab 6c 5a 3e 54 f2 05 bf 9f af 67 3f
       -0.21289484 0.21330516 -0.5232289 0.9050235
000180 4d d9 a9 be d4 a6 b4 be 44 60 7c be 61 05 4a 3d
       -0.331736 -0.3528353 -0.24646097 0.049321536
000190 b6 d0 0d bf 02 f7 55 3f 81 77 ff be 19 be 65 be
       -0.5539659 0.8358003 -0.49895862 -0.22435798
0001a0 5c 78 81 be f4 b8 e0 be b0 2e a5 be c3 a6 26 3f
       -0.2528714 -0.43891108 -0.32262182 0.6509821
0001b0 7c ee 15 be 51 16 f6 3e fa 40 d2 be 33 ca ae 3e
       -0.14641756 0.480639 -0.41065198 0.3413864
0001c0 d7 69 7a 3e b5 36 c8 3d 6a 71 68 bf 4f 63 ea be
       0.24454437 0.097760595 -0.90798056 -0.4577889
0001d0 c5 2f 15 3f 41 ae d4 3e d3 fd 3e 3f 11 43 4b be
       0.58276016 0.41539195 0.74606055 -0.19849803
0001e0 b4 32 97 bd a5 4a d8 be bd 67 76 be 45 ba 2b bf
       -0.07382718 -0.4224445 -0.2406301 -0.670811
0001f0 24 e4 23 bf b9 4d 43 be 13 51 d4 3e 1a 8b 56 bf
       -0.6401999 -0.19072618 0.41468105 -0.83806
000200 30 d4 4a 3f e8 fb 30 3d a2 ea 13 bf 6d b8 04 3f
       0.7923002 0.043208987 -0.57779896 0.5184391
000210 ac d7 68 3c bc 32 0e 3f 64 7a 28 3f 3a 8e aa 3e
       0.014211576 0.55546165 0.65811753 0.33311635
000220 ae 71 1a bf 1d db 48 3f 45 d6 bc 3e 46 60 1d 3f
       -0.6032971 0.7845934 0.36882225 0.61475027
000230 80 15 d1 be 6e ff 9b bd 53 3d ac be 82 74 ac be
       -0.40836716 -0.07617079 -0.33640537 -0.33682638
000240 ac ba 14 bf 86 db 6a bc 06 6f a7 be 4a 56 8d 3e
       -0.5809734 -0.014334565 -0.32701892 0.27604896
000250 42 69 81 be d5 2a 01 3f 3a d0 14 3f 7d d9 1d 3f
       -0.25275618 0.5045598 0.5813023 0.61659986
000260 c1 51 f8 be fb 23 80 3e 88 a6 10 be 78 07 1d 3f
       -0.48499873 0.2502745 -0.14126027 0.6133952
000270 44 21 7b be 15 68 2a be 1f 64 41 be de db 02 3f
       -0.24524409 -0.16641267 -0.1888585 0.5111674
000280 6d 35 d9 3e 16 2c b7 be 54 84 a0 3e 8d 0c fd be
       0.42423573 -0.35775822 0.31350958 -0.49423638
000290 a6 67 85 be 1b c5 c3 3e 94 e6 ce 3e 8f 6c e9 3e
       -0.2605564 0.38236317 0.40410292 0.45590636
0002a0 af e0 23 be 7c b3 02 bf bc f4 12 3e e0 c2 f8 3e
       -0.16003679 -0.5105512 0.14351171 0.48586178
0002b0 eb 5d ce be 86 db 79 be 1e 79 3a be 2c ce 10 3f
       -0.4030603 -0.24400148 -0.18210265 0.56564593
0002c0 c8 60 53 3d c6 44 18 be 44 f0 2d bf 2f 65 01 3f
       0.05160597 -0.14869985 -0.6794474 0.5054502
0002d0 ae 12 72 be 68 04 07 bb bc 14 25 3f 7b 11 00 3f
       -0.23639938 -0.0020601992 0.64484763 0.50026673
0002e0 d2 92 eb be 56 4e a3 3c 86 4a da be 70 4b 1e bf
       -0.46010453 0.019934814 -0.42634982 -0.6183386
0002f0 62 b4 30 3e 0b 94 ae 3d e5 7a 83 3e 7c dc 2b 3e
       0.1725631 0.08524331 0.256797 0.16783327
000300 99 f9 69 3f e8 45 3f 3f a2 31 2a bf e7 6d e1 3e
       0.9139648 0.74716043 -0.66481984 0.4402916
000310 85 8c 13 bf 4c 6e 77 be 17 05 57 3f e7 e0 9d be
       -0.5763629 -0.24163169 0.8399214 -0.3083565
000320 51 59 84 be 80 77 75 3f 6f ad 62 3f 16 b7 98 3e
       -0.25849393 0.9588547 0.8854589 0.29827183
000330 49 f6 08 bc fa 70 2d 3d b9 cf 13 3e eb 1d b6 3e
       -0.0083595 0.04234407 0.14434709 0.355697
000340 ea 36 c9 be 51 94 24 bf 83 5f 20 3e a5 12 d2 3d
       -0.3929971 -0.6428881 0.15661435 0.102574624
000350 8e f5 7f be 73 68 d2 3e ee c5 8b bc e9 04 7f bd
       -0.24996015 0.41095313 -0.017062154 -0.062260542
000360 a6 c7 1f bf 43 0d 2e 3f ee 61 b6 3e f6 d9 d5 3e
       -0.62414014 0.67988986 0.3562159 0.41767853
000370 e5 15 5a be 26 72 5a 3e 33 f5 05 bf d0 b2 67 3f
       -0.21297415 0.21332607 -0.5232727 0.9050722
000380 7b e5 a9 be 4a b1 b4 be a4 5b 7c be e9 1c 4a 3d
       -0.33182892 -0.3529151 -0.24644333 0.049343977
000390 3d d2 0d bf cc f7 55 3f 8c 81 ff be 69 c2 65 be
       -0.55398923 0.83581233 -0.49903524 -0.22437443
0003a0 16 78 81 be 2c bb e0 be 68 31 a5 be 6c a6 26 3f
       -0.2528693 -0.438928 -0.32264256 0.6509769
0003b0 38 e4 15 be 67 21 f6 3e 27 3c d2 be 8d cf ae 3e
       -0.1463784 0.4807236 -0.41061518 0.34142724
0003c0 93 6c 7a 3e a7 3c c8 3d 69 73 68 bf ad 6c ea be
       0.2445548 0.097771935 -0.908011 -0.45786038
0003d0 18 31 15 3f bb a8 d4 3e 1e fe 3e 3f 55 5e 4b be
       0.58278036 0.4153498 0.746065 -0.19860204
0003e0 07 20 97 bd 54 49 d8 be 19 65 76 be 03 ba 2b bf
       -0.073791556 -0.42243445 -0.24062003 -0.67080706
0003f0 2a e8 23 bf 69 5e 43 be 0d 5d d4 3e 62 8d 56 bf
       -0.6402613 -0.19078983 0.41477242 -0.83809483
