minigrid/r2l/MiniGrid-LavaCrossingR2LS11N5-v0/MiniGrid-LavaCrossingR2LS11N5-v0_seed_101_length_100.pt (torch, 64325 bytes, 9 tensors)

weight_ih f4 [192, 7]
00000000: 4fe5 51be ff7a c83d 10cc 6dbd d5b1 273e
00000010: df21 443d 527b f6bd e314 ad3e af04 38be
00000020: e47e c43d 7c9d 9f3d 34f7 873d d79d b33b
00000030: 20b4 aa3c 4f05 8f3e a7a1 4c3d c4a7 87be
00000040: 3680 293e 6dda dcbd 3149 193e 48ce 06bd
00000050: 10ba a23d be5a 973d 2343 1fbe 957d a73d
00000060: 522f 85bd aebc 363c 229b c5bd ddc5 43be
00000070: d985 99bd 924c 013e 590a ea3d d40a 483d
00000080: 6231 abbc 78a9 30bd 303f bc3c b224 00bc
00000090: 8048 ab3d 16b8 ae3d f663 063d 7ef9 05bd
000000a0: 403b 7cbc 4076 7e3d 486f 20bd 4168 613e
000000b0: b974 59bd f686 193e db19 90bd 24b7 043d
000000c0: 4ab3 6d3e 8fc6 e8bd 83de 14bd 9c27 5e3c
000000d0: cdda dbbd 9f27 a33d c8e5 a8bd 9401 2f3c
000000e0: 1793 983c 777a ff3d a904 473d 01ce 78bd
000000f0: 6b5e 18bd 60d2 433c 7afa 65bd bec5 cdbd
00000100: c7ac dc3d 126b 803d 38d7 573d 4f2f 33bd
00000110: ce74 df3d bf50 bf3d 981f de3d b22e 78bd
00000120: 18cb 0ebd e420 9e3d 374b 47bd 2252 dd3d
00000130: 3736 b63d e40c 913d dee3 6bbc 0d19 0d3d
00000140: 8f07 9b3d 803f 08be a025 2fbd baeb 3b3e
00000150: 03ce b4bc 399a 97bd 2807 da3d 5ccf 85bd
00000160: c154 a03d 3c34 903d 0069 0a3e 506b 70be
00000170: cf00 e83c 3638 153e 63b9 94bd e559 043e
00000180: 80f0 503c ce1f 853e 7ecd 723e 6aa3 c0bc
00000190: 8c51 4fbc 40b8 5c37 19da eabd 7881 f53c
000001a0: 3cb8 64be 4cee 603e 0638 3fbe 8ada e03d
000001b0: 70e9 1abe 8443 e53d 047b a93d f72f c0bd
000001c0: bffb 96bd 280a 503e 1c3e e23c 3f5a ac3d
000001d0: c7a9 8a3d ec7c e1bd 474a 383d 2469 5a3d
000001e0: 8987 8b3d 6a28 2abe 4ec7 963d eacf 0dbe
000001f0: 580d fabd de4f 16be d06d 8bbc 7812 1d3e
00000200: cf8e 0fbe 11fe 193d 402a 07be 508c 573c
00000210: 1eae 52bd 1f57 913e 00af 9dbd 0abe 09be
00000220: 1960 fdbd 3790 0bbe 36ce 84bd b8ae fcbd
00000230: 1e0b 023e 4962 bd3d 434c 053e eaf7 0ebe
00000240: bf6f 013e baf2 adbd 30dc d93d c317 c93d
00000250: d1af 0cbd eb56 17bd 795b 843a 7171 e7bc
00000260: 5ca0 e13d 7440 393e b195 bcbd 94da 363e
00000270: eebb f23a 1403 96bc 4e46 01be ac7b bf3d
00000280: 29d2 833e 0b06 27be 7273 c9bb 186a bc3d
00000290: 88dd 1a3d fe69 0d3b 04b6 9abd a003 37bc
000002a0: 030f 853d b0a5 39be 6f5c 15bd ef3d a2bd
000002b0: 8cef 983c d480 0cbd a4d4 5bbd c8ae 923b
000002c0: 2b34 bf3d acfa 95bd 6627 3cbc 69f2 f0bd
000002d0: 8026 d53a 9426 e0bc ab7d d63d f979 32be
000002e0: 220c 223e 8fbc 30be b954 f63d 3cf7 78bd
000002f0: e0b4 15be f281 433e 6950 843d 2af1 133e
00000300: 9712 15bc 7c9f 833c d00d 8cbd d227 1bbe
00000310: f901 503e 958d a0be 83c1 543e eb20 3cbe
00000320: ae93 023e c6b5 85bd 9053 d3bd c45f 1e3c
00000330: 6ebb 1b3d ed5b a6bd ac6a 66bd 0e1f 4c3d
00000340: 3ebb f4bd bdab a8bd 0411 a0bc 2547 8c3e
00000350: 0034 5b3e d863 6d3d 8348 b43c 681c 853d
00000360: b4bb 6f3e 04fd 65bc 39ae d23d d135 e8bd
00000370: afa0 883d 7195 3e3d c853 e93d caee a43d
00000380: 31fe 043e c65f ec3d 9893 11be ed10 653d
00000390: 7b37 83be ae18 ec3d 7536 bbbd 0da5 73bc
000003a0: d15e 8fbc 96f3 873b 1154 e53d 6392 993d
000003b0: 2840 5e3d 5256 263e ddb9 5fbe bcb7 20bd
000003c0: d689 58bd 03fe 883d 51fa 6f3c 38b0 6bbd
000003d0: 6b0f 163e e0a5 433e 0f60 e23d 07cd c3bd
000003e0: d04b 0e3e af76 38be 980f 58bd ee10 1f3d
000003f0: 50a0 e53c 008d 973e 611d a6bc 135f 683d
-0.2049763 0.09789085 -0.058055937 0.16376431 0.047883864 -0.1203524 0.33804998 -0.17970537
0.09594515 0.0779371 0.06638947 0.0054814625 0.020837843 0.27933738 0.04995885 -0.26495183
0.16552815 -0.10783849 0.14969327 -0.03291157 0.07945645 0.073903546 -0.15552954 0.0817825
-0.06503166 0.011153383 -0.0964873 -0.19118448 -0.074962325 0.12626866 0.11427755 0.04883845
-0.020897571 -0.043130368 0.022979349 -0.007821249 0.08363438 0.08531205 0.032810174 -0.032708637
-0.015394986 0.06212449 -0.039168626 0.22012426 -0.05308983 0.1499289 -0.070361815 0.03240122
0.23212925 -0.11365997 -0.036345016 0.013559248 -0.10735092 0.079665415 -0.08246952 0.010681529
0.018624825 0.1247453 0.04858843 -0.060743336 -0.03719942 0.011952013 -0.056147076 -0.10047482
0.10775142 0.06270422 0.052695483 -0.04374629 0.109109506 0.09341573 0.1084587 -0.060591407
-0.034861654 0.07721117 -0.048655715 0.10806681 0.088970594 0.07082537 -0.0143975895 0.03444772
0.07569801 -0.13305473 -0.04276049 0.18351641 -0.02207089 -0.074024625 0.10645896 -0.06533691
0.078286655 0.07041213 0.13516617 -0.23478436 0.028320698 0.14572224 -0.07261922 0.12924917
0.012752652 0.26000828 0.23711202 -0.023515422 -0.01265372 1.3155921e-05 -0.1146738 0.029968962
-0.22335905 0.21965903 -0.18673715 0.10979183 -0.15128112 0.11194518 0.082754165 -0.093841486
-0.073722355 0.20316374 0.027617507 0.084156506 0.06770664 -0.11010155 0.04499271 0.053322926
0.06812961 -0.16616979 0.07362233 -0.13848844 -0.12209576 -0.14678904 -0.017020136 0.15339077
-0.14019321 0.037595812 -0.13199711 0.013156012 -0.051435582 0.2838678 -0.07699394 -0.134514
-0.12371845 -0.13629232 -0.06484644 -0.123380125 0.12699553 0.09247262 0.13017373 -0.13961759
0.12640284 -0.08493562 0.106377006 0.09818985 -0.03434736 -0.036948126 0.0010098062 -0.028252335
0.11016914 0.18090993 -0.09208239 0.17856818 0.0018519142 -0.018312015 -0.12624475 0.093497604
0.25746277 -0.16310899 -0.0061477954 0.09199923 0.037808925 0.002157807 -0.07554248 -0.011170298
0.06497004 -0.18129611 -0.036465105 -0.07921969 0.018668912 -0.034302548 -0.053669587 0.004476402
0.09336122 -0.073232025 -0.011484003 -0.11764986 0.0016262084 -0.027362145 0.10473188 -0.17429341
0.15824941 -0.1725943 0.12027878 -0.060782656 -0.1461978 0.19092539 0.064606495 0.14447466
-0.00909867 0.016067259 -0.06838572 -0.15151909 0.20313253 -0.3135802 0.20776944 -0.18371932
0.12751648 -0.06528811 -0.10318673 0.009666387 0.038020544 -0.08123002 -0.056254074 0.049834304
-0.11949776 -0.082358815 -0.019539364 0.2739803 0.21406555 0.057956547 0.022007233 0.06499559
0.23411447 -0.014037374 0.102871366 -0.1133839 0.06671273 0.046529237 0.11392933 0.08053358
0.12987591 0.11541705 -0.14216459 0.055924345 -0.25628266 0.11528145 -0.09141246 -0.014870894
-0.017501267 0.0041489108 0.11197675 0.07498624 0.054260403 0.16243866 -0.21848245 -0.039237723
-0.052865826 0.06689074 0.014647082 -0.057541102 0.14654319 0.19106245 0.11053478 -0.0956059
0.13896108 -0.18014024 -0.052749246 0.038834505 0.028030545 0.29599762 -0.02027768 0.056731295

weight_hh f4 [192, 64]
00000000: 5c96 493d b0e8 11bb f66a 843c 9ba6 b9bd
00000010: da07 1fbe afd2 5dbc 1ad0 793d 322c 4dbc
00000020: 9e94 8f3d e3cb 99bd 1f12 97bd f20b c4bc
00000030: 8504 9d3d e673 e13d fb8d babd 8f1d 11bd
00000040: 4f86 823d 6711 45bd db49 68bd 5ea4 063c
00000050: 84d9 053c dfd1 fdbc 8ec6 dd3d d8b4 163d
00000060: 7693 b73d a44a a53d 3f1a 82bc b65b b43d
00000070: 17d1 533d 6071 923c b74f 933c c26c 093e
00000080: f7d0 87bd 7e79 333d 9e08 943d 61ae 333d
00000090: 1ddb 023e a9f9 7e3d 4f7e e5ba b0a0 c3bc
000000a0: 8cbe 17bd 7c9a 7c3c 7da9 ba3d 4b2f 293e
000000b0: 634c 1fbd 0810 18be 1d74 693c de81 1c3d
000000c0: c8d4 c63d 32d9 04bd 7c2b 063e 4742 403d
000000d0: 6ff8 44bd 3ebd 86bd 15a4 693d 3d6a 563d
000000e0: ba3f e73d d69a 56bd 7276 bc3d 711a c13d
000000f0: 6ba4 c33c 67ce eebc 2fc7 033d c73a b9bd
00000100: 35e9 df3d 21f1 cabb 7610 d33d f172 77bd
00000110: badf f6bd 13f8 053e d907 d2bd 654a 213d
00000120: 4198 46bd d7a3 24be 25b7 bf3d 9095 273d
00000130: 466f 7e3d 54e3 8a3d bc65 c5bb d9d4 9dbd
00000140: 96e2 a9bd 6be6 5d3c a894 963c 9eae 403d
00000150: 8f88 e13d 6cc5 053d 962a 453d 0fce a3bd
00000160: 6790 e6bc 30ca 663d 9a1b 3d3a 53a8 963d
00000170: 6e04 453c fb5f fb3d 5541 313d 8f60 e53d
00000180: 59c5 84bc 5b44 d4bd 08ac 90bd 3e5f 423d
00000190: bc6c b13c adc9 c1bd f6c5 8a3d a348 ee3d
000001a0: da68 e83d 9683 1ebd a6c0 633d a1cb 2a3e
000001b0: 6cb4 1b3e ed3b d1bd 8121 863a bb1e 9fbd
000001c0: c91e c13d cdfa a23d a66b 12be 2242 3bbd
000001d0: 2c9d 303c 6c9f 66bd d23f 8b3d ba73 8abd
000001e0: 87f1 9fbd 426b c6bd 005a fbbd b2b3 533d
000001f0: 9aea b03d 4e4e 34be c8c6 233d 42ee f93d
00000200: 5e4b d93b 0e6a e2bd 155d 1cbd 2632 1e3d
00000210: dc3d 64bd 86aa c6bd ca22 8abd d73b 4c3c
00000220: 275c ee3b 9e41 81bd f7cc 0c3e dfbb b1bd
00000230: 8d41 6f3b 8661 9f3d 2051 e3bc fc4e a23c
00000240: 6471 453b 6527 8a3d 97ac 9a3d b204 153e
00000250: 8e4b 893d c760 bcbd f584 adbd 6f57 9abd
00000260: 1279 b63c b25d f3bd fbc4 fa3d c602 813d
00000270: 682c 1cbc 7313 a1bd 08b9 033e 5504 cb3d
00000280: 1996 223d f2d0 b33b a945 f33d 449e a03c
00000290: 6982 a63d 8131 bf3d 647d ae3d 8a09 77bd
000002a0: 383e 6d3d 2efa 043e b2b5 aebd 2c93 103d
000002b0: e4c8 243c db94 6b3b 8591 603d 89e6 ea3b
000002c0: bb46 dd3d 0c25 8f3d 5fd9 08be ec0d 31bd
000002d0: d245 abbc 7b31 cb3d 5bba d43d 2372 a6bc
000002e0: 4fd5 e73d 9906 f83c d82d f23c edda a43d
000002f0: d2a5 14be 9442 cb3d 773a 8abd 5152 a4ba
00000300: 43e1 c3bd f449 27be 0c4e c3bd 5242 c63d
00000310: 0724 cd3d 76a0 c6ba 109c 413c d07f d23c
00000320: e729 c03c f76c bd3d 8174 bfbd a35f 9f3d
00000330: 5280 3a3e 1357 2cbe 0bc9 1dbc cdf5 923d
00000340: fbc6 273e 69eb 86bd 9c77 4fbd 44e1 d4bd
00000350: fc76 c0bd 4811 363e 6b9e 57bd 0a3f e93c
00000360: f94b ac3d 6b7e b2bc 5cb2 f93d 5a1c 16bc
00000370: 425a debd 0aeb d9bc 8403 e63d afc2 08bd
00000380: 60fc 19be fabe febd a41e ccbd 2ac0 d83c
00000390: d1a2 673d 3262 0bbe ab35 7a3d bfd2 1abe
000003a0: d44d 1bbe 1ab6 723d 7735 98bd 82a1 1dbe
000003b0: 6e56 5ebd fe5a ad3d fb71 203c 7546 703c
000003c0: 71ce a5bd e753 813d 54f7 ac3c 168d df3c
000003d0: bc5a 08bc ea84 02bc 212f 12be afdc 133e
000003e0: 8bd9 44bc a9a5 ffbd c7db 153d 931b 0a3c
000003f0: 8fba fcbd 8581 7d3d 04e0 01be 5603 0e3d
0.04921566 -0.0022263937 0.016164284 -0.090649806 -0.15530339 -0.013539 0.060989477 -0.012522744
0.07010768 -0.075095914 -0.07376503 -0.023931477 0.07666878 0.11008434 -0.09109112 -0.03542858
0.063732736 -0.0481123 -0.05671106 0.008217899 0.008169536 -0.030983863 0.10828887 0.03679356
0.08963673 0.08070877 -0.015881656 0.08806555 0.051713075 0.017876327 0.017982347 0.13420394
-0.06631654 0.043817036 0.07228206 0.043867473 0.12778898 0.062249813 -0.0017508956 -0.023880333
-0.037046954 0.015417691 0.091143586 0.16521947 -0.038891207 -0.14849865 0.014248875 0.03820979
0.097085536 -0.032433696 0.13102525 0.046938207 -0.048088487 -0.06579064 0.057041246 0.05234741
0.11291452 -0.052393757 0.09202279 0.094288714 0.023882112 -0.029151155 0.03217238 -0.09044414
0.109331526 -0.0061932956 0.10305874 -0.06041235 -0.12054391 0.13082914 -0.10255403 0.03937759
-0.048485044 -0.16078125 0.09361104 0.04091412 0.062117837 0.06781641 -0.0060240906 -0.07706613
-0.08295171 0.013543705 0.018381432 0.047041528 0.110123746 0.03265898 0.048136316 -0.07998287
-0.028145028 0.056345165 0.0007213891 0.07356324 0.012024982 0.12274166 0.043275196 0.11200058
-0.016207384 -0.103646 -0.07064062 0.04745411 0.021658294 -0.09462295 0.06776039 0.11634948
0.11348124 -0.03869971 0.055603646 0.16679241 0.15205544 -0.10216508 0.0010233374 -0.07769533
0.094297 0.07957993 -0.14298877 -0.045717366 0.01077966 -0.05630438 0.06799282 -0.06760354
-0.078097396 -0.096884266 -0.122730255 0.051685043 0.08638497 -0.17607996 0.039984494 0.12203647
0.006631299 -0.110553846 -0.038174707 0.038622044 -0.055723056 -0.097004935 -0.06744917 0.012465439
0.007274169 -0.063113436 0.13750063 -0.08678412 0.0036507577 0.07782273 -0.027748644 0.019813053
0.00301274 0.06745795 0.0755245 0.14552572 0.06703864 -0.09198146 -0.08472625 -0.07536208
0.022274528 -0.11883105 0.12244602 0.06299357 -0.009532072 -0.07865038 0.12863553 0.09912936
0.039693926 0.0054875547 0.11878521 0.019606717 0.081303425 0.09335614 0.0852001 -0.06031183
0.057920665 0.12986061 -0.085307494 0.035296604 0.010057662 0.003594688 0.05482628 0.007168595
0.108045064 0.06989488 -0.1336417 -0.043226168 -0.020907316 0.09921547 0.10387107 -0.020318097
0.11319982 0.030276584 0.029562876 0.08049569 -0.1451638 0.09924808 -0.067494325 -0.0012536739
-0.0956445 -0.16336805 -0.09536371 0.09680618 0.10016637 -0.0015154022 0.011816993 0.025695711
0.02345748 0.09249299 -0.09348393 0.07781913 0.18213013 -0.16830091 -0.009630452 0.07175789
0.16384499 -0.0658787 -0.050651178 -0.103945285 -0.093976945 0.1778003 -0.052641314 0.028472442
0.08412928 -0.021788796 0.121922225 -0.009162033 -0.10857059 -0.026601333 0.11231139 -0.03338879
-0.1503768 -0.1243877 -0.09966782 0.026458818 0.05655176 -0.13611677 0.061086338 -0.15119456
-0.15166408 0.059255697 -0.074320726 -0.15393642 -0.054281645 0.08464621 0.0097928 0.014665236
-0.08096016 0.06314831 0.021114029 0.027288955 -0.008322414 -0.0079662595 -0.14275791 0.14439653
-0.012014757 -0.12482769 0.03658655 0.008429426 -0.12340271 0.061891098 -0.12683111 0.03467115

bias_ih f4 [192]
00000000: 4138 8bbd d1b2 e83c ff45 e7bd b27b 973d
00000010: 3425 d53d eeae 0e3d 8c5f b73c c1e8 5e3d
00000020: 7c1c 213d 4091 ec3d 43d3 9fbc e642 b33d
00000030: 209f 393e 6834 793d f09e 153d dca1 ea3d
00000040: f82c e23d a39e b7bd 1377 393d 076b 083d
00000050: efe1 733d 0c6d 363d be18 073d 2514 19bd
00000060: f2cb 723d 77bf fe3d b71f 183d ac66 d33c
00000070: 59d2 9c3d bf38 603d 420b 233d c87d d13d
00000080: 856f 9dbd f7c0 143e ae13 083e ef3c ea3c
00000090: f9b7 f83a b53c 1f3e ddba 1f3e f0d0 303d
000000a0: 2a93 debc 3f10 9d3d 98f6 14bb 1d19 cd3d
000000b0: 5b13 cbbb 7ae2 e2bc 5012 81bd e9cc 69bd
000000c0: 8b39 863d 1752 413d 6ff0 6ebc 0130 99bc
000000d0: 31d4 0e3e fd6c 1f3e 488a 45bc f4d0 933c
000000e0: 2992 debd aa67 0cbd 75f5 02be 891b f63d
000000f0: 1df7 c73d a744 acbd 163f f6bc e8a1 94bd
00000100: 495f 1dbe 5c29 63be 07ab 1bbe 38d0 a0bc
00000110: 6679 8dbe 73f0 05be 7f2e 92bd 2512 8ebd
00000120: 0b13 f53d 6c1f 8cbe 16c1 2a3d 367f 16bd
00000130: 21ee febc cac7 fcbd ff0f 66be 8c71 b4bd
00000140: 460e 6dbe 9db1 58be 53dd e0bd 84cb 41be
00000150: 925f 42be a86d 82bd 44a1 a1bd f162 97bd
00000160: aaab a63d f0f9 52bd d1d6 46be b903 3fbe
00000170: cb2a c0bd f036 13bc 0b72 a0be b1aa e73d
00000180: c8ba b6bd bc00 e8bd 697b dcbd f3b2 f2bd
00000190: 31d4 98bd 8d2e b1bc 8b61 173d b80b 42bd
000001a0: c8cc 13be eb5f 27be ec66 f4bd 910b 64be
000001b0: efa4 58be 8d90 67be 3be2 afbd d96a 673d
000001c0: 4212 2dbe 04df b4bc 0244 9e3c 036a 90bd
000001d0: d38e 8abe 60eb 2bbc 9255 11bd 01d9 d3bd
000001e0: e813 78be 4314 94be 825a 44be bfa7 893b
000001f0: bd36 a1be 209b 56be ab32 87bd b8f5 9dbd
00000200: e985 0abe 7745 e5bc c46f de3d ae93 81bd
00000210: 687a c23c d3ec c33b 1bbb 6d3d 8f9e f13c
00000220: 0353 c23d 07ea a6bd ed05 53bd 5eb7 853d
00000230: 0555 2e3e 05e8 12bd a290 9e3d 1b4d 04bd
00000240: 3894 6ebd 08d5 ebbd 2394 553e a0a6 cabc
00000250: fbfe d7bd 10c7 7d3e 1416 95bd ccc1 abbd
00000260: 5a70 e3bd 3740 86bd f090 8f3c 34e1 eabb
00000270: ebad 8ebd c374 a9bd cf8a f6bc fa97 90bd
00000280: 7d9b f6bd 3114 b0bc ff3b dbbd 72bd 173d
00000290: b90f b53d 177f 0ebe ebf8 f73d 6c2e 213c
000002a0: 2a1c ad3d f332 e6bd 7c83 c23d 5a9b ea3c
000002b0: e1cf c23c 79be 8cbd deff 9a3c 4fe1 ca3d
000002c0: da02 12be f84f d2bd cd8a f03d 2b55 05be
000002d0: fc31 473c 34cc 423e c8c1 6bbd 5f07 a3bd
000002e0: 13a2 913d 281b 71bd 926f d03d 4632 9e3d
000002f0: fe13 c03d ab33 46bd d7de 8abc 9cf9 eabd
-0.06797839 0.028405579 -0.112926476 0.0739664 0.104074866 0.034834795 0.022384427 0.05442119
0.039333805 0.11551142 -0.019509917 0.08752994 0.18127108 0.060840994 0.036528528 0.114566535
0.11043733 -0.089658044 0.045279574 0.033305194 0.05954164 0.04453759 0.03298258 -0.037372727
0.05927653 0.12438863 0.03713962 0.025805794 0.07657308 0.054741617 0.03980566 0.10229069
-0.07687286 0.14526735 0.13288757 0.028593509 0.0018975727 0.15550502 0.15598626 0.04316801
-0.027169783 0.07669114 -0.002272999 0.100145556 -0.0061973757 -0.027695883 -0.06302321 -0.057080183
0.06553944 0.047197428 -0.014583691 -0.018699648 0.13948132 0.1556892 -0.012056895 0.018043973
-0.108677216 -0.03427855 -0.12788947 0.12016971 0.0976393 -0.08411532 -0.030059379 -0.07257444
-0.1536838 -0.22183746 -0.1520196 -0.019630536 -0.27631682 -0.13080005 -0.07137775 -0.069370545
0.11966523 -0.27367723 0.041688047 -0.03674241 -0.031119408 -0.12342794 -0.2246704 -0.0881072
-0.23149976 -0.21161504 -0.10979714 -0.18925291 -0.1898177 -0.063685715 -0.07892087 -0.073919185
0.08138211 -0.05150789 -0.19417883 -0.18653764 -0.09383162 -0.008985266 -0.31337008 0.11311854
-0.089223444 -0.11328265 -0.10765726 -0.11850538 -0.07462347 -0.021628642 0.03695826 -0.047374457
-0.14433587 -0.16345184 -0.11933693 -0.22270037 -0.21156667 -0.22613735 -0.08588072 0.056498382
-0.16901496 -0.022078998 0.019319538 -0.0705147 -0.2706209 -0.0104931295 -0.035481997 -0.103441246
-0.24226344 -0.28921708 -0.19175151 0.004200905 -0.31487074 -0.20957613 -0.06601461 -0.07712883
-0.13527645 -0.027987225 0.10861161 -0.06326996 0.023740008 0.0059791594 0.058039766 0.029494552
0.094884895 -0.08150106 -0.051519323 0.06529115 0.1702462 -0.035865802 0.0774243 -0.032300096
-0.05824682 -0.11515242 0.20857291 -0.024737656 -0.105466805 0.24782968 -0.07279602 -0.08386573
-0.11105414 -0.06555217 0.017525166 -0.0071679596 -0.06966766 -0.08274224 -0.030095486 -0.07060237
-0.12041376 -0.021494003 -0.10704803 0.037045904 0.088408895 -0.13915668 0.12108024 0.009837728
0.084526375 -0.112401865 0.09497735 0.02863853 0.023780765 -0.06872267 0.018920835 0.099062555
-0.142589 -0.10269159 0.11745224 -0.1302077 0.012157913 0.1902321 -0.05755785 -0.0796039
0.07110991 -0.05886379 0.1017753 0.07724433 0.09378813 -0.04838912 -0.016951961 -0.114733905

bias_hh f4 [192]
00000000: 37bd 30bd b514 143d be81 273d 10de 1e3e
00000010: fe2d 62bd a0f0 72bd fd7a 73bd fd9a e33d
00000020: 3dbd 783d 2190 8f3d 2da5 0d3e 0fba 83bc
00000030: 2ff2 813d 1b3a ac3d cd5e ac3d 7eef e2bb
00000040: c702 183b fbd0 e93d ea42 023e 9ad9 df3b
00000050: 888f 7a3d 5da7 1b3e 8263 10bc 98c4 af3d
00000060: f76c cc3d 1788 663d 898b ad3d 9556 b73d
00000070: edc4 2b3d d488 f73d 726b 633d 95fc 1e3d
00000080: 1291 1e3c 6fbf 06bc 5d54 cc3d f5ed b9bd
00000090: 69ad f33a 00b5 77bc 0987 fb3d 2a75 d93b
000000a0: 8568 2c3d b680 3c3e 2921 8d3c 3922 03be
000000b0: 56b7 1e3e 0656 10be 14ea 5abb 266f f23d
000000c0: a340 3fbc 63f9 b8bd 3933 163e acb4 76bd
000000d0: 1de4 083e fa21 20bc d8bb e93c 4323 d93d
000000e0: d13b 8b3d 5699 babd 6069 dbbc 0931 b43d
000000f0: d51a 3fbd 0db8 82bd 5f5f 473d 9765 1abd
00000100: af62 1abe 9fdf 87be b6f0 bdbd b3c0 3fbe
00000110: 0247 2abe 53f8 60be 5fb3 7fbe b1d0 3cbe
00000120: fa80 913c a674 32be c5f0 2c3c 4f1a 88bd
00000130: 337c 91bd 6192 32be 2cf9 8bbe 8428 13be
00000140: af54 95be 3917 6abd 013b 75bd b436 d9bd
00000150: cae6 77be 4939 63be d8b6 e4bd b746 d8bd
00000160: 1fda 6ebc 8075 dfbd 7d36 08bd 56d5 85be
00000170: edcb 41be 7334 3b3d 85bc 7bbe 5953 db3d
00000180: 9e5b 7dbe 1141 54be 6ffb 07be 199a 85be
00000190: 4947 7fbe d3df fdbc 76f4 d23c 0457 6ebe
000001a0: eb65 64be 593c edbd ca1f bdbd 447b 1ebd
000001b0: 6659 d5bd 1434 08be 9a28 36be 0bb1 0abd
000001c0: d427 0f3b 0e88 6bbe f5f9 08be 204d a0bd
000001d0: 7c90 3ebe b292 9bbd c35a eabc 7c43 593c
000001e0: 53c0 21be 28fe 67be 6ca5 65be 7150 1bbc
000001f0: a5d1 6cbe b945 51be f6a8 0dbd 6b21 7a3c
00000200: c2d3 acbd cbd4 9ebd df70 a6bd 21df c3bd
00000210: 1cec 2f3d 8747 013d 616a 0ebe 0475 d0bd
00000220: 4a9a 053e d885 cc3d d92e 23bd 151f 953c
00000230: 4337 083e ada9 1cbe dcf3 f0bc ddd4 cb3d
00000240: 422b dfbb bd5c f93b 92bf e13d d320 19be
00000250: 15d7 973d 3f5b 6b3d 7414 20be 537b d3bd
00000260: 1176 c9bd ca4f bbbd f837 03be 34ad ff3c
00000270: 423e 153e 4118 1bbe fe9a 3f3e 3269 aa3d
00000280: 630f 37be 8f20 dabd 7c8b 0b3e 7e3d 593d
00000290: 2969 90bb aa40 2bbe 0c74 713d 9532 5bbd
000002a0: 1709 f33d 3e23 f0bd 78e2 d83d 031c f63d
000002b0: 733f 183e 294a b43d 623c 1a3e 466d e03d
000002c0: 182b fdbb c873 b13b 50e8 d0bc 2d17 973c
000002d0: b022 a3bc 37e9 193e 396d 83bc b34a 983d
000002e0: fa67 133e 602f 053e ea84 953d d9e2 e0bd
000002f0: e121 90bd 17f6 a13c 436f 6c3d 4cec eabd
-0.0431492 0.03615256 0.040895216 0.15514398 -0.055219643 -0.05931151 -0.059443463 0.11113546
0.060727347 0.07009912 0.13832541 -0.01607993 0.06345021 0.0840952 0.08416519 -0.0069255223
0.0023195015 0.11416813 0.12720838 0.00683136 0.06117204 0.15200563 -0.008812787 0.08582419
0.09981721 0.05628213 0.0847388 0.08952061 0.04193585 0.12086645 0.05552239 0.0388151
0.009678142 -0.008224352 0.099770285 -0.0907859 0.0018591109 -0.015118837 0.12281615 0.0066362815
0.042091865 0.18408474 0.017227726 -0.12806024 0.15499625 -0.14095315 -0.0033403682 0.11837606
-0.011673125 -0.09031942 0.14667977 -0.060230896 0.13368268 -0.009773726 0.028531954 0.10602429
0.067985184 -0.09111278 -0.026783645 0.08798415 -0.04665645 -0.06382761 0.048674937 -0.03769454
-0.15076707 -0.26537797 -0.092744276 -0.18725853 -0.1662865 -0.21969728 -0.24970768 -0.18438984
0.017761696 -0.1742731 0.010555451 -0.06645643 -0.07103767 -0.17438652 -0.2733854 -0.14370924
-0.2916617 -0.057151053 -0.059870724 -0.10606137 -0.24209133 -0.22189821 -0.11167687 -0.10560363
-0.014578371 -0.10911083 -0.03325509 -0.26139325 -0.18925448 0.045704316 -0.24583633 0.10709257
-0.2474198 -0.20727946 -0.13279508 -0.2609413 -0.24929537 -0.030990517 0.025751334 -0.23275381
-0.22304504 -0.11583776 -0.09234579 -0.038691774 -0.10417442 -0.13301116 -0.17788926 -0.033860248
0.0021843808 -0.2300112 -0.13376601 -0.078272104 -0.18609804 -0.07596339 -0.028607732 0.013260718
-0.15796022 -0.22655547 -0.22426385 -0.009479628 -0.23126848 -0.20436753 -0.03458496 0.0152667565
-0.08438827 -0.07755431 -0.08126997 -0.09564043 0.04294978 0.031562354 -0.13907768 -0.10178569
0.13047138 0.09986466 -0.0398396 0.018203298 0.1330233 -0.15299101 -0.029413156 0.0995271
-0.0068105767 0.007609932 0.11022867 -0.14953928 0.074140705 0.057460066 -0.15632802 -0.103262566
-0.098369725 -0.09146078 -0.12814319 0.03121052 0.1457453 -0.15145971 0.18711469 0.08320846
-0.17876963 -0.10650741 0.13627428 0.05303716 -0.0044070673 -0.16723886 0.05894856 -0.053515036
0.11866968 -0.11725472 0.105900705 0.120170616 0.14867954 0.088032074 0.15062097 0.10958342
-0.0077260844 0.0054154135 -0.0255014 0.018443668 -0.019914001 0.1503037 -0.016043292 0.07436123
0.14395133 0.13006353 0.07300742 -0.10980768 -0.07037712 0.019770665 0.057723295 -0.11470851

weight f4 [3, 64]
00000000: 947b cdbd 9fe0 21be 901a a6be cfbf 4c3e
00000010: a7e5 733e 1049 1abd d587 2fbe 828f ec3c
00000020: 7442 10bd fc1e 483e 69ca 3cba 8b99 083e
00000030: 8a25 db3d f9a1 9cbd 37fc a13c 2963 90be
00000040: ab74 073e b1bb 4ebe daf9 be3d 9929 513d
00000050: 587f 0a3e ba83 fd3d 1ed8 1dbe 7645 083e
00000060: ae11 fc3d 45e1 683e 1f68 003e 8674 90be
00000070: 539c 82be 4565 ce3c 1be2 073d c74d febc
00000080: 87ff 1abe b59c 33be 42bf e73d f6aa c9bd
00000090: f3bf 73be ad6c a13d f88a d93d ed37 4abe
000000a0: 1164 7cbe 3c02 5abd ce21 f23d f1ba 773d
000000b0: 13f4 acbe 46ed 543e 47ce fa3d d452 e4bd
000000c0: 7d44 acbd dafa 6a3e ecaf ba3c f09f 5dbe
000000d0: a312 633b 932c a83d d03a 5c3d 9499 383c
000000e0: 9257 133e ed83 f73d 2bc1 88bd ae86 e3bd
000000f0: 9c73 17bd 76cd ab3c 1229 89bd 7ef0 bdbd
00000100: 50c0 17be 8d37 04be 90d5 993e 0c93 16be
00000110: 619f 573c b68c 83be f522 5cbb 4b60 3dbe
00000120: f3f7 b9bd 8e7c 3c3e 440f 433d 5604 b13d
00000130: d509 f63d e51f 69be 7849 753e fd22 6c3d
00000140: 1f85 eb3d 4f10 8e3e 9e44 583b ab3f 2e3e
00000150: 095a 633e a200 533d b364 48bc c669 06be
00000160: b67d d63a bad8 02be 2c3c dfbd ee7f 1fbe
00000170: aa49 53bc 8cf5 c43d bd7f 183e 4514 bcbd
00000180: fe96 d33d 682d 00be 60c7 4c3e 6055 3e3e
00000190: 1262 94bd 9d49 223d 94e3 4fbc 40d3 cdbd
000001a0: cee3 b83c c9c2 b43b 59a1 23be ca73 0dbe
000001b0: 95e1 553e 2a3f de3c 0846 8dbe c6ef b93d
000001c0: a45f 4ebd 128a 45be cacf e8bd a7bd cdbd
000001d0: bea1 35be 3896 debc 6a3a 05be 4e22 173e
000001e0: 0188 cc3d 61e9 88be 9b9a 2fbe 8821 a53d
000001f0: 6d2b 88be 40ca 473e 8f00 4f3e 2a60 f73d
00000200: ee45 ec3d eb2c 6a3e 3a17 663d e2b6 a3be
00000210: 7725 54be 91cc 8c3e 4a03 583e e530 4c3e
00000220: 71c0 4f3d d732 a3be 83f2 6f3d 6cde fbbd
00000230: 1770 28bb 61db 3a3e 3cb4 92be 6228 863e
00000240: 088f a9be 5449 09bd 69b1 f5bc ad7d d5bd
00000250: f49e 99be 91d9 0cbc 18fe 873e 0c5c 913d
00000260: b485 fd3c 6e53 463e e463 47be 7022 7e3e
00000270: 60c3 543e 33b8 3e3d 4e96 62be f24b 783d
00000280: 43e9 4dbe 4b23 993e df39 30be 2dc3 b4bd
00000290: b8fe c83e 5da4 85bd 9436 0cbe 8430 a33e
000002a0: 1707 1f3e 6847 24bc 5147 fbbd 9c10 8e3e
000002b0: bd3a 7a3e 6702 b9be cbe7 aa3d cc73 0f3d
000002c0: 2485 edbd 689a 243d 1fc3 a5bd 9ca7 b83e
000002d0: c1a1 0f3e 0d2f 5c3d a5d2 883e d426 20be
000002e0: fe5c 8bbe 2789 893e 445e 933e be22 8d3c
000002f0: cf65 ba3e b36f 87be 66e9 46be 7bdb 433c
-0.10033336 -0.15808342 -0.3244214 0.19995044 0.23818074 -0.037667334 -0.1714166 0.028877024
-0.035219625 0.1954307 -0.00072017923 0.13339822 0.107005194 -0.07648081 0.019773586 -0.28200653
0.13228099 -0.20188786 0.09324999 0.05106506 0.1352514 0.123786405 -0.15414473 0.13307747
0.1230806 0.22742184 0.12539719 -0.282139 -0.2550989 0.025194773 0.033174615 -0.031042947
-0.15136538 -0.17540248 0.113157764 -0.09847061 -0.23803692 0.078820564 0.10622209 -0.19747896
-0.24647547 -0.053224787 0.11822854 0.060481016 -0.33779964 0.20793638 0.122463755 -0.11148611
-0.084115006 0.22947255 0.022788964 -0.21643043 0.003464856 0.08211627 0.053767025 0.011267085
0.14388874 0.1208571 -0.06677469 -0.111096725 -0.036975488 0.020971995 -0.06697287 -0.09274386
-0.14819455 -0.12911816 0.30045748 -0.14704531 0.0131605575 -0.2569329 -0.0033590172 -0.18493764
-0.09080496 0.18406889 0.04762198 0.08643405 0.12013594 -0.22766073 0.23953807 0.057650555
0.115 0.27746817 0.0032999883 0.17016475 0.22202314 0.051514275 -0.01223104 -0.13126287
0.0016364369 -0.12777987 -0.10900149 -0.15576145 -0.012895981 0.09617147 0.14892478 -0.091835536
0.10331534 -0.12517321 0.1999793 0.18587255 -0.07245268 0.039620984 -0.012688536 -0.10050058
0.022569563 0.0055163843 -0.15979518 -0.13813701 0.20886834 0.027129728 -0.27592492 0.09078936
-0.05038418 -0.19290951 -0.113677576 -0.10045939 -0.17737481 -0.02717124 -0.13010564 0.1475918
0.09986878 -0.26740554 -0.17148821 0.08063036 -0.2659563 0.19510746 0.20215057 0.12078889
0.115367755 0.22868697 0.056174494 -0.31975466 -0.20717417 0.27499822 0.21095005 0.19940527
0.050720636 -0.31874725 0.058580887 -0.12298283 -0.0025701576 0.18247749 -0.28653133 0.26202685
-0.33116937 -0.033517197 -0.029991822 -0.104243614 -0.30004084 -0.008596794 0.26561046 0.07097635
0.030947544 0.19367763 -0.19471699 0.24817824 0.20777655 0.046562385 -0.22127649 0.060619302
-0.20108514 0.2990974 -0.17209576 -0.08826289 0.39256835 -0.065254904 -0.13692695 0.31872952
0.15530048 -0.01002679 -0.12269462 0.27747047 0.2443647 -0.36134645 0.08344992 0.035022542
-0.1159766 0.040186316 -0.08093857 0.36065376 0.14026548 0.05375581 0.2672321 -0.15639812
-0.27219385 0.2686245 0.28782856 0.01722848 0.364058 -0.26452407 -0.19424972 0.011954184

bias f4 [3]
00000000: def8 7ebd be97 bc3c 3fdf f5bd
-0.062249057 0.023021575 -0.120054714

welford_state_mean f4 [7]
00000000: 3537 c43e 1f4b 993e 5326 c13e 2f37 443c
00000010: fe44 753d 0000 0000 7715 3e3e
0.3832337 0.29940125 0.37724552 0.011976047 0.05988025 0.0 0.18562876

welford_state_mean_diff f4 [7]
00000000: 2954 1d42 477f 0d42 8a4f 1c42 1b98 3d40
00000010: a2ca 2441 0000 803f 7e7a cd41
39.332188 35.374294 39.077675 2.9624088 10.299471 1.0 25.68481

hidden f4 [6, 64]
00000000: a048 2ebf 7535 60be 589a 8d3e 867d 1bbf
00000010: 88c1 c2be 8075 d43e 0e33 28be 9ac0 893a
00000020: a7d6 533f 4d87 8abe 597d 3bbf df25 233f
00000030: 20e7 513f b1d6 a43d f014 39bf 92d2 fb3e
00000040: 3956 ccbe a4e9 d0be dff9 5c3f b22b 63bf
00000050: bad5 b8be a2b0 7d3f fcba 7ebd b1fc 2fbe
00000060: 6b05 76bf 9a67 0d3f faf9 11bf c140 113f
00000070: 2a89 243f e05e 47bf 1b20 1ebe 9d43 4dbd
00000080: bf5a 66bf 11bb 59be f6b9 9bbe b9f9 9abe
00000090: a9d1 693e 4707 5bbf f5f8 b53e f4ff f43d
000000a0: d8b4 1c3f 44af 6fbf 489e 1d3f 75b1 fe3e
000000b0: b05e 8d3e cf84 86be ba5f 443f f54c 563f
000000c0: 89b5 76bf 0ed7 bdbd 0263 313f 88ff 583e
000000d0: 67ce 9b3e 620c 6a3f 419c 8d3e 1943 e63d
000000e0: 86c7 69bd 1c7d 4e3f 1d35 083f 69f5 213e
000000f0: 69cc 243f 5516 11bf d328 aebe 86bb 36bf
00000100: d074 43bf 66b2 abbe 4a4a cc3e b8ce 31bf
00000110: c2d4 f93d d172 aa3d f47f e0be 2b1b 0abf
00000120: 208e 643f 69ed e03d 8157 54bf cb0e 453f
00000130: c0df 6d3f b371 4ebd 56d7 91be 5f0d 3b3e
00000140: e38c 36be 08a4 86be 240e 6e3f 1fbf 53bf
00000150: e909 ff3d e9bd 7c3f 38c6 0bbf 2c13 0bbf
00000160: d6fb 77bf e156 f43e e352 11bf e659 fd3d
00000170: 149d d73e 86b2 67bf 0937 343e 35c0 eebc
00000180: 2c19 46bf af9d c8be 2679 9d3e dc43 843c
00000190: 84f0 c63d 34dc 55bf 227a 293f 4f11 ebbd
000001a0: e8d8 3e3f 84a0 75bf f92e 453f 9dd0 3e3e
000001b0: 2bd2 8e3e eb41 d73d 705b 543f 42bc 1f3f
000001c0: 911b 78bf 2e1e 93be 61b8 5d3f c05c c53b
000001d0: 5940 99be 3305 713f a783 b7be 984b a03e
000001e0: fb58 7f3e 20cb 353f d8fc e83b d049 363e
000001f0: 3bee 903e c4b6 aebe 2a6e b33e 747b 49bf
00000200: ef74 43bf 7eb2 abbe 854a cc3e bbce 31bf
00000210: 3ad5 f93d a872 aa3d e37f e0be 3f1b 0abf
00000220: 708e 643f c6ee e03d 9357 54bf 000f 453f
00000230: c4df 6d3f 1c73 4ebd 59d7 91be a00d 3b3e
00000240: 2b8d 36be 25a4 86be 2e0e 6e3f 28bf 53bf
00000250: 8409 ff3d edbd 7c3f 48c6 0bbf 4013 0bbf
00000260: e1fb 77bf cb56 f43e dd52 11bf 385a fd3d
00000270: 369d d73e 98b2 67bf 5637 343e 37c4 eebc
00000280: 3819 46bf 8c9d c8be 9f79 9d3e 5d46 843c
00000290: 09f1 c63d 56dc 55bf 4e7a 293f 8f11 ebbd
000002a0: 08d9 3e3f 92a0 75bf ff2e 453f aed0 3e3e
000002b0: 65d2 8e3e 3442 d73d 725b 543f 63bc 1f3f
000002c0: 991b 78bf 831e 93be 78b8 5d3f 2856 c53b
000002d0: 6240 99be 3e05 713f ad83 b7be c24b a03e
000002e0: 4959 7f3e 33cb 353f 1ef4 e83b 874f 363e
000002f0: fbed 903e e3b6 aebe 2f6e b33e 727b 49bf
00000300: 6b4b 43bf 868d abbe 010e cc3e 2cbf 31bf
00000310: 281b f93d c84e aa3d d0a0 e0be 3b11 0abf
00000320: ad6d 633f b759 e03d a652 54bf dfe2 443f
00000330: a5e2 6d3f 5736 4cbd 3cdf 91be 08bf 3a3e
00000340: 0f58 36be 5672 86be c606 6e3f f8bc 53bf
00000350: e41f 003e 27ba 7c3f cfa6 0bbf 4924 0bbf
00000360: 2ef2 77bf 1461 f43e 794f 11bf 9b30 fd3d
00000370: fd6f d73e e79c 67bf a309 343e d4df ffbc
00000380: 9909 46bf ccbe c8be 2f40 9d3e dfe5 813c
00000390: 6091 c63d 9cbd 55bf c067 293f 559d ebbd
000003a0: efbc 3e3f 9c95 75bf ac39 453f d5d0 3e3e
000003b0: 80ea 8e3e b8b9 d63d 5d52 543f 2adc 1f3f
000003c0: 0612 78bf 30ef 92be fb9a 5d3f 24b2 c43b
000003d0: 9e20 99be c6fb 703f d3ad b7be 2347 a03e
000003e0: c8cd 7e3e 87d0 353f 7608 f53b 0af2 303e
000003f0: 0a4c 913e c5b1 aebe 6b9f b33e 817b 49bf
-0.68079567 -0.21895392 0.27656817 -0.6073841 -0.38038278 0.41495895 -0.16425726 0.001050967
0.8274941 -0.2705635 -0.7323814 0.6372966 0.81993294 0.08048762 -0.72297573 0.4918409
-0.39909533 -0.40803254 0.86318773 -0.8873855 -0.3610056 0.99097645 -0.06219004 -0.17186238
-0.9610202 0.5523621 -0.5702206 0.5673943 0.64271796 -0.7787914 -0.15441935 -0.05011331
-0.8998222 -0.21262766 -0.30415314 -0.30268648 0.22833885 -0.8555798 0.35541502 0.11962882
0.61213446 -0.9362681 0.61569643 0.49744764 0.27611303 -0.262732 0.7670857 0.8371118
-0.9637075 -0.09269534 0.692917 0.21191227 0.3043091 0.91425145 0.27658275 0.112432666
-0.057075046 0.8065965 0.53206044 0.15816273 0.64374405 -0.566747 -0.3401552 -0.7137989
-0.76350117 -0.33534545 0.39900428 -0.6945605 0.121987835 0.08322681 -0.4384762 -0.53947705
0.89279366 0.109827824 -0.8294602 0.769757 0.9291954 -0.0504014 -0.284846 0.1826682
-0.17827182 -0.2629702 0.92990327 -0.827135 0.12453062 0.9872728 -0.5459933 -0.5432613
-0.96868646 0.47722533 -0.567671 0.123706624 0.4211203 -0.9050678 0.17599119 -0.029144386
-0.7738216 -0.39182803 0.3075649 0.01614564 0.097138435 -0.8353913 0.66201985 -0.11477911
0.7454972 -0.9594805 0.770248 0.18634267 0.2789472 0.1051062 0.8295202 0.62396634
-0.96917063 -0.28733963 0.86609465 0.0060230196 -0.29931906 0.9414856 -0.3584263 0.31307673
0.24936287 0.7101307 0.0071102194 0.17801595 0.28306755 -0.34123814 0.35044986 -0.78704
-0.763503 -0.33534616 0.39900604 -0.6945607 0.12198873 0.0832265 -0.4384757 -0.53947824
0.8927984 0.109830424 -0.8294613 0.76976013 0.92919564 -0.050402746 -0.2848461 0.18266916
-0.17827289 -0.26297107 0.92990386 -0.82713556 0.12452987 0.98727304 -0.5459943 -0.5432625
-0.9686871 0.47722468 -0.56767064 0.123707235 0.4211213 -0.9050689 0.17599234 -0.029146297
-0.7738223 -0.391827 0.30756852 0.016146833 0.097139426 -0.8353933 0.6620225 -0.114779584
0.74549913 -0.95948136 0.77024835 0.18634292 0.27894893 0.10510674 0.82952034 0.6239683
-0.9691711 -0.28734216 0.866096 0.0060222335 -0.29931933 0.94148624 -0.35842648 0.313078
0.24936403 0.7101318 0.007109179 0.17803775 0.28306565 -0.34123906 0.35045 -0.7870399
-0.76286954 -0.3350641 0.39854434 -0.6943233 0.12163383 0.083158076 -0.4387269 -0.5393254
0.88839227 0.10954612 -0.8293861 0.7690868 0.9292396 -0.04985651 -0.28490627 0.18236935
-0.17807029 -0.26259106 0.92979085 -0.8271022 0.12512165 0.98721546 -0.54551405 -0.5435224
-0.9685391 0.47730315 -0.5676189 0.123627864 0.42077628 -0.9047379 0.17581801 -0.03123466
-0.77358395 -0.39208066 0.3071303 0.015856681 0.09695697 -0.83492446 0.66173935 -0.11504618
0.7450704 -0.9593141 0.77041125 0.1863435 0.27913284 0.10484642 0.82938176 0.6244532
-0.969025 -0.2869811 0.86564606 0.0060026813 -0.29907697 0.94134176 -0.35874805 0.31304273
0.24883187 0.7102131 0.0074778153 0.1727983 0.28378326 -0.34120002 0.35082564 -0.78704077
