minigrid/r2l/MiniGrid-PutNearTwoRoomR2L-v0_with_library/MiniGrid-PutNearTwoRoomR2L-v0_seed_107_length_100.pt (torch, 68446 bytes, 9 tensors)

weight_ih f4 [192, 11]
000000 8a d7 19 3d fd 90 56 3d e7 79 88 bd e8 b8 6b bd
       0.03755907 0.052384365 -0.06663876 -0.057549387
000010 e4 ca 89 bd 58 6a ae 3c 88 b6 2b 3d 21 10 27 bd
       -0.067281514 0.021290943 0.041922122 -0.040786866
000020 2d 91 06 bd 29 7c 19 3d 78 be ec bd cb c7 9c bc
       -0.032853294 0.037471924 -0.115597665 -0.019138237
000030 92 45 ff bc 24 d4 17 3d 54 d2 2c 3d c8 72 fa bd
       -0.031161103 0.037067547 0.042192772 -0.12228924
000040 60 5a df bb 5c f7 79 bd 5a 07 f3 3b 4c 26 c6 3d
       -0.0068161935 -0.061026916 0.007416648 0.09675273
000050 f5 23 8a 3c 13 b5 05 3d 7f ea 6b 3d bd c2 d4 bd
       0.016862849 0.03264339 0.05759668 -0.10388706
000060 8a 46 43 bd 20 57 ff bd a8 d9 b8 3c 4a 3b fd bd
       -0.047674693 -0.1246779 0.022564724 -0.12364824
000070 7e b3 d9 3d c4 c5 e8 bd 44 88 d4 3c a7 8f 11 3a
       0.106299385 -0.11365846 0.025943883 0.0005552717
000080 8b 75 a9 bd e3 7b 6f 3d 8f db 23 3b 4e 78 86 bc
       -0.08274373 0.058467757 0.0025002693 -0.016414788
000090 0c c8 d7 3d 14 07 98 bd c2 0f ea bd 2a 8a a6 bd
       0.10536203 -0.07423225 -0.11428787 -0.081318215
0000a0 48 1a d2 3d d3 23 4d 3c 46 7c ff 3c 4e 60 54 3d
       0.10258919 0.012520748 0.031187188 0.051849656
0000b0 69 74 d1 3d ea 6d 08 bd 78 de c5 3d a8 d7 8f bc
       0.102272816 -0.033307947 0.09661573 -0.017558888
0000c0 48 50 82 3c 70 f0 33 bd 4a 69 cd bd 5d dc 5f bd
       0.015907422 -0.04393047 -0.10029848 -0.054653514
0000d0 01 20 36 bd e3 c3 4f bb 6a 43 eb bd 73 12 98 3d
       -0.044464115 -0.003170245 -0.114874676 0.07425394
0000e0 7d f6 e0 3d 3f 89 22 3c 98 b7 8d bc a2 2f b1 bd
       0.10984514 0.009920417 -0.017299458 -0.08651663
0000f0 0e 80 8e bd 4e 4a e1 bd fd 99 f1 3c 0f d2 48 3d
       -0.06958018 -0.110005006 0.029492373 0.049028452
000100 1d 8e c8 3d 72 09 c5 3d 13 28 bc bd f7 f6 6a bd
       0.09792731 0.09620942 -0.09187331 -0.05736443
000110 dd 8a 01 bc f6 44 8b bd 56 ad bf 3d 20 c8 e3 bb
       -0.007906643 -0.06800263 0.09359233 -0.006951347
000120 3c 0d b0 3d d5 04 28 bd 9d 43 7c bd fa 73 f2 3d
       0.08596274 -0.041020233 -0.06158792 0.11838527
000130 85 69 01 be 3e 72 12 3d 9f 22 27 3d 35 b8 e0 3d
       -0.12637909 0.03575348 0.0408045 0.10972635
000140 a6 45 97 3d 28 6f f1 3d 06 13 fc bd e2 48 e3 bd
       0.07386331 0.117887795 -0.12308316 -0.11097886
000150 a5 11 85 3c 6a f8 f8 bd f1 6d e7 bd 3b de ee 3d
       0.016243765 -0.12156756 -0.113002665 0.11663481
000160 ce 28 c9 38 44 68 9c bd 6a ce 70 3d 0c a3 46 bd
       9.592027e-05 -0.076370746 0.0587906 -0.048495337
000170 d8 0c e4 3c a8 90 bc 3d a0 76 c6 bb c3 09 05 3c
       0.027838156 0.092072785 -0.0060566217 0.008120003
000180 5f 45 76 bd 84 27 d3 3d 51 67 72 3d 7d c3 60 3d
       -0.06012475 0.103102714 0.05918056 0.054873932
000190 99 36 2e bd 98 65 87 3d d4 3f 4e 3d 8c aa 9b 3d
       -0.042532537 0.06611174 0.05035384 0.076008886
0001a0 68 cc 7a 3d cc c6 7c bd 00 ad b1 3d 8e 45 ea bd
       0.061230093 -0.061713025 0.08675575 -0.11439048
0001b0 9d 9f 47 bc fd 0c b2 3d 5d cd 11 3d bb 23 1a 3d
       -0.012184051 0.086938836 0.03559624 0.03763173
0001c0 6c bd f6 3c 84 1c e3 3d 20 87 7c 3d 50 1c 8a bd
       0.03011962 0.11089423 0.061652303 -0.067436814
0001d0 7c 10 94 bd f5 21 94 3d 9f d2 fc 3d 21 e2 0b bd
       -0.07229707 0.07233039 0.1234486 -0.0341512
0001e0 94 b4 89 bd b3 a5 de bd f3 d5 a9 3d 25 76 e9 bd
       -0.06723896 -0.10871448 0.08292761 -0.113994874
0001f0 a2 5f ea bd ec 9d 8c 3d 88 af 08 bd 48 e2 fb 3d
       -0.11444022 0.06866059 -0.033370525 0.12299019
000200 a6 a9 fa bd 5e d0 91 3d af 1c d5 bc 7c 24 f4 bd
       -0.12239389 0.07119821 -0.026014654 -0.11921021
000210 2f b1 64 3b 85 a6 c6 3c 37 24 25 bc 74 96 16 bd
       0.0034895649 0.024249325 -0.010079435 -0.036764577
000220 20 3b b9 3d a0 52 37 bc 94 43 d2 3d b6 96 26 bd
       0.0904448 -0.011189133 0.10266796 -0.040671073
000230 be 7b 00 3d 6a b1 60 bd a7 9d d9 3d db c5 65 bd
       0.03136801 -0.054856695 0.10625773 -0.056096893
000240 1f e5 79 bc d2 aa fa bd 36 dd e4 3d 10 bb e9 3c
       -0.015252381 -0.12239613 0.11175005 0.028531581
000250 ce 73 ce bd 4c 6c bb bd e7 d7 7e bd c4 44 bd 3d
       -0.10080682 -0.09151515 -0.06221762 0.092416316
000260 f9 8c a9 bd 0d 0d 59 bd 94 82 ad bc 69 d8 49 3d
       -0.082788415 -0.05299096 -0.021180429 0.04927865
000270 30 53 f0 bd 50 10 02 3c f0 2b 35 bd 74 e9 88 bd
       -0.11734617 0.0079384595 -0.044231355 -0.06685153
000280 20 37 6c bc d2 4e 37 3b 7a 76 81 3d f3 82 e5 bd
       -0.01441744 0.0027970565 0.06321426 -0.11206617
000290 9d 40 a2 3d 55 8d 3b bd 19 84 a8 bd 92 ae ba 3c
       0.0792248 -0.04578908 -0.08228321 0.02278832
0002a0 e0 45 f3 3c 84 7c f8 bd e8 46 80 bc 6c e2 2c bd
       0.029696405 -0.121331245 -0.01565881 -0.04220812
0002b0 50 75 b6 bc dc fd 4a 3d d2 2d 9f 3d 19 ff dd 3c
       -0.022272736 0.049558505 0.077724114 0.02709918
0002c0 3c a7 de 3d b9 f2 7c 3d 09 8c 80 bd 82 f3 bc 3d
       0.10871741 0.061754916 -0.062767096 0.09226133
0002d0 ce 17 96 bd 98 6e 81 3c d2 24 f3 bd 26 3e 37 bc
       -0.07328759 0.015799806 -0.11872257 -0.011184251
0002e0 f6 99 a7 bd 5d 00 ee bd b8 40 a7 ba c4 ad ca bd
       -0.081836626 -0.11621163 -0.0012760377 -0.098964244
0002f0 2d a1 d1 3d 4a f2 c2 bd cc ea e8 3d 38 39 bf bc
       0.1023582 -0.09518869 0.11372909 -0.023342714
000300 98 f3 ce bc 2c 13 ef 3d f0 48 a3 3d d2 63 f6 bd
       -0.025262639 0.116735786 0.07972896 -0.12030758
000310 43 84 86 bd a4 02 87 3d 22 77 ab bd 2f 5f ec 3c
       -0.06568196 0.065923005 -0.08372332 0.02885398
000320 d7 4b 38 3d 44 ac 28 3d 2e e1 bb bd 70 e5 d4 3d
       0.0449942 0.04117991 -0.09173809 0.10395324
000330 6c cb 60 3d dd a9 08 3d 6d d7 46 3d 16 7a 9e bc
       0.0548815 0.03336512 0.04854529 -0.019345324
000340 c6 6b fb bd 8a 78 c9 3d 9f a4 9c bd 90 75 b0 bd
       -0.122764155 0.09837444 -0.076485865 -0.08616173
000350 68 ee e3 bc 9a d3 91 bd 90 ed 06 3c e4 1f 0d bd
       -0.027823642 -0.07120438 0.00823535 -0.03445424
000360 a2 fa a5 3b 80 04 5b 3c d6 c0 a2 3c a2 d4 d9 3d
       0.005065278 0.013367772 0.019867342 0.106362596
000370 9f 93 df 3b 29 e9 88 bd 62 fd 50 bc 32 6f e3 3d
       0.0068230177 -0.06685097 -0.012755724 0.11105193
000380 08 f9 e5 bd 70 15 81 3d ea a5 9f 3d 8d b7 fa 3d
       -0.112291396 0.06302917 0.077953175 0.12242041
000390 37 c3 c2 3d 73 28 ce 3d 53 45 8f bd 58 bc 7c 3d
       0.095098905 0.10066309 -0.069956444 0.061703056
0003a0 23 7f a3 3d cd 57 5e 3c 9c 09 e4 bd 90 24 06 3d
       0.07983234 0.013570738 -0.11134645 0.032749712
0003b0 92 9f d5 3d 34 df 15 bd 53 b6 d3 3d ea de fb 3c
       0.10430826 -0.036589816 0.1033751 0.030745942
0003c0 4f 50 91 bd 37 d6 63 bd c2 53 93 3d 0d 94 ee bb
       -0.07095396 -0.055624213 0.0719371 -0.0072808326
0003d0 b6 79 84 3d be 06 9e bd 10 90 f6 3d 30 21 4b bc
       0.06468527 -0.0771613 0.120391965 -0.012398049
0003e0 f0 a3 bd bd a4 5a cd 3d f4 8d 47 3d a3 ec dc 3c
       -0.09259784 0.10027054 0.04871936 0.026968306
0003f0 c2 09 85 3d 13 bd cd bd cb 0d ab bd 96 46 ab 3c
       0.06496002 -0.10045829 -0.0835224 0.020907681

weight_hh f4 [192, 64]
000000 c1 01 d9 bd 7e 81 38 bc bc 7c 94 bd ab 28 98 bd
       -0.10596038 -0.011261342 -0.07250354 -0.07429632
000010 98 ac fb 3d b5 61 c0 3d ba 3a 75 3c 30 da 89 3d
       0.12288779 0.09393636 0.014967615 0.06731069
000020 4e a2 f4 3d e2 40 e9 bd 41 00 91 3d 54 6f 47 3d
       0.1194502 -0.113893285 0.070801266 0.048690155
000030 05 91 75 3d 36 bc 41 3d 63 ad ce bc 07 f7 8f bd
       0.059952755 0.047298633 -0.025229162 -0.070295386
000040 c6 33 7b bd 32 6c db 3c eb bf a1 bc 55 d2 9a 3d
       -0.061328672 0.02678499 -0.019744834 0.07559649
000050 53 5c 80 bd 4c 80 2f 3c e5 b8 8b bd 7e 1d 8b bd
       -0.062676094 0.010711741 -0.06822375 -0.067927346
000060 80 3d 89 bc 93 e7 8a 3d 61 ad 2c 3d 3d 27 92 bd
       -0.016752958 0.067824505 0.042157535 -0.0713639
000070 3d ec 35 bd 37 5d d8 bd 82 cd d0 3d 79 26 a1 bd
       -0.044414748 -0.10564654 0.101954475 -0.07868666
000080 af 4e 8a bd 1b 73 2f 3c a0 4c e8 3c 2f 7f a9 3d
       -0.06753289 0.010708596 0.02835685 0.082762115
000090 a3 12 b3 3d 53 dc af bd 79 6a 2b bd 4f 49 36 3d
       0.08743789 -0.085869454 -0.041849587 0.044503506
0000a0 2d 86 aa bd 04 14 44 bd 07 4d 5a bd 9d dc fb 3c
       -0.08326373 -0.04787065 -0.053296115 0.030744845
0000b0 a4 c8 e4 bd b1 d0 a0 bd f7 1c 91 3d 86 81 89 3d
       -0.11171082 -0.07852305 0.07085603 0.06714158
0000c0 10 9d 38 bc 8d 84 9c 3d 82 da be 3d 8c bc 57 bd
       -0.011267915 0.076424696 0.09319021 -0.052670047
0000d0 85 9b f9 bd 01 aa f0 bd 3b 17 00 bd 16 dd 44 bc
       -0.12187866 -0.11751176 -0.031272154 -0.012015602
0000e0 77 d5 68 bc d5 88 98 bc 6c 03 b8 bc fc e1 60 3d
       -0.01421105 -0.018619934 -0.02246257 0.054903015
0000f0 9b a3 39 bd 24 5b b5 3d 4a 71 e4 3c 45 40 ab 3d
       -0.045322042 0.08855274 0.027886052 0.08361868
000100 6a 47 a8 3b 51 89 77 bd 2b 4a c1 bd 1c 99 9e bd
       0.0051354663 -0.06043369 -0.094379745 -0.07744047
000110 e7 77 cc bd df 45 b1 3d e2 c7 d3 3d 26 79 c4 bd
       -0.09983807 0.08655905 0.10340859 -0.0959342
000120 c3 ac c3 bd 95 3c 84 3d 0b f3 9d 3d 58 a5 07 3d
       -0.09554436 0.064568676 0.077123724 0.03311667
000130 42 4e 94 bd 1f 69 2f 3d e5 8f 2a 3d 66 0e 10 bd
       -0.07241489 0.04282486 0.041641135 -0.03516998
000140 f8 20 a1 3a c4 60 c3 3d 32 d1 8c 3c a0 23 c1 bd
       0.0012293151 0.09539941 0.017189596 -0.09430623
000150 0e 29 82 bd aa 46 d2 3d 7a be 99 bd 61 58 e7 3d
       -0.06355487 0.10267384 -0.07507034 0.11296154
000160 7f d4 36 bc 5f c3 e2 bd d5 2b 94 bd 1b 46 f5 bd
       -0.011159061 -0.1107242 -0.07234923 -0.11976262
000170 e8 56 9d 3c 9e a3 b4 3d 2c cd 02 bd 92 09 f3 bc
       0.01920648 0.0882027 -0.03193395 -0.02966765
000180 dc 4c 93 bd 4c ec 82 3c 9a f2 5b bd a5 57 66 bd
       -0.07192394 0.015981816 -0.05369816 -0.056235928
000190 69 d2 99 3d c3 51 37 3d d0 3b f6 bd d3 ed 97 3d
       0.07510836 0.04475571 -0.12023127 0.07418408
0001a0 78 7c d4 bb 58 86 d1 3d 07 d2 53 3d a0 c4 54 bd
       -0.0064845644 0.10230702 0.05171397 -0.05194533
0001b0 b6 c4 9b bd 36 af 10 3d 58 13 e9 3d 63 f8 6b bd
       -0.07605879 0.035323344 0.11380643 -0.057609927
0001c0 90 72 3d bc 94 bf bb 3d 15 e3 9d bc 45 22 82 3d
       -0.011562958 0.091674 -0.01927332 0.06354193
0001d0 25 d0 29 bd 79 84 94 bd 6e 1c 4a bd 97 ca 79 bd
       -0.041458268 -0.0725183 -0.04934352 -0.06098422
0001e0 99 e5 e8 3d 80 1a 67 bd 65 fe 75 bd 75 3b 87 bd
       0.11371917 -0.056421757 -0.060057063 -0.066031374
0001f0 7d 4a 00 3e e1 aa 01 3c 7b d4 e6 bc 86 b3 61 3d
       0.12528415 0.007914276 -0.02817749 0.055102848
000200 78 39 eb 3d d8 a3 51 3d 4f 78 05 bd 03 4d e0 bd
       0.11485571 0.051181644 -0.03258544 -0.10952189
000210 9a 94 b9 bd 19 23 71 3d 2b 3d 39 3c cf 49 22 bd
       -0.090615466 0.058871362 0.0113060875 -0.03962117
000220 e4 6e 30 3d 88 13 96 bd 10 cb 48 3d 9f d8 b5 bd
       0.043074504 -0.07327944 0.04902178 -0.08879208
000230 1b 11 e5 bd 62 c8 19 3d 1b 1b a5 3b 01 4e 68 bd
       -0.11184903 0.037544616 0.0050386316 -0.056715015
000240 01 fa 6e bd 10 b4 d6 3d d7 2d 15 3d 4a a6 ad bd
       -0.05834389 0.10483563 0.03642067 -0.08478983
000250 18 7c 15 bc 9f 30 5e 3d b9 28 e0 bd 8e 06 86 3c
       -0.009123825 0.054245587 -0.10945267 0.016360547
000260 18 99 b9 bd 42 41 b4 3c 14 ed cc 3c ed 68 a0 3a
       -0.090624034 0.022003774 0.025015391 0.0012238302
000270 b1 84 01 3c 36 c5 a6 bd 43 4a c9 bd 6c d3 ef bc
       0.007905171 -0.08143084 -0.098286174 -0.029275618
000280 fe be bf bd 49 6f 1c bd 3b 06 81 3d 3c 06 b0 bd
       -0.09362601 -0.038192067 0.063000165 -0.08594939
000290 c4 c8 74 bd 02 5b f6 bc 03 b3 80 3d 7e d3 52 3d
       -0.059761778 -0.030072693 0.06284144 0.051471226
0002a0 83 ee c6 3d 47 87 98 3d d6 e9 e5 3d b4 8b db 3c
       0.09713461 0.07447677 0.11226241 0.026800014
0002b0 78 cf 21 3d 13 12 b3 3d b9 08 b5 bd eb 7c aa bc
       0.0395045 0.08743682 -0.08839554 -0.020811519
0002c0 21 c2 c6 bd 86 93 c3 bd 66 9b 02 bd 06 9f ab 3d
       -0.09704996 -0.09549622 -0.03188648 0.08379941
0002d0 6f ec c1 3d 08 fd 9e bd 85 6b 51 bd 4a 7d 0b bd
       0.09468924 -0.07763106 -0.05112793 -0.03405503
0002e0 12 42 d0 3d 9b bf 7f 3d e2 59 87 bd d7 7e ce 3c
       0.10168852 0.06243859 -0.06608941 0.025206966
0002f0 63 eb bb bd 84 d7 e6 bc 3d 68 bd 3c b6 c3 f1 bd
       -0.09175756 -0.028178938 0.023120994 -0.11804907
000300 6f 89 74 bd 3c c0 ee 3d 0a 7d b7 bd c9 d2 9f bd
       -0.05970138 0.116577595 -0.08959396 -0.07803876
000310 a2 ad b4 bc 43 bd c4 bd 62 ff 62 bd 58 21 ea bd
       -0.02205545 -0.09606411 -0.055419333 -0.11432141
000320 8b 53 6d 3d 28 8d 6a 3c e6 b0 f9 bc 02 39 a1 bd
       0.057941 0.014315881 -0.03047986 -0.078722015
000330 83 68 21 bd f4 7e cf bd df 92 f7 bd 99 67 7e bb
       -0.03940631 -0.10131636 -0.1208856 -0.0038819073
000340 c7 2e 3d bd 69 0e e2 bc 0f ab 4a 3d 50 79 8e bd
       -0.04618719 -0.027594762 0.04947954 -0.06956732
000350 cc 58 e2 bb 19 3b 07 bd 04 06 29 3d 80 c5 2d bd
       -0.006907558 -0.033015344 0.041265503 -0.04242468
000360 fa 63 21 3d b6 30 ff 3d 65 28 a8 3d 3c 17 8c 3d
       0.039401986 0.12460463 0.0821083 0.06840369
000370 ad 92 6e bd 29 f9 64 bd a0 32 d0 3b e7 fb 61 3d
       -0.05824535 -0.05590168 0.006353691 0.055171873
000380 43 18 0c bd 03 a2 b2 bc 9d c8 b9 3d a8 05 9a 3c
       -0.034202825 -0.021805769 0.09071467 0.018801525
000390 10 c7 3c bc b6 91 b0 3c 16 6a a1 bd c9 83 bd 3d
       -0.01152207 0.021553855 -0.078815624 0.09253652
0003a0 e4 26 77 3d b3 22 d4 3d a1 a3 e2 bd c4 e1 25 bd
       0.060339823 0.10358181 -0.11066366 -0.04049851
0003b0 ab fb f7 3d 2a 30 b4 bd 28 0d 9b 3d 1d 91 a3 3d
       0.12108549 -0.08798249 0.07570869 0.079866625
0003c0 88 5b 9d bb 72 45 50 3d e1 40 17 bd e0 70 73 3d
       -0.004802171 0.05084748 -0.036927108 0.059433818
0003d0 5c eb 0e bb 93 40 70 bc a0 c4 b8 bd dc 0c d4 bd
       -0.0021807766 -0.014663833 -0.09021878 -0.10354015
0003e0 c0 63 bd bd 52 0c ee bc 82 fa 5b bd d3 ca b0 3d
       -0.092475414 -0.02905861 -0.0537057 0.08632436
0003f0 05 d6 fe bd 48 eb bc bd e3 a8 e7 bc da 6c 94 bc
       -0.12443165 -0.09224564 -0.028278774 -0.01811831

bias_ih f4 [192]
000000 3e c0 9a bc 9a 4a 8c bd 4c 21 30 3b 3c fe 06 bb
       -0.018890496 -0.068501666 0.0026875315 -0.0020598313
000010 81 5c 51 3d 10 3a dc bd e3 a2 cd bd 74 0b c6 3d
       0.05111361 -0.10753262 -0.10040834 0.09670153
000020 34 fe 7b bd 9b ba 40 3d 11 9b 6c bd 74 bc c5 bd
       -0.061521724 0.04705296 -0.05776507 -0.09655085
000030 3c 9a 85 3d 84 3b de bd 16 24 b0 bd 01 84 11 3d
       0.065235585 -0.108511955 -0.08600633 0.03552628
000040 09 7e 9d bc a0 8d 45 bd a9 88 9f 3c b6 06 87 3d
       -0.019225137 -0.048230767 0.019474344 0.06593077
000050 e4 b9 af bd de 9e b9 bd 74 b0 9a 3c d9 19 34 bc
       -0.08580378 -0.09063505 0.018882968 -0.010992491
000060 cf 0a 62 bd fb 46 e2 3d db f6 c6 3d 1d 82 72 3d
       -0.05518609 0.11048695 0.09715053 0.059206117
000070 e9 5d 2e bc 91 25 05 bd 4e 9c b9 bd 00 98 81 bd
       -0.010642507 -0.03250653 -0.09063016 -0.0632782
000080 67 28 9a bd 4d a7 b1 3d dd 74 98 3c 6f 3a 17 3c
       -0.075272374 0.08674488 0.018610412 0.00923024
000090 4d 95 db 3d ac 02 b3 bc ba 70 8d bc c7 17 fd 3d
       0.10721836 -0.02185186 -0.017265666 0.12358051
0000a0 c3 bf c3 3d 9c 72 8d 3c dc ef 82 3d 0b 4d 80 bd
       0.0955806 0.017266564 0.06393406 -0.06264695
0000b0 31 c1 21 3d 1a dc c7 bc 18 0f b9 3d cf e9 a5 3d
       0.039490882 -0.024396945 0.09036082 0.08101236
0000c0 c3 38 cb bc 44 45 5c bd 1d 77 f9 3d 38 dd 65 bc
       -0.02480734 -0.053776994 0.12180922 -0.014029793
0000d0 aa 67 bb 3d 6d 5e 26 3d a6 99 92 3c 7d e2 8c 3d
       0.09150632 0.040617395 0.01789553 0.06879137
0000e0 cd b4 e1 bd 62 d7 e6 3d 35 1d 01 bb a0 5c f8 bd
       -0.11020813 0.1127155 -0.0019701247 -0.12127042
0000f0 a3 de 48 3c 21 31 cf 3b db c5 f5 bd be 5f 96 3d
       0.012260112 0.0063229953 -0.120006286 0.0734248
000100 60 1b b2 3d c5 b1 d7 bd fb fe 76 bd 81 09 88 bd
       0.086966276 -0.10531954 -0.060301762 -0.06642438
000110 0e f1 0d 3d 83 fa 5e 3d b8 ce d5 bd 31 7d 80 3c
       0.034653716 0.054438125 -0.10439819 0.015684696
000120 ea aa f8 3d e1 64 85 3d ee 8b ef 3c e4 7b 0a bd
       0.12141974 0.06513382 0.029241528 -0.033809558
000130 9b 69 95 bd 42 4d e5 bd 9e 53 b1 bd 4a 22 28 3d
       -0.07295533 -0.111963764 -0.08658527 0.041048326
000140 07 bf 9e bc b0 32 ef bc a4 84 bf 3d 1d 8c 38 bd
       -0.019378198 -0.029198974 0.09351471 -0.045055497
000150 50 98 cf bd 18 74 8d 3d cb 7f 91 bd d1 51 bd 3d
       -0.10136473 0.06906909 -0.07104453 0.09244121
000160 a3 98 dc bd cf 92 01 be 74 19 55 3d d5 59 6c bd
       -0.10771301 -0.1265366 0.052026227 -0.057702858
000170 2d a6 8d bc 4f c9 c1 bc d3 ea d5 3d 3c 85 e0 3d
       -0.017291153 -0.023655562 0.1044518 0.109629124
000180 ab 14 9c bd cc 50 66 3d a9 b5 d5 bd 43 e1 60 3d
       -0.076211296 0.056229398 -0.104350396 0.054902326
000190 9a 87 bb 3d db d5 91 bc c3 e7 9c bd e3 ee 68 3c
       0.09156723 -0.01780217 -0.076613925 0.014217111
0001a0 87 fc 98 3d 3f b4 18 3d 40 0e f0 3d b2 1f e7 bc
       0.07470041 0.03728127 0.11721468 -0.028213356
0001b0 d9 45 83 bc b9 b9 9e bd 32 82 e0 bd 4e 81 ee 3c
       -0.016024517 -0.077502675 -0.10962333 0.029114392
0001c0 f6 bc e1 3d ec 76 6f 3d d9 f6 0d 3d 20 cc 91 bd
       0.110223696 0.058463022 0.03465924 -0.07119012
0001d0 81 da 92 bd dd d2 aa 3c 56 f7 da 3d 16 2e 68 bd
       -0.071705826 0.0208525 0.10691707 -0.056684576
0001e0 64 51 c8 bc 37 53 cf bd 3d 04 cc 3d fd a7 81 bd
       -0.024452873 -0.10123294 0.09961746 -0.06330869
0001f0 4c f9 59 3d 25 ac dd 3d d0 06 ac 3c 84 b8 c1 3d
       0.053216264 0.108238496 0.020999342 0.09459022
000200 e0 94 b1 bc 16 7d f0 bd b2 25 7e bd 1f 6c a8 bd
       -0.021677434 -0.11742608 -0.062047668 -0.082237475
000210 41 9e a8 3d 4d f5 bb bd af bd 3d 3c e4 52 87 bd
       0.082333095 -0.09177647 0.011580869 -0.06607607
000220 6c 73 1e bd a6 8e d9 bd 49 da d3 39 0c 61 f6 3d
       -0.038684294 -0.10622911 0.0004040769 0.12030229
000230 e9 91 ac bd 66 8a ec 3d 55 73 f1 3d f4 97 29 3d
       -0.08426268 0.11549835 0.11789576 0.04140468
000240 94 4f 9c bd f8 48 27 bd 41 63 89 3b ee 62 f2 3d
       -0.07632366 -0.040841073 0.00419274 0.118352756
000250 e2 93 d6 bd 4c 63 e1 bd 77 07 16 3d b6 8c f2 3d
       -0.10477425 -0.110052675 0.036628213 0.11843245
000260 90 d0 48 3d 65 ac eb 3d 72 fa b6 3d 5a 2e dd 3d
       0.049027026 0.11507491 0.089344874 0.107998565
000270 79 de e2 3d 48 4b f2 bd d1 2f ba 3d 24 f8 6b bd
       0.110775895 -0.11830765 0.090911515 -0.057609692
000280 7c ae b6 3d 0f 58 e0 3d f9 2e f7 bd 9a c3 d5 3c
       0.08919999 0.10954296 -0.12069506 0.026094247
000290 f5 a5 74 bd a3 1f ea 3d 90 2e f1 bd d1 b8 d9 bd
       -0.05972858 0.114318155 -0.11776459 -0.10630954
0002a0 c2 3c f4 bc 2a 59 c1 3d af 07 a7 bd 9d f9 bb 3d
       -0.029814128 0.09440835 -0.081557624 0.09178469
0002b0 60 29 e4 bc da 83 d2 3d 46 c7 8d 3d b8 df af 3c
       -0.02785176 0.10279055 0.06922774 0.021468982
0002c0 9d 12 9c 3d 4d 01 9d 3d f7 0a 8b bd 8f 4c 99 3d
       0.07620738 0.07666264 -0.06789201 0.074853055
0002d0 74 f5 f2 3d 9b 38 f4 3d de ec f6 3d 6f 2a 14 3d
       0.11863223 0.11924859 0.120568976 0.03617328
0002e0 88 d0 a7 3b 87 d5 44 3d 96 39 85 3c 14 fa 71 3d
       0.0051212944 0.048055198 0.01626281 0.059076384
0002f0 00 e0 8a bd e2 1f ac bd 94 db 20 3d 6c 56 98 3d
       -0.06781006 -0.08404519 0.039271906 0.07438359

bias_hh f4 [192]
000000 1b 5f 8b 3d 32 05 d0 3d 48 0c bc 3d 2b 37 f1 3d
       0.06805249 0.10157241 0.0918203 0.117781006
000010 4b 23 88 bd ac 05 bb 3d 37 18 57 bd f5 27 7d bd
       -0.066473566 0.09131941 -0.052513327 -0.061805684
000020 58 14 ac bc 21 66 5b bd 43 62 90 3d 04 d4 e2 bd
       -0.021005794 -0.053564195 0.07049992 -0.11075595
000030 ff a0 21 3d 0b 92 86 3c d1 1c 01 bc d7 02 22 bd
       0.03946018 0.01642706 -0.0078804055 -0.03955349
000040 e0 92 10 bd 41 e2 a0 3d a5 33 17 bb 6e e9 d0 3d
       -0.03529632 0.078556545 -0.0023071554 0.10200773
000050 e6 fd d0 3d 41 ff 0f ba a2 35 b0 bd 99 b7 8b 3d
       0.10204677 -0.0005493053 -0.0860398 0.06822128
000060 86 45 89 bc f3 a0 95 bd cb 81 a8 bd 29 86 8d bd
       -0.016756784 -0.07306089 -0.08227881 -0.06910355
000070 33 c6 88 bd 83 8d 94 3d bc 95 d8 bd 30 7e 9c bc
       -0.066784285 0.07253554 -0.105754346 -0.01910314
000080 bf 51 f0 3d b3 c6 90 3d 6a 44 f5 3d a8 16 ac 3d
       0.11734342 0.07069149 0.119759396 0.08402759
000090 61 ab d7 bd 99 37 6e bd a7 28 c4 3d 63 12 ba bd
       -0.10530735 -0.05815849 0.09578066 -0.09085538
0000a0 e6 f5 79 bd 37 75 df 3d b7 5c 54 bb 18 7d 49 3c
       -0.061025523 0.10911029 -0.0032403895 0.012297891
0000b0 73 4b ad bd 78 59 21 3d 66 a1 8a 3d e5 99 bd 3d
       -0.084616564 0.039391965 0.067690656 0.09257869
0000c0 cd f7 b8 3c b0 d2 2a 3d 21 8a bd bd 6b 1f 1b bd
       0.022579098 0.041704834 -0.092548616 -0.03787176
0000d0 3e 0c ba bc e5 29 4e 3d 06 da ed 3d bf 52 94 3d
       -0.022710916 0.050332922 0.1161385 0.07242345
0000e0 54 fd 74 bd ca bd 7e bc b8 2d 7e 3c 34 0c c1 3d
       -0.059811905 -0.015548179 0.01551383 0.09426156
0000f0 c8 75 b4 3d 81 c1 a1 3b 4d e8 ea 3b 2f e6 79 3c
       0.088115275 0.0049363975 0.0071688057 0.015252634
000100 10 39 f9 3c 49 24 83 bc 08 ac 9f 3d 9e b9 37 bd
       0.030422717 -0.016008513 0.07796484 -0.044854753
000110 f6 3d 3d bd 77 59 23 3d da 72 a1 3c d0 da 35 3d
       -0.04620167 0.039880242 0.019708086 0.04439813
000120 b9 75 10 bc 55 ed af bd a8 8f 06 3d d4 44 d9 bd
       -0.00881713 -0.08590189 0.032851845 -0.10608831
000130 fd 94 f2 3d ea 90 f7 bd d5 33 39 bd 3e 02 a0 bd
       0.118448235 -0.12088187 -0.045215447 -0.07812928
000140 31 6f cb 3d f9 00 b4 3d 41 3a a9 bc e4 88 f1 3d
       0.099333175 0.08789248 -0.02065766 0.11793688
000150 6e 0b f6 3d 66 4e de 3d c8 94 07 bd ad 1e 2c 3c
       0.12013899 0.10854797 -0.033100873 0.010505361
000160 53 ab 00 be b5 c8 d8 bd 25 9e c7 3d 46 82 cd bc
       -0.12565355 -0.10585157 0.097469606 -0.025086533
000170 8e 92 59 39 e2 aa 12 bd 53 bc a1 bd bd e4 ec bc
       0.00020749329 -0.035807498 -0.07897248 -0.028917665
000180 cd bd bc bd 10 a0 73 bd 8d f4 ef 3d e0 d3 b6 bd
       -0.09215889 -0.05947882 0.11716566 -0.08927131
000190 b2 42 a8 3d 2d 60 fa bd df f6 c6 bd 8d d7 b7 bc
       0.08215846 -0.12225375 -0.09715056 -0.02244165
0001a0 f7 37 8f bc 2a 7d b2 3d 84 d1 5f bd 33 21 a4 3d
       -0.01748274 0.087152794 -0.05464317 0.08014145
0001b0 04 32 a6 3d ee e2 0d 3d 2a ff e9 3d 84 ff 36 3d
       0.081150085 0.034640245 0.11425622 0.044677272
0001c0 0a 5f 9b bc 53 26 7e 3d 29 f4 59 3d 39 79 10 bd
       -0.018966217 0.062048268 0.053211365 -0.035271857
0001d0 87 d9 ef bc 49 18 d3 3d be cb 55 bd b4 12 e2 3c
       -0.02927853 0.103073664 -0.052196257 0.027596809
0001e0 fc b9 d4 3d b5 a4 bd bd 36 33 20 3d d6 2d c8 3c
       0.10387036 -0.09259931 0.03911134 0.024435919
0001f0 60 06 63 bd 09 fd da bd f2 21 bb 3d 2a a1 3b 3d
       -0.055426 -0.10692794 0.09137334 0.045807995
000200 61 5c ad 3d 44 f2 21 bd 04 eb d7 bc 0a 38 5f 3d
       0.084648855 -0.039537683 -0.026357181 0.054496802
000210 fe 10 93 3d 62 f1 c7 3c f8 fe 66 bd 99 f3 e0 bc
       0.071809754 0.024407092 -0.0563955 -0.027459906
000220 02 7f 3a bd 28 63 63 bd ec 12 61 3c ad 22 83 bd
       -0.04553128 -0.055514485 0.0137374215 -0.06403098
000230 cb 70 79 3c 1e 4a 30 bb 83 59 47 bc e5 cb f2 3d
       0.015224646 -0.0026899646 -0.012167337 0.11855296
000240 bd 81 cb 3c ce da 22 bd 10 fb e0 3b 09 e8 9e bd
       0.024842137 -0.03975945 0.0068658665 -0.07759101
000250 0b fc 30 3d 09 dc e1 3d 85 e0 57 3d 3f 56 47 3b
       0.043209117 0.110282965 0.052704353 0.0030416397
000260 61 5e d6 3d f4 02 ad 3c 60 12 ca bd b8 62 58 bd
       0.1046722 0.021119572 -0.09866786 -0.05282852
000270 34 39 ef bd 6d 81 fa 3d 5b 0d b5 3d 0d 06 cc 3c
       -0.116808325 0.12231717 0.08840438 0.024905229
000280 76 5e 94 bd 94 67 c4 bc c3 70 56 3d 2c 98 b1 bc
       -0.072445795 -0.023975171 0.05235363 -0.021679007
000290 78 7e e2 3b 01 ed a4 bd fe 10 c7 bd 6d e9 bb 3d
       0.006912049 -0.080530174 -0.09720038 0.09175382
0002a0 81 bb 92 bd 17 54 ba bd 48 4c fd 3d 60 2e 61 bd
       -0.0716467 -0.0909807 0.12368065 -0.054975867
0002b0 61 61 02 bc 23 b7 96 bd 16 f8 7b bd 0e 84 aa 3d
       -0.007957787 -0.07359149 -0.06151589 0.08325969
0002c0 98 45 31 bc 78 07 9e bd 1a 66 ba 3c b0 73 82 3d
       -0.010819815 -0.07716268 0.022753764 0.06369722
0002d0 90 9a 0e 3d 16 96 b6 bd e7 61 c8 bd e9 8e 9c 3d
       0.03481537 -0.08915345 -0.097842984 0.076444454
0002e0 b0 f1 07 3d cc b0 fd 3d d2 66 bc 3d d8 22 b8 3d
       0.033189476 0.12387237 0.09199299 0.08991021
0002f0 c9 65 38 bc 39 21 8c 3d a6 c3 6e bd 19 54 c7 3d
       -0.011254736 0.06842274 -0.058292054 0.09732837

weight f4 [7, 64]
000000 19 5d 67 bd ac 97 a5 bd 95 e9 a0 bc 1d 38 81 3d
       -0.05648527 -0.0808557 -0.01964263 0.06309531
000010 2f 87 be 3d d9 cd 4f bd ef 0b 30 3d f4 f2 e1 3d
       0.09303128 -0.05073342 0.04298013 0.11032668
000020 fd 74 1d bd a6 b5 72 bd 7a a1 6c 3d d5 81 9b 3d
       -0.038441647 -0.059255265 0.057771184 0.07593123
000030 9e f4 a6 3d 07 46 df bd 4d f2 d7 3d fb e3 0b 3d
       0.08152126 -0.109020285 0.10544262 0.034152966
000040 e5 48 6b bd 90 97 09 3d 4d 63 df bd 33 6b bb 3d
       -0.057442565 0.033591807 -0.10907612 0.09151306
000050 fc e5 bd 3d a2 bb 31 bd 3a 66 b1 bd 39 1b 80 3d
       0.09272382 -0.04339183 -0.08662076 0.06255192
000060 15 37 cd bd 57 e1 46 3d d2 d5 a6 3d d3 42 b8 3d
       -0.10020272 0.048554745 0.08146252 0.08997121
000070 be e1 82 3d b8 95 dd 3c 28 94 a3 bd 97 6c 2d 3b
       0.06390713 0.02704893 -0.07987243 0.002646243
000080 0b 91 bc bd 75 14 01 bd 02 52 60 3d fe e8 1b 3c
       -0.09207352 -0.03151365 0.05476571 0.009515999
000090 cb 19 01 3e bc 55 c6 3d de 55 5e bd 46 ad 26 3d
       0.12607495 0.09684321 -0.054281108 0.04069259
0000a0 04 db a4 bd d0 24 8d bd 9f a7 e5 bc 66 95 f8 3c
       -0.080495864 -0.06891787 -0.02803403 0.030344676
0000b0 06 a5 6e 3d a8 f7 bb bd 24 5e c7 bd 4a 54 e7 bd
       0.058262847 -0.09178096 -0.09734753 -0.11295374
0000c0 cf f8 a1 bd 94 f0 6b 3d c7 0b ab 3b fb c4 85 bd
       -0.079087846 0.05760248 0.00521991 -0.06531712
0000d0 7e 2b 96 bd d2 ac f9 bc 5e 16 9e bd e3 ff d3 3b
       -0.07332514 -0.030477915 -0.0771911 0.006469713
0000e0 4d 84 be 3c 2b 94 c1 3d e8 a4 a1 bc a6 e2 02 3d
       0.023256445 0.09452089 -0.019731954 0.03195443
0000f0 e6 67 cc 3d c9 eb 36 bd 44 6b b5 bc 77 65 96 bc
       0.099807546 -0.044658456 -0.022145875 -0.01835893
000100 30 a8 9b bd 61 98 97 3c 63 91 83 3c 29 a6 e5 bd
       -0.076004386 0.018505277 0.016060537 -0.11213333
000110 ee cf f2 3d 05 94 43 3d 65 19 af bd 64 7f 66 bd
       0.11856066 0.047748584 -0.085497655 -0.056273833
000120 cf 51 b0 3d 35 7f ad bc 9d 69 cd bd ee 84 50 bd
       0.08609354 -0.021178821 -0.1002991 -0.05090802
000130 df 9f 06 3c bb 0c 44 bd 45 1a a5 3d 96 4a 5e bc
       0.008216827 -0.047863703 0.08061651 -0.013567587
000140 f2 32 86 3c 4a e2 8d bc cc e3 dd 3d a9 6a f0 bd
       0.016381714 -0.017319817 0.108344644 -0.11739094
000150 c7 c9 34 3d f2 55 fa bd 5e b8 9c 3d 04 28 db 3d
       0.044137742 -0.12223424 0.07652353 0.10700992
000160 db 83 e6 bd 0a 46 28 3d 07 05 c8 3d 86 f8 ed 3d
       -0.11255618 0.04108242 0.09766584 0.11619668
000170 15 2e af 3d 84 7f 25 bd 29 9b 25 bc f9 5a 53 3d
       0.08553711 -0.04040481 -0.010107794 0.05160043
000180 c9 87 8b bd a6 29 a4 bd fa 7e 0b bd 6b 6e aa 3d
       -0.06813008 -0.08015756 -0.03405664 0.08321842
000190 b9 10 c9 3d 7c a0 d0 3b cf 4e 59 3c 3f 82 b5 bc
       0.09817643 0.0063667875 0.013263418 -0.022156833
0001a0 04 9f c8 bd 7a a7 f6 bd eb 67 7d bd 3d 1c af 3d
       -0.09795955 -0.12043662 -0.061866682 0.08550308
0001b0 d6 8c 06 bd fc 65 9e bd dc b9 d1 bd e4 70 19 bd
       -0.032849155 -0.07734296 -0.10240528 -0.037461177
0001c0 82 61 eb bd cc 46 93 3d db c7 7c 3d 37 94 17 bd
       -0.114932075 0.07191238 0.061714035 -0.037006583
0001d0 68 6c c0 3d 4d d3 3e bd 95 86 ce bc 33 41 76 ba
       0.09395677 -0.04658823 -0.025210658 -0.0009393871
0001e0 c8 48 af 3d 38 6d a4 3b a3 e6 ed 3d 48 ef 9b bc
       0.08558804 0.0050179027 0.11616256 -0.019034997
0001f0 0b ba 64 3d 97 45 b4 bd 6f d2 90 bd 2e 08 85 3d
       0.055841487 -0.08802336 -0.07071387 0.06495701
000200 b3 93 e2 3c 78 d7 59 bd 28 42 cb bd 13 39 8d bd
       0.02765832 -0.053184003 -0.09924728 -0.06895652
000210 34 fc f4 3d 2e 7f 2a 3d c8 ee a3 3d 05 1d c2 bd
       0.119621664 0.041625194 0.08004528 -0.09478191
000220 f6 bc 78 3d 4d cb 84 bc 20 71 10 bd e9 2d a8 bd
       0.060727082 -0.016210223 -0.035264134 -0.08211882
000230 0c b3 82 bd 6c 7d ba 3d 52 cc ed bc 58 0a 88 3d
       -0.06381807 0.091059536 -0.029028092 0.06642598
000240 6b bb c8 bd 44 8c 97 3d 4f a0 e6 bd c4 0f 47 3c
       -0.09801372 0.073998004 -0.11261045 0.012149755
000250 82 bf a0 3c 45 5b b7 3d 41 78 85 3d 50 71 cd 3d
       0.019622568 0.08952955 0.06517077 0.10031378
000260 f6 8c a4 3d d2 15 da bd 69 6b ed bd 21 4b 08 3d
       0.08034699 -0.10648693 -0.115927525 0.033274774
000270 7b 39 03 bc 51 98 c1 3d 2e e4 e1 bd 59 b3 c1 3d
       -0.00800931 0.0945288 -0.1102985 0.09458036
000280 b9 42 9f bb 67 ae ac 3d 80 22 64 bd df b4 fa 3d
       -0.004860249 0.08431702 -0.055696964 0.1224153
000290 f8 7c 65 3d 04 7e f0 bd ef 63 ce 3d c2 6d 89 bd
       0.056027383 -0.117427856 0.100776546 -0.06710388
0002a0 49 d5 b1 3d 03 55 dd bc c4 c8 18 bd 21 3f 93 3b
       0.08683259 -0.027018076 -0.03730084 0.0044936095
0002b0 3e 65 db bd 55 02 19 bc 90 f8 fd 3d 13 ed f2 bd
       -0.1071267 -0.009338935 0.12400925 -0.118616246
0002c0 2e 2b a1 bc 0b 65 ae 3d 49 8a d7 3d 9a b6 9b bc
       -0.01967391 0.08515366 0.10524423 -0.01900797
0002d0 24 ac 56 3d 2d 4e 4e 3d 8b 4a f0 bd ab 91 9c bd
       0.05241026 0.050367523 -0.11732968 -0.076449715
0002e0 c7 58 d3 bd 65 a1 00 3e 44 31 d5 bd 87 74 8e 3d
       -0.10319667 0.12561567 -0.10409787 0.069558196
0002f0 9f d8 b9 3d 47 02 e0 bd 4c 21 64 bd 3e 3e d7 bd
       0.0907452 -0.10937934 -0.055695817 -0.10509919
000300 bf f0 bc 3d 12 48 05 bd 08 14 cb bc 10 ca a0 bd
       0.09225606 -0.032539435 -0.024789825 -0.0785104
000310 69 b5 e6 bd 1e 1e d8 bc b3 f8 ee 3c 94 8b d9 3d
       -0.1126507 -0.026381548 0.029171323 0.106223255
000320 c9 60 a4 bb 35 2b b4 3d 3f eb ee bd 1c e2 9e bb
       -0.0050164205 0.087973036 -0.116659634 -0.0048487317
000330 fb 89 77 3d c1 71 90 bd 59 eb d5 3d 83 36 cb 3d
       0.060434323 -0.07052947 0.1044528 0.09922507
000340 c9 7c c9 3d f7 47 81 3d 42 f9 1d bb 7f e3 dc 3d
       0.09838254 0.06312554 -0.0024104868 0.10785579
000350 2c 2d ad 3d f7 91 44 3d b2 a5 bf bd 9e df 68 3d
       0.084558815 0.047990765 -0.09357776 0.056853883
000360 03 1f 44 bd 32 ff c8 3d ca dd e0 3d 0d c4 5e 3c
       -0.047881138 0.098143 0.10979803 0.013596547
000370 8f 3f a8 bd 1e 18 d8 bd 08 ac ae bc dd b5 20 bd
       -0.08215248 -0.10551475 -0.021322265 -0.03923594
000380 35 db 26 bd f6 e9 d3 bd f9 ad 9e 3c db aa bc 3d
       -0.040736396 -0.10347359 0.019370066 0.092122756
000390 51 e3 f8 3d 31 ec cd bc dc a8 da bc ec 28 87 3d
       0.12152732 -0.025137039 -0.026691847 0.06599602
0003a0 35 12 f9 bd 8e a7 1e 3c 9e 48 71 3d 4f 1b 16 bd
       -0.12161676 0.009683503 0.058907144 -0.036647137
0003b0 0d e5 a4 3d 83 87 d0 3d 98 5b 94 bd a4 b9 c7 3c
       0.080515005 0.10182097 -0.072440326 0.024380513
0003c0 c5 0f 2c bc 41 1f b1 bd 27 86 21 bd ec 40 b4 3d
       -0.010501807 -0.08648539 -0.03943458 0.08801445
0003d0 92 95 c2 3d fe 24 c0 3d 5a 77 95 3b 6f 78 bc bd
       0.095011845 0.09382056 0.004561347 -0.092026584
0003e0 22 06 62 bd 15 34 94 bc d4 1a 9d bb 13 36 75 3d
       -0.05518163 -0.01809124 -0.004794458 0.059866022
0003f0 43 1f d7 3d d8 bb 9c bc fa 20 a3 3d 24 3d ba 3d
       0.105040096 -0.01913254 0.07965274 0.09093693

bias f4 [7]
000000 79 42 40 bd dc 1c 83 3d 92 f1 b3 bd 3c 38 bc 3c
       -0.046938393 0.06401989 -0.0878631 0.022976033
000010 11 3a b9 3d 88 40 d3 3d 17 0b 6d 3c
       0.090442784 0.10315043 0.014467976

welford_state_mean f4 [11]
000000 8f c2 35 3f 7b 14 2e 3f a4 70 3d 3f 00 00 00 00
       0.71 0.68 0.74 0.0
000010 00 00 00 00 00 00 00 00 00 00 00 00 09 d7 23 3c
       0.0 0.0 0.0 0.009999999
000020 09 d7 23 3c 00 00 00 00 00 00 00 00
       0.009999999 0.0 0.0

welford_state_mean_diff f4 [11]
000000 78 e0 a6 41 3a 9b b0 41 21 03 9d 41 00 00 80 3f
       20.859604 22.075794 19.626528 1.0
000010 00 00 80 3f 00 00 80 3f 00 00 80 3f ca 2c fd 3f
       1.0 1.0 1.0 1.9779294
000020 ca 2c fd 3f 00 00 80 3f 00 00 80 3f
       1.9779294 1.0 1.0

hidden f4 [6, 64]
000000 4b 82 51 3d e5 eb eb 3d d1 28 5c bd ce f8 71 be
       0.051149648 0.11519603 -0.053749863 -0.23630068
000010 64 32 7b 3e 97 81 2e bd 4a c8 6b bd 6c 5b 50 3d
       0.24530941 -0.042604055 -0.057564057 0.050868437
000020 cc 9d b4 3d 4c 3b 2f be 34 4d 80 3d 3d e4 bc bc
       0.0881916 -0.17112464 0.06264725 -0.023058051
000030 34 22 d6 3c 76 33 88 3e d3 34 91 3e 5f bb 81 3e
       0.026139356 0.26601762 0.28360614 0.25338265
000040 9c ca 9b 3d af c3 52 bd 1b 7d 37 3d 55 6a f2 bd
       0.07607004 -0.05145615 0.044797044 -0.118366875
000050 55 7d d9 bd 1a cb 82 bd b7 69 13 3e be e3 da 3d
       -0.10619608 -0.06386395 0.14395796 0.106879696
000060 5e 04 46 3d b0 f0 46 bd 4e fe 1b 3e 70 94 fe bd
       0.04834401 -0.04856938 0.15233728 -0.12430656
000070 a4 2e 86 3e f0 66 67 bd aa 4c 90 3e ef f1 0b 3e
       0.2620746 -0.056494653 0.2818349 0.13666509
000080 28 1d 19 bc d1 1d 0c 3e ff 07 0e be 40 b0 a9 3d
       -0.00934533 0.13683249 -0.13870238 0.0828557
000090 6a e0 d0 3d 30 77 a9 3e 6e ef 60 be 3f 60 40 be
       0.101990536 0.33098745 -0.21966335 -0.18786715
0000a0 29 85 09 3e d6 f3 11 3e 8e 04 07 be 44 4e 8b 3e
       0.13429703 0.14253172 -0.13185331 0.2720815
0000b0 25 27 f7 3d 6e 7b cd 3d f1 56 96 3d 5f 48 bd 3d
       0.12068013 0.10033308 0.073408015 0.09242319
0000c0 1e bb cc 3c 16 f9 18 3e a4 d4 a8 be 7f 77 a5 3e
       0.024991568 0.14938769 -0.32974732 0.3231773
0000d0 18 57 56 3e 00 18 28 be 8c db 8f bd 4f 2f 85 3e
       0.20931661 -0.16415405 -0.07024297 0.26012656
0000e0 a6 ce d8 bd 04 83 80 3d a8 97 b3 bc 16 6b b8 3e
       -0.1058629 0.06274989 -0.021922901 0.360192
0000f0 24 30 91 be 28 06 9b 3c 72 2b 81 bd 78 99 62 3e
       -0.2835704 0.018923834 -0.06307115 0.22128856
000100 30 5b 32 3f d3 07 1b bf 85 db 1c 3f 8c f8 26 3f
       0.6967039 -0.60558814 0.6127246 0.65223
000110 a6 64 26 3f f2 50 2c bf 57 f0 e3 be 09 c5 72 3e
       0.6499733 -0.6731101 -0.44519302 0.23707975
000120 46 c8 64 bf 47 e7 a7 be 12 81 4f 3f 0e d5 7e be
       -0.89368093 -0.32793638 0.8105632 -0.24885961
000130 ad 4c fe be 14 0b 5e 3e 10 d1 42 3f 8a a0 40 bf
       -0.49667874 0.21683913 0.76100254 -0.75244963
000140 d5 18 c6 be e2 31 22 3d 07 7f 0f bf 3f 27 05 3f
       -0.3869082 0.039598353 -0.56053203 0.5201301
000150 d4 6a 42 bf 4b be 1c 3f 20 93 e8 3d f3 60 24 3f
       -0.75944257 0.61227864 0.11356187 0.6421043
000160 7e 45 4b 3e fe 5b 68 be d7 08 59 3f 60 1b 30 3f
       0.19850728 -0.22691342 0.84779114 0.6879177
000170 6e 51 25 3f 92 52 54 bf 79 df 34 bf 3e 51 4c bd
       0.64577377 -0.8293849 -0.7065349 -0.049882166
000180 74 44 1f bf d1 89 39 3f b3 09 42 3f 06 a7 9d bb
       -0.62213826 0.72475916 0.7579605 -0.0048111705
000190 c1 87 c8 3e 94 07 dc 3e a7 3b 5c bf a4 2f 68 bf
       0.39166072 0.42974532 -0.8602852 -0.90697694
0001a0 de 6a 0c 3f 4c 9d fd be 31 da 91 3e f5 d2 c3 be
       0.54850566 -0.4953407 0.2848678 -0.38246885
0001b0 87 0a 42 3f 93 ba f9 bc 18 19 0c 3f fc 20 43 3f
       0.75797313 -0.030484473 0.5472579 0.76222205
0001c0 97 3d e3 be 9e 4b 3f 3f a6 3f 21 bf c1 1f 33 bf
       -0.44382927 0.7472476 -0.62987745 -0.6997033
0001d0 03 ee 04 bf b2 d3 36 3e 2c 1c 21 3f e0 d4 48 3f
       -0.5192568 0.17854193 0.6293361 0.7844982
0001e0 a9 ba 21 3f 68 47 55 3f 0c 3c 01 3f 05 05 61 3f
       0.63175446 0.8331208 0.5048225 0.87898284
0001f0 42 ed f2 3d 43 d8 46 3f 01 94 08 3f b1 43 80 3d
       0.118616596 0.7767374 0.53350836 0.06262911
000200 5a 96 3f 3f 66 82 a6 3e 3c d7 be 3d cc 5b 52 3e
       0.74838793 0.3252136 0.093183964 0.2054283
000210 b8 12 a1 bd d8 32 0a bf d4 11 e9 be 6c d8 6a be
       -0.078648984 -0.5398383 -0.45521414 -0.22934121
000220 f7 d6 60 bf b6 c2 02 3f e5 e4 1d bf ad 51 16 bf
       -0.8782801 0.51078355 -0.6167739 -0.5871838
000230 63 8b 9e be c8 2c c3 be 75 da e0 be 1d b2 55 3f
       -0.3096572 -0.38120103 -0.4391667 0.83474904
000240 80 ee c1 be 3a 4a a1 bd 6f 42 29 bf f0 3b 4a 3f
       -0.37877274 -0.07875486 -0.66116995 0.7899771
000250 30 87 5e bf b7 e7 2d 3f c4 78 32 be b5 7e 42 3f
       -0.8692503 0.67931694 -0.17428881 0.7597459
000260 e3 24 2d bf 9f f6 34 3e 6a dd 39 3f 60 e5 cd 3d
       -0.6763441 0.17672203 0.72603476 0.100535154
000270 14 73 88 3e 93 98 5e bf b7 80 2f 3f 8c e1 7f bd
       0.26650298 -0.8695156 0.6855578 -0.062470958
000280 c6 3a 1c 3f 36 91 1a bf 6e 39 de 3e 1f 41 31 be
       0.6102718 -0.60377824 0.4340319 -0.17309998
000290 66 90 07 3f 4f de 71 be 8f 43 ec 3e 73 05 e5 be
       0.5295471 -0.2361996 0.46145293 -0.4473072
0002a0 97 5c 50 bf 18 6d 15 be 9b 9f c7 3e c7 0d 3e bf
       -0.8139128 -0.14592397 0.38988957 -0.7423977
0002b0 26 c4 e5 be a3 c6 42 bf 5c fd 04 bf 30 ab 23 be
       -0.44876212 -0.76084346 -0.51949096 -0.15983272
0002c0 ac 5c a7 3d 64 e8 10 bf 39 21 be 3d 9a 4c 6b bd
       0.08171973 -0.566046 0.092836805 -0.0574461
0002d0 c6 46 52 bf ef 96 1d bf 8c b2 09 3f c2 f2 32 bf
       -0.8213924 -0.6155843 0.53788066 -0.6990167
0002e0 ed 96 04 bf 60 f4 c6 bb 33 36 98 bd 7f 98 43 3f
       -0.51792794 -0.0060716122 -0.07432213 0.76404566
0002f0 b9 b2 ef 3e 4b 06 13 3e 8d c0 3b be bc 8d 0a 3f
       0.46816042 0.1435787 -0.18335171 0.5412252
000300 30 fb 4d bc 90 3d 7a bb 95 ed 8a be e2 30 00 be
       -0.012572095 -0.0038183667 -0.27134386 -0.12518647
000310 85 8a 43 3e 5f 92 39 3e 04 5d 24 be 98 5c b7 bb
       0.1909581 0.18122242 -0.16051108 -0.005595755
000320 86 05 85 bd 6c 89 4e bd 88 bb 70 3e 15 9d 25 3e
       -0.06495194 -0.050424024 0.23509037 0.16173203
000330 a8 62 da bd b0 1b d3 3c 92 56 f2 3d d7 53 9e 3d
       -0.106633484 0.025770038 0.11832918 0.07730835
000340 19 0a d1 bb 6f 7a 0b 3d 6b b4 61 3d 47 0f 26 3d
       -0.0063793776 0.03405231 0.0551037 0.040541913
000350 4f 40 62 be be 00 17 be d8 97 5e 3e b8 f8 75 3e
       -0.22094844 -0.14746377 0.21737611 0.2402066
000360 21 7b f0 3d b3 4c ed 3d a6 95 12 3d 53 54 29 3e
       0.11742235 0.11586895 0.035787247 0.16536073
000370 da 78 1d 3e bf 37 b3 bc 4f 60 82 3e eb f4 0c 3e
       0.15378132 -0.021877168 0.25464103 0.13765304
000380 7a c8 10 be 24 06 82 3e af f5 8c be d7 d7 ba bd
       -0.14138976 0.2539531 -0.27531192 -0.091231994
000390 27 1f 0f be 11 4e b0 3d 8c d6 86 be b7 eb 06 be
       -0.13976727 0.0860864 -0.2633556 -0.13175856
0003a0 b2 3f 0d bd 17 c1 ee 3d 5e ce de 3c 00 55 3a 3e
       -0.034484573 0.11657923 0.027198013 0.18196487
0003b0 79 dd 3c 3d a4 76 42 3d df ac 07 3e a4 44 3a 3e
       0.04610965 0.047476426 0.13249539 0.18190247
0003c0 4d 6a 1d 3e 30 9b 01 3d b0 40 07 be 90 83 2b 3e
       0.15372582 0.03164214 -0.1320827 0.16749406
0003d0 87 c3 9b 3e 0a 73 6e bd dc 5f 3d 3e 32 15 f2 3d
       0.30422613 -0.05821518 0.18493599 0.11820449
0003e0 de fb f9 3d bd 1e 75 3e 54 b8 55 3d 8d b4 63 3e
       0.12206243 0.23937507 0.052177742 0.22236843
0003f0 c2 a3 de bd 65 e0 b9 bd 0e 3f 8a bd 05 47 fd 3d
       -0.10871078 -0.09076003 -0.06750308 0.123670615
