minigrid/r2l/MiniGrid-MultiRoomNoDoorR2L-N6-v0_logs/MiniGrid-MultiRoomNoDoorR2L-N6-v0/28fa25-seed104/critic.pt (torch, 62127 bytes, 8 tensors)

weight_ih f4 [192, 7]
00000000: e7d3 35bd fb4c 8dbd cea0 c4bd 1077 353d
00000010: dcf5 523d 20ca 4dbd d8c6 f43c 05b9 c0bd
00000020: f957 0dbc d9de a4bc 1c5f 81bd f06f fc3d
00000030: 822f acbd 44df aebd a7e3 83bb a56f 173c
00000040: eea9 dc3d d850 f8bc 2a20 a9bd 82a1 d53d
00000050: 00f5 413c f1af 643c 0eda a2bd d925 b2bc
00000060: 4eb6 c4bd 486e 9f3c 00c4 44b9 f00e 3e3c
00000070: 16b0 ce3d a413 bcbd c6ba c2bd c055 303d
00000080: 9a32 cabd c2ce a9bd 8030 eabb 4110 ffbb
00000090: 08bb 6ebd 98e2 cd3c f461 89bd 066f 803d
000000a0: fc08 4dbd 9080 c7bc 04b5 393d bcf5 5c3c
000000b0: 1fb1 ff3d 1034 ddbd a081 bcbc 2441 d3bd
000000c0: ba66 be3d f106 e9bd f123 e03d ce8b d63d
000000d0: 94ea b1bd 14de eebd 484a 9dbd 2e16 b7bd
000000e0: 1242 76bc 4265 b0bc 0ff0 b5bd 88a5 663d
000000f0: 6036 b13d 72ac d0bd 7453 c8bd 16eb 703d
00000100: aa68 493d 147d e6bc 5462 983d b89c 2c3d
00000110: acf4 6b3d 9631 d03d 6f2a d83d 4f1a 49bb
00000120: 9220 a23c 4c4f aabd cc38 553d f2ec 993d
00000130: 30ae 32bd 5c67 4c3d 60e0 c4bd be89 4abd
00000140: 2c26 563d 0421 cd3d 82d8 a03d 80f4 c73b
00000150: 1d6f 9c3d bf48 ebbd 1ec0 773d c610 d2bd
00000160: 3ceb d53d a8eb ebbc 7050 1d3d 537a 5dbd
00000170: 5185 aa3d e78f 733c 14d7 88bd 5444 5dbd
00000180: 0ccb dfbd f60c ac3d ab2e ddbd 231d 303d
00000190: 5ced b03d 2063 d33d 801b 79bc 744d 163d
000001a0: dc56 c03d 0d25 c5bd 73e3 113d 7907 0abd
000001b0: 9ce4 1dbd 9ece f53d d6be e5bd 8c90 343d
000001c0: 36f0 1f3c 26f5 f83d be11 80bd 9cbd 4bbd
000001d0: 7089 24bd bc2f 673d 10f3 ad3d 86a0 9cbd
000001e0: e31b babd 45d8 62bd 20eb 21bd 6ef7 a13d
000001f0: 4e2b afbd 20d6 5d3c 8f69 dabd 01ca d93d
00000200: 0567 e23d d458 183d d0a8 4c3c eaaf c0bd
00000210: 7a0f d3bd 5648 f9bb 6469 89ba f98d 563d
00000220: 9095 843d b8a7 e7bd c4f7 c8bd e028 843d
00000230: 342f 9dbd 16ee 25bd 1399 373d 46c2 aebd
00000240: 08d9 9ebd bacc 88bd e82e ac3c 44f0 de3d
00000250: 71af 85bb 017b e4bd c018 d33b b8fa 7fbd
00000260: 9e47 efbd b01e 9d3c 0185 7c3d cafb afbd
00000270: 49ba e3bd 8846 203d 84b0 d63d 3242 90bd
00000280: baf6 c0bd 152f ee3d 4216 5cbd ed4b 223d
00000290: 20b5 f23b f008 73bc c02b e53d ec26 37bd
000002a0: 6c1b e7bc 3de7 b83d a52a a23d 64dd 19bd
000002b0: 60d3 fa3b e067 e0bc ec8b 30bd bf49 bc3b
000002c0: 929e ec3c 9e6e 8d3d 4ced 7e3d fc3b f73d
000002d0: f2f3 fd3d 9cfc 9b3d 47b4 693a 097c 193d
000002e0: 050d 413c 0ad2 ccbd 68a2 59bd bc76 30bd
000002f0: 4eb3 ee3d cf32 a8bc d8eb 70bd d94f b8bd
00000300: 3c25 a63d 00f8 ff3d f855 8abc 5c2d fb3d
00000310: 0ba6 85bc 37f5 903c 5191 f3bb ca63 983d
00000320: d0b8 c7bc ceeb 9abd 7efd f13d c13c fb3d
00000330: 8bae a5bd 11bc de3c 144d 493d 2c2e 38bd
00000340: e4ad a43d 48e2 8fbc f7ea e9bd 41a4 1d3d
00000350: cc37 fb3d b43a 3f3d 08f5 85bd 6883 c9bc
00000360: 18c3 99bc 4999 0c3d 0e42 f8bd 2d94 d9bc
00000370: 307f 183c b0f4 f13d 702f 863c e0b9 97bb
00000380: 2311 babd 1011 c73d df75 15bd 102f 1dbd
00000390: f472 2f3d a01d 9f3d bec3 fdbd c6a9 8c3c
000003a0: e725 edbd cc3a 98bb 249f a43d 0083 cf3b
000003b0: 94cc 69bd e2e8 a5bd 2a19 b03b d180 1fbd
000003c0: 56e6 7ebd ca17 fa3d 0ca9 f5bd 6ce7 f7bd
000003d0: 14e5 0ebd 24a1 19bd e2bd 913a 9e7c 9e3d
000003e0: f44e ab3d 8a23 98bd 9498 91bd 806a 693b
000003f0: 53fb f7bd cd41 ccbd 8640 9bbb 6054 123c
-0.04439154 -0.068994485 -0.096009836 0.044303 0.051504 -0.05024159 0.029879972 -0.0941029
-0.008626931 -0.020125793 -0.06316969 0.12326038 -0.08407499 -0.08538678 -0.004024941 0.009242927
0.10774599 -0.030311987 -0.08258088 0.10431196 0.011838198 0.013957963 -0.07951747 -0.021746563
-0.09605084 0.019461766 -0.00018765032 0.011600241 0.100921795 -0.09183434 -0.095082805 0.043050528
-0.09872933 -0.08291389 -0.007146895 -0.00778392 -0.058283836 0.025132462 -0.06708136 0.06271176
-0.050057396 -0.024353296 0.045338646 0.013486322 0.12484955 -0.10800946 -0.023011029 -0.10315159
0.09296937 -0.11378277 0.10944355 0.104758844 -0.0868732 -0.11663452 -0.07680184 -0.08939777
-0.015030401 -0.021532658 -0.08883678 0.056310207 0.08652949 -0.10189141 -0.097815424 0.058817945
0.04917208 -0.028135814 0.074406296 0.042141646 0.057606384 0.10165708 0.105549686 -0.0030685847
0.019790921 -0.08315906 0.05205612 0.07515897 -0.04362315 0.04990326 -0.09613109 -0.049447767
0.052282497 0.10016063 0.078537956 0.0061021447 0.07638381 -0.114884846 0.06048595 -0.102571055
0.10445258 -0.028798893 0.03840679 -0.054071736 0.08326209 0.014865852 -0.06681648 -0.05402024
-0.109274 0.084009096 -0.10799917 0.042996537 0.08639023 0.10321641 -0.01520431 0.03669496
0.09391567 -0.096262075 0.035617303 -0.033698533 -0.038548097 0.120023 -0.1121804 0.044083163
0.009761861 0.12156133 -0.06253384 -0.049741372 -0.040170133 0.056442007 0.08493626 -0.07647805
-0.0908735 -0.055382032 -0.039530873 0.079085216 -0.085531816 0.013539821 -0.10664665 0.10634232
0.11054806 0.037194088 0.01249142 -0.09408553 -0.10305686 -0.0076075 -0.0010483679 0.05238149
0.06473839 -0.11311287 -0.098128825 0.06453109 -0.07675019 -0.04051026 0.044823717 -0.085331485
-0.07756239 -0.066796735 0.02101846 0.10885671 -0.004079752 -0.11156274 0.0064421594 -0.062494963
-0.11683582 0.019179672 0.06165028 -0.08592947 -0.111195154 0.039129764 0.104828864 -0.07043876
-0.09422059 0.11630074 -0.053732164 0.03962319 0.0074068457 -0.014833674 0.11189985 -0.044714853
-0.028211318 0.0902848 0.0791829 -0.03756465 0.0076545924 -0.027393281 -0.04310219 0.005746096
0.028884206 0.06905864 0.062238023 0.12071988 0.124000445 0.07616541 0.0008915108 0.037471805
0.011782889 -0.10000999 -0.0531334 -0.043081984 0.116552934 -0.02053204 -0.058818668 -0.08999605
0.08112571 0.12498474 -0.016886696 0.12264511 -0.016314527 0.017695053 -0.0074330945 0.07440908
-0.024380118 -0.075645074 0.11815928 0.12267447 -0.08089932 0.027189286 0.049145773 -0.044965908
0.080409795 -0.017563954 -0.11421769 0.038486723 0.12266502 0.046686843 -0.065408766 -0.024598792
-0.018769786 0.03432587 -0.12121974 -0.026559914 0.009307668 0.118142486 0.016380042 -0.0046303123
-0.090853 0.09720051 -0.036489364 -0.03837496 0.042834237 0.077693224 -0.123908505 0.017170798
-0.11579495 -0.004645681 0.08038166 0.006332755 -0.057079867 -0.081010595 0.0053740935 -0.03894121
-0.062231384 0.12211569 -0.11995134 -0.12104687 -0.034886435 -0.03750719 0.0011119212 0.077386126
0.083646685 -0.074286535 -0.0710918 0.0035616457 -0.12108483 -0.09973488 -0.0047379164 0.008931249

weight_hh f4 [192, 64]
00000000: 8f0b ba3d 50bb 47bc 8d99 0cbd ae2d 3abd
00000010: 290c a93c 372e 9b3d c726 86bd 31a8 c13d
00000020: b3d1 243b 62b3 c93c 935c bbbd 6aae 8bbd
00000030: 1c20 67bd 6e14 a939 a4a4 d53d 20e2 3dbd
00000040: 82e9 a83b a5c3 f4bd 65dd f4bc 5469 753c
00000050: 5922 b13d 95cc ffbd 8982 ad3d 2a25 e2bc
00000060: 6a76 903d 38a0 08bd f401 d6bb 2dde d73c
00000070: 7efc 8ebc a89b 6fbc fc35 0d3c cfbe 9fbd
00000080: 1bfe b23d aae5 57bd ccc6 ca3d d8bd c23d
00000090: 6ba1 d9bd 0736 f9bd 276b 1fbc ecae 523c
000000a0: e44c cdbd d8f2 b83d ac28 97bb 79fd 733d
000000b0: 2f08 19bd fb4d 3bbd c372 80bc 87f3 8abd
000000c0: 2979 4d3d 7468 97bc 9064 80bc 57af f23c
000000d0: be64 ab3d 328b b3bd 791d f83c 1aba acbd
000000e0: a8cd dfbd 7c19 f83c 1f04 343d 8c97 ae3c
000000f0: a31f 34bd 9060 a3bd 962d 393c 96ab e13a
00000100: a1c1 ecbd f3af cbbd 3e01 9fbc 0308 463d
00000110: c379 f23b 24c2 c63d a768 b83d c091 8abd
00000120: 59f3 6b3c 51e7 083d 9489 893d 12a8 e2bd
00000130: dc3d 09bd 3db5 8ebc 8d95 4b3c 8a74 5d3d
00000140: ca4a 123d 5aaf 603d 1a12 60bb 8da5 a9bd
00000150: fd88 edba 739c 043d b7ea ecbd 4ed5 00bb
00000160: 6b00 ddbd f871 873d e37b c23b caf0 13bc
00000170: 6781 4c3c 445a c5bd c6f6 dc3d 52c5 fdbc
00000180: 8a67 3f3d 5182 ccbd cd80 5fbd 7fb3 d1bc
00000190: 01a6 d3bd 29e0 b0bd 4ce3 453d 208d 18bd
000001a0: 105d febd 2f0b 6ebd ae4b c03d 545a 81bd
000001b0: 96ca 693d 7f9e 453d b039 80bc 8a6c 69bd
000001c0: 62de a9bd 73d1 63bd cddd f13d cac7 01bb
000001d0: 1e48 fc3d a192 c7bd b27d 643d 646c f5bc
000001e0: 4e21 c33d ba6d b33d 6054 08bd e3ab b1bd
000001f0: a04a 38bd ac28 43bd 6817 21bd dc9b 4ebc
00000200: be77 d2bc 53ee eebd e5c8 243d 2c9a 22bd
00000210: 1042 bb3c e7d3 993c c39f fabc cf2f 2ebd
00000220: 84f3 d83d 6999 d6bd dc05 eebd c675 84bd
00000230: 493f 653c 99f1 2d3d 91cc eebd db62 773d
00000240: f5af dcbc ab7b 593d ce1c b9bd eeac b5bd
00000250: ea25 603b 0fa6 85bc 7e0b d0bd e3fe 3bbd
00000260: a66e a13d 427a d03d 86d5 803c f5ef 17bd
00000270: 46ed 183d 254e 073d 2cc4 83bd e0f0 17bc
00000280: 5230 be3d 0614 a7bd e71f d23d 94c6 e53d
00000290: f1db dbbc 5e0b 86bb 5c4c c0bd d504 293c
000002a0: 448f 003e bee2 abbb 7331 f2bc 883d 8bbd
000002b0: aefe f7bc 5c28 e9bd dbf8 3e3d 70f5 c33d
000002c0: 4304 e9bd 99b5 033d 07e8 ddbd 7b0f cd3d
000002d0: 01c7 cb3d 21fa debb 154c 6abd 0edd dabd
000002e0: d0a3 203d c62c 2dbc 99cb 6b3b 0642 f03d
000002f0: 958e eb3d 0f23 6e3d 0bee a03d 3ba6 a3ba
00000300: e876 c6bb 1720 4ebc 98d3 c3bd ef33 023e
00000310: ae32 f1bd 1be5 803c d4a3 6b3d fa2c 96bd
00000320: 5086 113d 76db 0dbc 848c 1e3d 7201 d6bd
00000330: d286 3d3b 44ba 5b3d a590 893d 8713 fb3d
00000340: f6d4 4ebd c9da 36bd 3435 4b3d de8b 06bd
00000350: 6b37 d6bc 64fd ae3d c0d0 913d c497 a83d
00000360: 3d52 37bd 1806 843c 2261 02bd 16d0 1eba
00000370: 5092 eabd f830 733d 9032 55bd a797 243d
00000380: 2172 f13d f839 ffbd 7227 38bd 3ba4 e0bd
00000390: 2a49 08bc f27c fbbd 6f43 dcbc f684 3abd
000003a0: 337c db3d e7cc 473c 55bf 083d 6915 d5bd
000003b0: c829 15bd b958 b13d fae9 c63b 64cc 9bbd
000003c0: 2bf1 963d 56c9 9c3a 8e8c 78bc 7b9c 963c
000003d0: ba69 b9bd 86ac a13d 7b0d b1bd 606d 8bbd
000003e0: 28a8 d0bb 28be 873c 23f0 d03d 455b 43bd
000003f0: 589d a1bd 34fa 82bb ba3e d63c c71a ac3d
0.09084236 -0.012190655 -0.034326125 -0.04545372 0.020635681 0.07577174 -0.06550365 0.09455908
0.0025149405 0.02462167 -0.091485165 -0.06820376 -0.056427106 0.00032249413 0.10431793 -0.046358228
0.0051547894 -0.11951379 -0.029890725 0.014978725 0.086491294 -0.12490193 0.08472163 -0.027605612
0.07053836 -0.03335592 -0.0065309945 0.026351059 -0.017454382 -0.014624514 0.008618828 -0.07800066
0.08739873 -0.05270926 0.09901199 0.09508866 -0.10626491 -0.12168508 -0.009730137 0.012859087
-0.10024431 0.09030694 -0.0046130028 0.059567902 -0.03736132 -0.045728665 -0.015679723 -0.067847304
0.050164375 -0.018482424 -0.015672952 0.029624624 0.083688244 -0.08766784 0.030287491 -0.084339336
-0.10927898 0.03028559 0.043949243 0.021312498 -0.043975484 -0.07977402 0.011302372 0.0017217274
-0.11560369 -0.09945669 -0.019409772 0.048347484 0.007399769 0.09704998 0.09004336 -0.06766081
0.01440128 0.033423726 0.06715694 -0.11067213 -0.03350626 -0.017420406 0.012425792 0.05406622
0.035715856 0.05485473 -0.0034190477 -0.082835294 -0.0018122491 0.032375764 -0.11568206 -0.001965839
-0.10791095 0.06613535 0.0059351786 -0.009029577 0.012482024 -0.096363574 0.10789256 -0.030977879
0.046729602 -0.099857934 -0.054566193 -0.025598286 -0.10334397 -0.08636505 0.04831247 -0.037243962
-0.12420094 -0.058116134 0.09389435 -0.06316057 0.057077967 0.048246857 -0.015652508 -0.056988277
-0.08294369 -0.05561967 0.11809883 -0.0019802921 0.12318443 -0.09744764 0.055783935 -0.029958911
0.09527837 0.08761163 -0.03328359 -0.08675363 -0.044993043 -0.04764621 -0.039328963 -0.012610402
-0.025691863 -0.116665505 0.04023065 -0.03969781 0.02285865 0.0187778 -0.030593758 -0.042526063
0.10593322 -0.104784794 -0.11622211 -0.06467776 0.013992139 0.042466734 -0.11660112 0.06039701
-0.026939372 0.053096455 -0.09038697 -0.08870874 0.0034202286 -0.016314534 -0.10158442 -0.045897376
0.07882433 0.10179569 0.015726816 -0.037094075 0.037335657 0.03303351 -0.06433901 -0.009273738
0.0928656 -0.08158116 0.10259991 0.112195164 -0.026838275 -0.0040907105 -0.093895644 0.010316093
0.12554651 -0.0052455356 -0.029564595 -0.067988455 -0.030272808 -0.11384651 0.046624046 0.09568298
-0.11377766 0.032155607 -0.10835271 0.10012718 0.09950066 -0.00680472 -0.057201464 -0.10686694
0.039218724 -0.010569757 0.0035979508 0.11731343 0.11501805 0.058138903 0.07857903 -0.0012485454
-0.006056655 -0.012580893 -0.09561843 0.12715124 -0.117772445 0.015734246 0.057529286 -0.07332797
0.03552848 -0.008658281 0.038708225 -0.104494944 0.002891947 0.053644434 0.06717042 0.12259584
-0.050496064 -0.044642244 0.049611285 -0.03284823 -0.026149472 0.08544424 0.07119894 0.08232072
-0.044756163 0.016116187 -0.031830914 -0.0006058229 -0.11453688 0.059372872 -0.052050173 0.04018369
0.117893465 -0.124622285 -0.044959493 -0.109688245 -0.008318225 -0.12279691 -0.026887624 -0.045536958
0.107170485 0.012194849 0.033385593 -0.10404474 -0.0364168 0.08659501 0.0060703726 -0.07607344
0.07370218 0.0011961858 -0.01517023 0.018385163 -0.09053369 0.07894234 -0.08645149 -0.06807971
-0.006367702 0.016570166 0.102020524 -0.047694463 -0.07891339 -0.0039971117 0.026152957 0.08403545

bias_ih f4 [192]
00000000: 7eb8 b53d 4733 3dbd 62d0 c5bd 0142 9b3d
00000010: 6379 fdbd 9182 763d afbb d63c 7e97 da3d
00000020: ee9a fd3d 3272 debd 4065 d83d 1fc8 01be
00000030: c4e8 6e3d 28b2 e53d 4861 a4bd 3538 d5bc
00000040: 6eaa ccbb a440 9c3c 1a6d a9bd 5f31 0e3c
00000050: eb16 d5bd 1514 8a3d 3ef9 ddbd a33c 013e
00000060: 9262 7ebd ffa4 ee3d 1b93 5cbd e395 11bd
00000070: d825 b13d 7bff 273d 40a1 40bd 3670 bd3d
00000080: eb9a cdbc 4fd2 b4bd c10c 233d 16ee 543d
00000090: f7e8 47bd a03d c73d 2215 d63d 0d9c 533b
000000a0: 7849 ef3d 2828 e3bd a859 efbd 8263 f5bc
000000b0: 00f4 c23d 8d0d b8bd 16af c7bd 0c75 f6bd
000000c0: 29be 1bbd 5837 38ba 97fe b23d 93ab a03d
000000d0: 810e 863d ad62 5bbd 750f db3d d563 c83d
000000e0: 8473 9ebd 0215 80bd 1934 8a3d d38c 693d
000000f0: 1c8e 813c ec71 c1bd 80f0 b6bd 5dd2 c23d
00000100: 5689 ddbd c2de ecbc ac47 773c 5341 8fbd
00000110: 57fb 1abc 6dc4 a9bd 61a3 a03c f9c2 da3d
00000120: 1006 b2bd f12e 9e3b e727 74bd 4f30 b8bd
00000130: 28cd 98bc 6782 b0bd aa90 c5bd 3047 a1bd
00000140: a378 833d 5e77 edbd e50a f4bd e1c2 f13d
00000150: 4877 b63c 3db3 c03d 7a1f f13c 6f11 78bd
00000160: bbf3 e4bd d1e0 f2bb 6642 d5bd 826e d23d
00000170: 5463 adbd fb2f e93d d9fb 67bd c849 bc3c
00000180: eb98 d53d 0adf f0bd ad59 ecbc 2f8b 493d
00000190: 2078 9ebc eca5 cc3d 3174 94bb 241c 81bd
000001a0: d894 023e 612c b53d 19d1 893d b06b 7cbd
000001b0: c0c1 e83b 99e8 93bd 16d6 d13d 2489 8a3d
000001c0: 0083 10bc 458d 34bc 1b24 a8bd 5f88 a13d
000001d0: 205e 243d cb0f 303d 8b08 35bd f529 8c3c
000001e0: ff27 21bd 6caa b9bd c4d9 823d 19fd 1bbd
000001f0: 207b 363d 80a3 953d da7c 1d3d 18fa fb3d
00000200: 65f6 d63d e332 8c3d c550 5cbd ddaf b0bd
00000210: 5726 df3d bbb2 71bd 11b7 d23d d7a9 8fbd
00000220: bc8d caba 4601 bf3c d435 c2bb 2988 953d
00000230: 2550 72bd bb11 de3d 249c 943d 073b e63b
00000240: 05ee 873d 6d62 d8bd 2627 6fbd 96b6 7b3d
00000250: 3933 4bbd a23c e7bc 9d5b 203d 4dcb e43d
00000260: d5f6 2ebd ace1 0bbd 5e20 b7bc f317 ecbd
00000270: ee19 313d a12a 183c e592 d93b 23e6 183d
00000280: a16f c83d b40b a43d a712 f83c e471 2bbd
00000290: 9f68 4fbd 18c8 6fbc da04 65bd 3452 c13d
000002a0: a30b 8a3d a088 36bd 7d9f dfbd 8f75 a5bd
000002b0: 0612 a4bd b6b8 00be c3d4 873d 316e a43c
000002c0: 117f 983c e504 c7bb b126 f7bd 1ce3 89bd
000002d0: e24b f5bd 3571 163c d1a9 6d3d b205 b2bd
000002e0: 6f6d 913d 4190 883c 6dd6 01bd 21f4 7bbd
000002f0: 6ff7 663c 88f8 e0bd 4edb ffbc 7179 c6bd
0.0887308 -0.04619148 -0.096588865 0.075809486 -0.12376668 0.06018311 0.026212541 0.10673426
0.12383066 -0.10861625 0.10566187 -0.12673996 0.05832745 0.11215621 -0.080263674 -0.026027778
-0.0062459027 0.019073792 -0.082727626 0.008678763 -0.10404762 0.067421116 -0.10838555 0.12620787
-0.062105723 0.11652564 -0.05385123 -0.035543334 0.08649796 0.04101513 -0.04702878 0.09249918
-0.025098285 -0.08829176 0.039807085 0.05198487 -0.048806157 0.09728551 0.104532495 0.0032289058
0.11683935 -0.110916436 -0.116870224 -0.029954676 0.095191956 -0.089869596 -0.09750192 -0.12034044
-0.038023148 -0.000702729 0.087399654 0.07845225 0.06545735 -0.0535609 0.106963076 0.097846664
-0.077368766 -0.06254007 0.06748218 0.057019066 0.015814833 -0.09445557 -0.089325905 0.0951278
-0.108172104 -0.028914813 0.0150927715 -0.069948815 -0.009459338 -0.08289418 0.019609155 0.10681719
-0.086925626 0.004827373 -0.059608366 -0.08993589 -0.018652514 -0.08618622 -0.09646733 -0.07874906
0.06419494 -0.11595033 -0.119161405 0.11804748 0.022273675 0.09409187 0.029433955 -0.0605635
-0.111793004 -0.007412054 -0.10413055 0.10274984 -0.08466211 0.11386105 -0.056636665 0.0229844
0.104295574 -0.11761291 -0.028851354 0.049205 -0.01934439 0.099925846 -0.0045304527 -0.063041955
0.12752092 0.08846355 0.06729335 -0.061626136 0.007103175 -0.07222099 0.10245912 0.06764439
-0.008820295 -0.011020009 -0.082100116 0.07887339 0.040128827 0.04298381 -0.0441976 0.01710985
-0.039344784 -0.090657085 0.06389192 -0.03808317 0.044551015 0.07306576 0.038449146 0.12303561
0.10496215 0.06845643 -0.053787965 -0.08627293 0.108959846 -0.05900834 0.102888234 -0.07014816
-0.0015453617 0.023316037 -0.005926827 0.07301361 -0.059158463 0.108432256 0.07256344 0.0070260796
0.066371955 -0.10565648 -0.058386944 0.061453424 -0.049609397 -0.028227154 0.03914987 0.11171589
-0.042715866 -0.034150764 -0.022354301 -0.115280055 0.04323762 0.009287507 0.0066398256 0.03732885
0.097869165 0.08010045 0.030282332 -0.04185666 -0.050636884 -0.014635108 -0.05591283 0.09439507
0.06740501 -0.04456389 -0.10919092 -0.08079063 -0.0801125 -0.12570462 0.06632378 0.020072075
0.018615277 -0.0060735815 -0.12067927 -0.06732771 -0.11977364 0.009182264 0.058023278 -0.086924925
0.07100951 0.016670348 -0.031698633 -0.061512116 0.014097079 -0.109849036 -0.031232502 -0.09691132

bias_hh f4 [192]
00000000: 645a dbbc c4c9 01bd fe11 9c3d 757b dfbc
00000010: 03dd b0bc 6c1f cf3d 29ad ec3d a1bb 3c3b
00000020: 7e51 d83c be79 f5bc ceb7 c93d 447d ae3d
00000030: 12a0 79bc 6c35 933d b435 f8bd 9e94 953d
00000040: 30f2 1abd 1b44 62bc bef1 b03d b0dd 463d
00000050: 07fc 483c 5bc5 a8bd 97e8 253c 97f7 9dbc
00000060: 404c 8f3d f4ff 4f3d fce2 d3bc 63c6 da3d
00000070: 2270 d1bd 83d7 ddbd 8d4b ab3d 924c 85bc
00000080: 538e d2bc 7ad6 d8bc b7e1 b93d 3a7a 2f3d
00000090: c77c a9bc 5948 59bc 66da d83d 79dc 073d
000000a0: b2ac d33d b0f1 953d 892d ce3c b7bc acbd
000000b0: 4470 ac3d 531e b3bd 823d a5bd 8569 963b
000000c0: 2f4a 433c cbe3 91bd 4c92 3cbd 1d68 8e3d
000000d0: f55e ba3c 123f abbd e373 853c 1556 8dbd
000000e0: 49de 123d 7473 6abc 3d40 d5bd 5194 af3d
000000f0: 83dc 4d3d 70d9 1ebc 0e96 c13b 67e5 753d
00000100: 5b5a 3c3d 3878 bdbd ff50 94bd 8a40 7abd
00000110: 811e 8bb9 305f b03b 1bbd acbd e608 7f3d
00000120: 2ea4 e5bd ef34 3c3d 66e2 a93d 6f1c dfbd
00000130: e068 ed3c ed82 6bbd f679 be3d 5268 b13d
00000140: 7378 a83d 0685 83bd b1a9 063d 6e1c 843c
00000150: ff2d 7cbd 51ea 093d 62fd 95bd c5ef 003d
00000160: d086 08bd 48a6 18bc 04e8 d73d 86bf 443d
00000170: eb13 0b3c 4b94 ab3d fb1b 993d 982a a9bd
00000180: e6f0 32bd 2974 843c d8ef f4bd ee2c cc3d
00000190: cb3c 5abd b4a2 6f3d cf5c f63c a0dd c73d
000001a0: 21a2 f33d e327 c83d 3ec4 cabb 96d1 a43d
000001b0: 816b 083c c986 d13d d293 ac3b be50 b9bd
000001c0: 70f4 dfbd ab26 1a3c f03c 1aba 4694 533d
000001d0: b79b f43d bd5d 04bd 1cfb bfbd a3f0 c6bd
000001e0: b792 babc a6b5 e13d abab e43d 6951 0cbd
000001f0: 2800 7cbd 6c73 3b3c 3829 d9bd bed8 bc3d
00000200: b834 b9bd bfe7 e8bd f35a e1bc 0efe efbd
00000210: 3f6f c0bd 7d32 253d 9c7e 2bbd 4e7c c3bd
00000220: 2eb1 aebd aab2 20bd 6b75 1d3a 4036 e83d
00000230: 6add 69bc 73c2 d73d 8938 333d d18b e4bd
00000240: 953e b3bc 5a2f 41bd ba9f 99bd 2ef7 d7bd
00000250: 6469 c2bb e269 24bc 4f91 26bd 9f70 003e
00000260: 44b8 a0bd d1e9 ad3d 7652 22bb 018d 07bd
00000270: 0b18 bfbd fa4b b63d a9be 88bd 61ff 033d
00000280: 34fe 1cbd a558 fabd 83cd ca3d 496d c8bd
00000290: 3c75 cfbd 91d4 15bd e55f 153d e3d0 dc3d
000002a0: b345 efbc 84d2 4bbd fae0 d63d 3688 e3bd
000002b0: 9b63 b63d b234 f7bd 30c8 fc39 28e2 8bbd
000002c0: 6378 49bd 89df 2abd b0bf 36bd 5f96 bf3d
000002d0: 0b49 71bd 5883 0e3d 2a2a 6dbc 9673 6ebd
000002e0: 79a4 d2bc df7d 1cbd 114e 523c cc2e 47bc
000002f0: 25f8 82bd 7e0e fd3c 1590 623c c9cd 5abd
-0.0267765 -0.03168656 0.07620619 -0.027280549 -0.021589762 0.10113415 0.11556465 0.002879836
0.026406046 -0.029965278 0.09849511 0.08519986 -0.015235918 0.07187924 -0.12119618 0.07303737
-0.037828624 -0.013810183 0.08639859 0.04855126 0.012267119 -0.082407676 0.0101262545 -0.0192831
0.069969654 0.050781205 -0.02586507 0.106823705 -0.10226466 -0.10832121 0.083640195 -0.016271863
-0.025702631 -0.026469458 0.09076255 0.042841174 -0.020689381 -0.013261878 0.10588531 0.033169243
0.103356734 0.07321489 0.025168197 -0.08434432 0.084198505 -0.08746018 -0.08068372 0.0045902156
0.011919542 -0.07123526 -0.046037957 0.06953452 0.022750357 -0.08361639 0.01629061 -0.069011845
0.03585652 -0.014309753 -0.10412643 0.08573211 0.050259124 -0.009695396 0.0059077805 0.06003323
0.045984607 -0.092514455 -0.07242011 -0.061096705 -0.00026534873 0.005382441 -0.084345065 0.062264346
-0.112129554 0.04594892 0.08295135 -0.10894095 0.028980672 -0.057497907 0.09300606 0.08662476
0.08226099 -0.064218566 0.032876674 0.016126838 -0.061567303 0.033670727 -0.073237196 0.031478662
-0.033331692 -0.009316988 0.105423 0.048034213 0.0084886355 0.08377894 0.0747604 -0.08260077
-0.04368677 0.01616867 -0.11959809 0.09969507 -0.053280633 0.058504775 0.030073551 0.097590685
0.11896158 0.09773233 -0.0061879447 0.08047788 0.008326412 0.10230786 0.005266645 -0.090486035
-0.10935295 0.009408633 -0.0005883714 0.051655076 0.11943763 -0.03231596 -0.09374067 -0.097138666
-0.022775037 0.11020975 0.111655556 -0.034257326 -0.061523587 0.011441093 -0.10603565 0.09221028
-0.090432584 -0.11372327 -0.027509188 -0.11718379 -0.093962185 0.040331353 -0.04186879 -0.095451936
-0.08529888 -0.039232887 0.00060065713 0.11338472 -0.014273981 0.10535135 0.043755088 -0.1115948
-0.021880427 -0.0471643 -0.075011685 -0.10545193 -0.0059329737 -0.01003501 -0.04066592 0.12542962
-0.07847646 0.084918626 -0.0024768389 -0.033093456 -0.09330758 0.0890121 -0.066769905 0.03222597
-0.038328364 -0.12223939 0.099024795 -0.097864695 -0.101297826 -0.036579672 0.036468405 0.107820295
-0.02920804 -0.04976131 0.104921296 -0.111099645 0.08905717 -0.12070598 0.00048214337 -0.06830245
-0.049187075 -0.041717086 -0.0446164 0.09354853 -0.05890755 0.034793228 -0.014475385 -0.0582157
-0.025713192 -0.038205978 0.012835995 -0.012157153 -0.06394986 0.0308907 0.013828297 -0.05341891

weight f4 [1, 64]
00000000: 093b d0bc 0309 383d b06f 0ebd 2953 c33d
00000010: 1272 3bbc e12f c3bd be07 f63d 71e9 5ebd
00000020: 98fe 59bc a7a2 05bd 50eb e93a 7158 30bd
00000030: cea2 773d 6dfa ae3d 0635 af3c 210c e93d
00000040: cf5d bebc ed14 5f3d 00d3 ee3d 6067 abbd
00000050: 3c5d 4ebd 2689 8c3d 897a baba 1578 6b3d
00000060: 1bd2 9dbd 99c7 dcbd d2e1 793d c6ea d2bd
00000070: 017c a33c e0e7 833c 3fdd bc3d a3f5 f03d
00000080: 5caf b43d 1069 8fb9 403e 213d c403 c53c
00000090: dc3b a93d e162 733d 9ee3 ba3d d169 fdba
000000a0: 2efc a43d 5bb3 f43d be6e 0f3d 51ea 76bd
000000b0: c565 52bd 7263 edbd a8af 4dbd 3a4c c73d
000000c0: 5ea7 edbd 42dd e03d ffe9 17bc a581 f23c
000000d0: 8bf3 95bd 7963 a93d f173 afbd 6651 dc3d
000000e0: ff72 eab9 3d12 e53d 238e 413d a92a 203d
000000f0: aaf1 c03d f2dc f13c 8840 f83d cfc3 6fbd
-0.025418775 0.04493047 -0.034774482 0.09537346 -0.011440771 -0.095306166 0.120131955 -0.054421846
-0.013305329 -0.03262582 0.0017846618 -0.043053094 0.060457997 0.08543859 0.021387588 0.113792665
-0.02323809 0.054463316 0.11661339 -0.083693266 -0.050381884 0.068620965 -0.0014227192 0.057487566
-0.0770609 -0.10780258 0.061006375 -0.10298686 0.01995659 0.016101778 0.09221887 0.117656015
0.0882251 -0.00027353363 0.039366007 0.024049647 0.082633704 0.05942047 0.09125446 -0.0019333904
0.08055912 0.11948272 0.03501772 -0.060282055 -0.051366586 -0.11591233 -0.050216347 0.09731336
-0.116041884 0.109797016 -0.009272098 0.029602835 -0.07321843 0.08270926 -0.08567036 0.10757713
-0.00044717637 0.11185119 0.047254693 0.039103184 0.09421094 0.0295243 0.12121683 -0.058536347

welford_state_mean f4 [7]
00000000: df7a 143f f08b 253f 3a6d 203f 0000 0000
00000010: 0000 0000 0000 0000 0000 0000
0.57999986 0.6466665 0.62666667 0.0 0.0 0.0 0.0

welford_state_mean_diff f4 [7]
00000000: b3b9 1142 b9a6 0842 19e9 0b42 0000 803f
00000010: 0000 803f 0000 803f 0000 803f
36.431347 34.162815 34.977634 1.0 1.0 1.0 1.0

hidden f4 [6, 64]
00000000: 4407 e23c 0013 1eb9 739c e7bd b666 2fbe
00000010: 4ed5 e83d d6bd 2dbe 275c bb3d 3e03 22be
00000020: 6ece abbd 52a6 3fbc 72d0 f1bd 731b 763d
00000030: be58 90bc fa51 7e3d 8960 133e 3cd8 33bd
00000040: b8f1 a73c debc aebd 3bb6 1cbd 3075 953c
00000050: b832 e33c 57ed 5abd b03d 573c 77c5 4b3e
00000060: 783a 0abe c464 4a3d ec82 fe3c 0714 57be
00000070: c450 963d 800b 4fbd 9446 fb3b bf64 9a3d
00000080: 8e72 1c3e 6cda 843d c12b 20bd 46dc bc3c
00000090: 8fb3 ec3c 5b3d 98bd e6da 24be 0f91 2a3e
000000a0: 27d7 053e 5d0e 90bd 6e49 1ebd 073a 00be
000000b0: b800 12bd 1895 54be 4880 e83d 689b d7bd
000000c0: 7e5f 9bbd b87b 59bd ba8c 32be f6b2 4bbd
000000d0: 73b8 81be e04a 7cbb 06d7 523d aed4 a6bd
000000e0: b8cd e73d 0746 3d3d f0a1 253c 7991 8abc
000000f0: 7a56 173d bffc 92bd 208b dd3b 2b8b 27be
00000100: 86d6 733e 8a65 043e add3 45be edc4 19be
00000110: 2752 5a3e 908d b0bd 7647 893e b05b 44be
00000120: e3d5 d43c 17a1 ea3c 5de5 cc3c 8829 533e
00000130: 6286 91bd fbc4 843e aa24 1b3e 6ec5 1b3d
00000140: 64f6 cb3d ec25 62be 4128 8bbd 6b8b 7b3e
00000150: edf3 433d 8d4f da3c cc70 d43d a305 793e
00000160: 32d9 943a 5297 403b f684 dc3d 5b14 0abe
00000170: 178b 9bbd 28e2 0fbe 7ffc 10bd fa29 56bd
00000180: b741 f43c ee0d de3d 9099 223e 67f2 8a3e
00000190: 5ebb cc3c 44c0 f3bd e822 59be 3056 d63d
000001a0: a0d1 8f3d 61b9 513d cdb9 2abe 6e8e 06bd
000001b0: f07d 25bd b4d0 6bbe 8f5f 1d3d b5ce b0bd
000001c0: 529a 1dbe 4d4c 023e 9a1e f3bd efb0 113e
000001d0: 5e23 9abe 5912 a23d 0afb 403e d8c0 20bd
000001e0: b553 1f3d c46e 47ba 57bd 7dbd d811 5abe
000001f0: f976 ebbc 787d 90bd bed0 84bc fd60 3fbe
00000200: b216 f33d 340c 9a3d a27c 01be bd42 89be
00000210: dc11 4c3d f9dc 0cbe af61 7d3d 6e33 68be
00000220: ece3 9cbc c2d5 5fbd 78f1 f3bc 162b 113e
00000230: e453 3a3c 4849 353e d209 263e 8a7c 2ebd
00000240: 3087 e53b 61dd 15be 90cf 9dbc 1a1d 53bc
00000250: 744a 6cbc cc88 0ebd a5df cdbd 1bfe 4a3e
00000260: 57fc bcbd cedc 41bd bd42 2abd 4c28 10be
00000270: d083 153d 00c9 5cba 1403 d23d dc8a 053e
00000280: 7661 a73d f68b b5bc 581d 323d 26f5 693c
00000290: e4d7 87bd 1e65 3abd c3f6 c9bd 2cda 3f3e
000002a0: f8a0 cc3c 139b e2bd edd3 b6bd f2ab 48be
000002b0: 4274 cebd f073 2fbe fa73 a43d 045d 04bd
000002c0: 9ee2 28bd 0859 6cbd 8809 42be 7cec 863d
000002d0: 18c3 75be 331f 5dbd 51a0 8d3d 0c0d 02be
000002e0: 3056 c5bb a8f9 fabc 901f 94bc 3ef7 2cbd
000002f0: 4165 7d3d e7b6 a0bd 34b8 96bc 1483 babd
00000300: 4b45 003c ad62 f2bc 9e5d e7bd 6822 673d
00000310: 8161 0b3e 1896 393d 2b6a 7e3e 34ce 183c
00000320: 7015 0fbe bf87 0c3d 7144 03bd e67a 59bc
00000330: 7a73 c7bd 7fea 283d 4263 4ebd bbc7 8bbd
00000340: 0c7f 463e fecd abbc 7c38 1dbe 1450 963c
00000350: 6e47 233c e9ca a6bc 8037 4f3e 3dc7 273e
00000360: 5708 25be 01eb 373e 159f e33d 2cda 55be
00000370: 65b4 aebd 0a81 583d e8e3 16be b70d b2bd
00000380: fcde 033e 783d e83d ac7b 1f3c a44a 29bb
00000390: eee0 503d 1f8a f8bd 53f1 3dbd 6a06 0a3e
000003a0: 3ef9 593e 9e8a b03d 4238 c93c 45e2 8ebc
000003b0: 123f b43d 2a71 71be c5e3 9b3d 684a b03b
000003c0: 3072 52bc ada6 553d 241d 64bd 3d7f 8cbd
000003d0: 68be c5bd 1300 1e3e c4af 31bd caca ddbd
000003e0: f1f6 813e a65f bf3d 14bd d0bd 4394 b5bc
000003f0: b69d 33bd 1db4 e9bd 58ee c7bd 1696 62be
0.027591355 -0.00015075132 -0.11309137 -0.17129025 0.1136881 -0.16966948 0.09148436 -0.1582155
-0.08388983 -0.011697369 -0.11807336 0.06008477 -0.01762044 0.062089898 0.14392294 -0.04390739
0.020501003 -0.08532117 -0.038259726 0.018244356 0.027734146 -0.053449 0.013137266 0.19899546
-0.13498867 0.049412504 0.031068288 -0.21003734 0.073396236 -0.050548077 0.0076683257 0.07538747
0.15278074 0.06486973 -0.039104227 0.023054253 0.028894214 -0.074335776 -0.16099128 0.16656898
0.13070355 -0.070339896 -0.038644247 -0.12522136 -0.035645217 -0.2076 0.11352593 -0.10527688
-0.07586573 -0.053096503 -0.17436495 -0.049731217 -0.25336036 -0.0038496777 0.051474594 -0.08146034
0.113185346 0.04620936 0.01010941 -0.01691507 0.036947705 -0.07177114 0.0067609698 -0.16361682
0.23812303 0.12929359 -0.19319029 -0.15016527 0.21320401 -0.08620751 0.26812333 -0.19175601
0.025980895 0.028641267 0.025011713 0.20621312 -0.071057096 0.25931534 0.15150705 0.03803008
0.09959105 -0.22084779 -0.06794787 0.24564902 0.047840048 0.02664926 0.10373077 0.24318556
0.0011356233 0.002938707 0.10767548 -0.13484327 -0.07594889 -0.14051116 -0.03539705 -0.052286126
0.029816492 0.108425006 0.15878892 0.27138063 0.024991687 -0.11901906 -0.21204722 0.10465658
0.07022405 0.05120218 -0.1667244 -0.032850675 -0.040403306 -0.23028833 0.03842121 -0.08633176
-0.153909 0.12724419 -0.11871071 0.14227651 -0.30105108 0.07913656 0.18845764 -0.03924641
0.03889819 -0.0007607753 -0.061948147 -0.2129587 -0.028743254 -0.07055181 -0.016212817 -0.18689342
0.11869563 0.07521859 -0.126452 -0.2680873 0.04982172 -0.1375617 0.061860736 -0.22675869
-0.01915165 -0.054647215 -0.029778227 0.14176592 0.01137254 0.17703736 0.16214684 -0.04259924
0.007004641 -0.1463523 -0.019264013 -0.012885356 -0.014422048 -0.03479843 -0.100524224 0.19823496
-0.092278175 -0.047329716 -0.041567553 -0.14077872 0.03650266 -0.00084222853 0.10254493 0.13041252
0.08172886 -0.022161465 0.043485016 0.014279639 -0.06632975 -0.04550659 -0.09861519 0.1873557
0.0249791 -0.11064734 -0.089271404 -0.19596842 -0.10080768 -0.1713407 0.08029933 -0.03231527
-0.041231744 -0.057702094 -0.18948948 0.065880746 -0.24000204 -0.053984832 0.069153436 -0.1270029
-0.0060222372 -0.030636624 -0.018081456 -0.042227976 0.06186414 -0.07847386 -0.018398382 -0.091070324
0.007829021 -0.029588068 -0.11297153 0.056429297 0.13611414 0.045309156 0.24845187 0.009326506
-0.13973022 0.034309145 -0.032047693 -0.01327393 -0.09738822 0.041239258 -0.05038763 -0.06825205
0.19384402 -0.020972248 -0.15353578 0.018348731 0.009965761 -0.020360427 0.20236015 0.16384597
-0.16116463 0.1796074 0.11114327 -0.20884007 -0.08530501 0.052857436 -0.14735377 -0.08694022
0.1287803 0.11339849 0.0097340755 -0.0025831843 0.05099576 -0.121357195 -0.046372723 0.1347901
0.21286485 0.08620189 0.024562959 -0.017441878 0.08801092 -0.23578325 0.07611803 0.0053799637
-0.012844607 0.052160908 -0.055691853 -0.06860206 -0.09655458 0.15429716 -0.043380514 -0.108296946
0.25383714 0.09344415 -0.10192314 -0.022165423 -0.043851577 -0.11411307 -0.09762257 -0.22127566
