r2l/store/highway-v0-0.pt (torch, 59595 bytes, 9 tensors)

weight_ih f4 [192, 3]
-0.10841346 -0.124490015 -0.00060111354 -0.12174682 -0.11858506 -0.061396375 -0.099916786 0.06363828
-0.07069524 -0.002883581 -0.07533884 0.059647944 -0.010713006 0.11133451 0.037173986 0.085849985
0.10120723 0.0074391975 -0.09055688 0.0209484 0.11967796 0.006940247 -0.010541943 0.08287566
0.095486514 -0.029234713 0.054978803 0.09105338 0.077688664 0.07424856 -0.0749695 0.119242094
0.04251849 0.06440082 -0.037553057 -0.002326053 -0.12518221 -0.062215585 -0.08931452 -0.006420895
-0.109469 0.064207114 0.09406604 -0.103404514 0.059775084 -0.114130154 0.049568612 -0.12673004
0.105359584 -0.09916292 -0.029894918 0.03920273 -0.026354857 -0.019165391 -0.11133072 0.10432128
-0.101165876 -0.020956991 0.0318694 0.09457733 0.0561353 -0.059466757 0.050407078 -0.023178728
0.05993795 -0.04002676 0.026097076 0.026063055 0.11242944 0.06741569 -0.02776015 -0.059943855
0.13454437 0.048308905 -0.10088566 -0.103662424 -0.048081815 -0.11524713 -0.091612905 0.059046254
0.09229223 -0.090576746 0.05432054 0.036239512 0.06896992 -0.07019827 0.009344711 -0.10124907
-0.08568219 0.06450703 0.04753401 -0.07017821 -0.030031953 0.017918587 -0.027410444 -0.08340447
0.015435313 0.025636358 -0.057534516 0.11955695 -0.10828544 0.07098958 0.01654398 0.05503522
-0.023870075 0.10872438 -0.07222027 0.032998826 -0.05648279 -0.03356537 0.10200114 -0.052922036
-0.036709566 0.08853444 -0.0449599 0.07050878 0.045445655 -0.044208374 -0.037545126 0.012757226
0.036646243 -0.068053 -0.066180766 0.019025393 -0.007841342 -0.05694138 -0.03841688 0.04631909
0.03490231 0.029209886 -0.014833093 0.0840722 0.106570795 0.114824004 -0.107744135 -0.043995008
-0.14231955 -0.1050918 0.043611698 0.122306444 -0.025745414 0.050043073 -0.08237586 0.07897414
-0.026863266 0.117131904 0.07164648 -0.119213805 0.07639539 0.07038604 0.0075629 -0.027300384
-0.061083328 -0.03318897 -0.102665335 0.035469506 0.10676028 -0.014149047 0.103617005 -0.06184616
0.021967366 -0.083825424 0.093105674 0.115060866 -0.010016658 -0.050572235 -0.06723222 0.11376057
-0.07198708 0.005234915 -0.12640391 -0.049416423 -0.09942577 -0.08155144 0.015419156 0.123107694
0.097155385 0.09833564 -0.027406074 0.085158154 -0.10651592 0.1283059 -0.05529043 -0.0125812525
0.06256932 0.022376284 -0.043239508 -0.06062278 -0.07546092 -0.016156642 -0.07501108 0.063201435
0.030549545 0.05653207 -0.063491136 -0.103952326 -0.10124307 0.100617506 -0.04175025 0.0698192
-0.027635355 0.041443184 -0.057513986 0.041347075 0.10820469 -0.08581117 0.059372917 -0.0992497
-0.044990208 0.033941437 0.015290807 -0.006373245 0.1147541 -0.02209136 0.111648925 0.09219299
-0.08790135 0.055837218 -0.020019151 -0.046092667 -0.06369503 -0.082300544 -0.0063570067 0.062172353
0.06474006 -0.104620144 0.033581313 -0.041181166 0.11399856 -0.022150895 -0.052911066 0.074963935
-0.10275685 -0.05644571 0.043685734 0.09516118 -0.035403695 0.066025466 -0.015407202 -0.10791595
-0.11037376 -0.029324925 0.059990548 0.09095158 0.11307438 -0.11099585 0.11670566 0.10786727
-0.0072238 -0.0047258907 0.026182825 0.027877225 0.12149242 -0.023736823 -0.08892129 0.018684972
00000000: e007 debd 9ff4 febd 0c94 1dba 6656 f9bd
00000010: b9dc f2bd c47a 7bbd 2ca1 ccbd c954 823d
00000020: aac8 90bd 76fa 3cbb 404b 9abd 6751 743d
00000030: 9b85 2fbc 5903 e43d c043 183d 1ed2 af3d
00000040: bc45 cf3d 83c4 f33b e375 b9bd fb9b ab3c
00000050: b819 f53d 036b e33b 1db8 2cbc b7ba a93d
00000060: 6f8e c33d a37d efbc 7431 613d 327a ba3d
00000070: 3c1b 9f3d a10f 983d 9c89 99bd 3335 f43d
00000080: de27 2e3d 94e4 833d 3cd1 19bd b270 18bb
00000090: c42f 00be c5d5 7ebd 88ea b6bd 5f66 d2bb
000000a0: 4831 e0bd 057f 833d b2a5 c03d bfc5 d3bd
000000b0: b8d6 743d 12bd e9bd 7508 4b3d 85c5 01be
000000c0: c4c6 d73d ee15 cbbd 30e6 f4bc 0b93 203d
000000d0: 24e6 d7bc bd00 9dbc 5c01 e4bd 65a6 d53d
000000e0: 0e30 cfbd ffad abbc 7d89 023d c2b1 c13d
000000f0: 21ee 653d 6a93 73bd a777 4e3d 51e1 bdbc
00000100: 7f81 753d 1af3 23bd 89c9 d53c 3082 d53c
00000110: 6841 e63d 3d11 8a3d 4169 e3bc b087 75bd
00000120: 00c6 093e 8fdf 453d 249d cebd f74c d4bd
00000130: 70f1 44bd b006 ecbd 8c9f bbbd 7cda 713d
00000140: b503 bd3d 4d80 b9bd 377f 5e3d e26f 143d
00000150: 1a40 8d3d 1cc4 8fbd 8f1a 193c ac5b cfbd
00000160: 257a afbd 431c 843d 06b3 423d 98b9 8fbd
00000170: 9205 f6bc 00ca 923c de8b e0bc f6cf aabd
00000180: 65e4 7c3c 5703 d23c 50a9 6bbd 46da f43d
00000190: c2c4 ddbd fc62 913d 3e87 873c 9c6c 613d
000001a0: 2d8b c3bc e3aa de3d 39e8 93bd c729 073d
000001b0: 7f5a 67bd d77b 09bd f9e5 d03d c7c4 58bd
000001c0: c55c 16bd 8b51 b53d df27 38bd e866 903d
000001d0: 3925 3a3d d713 35bd ebc8 19bd af03 513c
000001e0: 5f1a 163d 5f5f 8bbd c889 87bd 24db 9b3c
000001f0: f978 00bc 5d3b 69bd 055b 1dbd 16b9 3d3d
00000200: baf5 0e3d 9249 ef3c 8006 73bc 0c2e ac3d
00000210: ca41 da3d d928 eb3d f5a8 dcbd 1c34 34bd
00000220: 37bc 11be 5f3a d7bd 2ea2 323d cd7b fa3d
00000230: 0ce8 d2bc f7f9 4c3d adb4 a8bd 32bd a13d
00000240: 5a10 dcbc dae2 ef3d 64bb 923d 5e26 f4bd
00000250: 3075 9c3d 8e26 903d 34d2 f73b 0ea5 dfbc
00000260: 8332 7abd 28f1 07bd 3442 d2bd 7948 113d
00000270: 22a5 da3d 68d1 67bc 2735 d43d 6652 7dbd
00000280: e8f4 b33c aaac abbd 30ae be3d 08a5 eb3d
00000290: e91c 24bc d524 4fbd 0cb1 89bd 4dfb e83d
000002a0: f66d 93bd a689 ab3b 0770 01be e068 4abd
000002b0: bd9f cbbd 7104 a7bd a1a0 7c3c e31f fc3d
000002c0: 67f9 c63d 3264 c93d b482 e0bc 6667 ae3d
000002d0: 0525 dabd 9f62 033e 3878 62bd 9921 4ebc
000002e0: 5824 803d 784e b73c e91b 31bd 984f 78bd
000002f0: 418b 9abd ef5a 84bc 699f 99bd c16f 813d
00000300: 0a43 fa3c 2c8e 673d a407 82bd f5e4 d4bd
00000310: 8758 cfbd 8d10 ce3d 4f02 2bbd 5efd 8e3d
00000320: 8a63 e2bc 54c0 293d c993 6bbd 8d5b 293d
00000330: 6c9a dd3d c4bd afbd 0431 733d 6d43 cbbd
00000340: a747 38bd 2d06 0b3d 4b86 7a3c a7d6 d0bb
00000350: 3304 eb3d f1f8 b4bc 31a8 e43d aecf bc3d
00000360: 9f05 b4bd 91b5 643d 34ff a3bc aacb 3cbd
00000370: 8a72 82bd 308d a8bd 704e d0bb 70a8 7e3d
00000380: 7096 843d 1643 d6bd 8f8c 093d 95ad 28bd
00000390: 1478 e93d cb75 b5bc 46b9 58bd b186 993d
000003a0: 2f72 d2bd 9e33 67bd d0ef 323d dde3 c23d
000003b0: 7703 11bd 5c38 873d 7d6e 7cbc 0a03 ddbd
000003c0: a30b e2bd d33a f0bc a6b8 753d d244 ba3d
000003d0: 8a93 e73d cb51 e3bd 6103 ef3d 84e9 dc3d
000003e0: a0b5 ecbb a5db 9abb 5d7d d63c c75e e43c
000003f0: 05d1 f83d ba73 c2bc 5e1c b6bd 3a11 993c

weight_hh f4 [192, 64]
-0.09037826 0.010080398 -0.022303209 0.05859173 0.023149753 0.10557303 0.035846032 0.06179338
-0.075754255 0.004245433 0.10005852 0.044903122 0.072106294 0.11125991 -0.02309506 0.11804578
0.054650974 0.117804706 0.09042162 0.1095738 -0.035316177 0.074509315 -0.107998475 -0.028292373
0.055634715 -0.10140756 -0.091724955 0.057399843 0.103349335 -0.022467878 -0.08724067 0.11731582
-0.10767946 0.06428346 0.11352465 -0.12758155 0.024731373 0.094279334 0.10762199 0.06268497
-0.099229515 -0.06607605 0.03263979 -0.12728256 -0.080093674 0.06513831 0.03799608 -0.1229591
-0.056412227 -0.009386405 -0.09709366 0.06890357 0.028716076 -0.10860908 0.040189553 -0.0057005575
0.105443604 0.009930584 0.062899545 0.02349444 0.07274519 0.06613962 0.07690473 -0.06439395
0.0109957 -0.10286606 0.046658766 -0.08628022 -0.11508102 0.063991696 -0.07366911 0.09083417
0.10374733 0.07804455 -0.06664191 -0.067614004 0.07708155 -0.0070421523 -0.1183964 0.045985293
-0.04498747 0.037240803 -0.009626892 0.0037568256 0.08128286 -0.106163345 -0.03750158 0.09545745
-0.09244309 0.084276855 0.03227402 -0.11082956 -0.07298915 -0.004129243 0.04625035 0.11236367
-0.0039166105 -0.052541886 -0.08713675 -0.081806935 0.02830408 0.114705086 0.026198631 -0.10001861
-0.08830488 -0.05505346 -0.1169149 0.019194582 -0.028610107 -0.07735148 0.083752245 -0.05834435
-0.017427593 0.035692222 -0.115963265 -0.028693382 -0.036959615 0.119535506 0.099212505 -0.000920687
0.075099565 0.06816811 0.1295881 0.02974313 -0.11402325 -4.2153795e-05 0.04602489 -0.02650716
0.016674053 0.026594581 -0.008053247 -0.06804234 0.0019036862 -0.119897164 -0.088932574 -0.103499465
0.12779328 -0.0903965 -0.12843484 0.09841607 0.076892264 -0.1103185 0.034465194 0.10541527
-0.09608897 0.07872863 0.06066763 0.026353814 0.063434444 0.04738234 0.08983266 -0.09000941
0.031635925 0.07521686 0.09051652 0.016060166 -0.08009735 0.1070823 -0.058275115 -0.07942752
-0.11591989 -0.09536323 -0.08075857 0.04501998 -0.111724034 0.06840398 -0.05102107 -0.014470737
-0.03880341 0.037568036 -0.06499336 -0.03337849 -0.050890375 -0.021641891 -0.016857887 0.10545569
-0.09334098 -0.032703344 -0.071153656 0.0044846204 0.07243256 0.09635238 0.06902441 0.117314465
-0.063803874 0.098686345 0.023733245 0.062339835 -0.035183683 0.00613461 0.0412062 -0.09566121
-0.11711977 -0.026575055 -0.11999413 -0.023306921 0.08036937 0.05805981 0.028259283 -0.06609637
0.08381254 -0.0350348 -0.06036423 0.06762065 0.016639236 0.08922975 -0.11931602 0.042071864
0.051992107 0.056794956 -0.060174573 0.034143038 0.07050962 0.11443156 -0.058215026 0.06741439
0.12389332 0.06908261 0.07413181 -0.07704374 0.11740411 0.03765917 -0.060171444 0.05558111
0.07130502 0.030956099 0.00089904363 0.06521852 -0.07635267 0.06888114 0.07635442 0.024275249
-0.10181758 0.102266856 0.0014116012 -0.1063035 0.04836885 0.06696938 0.03255576 -0.06412549
-0.06953137 0.045644104 0.021330269 -0.06507153 -0.11038614 -0.06962404 -0.113246195 -0.10513876
-0.0017210657 0.01709882 -0.038072433 -0.03753438 0.09255701 0.106123395 -0.038215365 -0.088633224
00000000: 3d18 b9bd 4128 253c 38b5 b6bc e2fd 6f3d
00000010: 8da4 bd3c ac36 d83d 4ad3 123d 0e1b 7d3d
00000020: 0c25 9bbd 461d 8b3b 7beb cc3d 56ec 373d
00000030: 77ac 933d 3cdc e33d da31 bdbc fcc1 f13d
00000040: b3d9 5f3d 9843 f13d f82e b93d 3a68 e03d
00000050: b2a7 10bd 5798 983d 4e2e ddbd 68c5 e7bc
00000060: 3ae1 633d c4ae cfbd 4bda bbbd 191c 6b3d
00000070: d1a8 d33d 8e0e b8bc 3dab b2bd 4743 f03d
00000080: 0c87 dcbd 0ca7 833d 9d7f e83d bda4 02be
00000090: 7399 ca3c 8615 c13d eb68 dc3d fa60 803d
000000a0: d838 cbbd e152 87bd 4db1 053d 5c56 02be
000000b0: 2708 a4bd 3c67 853d c7a1 1b3d fbd1 fbbd
000000c0: 8210 67bd 70c9 19bc 0ad9 c6bd 511d 8d3d
000000d0: fa3d eb3c 706e debd cd9d 243d becb babb
000000e0: d1f2 d73d e3b3 223c 7ad1 803d 6977 c03c
000000f0: 6efb 943d 3674 873d 3a80 9d3d fae0 83bd
00000100: 4f27 343c 71ab d2bd 431d 3f3d afb3 b0bd
00000110: 99af ebbd 140e 833d d5df 96bd 4407 ba3d
00000120: 7b79 d43d d2d5 9f3d 8e7b 88bd 3679 8abd
00000130: efdc 9d3d dbc1 e6bb d079 f2bd 135b 3c3d
00000140: c844 38bd d089 183d 1dba 1dbc 1335 763b
00000150: a177 a63d 2b6c d9bd 429b 19bd 327f c33d
00000160: ce52 bdbd 5899 ac3d c331 043d 9cfa e2bd
00000170: 567b 95bd 9a4e 87bb 0271 3d3d ec1e e63d
00000180: e956 80bb 2936 57bd c174 b2bd 658a a7bd
00000190: f5dd e73c 80ea ea3d 839e d63c 8fd6 ccbd
000001a0: 30d9 b4bd bd7f 61bd 1471 efbd f53d 9d3c
000001b0: be5f eabc 746a 9ebd 4c86 ab3d 7cfa 6ebd
000001c0: 50c4 8ebc 0232 123d 267e edbd 620e ebbc
000001d0: f762 17bd 08cf f43d ed2f cb3d 425a 71ba
000001e0: cdcd 993d b99b 8b3d beb2 043e dda7 f33c
000001f0: 0685 e9bd 4bce 30b8 9884 3c3d 8b25 d9bc
00000200: 0698 883c e1dc d93c c4f1 03bc c859 8bbd
00000210: 1c85 f93a a58c f5bd 4822 b6bd 87f7 d3bd
00000220: 3edc 023e cd21 b9bd 6c84 03be 5d8e c93d
00000230: b179 9d3d aaee e1bd 602b 0d3d f6e3 d73d
00000240: 4bca c4bd 7a3c a13d 9f7e 783d f4e3 d73c
00000250: ebe9 813d fc13 423d 30fa b73d db56 b8bd
00000260: ac94 013d 4c0b 9a3d ba60 b93d 9c90 833c
00000270: 140a a4bd f74d db3d e3b1 6ebd e5aa a2bd
00000280: 6867 edbd cc4d c3bd c064 a5bd df66 383d
00000290: 92cf e4bd 6317 8c3d 78fb 50bd ac16 6dbc
000002a0: 53f0 1ebd f1e0 193d 3d1b 85bd e2b7 08bd
000002b0: 6d72 50bd 564a b1bc 8d19 8abc 27f9 d73d
000002c0: 8e29 bfbd f1f3 05bd 02b9 91bd b9f3 923b
000002d0: 8657 943d 6654 c53d ab5c 8d3d 9142 f03d
000002e0: 9bab 82bd 111c ca3d 396c c23c 0e58 7f3d
000002f0: c41c 10bd d704 c93b d5c7 283d 06ea c3bd
00000300: 7ddc efbd eeb3 d9bc 7cbf f5bd 28ee bebc
00000310: b298 a43d 20d0 6d3d 0380 e73c 895d 87bd
00000320: e9a5 ab3d a780 0fbd 7c40 77bd b27c 8a3d
00000330: 024f 883c 16be b63d f55b f4bd 8c53 2c3d
00000340: adf5 543d d4a1 683d 9d79 76bd 92d9 0b3d
00000350: 5967 903d 185b ea3d e172 6ebd 8e10 8a3d
00000360: c8bb fd3d 2f7b 8d3d 6bd2 973d 1cc9 9dbd
00000370: 9171 f03d 8040 1a3d 5576 76bd 05a9 633d
00000380: 5e08 923d a597 fd3c ccad 6b3a 4a91 853d
00000390: ca5e 9cbd 8e11 8d3d b55f 9c3d e3dc c63c
000003a0: bc85 d0bd 4971 d13d 7a05 b93a a6b5 d9bd
000003b0: 6a1e 463d 3e27 893d 3059 053d 3a54 83bd
000003c0: 7766 8ebd 50f5 3a3d d1bc ae3c 3944 85bd
000003d0: 2112 e2bd 0c97 8ebd 9fed e7bd fd52 d7bd
000003e0: 6295 e1ba d312 8c3c d7f1 1bbd a6bd 19bd
000003f0: 888e bd3d 3957 d93d b787 1cbd 5685 b5bd

bias_ih f4 [192]
-0.052841365 -0.039714158 -0.048632905 0.010389686 -0.02383764 -0.0028694673 -0.04250142 0.029923614
-0.039293807 -0.09765502 -0.0026068795 0.025555328 -0.03257204 -0.042460606 -0.10343553 -0.068799056
-0.05356828 0.012151698 0.05471111 -0.11082077 0.03438556 0.12888014 0.019479062 -0.0751828
0.002749265 -0.04197027 -0.021729317 0.014661099 -0.0038923079 0.03546615 -0.07930109 0.09069799
-0.06884964 -0.064816244 0.086229734 0.019597614 0.12945874 -0.057834566 -0.02754101 -0.04592147
-0.053462844 -0.0058984025 0.0369465 0.019820709 0.036645804 0.02876488 0.13335513 -0.053264704
0.08575705 0.07317548 0.04908578 -0.021706065 0.05603704 0.09734279 0.006771271 -0.05586991
0.11317524 0.081923686 -0.024559977 0.02741877 0.047922876 -0.0074390084 -0.035536908 -0.0117481565
0.017119758 0.00180234 0.041509524 -0.12211602 0.022518843 0.0031313368 0.06128908 -0.042411905
-0.11465486 0.12591583 0.0182874 0.059821445 -0.03928964 0.050254792 -0.07114072 -0.0761824
0.015552515 0.046486586 -0.09440764 0.06578182 -0.07624127 0.0806398 -0.090854414 0.05473586
0.003833955 0.011312661 -0.086265534 0.07775706 0.00041649205 -0.013952196 0.017640756 -0.07134535
-0.11491061 -0.041323338 -0.02607977 -0.099936865 -0.04178896 -0.09668333 0.018276302 -0.042246673
0.02417458 -0.1043354 -0.04898398 0.04421655 0.11568533 -0.097216845 -0.01264163 -0.1070375
-0.014766615 0.102582365 -0.13026471 0.058767706 0.040477592 -0.10214704 -0.015230225 0.0039716135
0.023780858 -0.07447911 0.10800045 -0.11770568 0.019141287 -0.10480302 -0.101643294 0.010914039
-0.11622257 0.04369941 -0.08526909 0.07512034 0.050982505 -0.043197863 -0.031819213 -0.08336903
-0.044879936 -0.1135294 -0.0818597 -0.01889664 0.053917002 -0.083440095 -0.07952957 -0.0057483045
0.0990795 0.0033406508 -0.10982981 -0.105171755 -0.1210167 -0.076896966 0.023244275 -0.09757591
0.06917182 0.10603145 0.09731333 0.035948154 0.13721608 0.0016977028 -0.1352975 0.0028998663
0.094637394 -0.057367224 -0.09263882 -0.030854242 -0.037399627 0.052411444 -0.008653594 -0.09780338
0.052475635 -0.0069473526 0.11771305 -0.035356812 0.045069084 -0.1180579 -0.00026312616 0.027457982
-0.050290987 -0.09576277 -0.11257564 -0.109221585 -0.048338834 0.014306535 0.1310245 -0.10015732
0.03711379 -0.10385007 -0.01437278 0.023530956 0.119581066 0.046296332 -0.08916505 -0.021046454
00000000: 3070 58bd 50ab 22bd 4c33 47bd 8039 2a3c
00000010: 2847 c3bc ac0d 3cbb f815 2ebd 5e22 f53c
00000020: 8bf2 20bd 5bff c7bd 2ed8 2abb 6859 d13c
00000030: 426a 05bd 2ceb 2dbd 02d6 d3bd 85e6 8cbd
00000040: 6a6a 5bbd ea17 473c c218 603d 00f6 e2bd
00000050: dfd7 0c3d 28f9 033e 8e92 9f3c 71f9 99bd
00000060: 032d 343b 05e9 2bbd ae01 b2bc 1b35 703c
00000070: 1716 7fbb f444 113d 9c68 a2bd debf b93d
00000080: 0a01 8dbd 61be 84bd 3799 b03d 2d8b a03c
00000090: d590 043e f0e3 6cbd af9d e1bc 2718 3cbd
000000a0: dbfb 5abd 6347 c1bb 3755 173d 0a5f a23c
000000b0: e919 163d 53a4 eb3c 3f8e 083e 172c 5abd
000000c0: 64a1 af3d 07dd 953d 2c0e 493d ebd0 b1bc
000000d0: 1887 653d a85b c73d 8ae1 dd3b d9d7 64bd
000000e0: 6cc8 e73d 9bc7 a73d 0132 c9bc 549d e03c
000000f0: c74a 443d edc2 f3bb 268f 11bd 577b 40bc
00000100: bc3e 8c3c 7f3c ec3a e405 2a3d f717 fabd
00000110: 7079 b83c 1d37 4d3b 420a 7b3d 1bb8 2dbd
00000120: 2bd0 eabd 14f0 003e 75cf 953c 5507 753d
00000130: 2cee 20bd f8d7 4d3d 3ab2 91bd 8505 9cbd
00000140: facf 7e3c b868 3e3d cb58 c1bd 9eb8 863d
00000150: 6224 9cbd 7b26 a53d e111 babd b632 603d
00000160: 1743 7b3b bd58 393c fcab b0bd 183f 9f3d
00000170: 9e5c da39 c097 64bc 5983 903c 831d 92bd
00000180: 4156 ebbd a942 29bd 3ea5 d5bc b3ab ccbd
00000190: e72a 2bbd e901 c6bd 2fb8 953c d90a 2dbd
000001a0: c509 c63c ccad d5bd 6da3 48bd 6a1c 353d
000001b0: 6eec ec3d a019 c7bd d71e 4fbc 7a36 dbbd
000001c0: acef 71bc b416 d23d 1d64 05be 68b6 703d
000001d0: d5cb 253d 7832 d1bd 3288 79bc 4f24 823b
000001e0: 13d0 c23c 8188 98bd 572f dd3d ad0f f1bd
000001f0: 30ce 9c3c f7a2 d6bd 5c2a d0bd ccd0 323c
00000200: 1906 eebd 27fe 323d 90a1 aebd b1d8 993d
00000210: 08d3 503d 3ef0 30bd dd54 02bd 62bd aabd
00000220: 06d4 37bd 1a82 e8bd 0fa6 a7bd 20cd 9abc
00000230: 13d8 5c3d a4e2 aabd 66e0 a2bd 465c bcbb
00000240: 31ea ca3d d2ee 5a3b 74ee e0bd 4a64 d7bd
00000250: 9bd7 f7bd 287c 9dbd c76a be3c e1d5 c7bd
00000260: f5a9 8d3d 0427 d93d 364c c73d 5f3e 133d
00000270: 5f82 0c3e 7485 de3a 6e8b 0abe af0b 3e3b
00000280: 40d1 c13d e5f9 6abd 6cb9 bdbd 09c2 fcbc
00000290: 5a30 19bd 62ad 563d cec7 0dbc 234d c8bd
000002a0: b1f0 563d 9ea6 e3bb 8a13 f13d 4ed2 10bd
000002b0: 5c9a 383d 57c8 f1bd 32f4 89b9 90ef e03c
000002c0: ecfd 4dbd 451f c4bd 0f8e e6bd 91af dfbd
000002d0: f1fe 45bd f565 6a3c 492b 063e 481f cdbd
000002e0: a104 183d 58af d4bd cf7b 6bbc fec3 c03c
000002f0: ebe6 f43d 39a1 3d3d 2a9c b6bd 9d69 acbc

bias_hh f4 [192]
0.1155156 -0.038197935 -0.026310228 -0.03531136 -0.07247104 0.11670914 -0.09926887 -0.061302613
-0.019157564 -0.03676911 -0.07603066 0.053431194 0.028351055 0.06787001 -0.017310897 -0.06686529
0.007612731 -0.12400319 0.09623626 -0.01026655 -0.012904288 0.090801254 -0.117257014 -0.04634077
0.04821714 0.14021067 0.123261884 -0.08494257 -0.12238734 0.053407952 0.045306817 -0.083549574
-0.026068624 0.082942866 0.06393707 -0.03816582 -0.0013758515 -0.09492129 0.04182185 -0.020911967
0.093806006 0.06446545 -0.1227881 0.020299507 0.019487185 0.04841182 0.0803149 -0.049302753
-0.07329722 -0.010237158 -0.0017456223 0.07169058 0.15201145 0.08191341 0.10014127 -0.07920974
0.018215325 0.03748844 0.079801 -0.077618316 -0.046424586 0.007782373 0.05321572 0.008965895
0.113125734 -0.045300055 -0.03275642 -0.110903345 0.067055546 -0.008753379 -0.046287406 -0.093254834
-0.033029594 -0.09791256 -0.030161614 0.10802128 -0.060357276 -0.11140291 -0.005792103 0.08786649
0.028841669 0.10077799 -0.093055256 -0.13766363 -0.037646364 0.07058237 -0.046404064 -0.021224065
-0.07125726 -0.012068528 0.0071044164 0.1226991 -0.08094781 -0.10177858 0.092513345 0.035143506
0.10013465 0.1083632 -0.0011500085 -0.025622955 -0.020660095 -0.11600562 -0.047967527 0.0026937805
0.017216112 0.025903644 0.115187965 0.10799488 0.084728524 0.06396103 -0.045423027 -0.03040302
0.1002671 0.044298533 0.0895347 0.06455406 -0.10345629 -0.062940195 0.07596859 0.031958014
-0.059068985 0.0016853013 -0.050302256 0.03920104 -0.07618417 0.057750024 0.0119646555 0.041606728
-0.11301006 0.09720914 -0.10339764 -0.05688705 -0.07936261 -0.035861176 0.063658394 -0.09935543
0.11712524 -0.10317733 -0.120995946 -0.016095554 -0.11494889 0.040211614 -0.07376903 0.13357161
-0.026094053 0.08200001 0.08633955 0.07934919 -0.08983626 0.03424314 0.07847729 0.06461304
-0.12594688 -0.09503215 -0.072019935 0.036046036 -0.014344942 -0.012921023 0.016338183 0.033185713
-0.023892922 0.06330069 -0.015944062 -0.05419656 0.008770327 -0.031236447 -0.062310267 -0.008961778
0.14309171 -0.038694207 -0.07720302 -0.077906944 -0.05572075 0.06552531 0.09864384 -0.025684265
0.123226374 -0.041460674 -0.11114247 -0.060145985 0.050731845 0.07648894 -0.085990265 -0.14438038
0.11032562 -0.11179912 0.050507344 -0.047955263 -0.058183897 -0.08610972 0.055123173 -0.046496462
00000000: 7193 ec3d 7075 1cbd 8c88 d7bc a5a2 10bd
00000010: b26b 94bd 3405 ef3d 7a4d cbbd 7318 7bbd
00000020: 53f0 9cbc 359b 16bd f6b5 9bbd abda 5a3d
00000030: 7940 e83c 6fff 8a3d 95cf 8dbc abf0 88bd
00000040: 3774 f93b 62f5 fdbd 8417 c53d 0835 28bc
00000050: 826c 53bc 02f6 b93d 7224 f0bd d2cf 3dbd
00000060: 567f 453d 6393 0f3e ba70 fc3d 5ff6 adbd
00000070: 37a6 fabd 4cc2 5a3d a493 393d 0a1c abbd
00000080: de8d d5bc f3dd a93d 70f1 823d c353 1cbd
00000090: ea55 b4ba 1866 c2bd 634d 2b3d 934f abbc
000000a0: 5d1d c03d 7606 843d 5478 fbbd 274b a63c
000000b0: 97a3 9f3c 794b 463d 237c a43d aff1 49bd
000000c0: da1c 96bd c1b9 27bc 5dcd e4ba 83d2 923d
000000d0: e4a8 1b3e 38c2 a73d de16 cd3d b738 a2bd
000000e0: 4e38 953c 7a8d 193d b56e a33d 5af6 9ebd
000000f0: b527 3ebd 4703 ff3b baf8 593d b0e5 123c
00000100: 77ae e73d 8d8c 39bd 992b 06bd 4b21 e3bd
00000110: 6b54 893d 556a 0fbc dd97 3dbd 64fc bebd
00000120: 0a4a 07bd 6186 c8bd 7d15 f7bc 433a dd3d
00000130: 3139 77bd 3527 e4bd aecb bdbb 59f3 b33d
00000140: 5d45 ec3c b164 ce3d c193 bebd b2f7 0cbe
00000150: 1333 1abd 7d8d 903d 3012 3ebd 17de adbc
00000160: 54ef 91bd 13bb 45bc 2acc e83b aa49 fb3d
00000170: f7c7 a5bd 4a71 d0bd a377 bd3d a3f2 0f3d
00000180: 6513 cd3d 87ed dd3d e2bb 96ba 3be7 d1bc
00000190: 5c3f a9bc 5b94 edbd 9979 44bd 238a 303b
000001a0: ce08 8d3c e133 d43c abe7 eb3d 6b2c dd3d
000001b0: 2686 ad3d 00fe 823d 7f0d 3abd c10f f9bc
000001c0: d658 cd3d 6172 353d f85d b73d eb34 843d
000001d0: e4e0 d3bd cae6 80bd 6c95 9b3d 68e6 023d
000001e0: 52f2 71bd 54e5 dc3a bd09 4ebd 4591 203d
000001f0: 7206 9cbd 4a8b 6c3d 6707 443c d16b 2a3d
00000200: d171 e7bd 9615 c73d 24c2 d3bd 6502 69bd
00000210: dd88 a2bd 2be3 12bd 555f 823d dc7a cbbd
00000220: 5cdf ef3d a34e d3bd b9cc f7bd d3da 83bc
00000230: 536a ebbd efb4 243d 3814 97bd ffc6 083e
00000240: 32c3 d5bc 9fef a73d cad2 b03d d481 a23d
00000250: 13fc b7bd 8942 0c3d b4b8 a03d d753 843d
00000260: 38f8 00be 37a0 c2bd 307f 93bd 02a5 133d
00000270: 0c07 6bbc b3b2 53bc a7d7 853c beed 073d
00000280: 17bb c3bc cba3 813d 1f9d 82bc 36fd 5dbd
00000290: 6bb1 0f3c 94e3 ffbc 0d39 7fbd 6cd4 12bc
000002a0: a286 123e d17d 1ebd 9e1c 9ebd ad8d 9fbd
000002b0: 713b 64bd 2232 863d c805 ca3d cf67 d2bc
000002c0: 1c5e fc3d abd2 29bd aa9e e3bd a35b 76bd
000002d0: 32cc 4f3d 3ca6 9c3d aa1b b0bd 73d8 13be
000002e0: 66f2 e13d f0f6 e4bd cae0 4e3d bd6c 44bd
000002f0: 3d52 6ebd 4b5a b0bd d6c8 613d 1373 3ebd

weight f4 [5, 64]
0.14186464 0.087343074 -0.10947321 -0.029476328 0.011167344 -0.082676455 0.10910531 0.1157988
-0.027401133 0.123478584 -0.025410237 -0.050620817 -0.10750206 0.006338682 0.0968251 -0.013564873
0.030518658 0.09093993 -0.075771995 -0.12308219 -0.030552227 -0.05545209 0.08730755 0.073996305
0.117374256 -0.101212904 0.098783806 -0.11382626 -0.082421556 -0.031558808 0.005291148 0.012228612
0.03880172 0.117246 0.1258989 -0.057784386 0.10414946 -0.009806747 0.042177632 -0.07067609
-0.09892278 -0.07121796 -0.009503719 -0.035625353 0.029622786 -0.0969182 -0.11855013 0.06144794
0.07075184 0.13467564 0.10219531 -0.064388216 -0.07711497 -0.06032877 -0.10755355 0.14248806
0.103346124 0.12250172 0.095080964 0.09641807 -0.113554895 -0.06465728 0.08258511 -0.008070737
-0.100252815 -0.0033362457 -0.09674786 -0.056597188 0.03125422 0.011362185 0.024413671 -0.07082743
0.05098613 0.04443881 -0.08653259 -0.0004166652 0.022752194 0.06448349 -0.09903658 0.10213363
-0.03548899 0.037409775 0.10256166 0.022039201 -0.07738113 -0.044846747 -0.03131237 -0.02316992
0.0033628605 0.07353481 -0.00087058987 0.095930286 -0.034168504 0.057626326 0.024747128 0.04779669
-0.012031478 -0.08978866 0.06663872 0.08027906 0.084374055 -0.09088493 -0.091301955 -0.022641039
-0.110066645 -0.080516934 -0.020619435 0.10166705 -0.12176652 -0.015694786 -0.11335989 0.06804147
0.013092421 0.03286994 -0.047172382 -0.047378354 -0.021004152 -0.12205539 0.04538845 0.110964894
-0.07296747 0.08800966 0.0712991 0.04439204 0.015327911 -0.036565993 0.071761526 0.11009841
0.0821343 0.12769435 -0.10352001 -0.11545493 -0.021381106 -0.10532222 0.12084463 -0.06973429
0.025540357 -0.05617683 -0.017873852 0.011904228 -0.052657917 -0.015644675 -0.009218905 -0.077394955
-0.10479225 0.06328389 -0.10848358 -0.055472814 -0.035964347 -0.018620698 -0.0069072163 -0.12574285
-0.041688748 0.0007075105 -0.05432677 -0.0118444525 -0.085984804 -0.036220342 -0.11367516 0.123305805
0.014508155 -0.0391016 -0.08957847 -0.0013205946 -0.022820232 -0.048901644 -0.046333592 -0.07452466
0.07559847 -0.013220658 0.0015972876 -0.1157328 0.13844283 0.0061782594 0.07000951 0.03596028
0.0067262375 0.047412477 0.059037905 -0.100664556 0.04967913 0.08013434 -0.1274225 -0.13236727
-0.075915165 -0.031202534 0.08025376 0.023334678 0.05291629 0.12325961 -0.006650094 0.033909146
0.06917165 0.0724796 -0.042758975 0.09698148 -0.05030196 0.020176668 -0.1228219 0.081047826
0.02193813 0.07593354 0.028486134 0.017487433 -0.03364735 0.06924604 0.1186595 -0.02604394
-0.08646386 -0.029762065 -0.064844504 0.012929716 -0.06487364 0.12692383 0.05221825 -0.015459192
-0.025821093 0.11139995 0.060499735 0.12194217 -0.07541983 0.053883586 -0.04312488 -0.06925741
0.1122517 -0.04062151 -0.06534037 -0.07978423 0.075136654 -0.091436885 0.079492696 0.034119926
-0.09464541 -0.1079294 -0.05353706 0.028718097 0.010073127 -0.007058084 -0.11589735 -0.12282703
0.025201844 -0.0063134157 0.06286225 0.04563692 -0.03985649 0.023946824 -0.046843093 0.056415334
-0.03431348 0.02394408 -0.103272796 -0.07968138 0.04470446 0.07791788 0.08133204 0.05962757
00000000: f744 113e ede0 b23d 7e33 e0bd 5778 f1bc
00000010: 3cf7 363c 4652 a9bd 9b72 df3d ec27 ed3d
00000020: 5778 e0bc 57e2 fc3d 2129 d0bc c657 4fbd
00000030: 0a2a dcbd b8b4 cf3b 3d4c c63d 333f 5ebc
00000040: 4402 fa3c b73e ba3d 592e 9bbd 8412 fcbd
00000050: aa48 fabc bb21 63bd 4dce b23d 608b 973d
00000060: ea61 f03d b648 cfbd 2a4f ca3d be1d e9bd
00000070: a2cc a8bd cf43 01bd 5e61 ad3b 845a 483c
00000080: 8dee 1e3d ac1e f03d a4eb 003e 52af 6cbd
00000090: 504c d53d 7aac 20bc 74c2 2c3d a0be 90bd
000000a0: 0798 cabd b9da 91bd 7db5 1bbc e4eb 11bd
000000b0: 7cab f23c 0d7d c6bd 69ca f2bd d6b0 7b3d
000000c0: 57e6 903d 69e8 093e c64b d13d f8dd 83bd
000000d0: 74ee 9dbd 4d1b 77bd 0945 dcbd 64e8 113e
000000e0: 22a7 d33d 2fe2 fa3d cfb9 c23d d676 c53d
000000f0: 788f e8bd 096b 84bd 6222 a93d 203b 04bc
00000100: 5951 cdbd eaa4 5abb be23 c6bd 74d2 67bd
00000110: 6d04 003d 7528 3a3c 2eff c73c f90d 91bd
00000120: d5d6 503d 7805 363d 0038 b1bd db73 dab9
00000130: cf62 ba3c ec0f 843d b1d3 cabd 702b d13d
00000140: e75c 11bd fe3a 193d d90b d23d 8e8b b43c
00000150: ff79 9ebd 39b1 37bd 6641 00bd d8ce bdbc
00000160: 7063 5c3b 6b99 963d 4c38 64ba 1977 c43d
00000170: 46f4 0bbd 9509 6c3d 7dba ca3c 76c6 433d
00000180: ad1f 45bc 1ee3 b7bd e279 883d 5969 a43d
00000190: 4ecc ac3d e121 babd 85fc babd b379 b9bc
000001a0: 9f6a e1bd 10e6 a4bd 17ea a8bc d036 d03d
000001b0: ba60 f9bd 5a92 80bc 3b29 e8bd 5459 8b3d
000001c0: 9881 563c a1a2 063d d437 41bd ce0f 42bd
000001d0: e610 acbc 2df8 f9bd 3de9 393d 9041 e33d
000001e0: f86f 95bd 693e b43d 4305 923d 6ed4 353d
000001f0: eb21 7b3c 39c6 15bd b5f7 923d 467b e13d
00000200: 0736 a83d 4fc2 023e 4d02 d4bd a273 ecbd
00000210: 6e27 afbc 2db3 d7bd 647d f73d dad0 8ebd
00000220: 033a d13c ad19 66bd 2f6c 92bc f309 433c
00000230: d4af 57bd 4329 80bc e40a 17bc 3f81 9ebd
00000240: 529d d6bd fc9a 813d a42c debd 7637 63bd
00000250: 5a4f 13bd 6f8a 98bc ee55 e2bb bcc2 00be
00000260: d2c1 2abd 3a78 393a bf85 5ebd 3c0f 42bc
00000270: cd18 b0bd c85b 14bd 86ce e8bd c187 fc3d
00000280: 9db3 6d3c 0029 20bd eb74 b7bd cd17 adba
00000290: 7ff1 babc 174d 48bd 4bc8 3dbd 63a0 98bd
000002a0: 5fd3 9a3d 759b 58bc 145c d13a 5105 edbd
000002b0: f5c3 0d3e ff72 ca3b 2561 8f3d 164b 133d
000002c0: c567 dc3b 9633 423d bbd1 713d 3829 cebd
000002d0: 587c 4b3d 791d a43d 0b7b 02be 498b 07be
000002e0: 6979 9bbd 759c ffbc 155c a43d 5e28 bf3c
000002f0: c0be 583d 896f fc3d 08e9 d9bb 51e4 0a3d
00000300: dea9 8d3d 2f70 943d 0924 2fbd 3a9e c63d
00000310: 6e09 4ebd 8a49 a53c 0c8a fbbd 67fc a53d
00000320: 98b7 b33c 0b83 9b3d c15b e93c ce41 8f3c
00000330: ced1 09bd ded0 8d3d c003 f33d 1a5a d5bc
00000340: f713 b1bd 93cf f3bc 32cd 84bd 29d7 533c
00000350: 79dc 84bd 52f8 013e cee2 553d 8d48 7dbc
00000360: c286 d3bc a825 e43d 92ce 773d d1bc f93d
00000370: b675 9abd 09b5 5c3d b7a3 30bd d4d6 8dbd
00000380: 38e4 e53d be62 26bd 2cd1 85bd ea65 a3bd
00000390: 3fe1 993d 4343 bbbd 11cd a23d 56c1 0b3d
000003a0: 74d5 c1bd 170a ddbd ad49 5bbd 3742 eb3c
000003b0: c209 253c 8047 e7bb 975b edbd bd8c fbbd
000003c0: 1974 ce3c c5e0 cebb ecbd 803d c7ed 3a3d
000003d0: 8f40 23bd 212c c43c 8bde 3fbd c413 673d
000003e0: 4b8c 0cbd 6026 c43c b080 d3bd fe2f a3bd
000003f0: 061c 373d 6993 9f3d 6a91 a63d 0a3c 743d

bias f4 [5]
0.022924222 -0.01938832 0.07939368 -0.12727745 -0.08689301
00000000: 94cb bb3c 41d4 9ebc 2799 a23d 0555 02be
00000010: f6f4 b1bd

welford_state_mean f4 [3]
0.6952381 0.63809526 0.6380953
00000000: 20fb 313f 365a 233f 375a 233f

welford_state_mean_diff f4 [3]
22.53036 24.496815 24.24876
00000000: 2d3e b441 7af9 c341 76fd c141

hidden f4 [6, 64]
-0.3621966 0.27536407 -0.1273351 -0.0090940595 0.31467035 -0.11185671 -0.22441626 -0.40599057
-0.110146396 -0.011798575 -0.22045517 -0.23832175 0.009312631 -0.12361862 -0.008413092 0.36956394
-0.25523478 0.17908093 -0.066016085 0.01678745 0.052556474 -0.28392273 0.21657695 0.07195302
-0.19428964 0.34772405 -0.18262246 0.37111193 0.41770732 0.3813829 -0.17372657 -0.29983735
0.43694115 -0.22817205 -0.41287562 0.11802779 -0.06308434 0.30516666 -0.045857918 -0.03296932
-0.19049804 0.32724372 0.051386513 -0.13047825 0.0100588 -0.102675535 0.05739921 -0.123891376
0.17802785 -0.26333302 0.08788484 0.15795 0.046357796 -0.2351665 -0.027513308 -0.36823398
-0.33793327 -0.09586385 -0.4309657 0.3516907 -0.06245187 0.10971781 -0.13557208 -0.11542808
-0.36219302 0.27546474 -0.1272529 -0.009176455 0.3147596 -0.11180029 -0.2243578 -0.4060758
-0.10999332 -0.011693049 -0.22047833 -0.23843035 0.009483904 -0.12339561 -0.008396665 0.36980927
-0.25521293 0.17907901 -0.066035666 0.016772015 0.05260005 -0.28386614 0.21652344 0.07200843
-0.19424452 0.34797433 -0.18301642 0.3712244 0.4177252 0.3813095 -0.17379975 -0.29980683
0.43702054 -0.22822794 -0.41288772 0.11804258 -0.06308174 0.3050915 -0.0459254 -0.032873526
-0.19042322 0.3271453 0.05131093 -0.13072526 0.0100464 -0.102816924 0.057352703 -0.12368514
0.17809242 -0.2632638 0.087989844 0.15790926 0.046351798 -0.23493028 -0.027544813 -0.3681804
-0.33784917 -0.09581677 -0.4310629 0.35160094 -0.06241351 0.109772 -0.13553521 -0.115318455
-0.13555384 0.07109372 -0.14233889 0.042861722 -0.049721885 -0.019917384 0.08920694 -0.0495877
0.04949279 -0.23705968 -0.18731877 -0.037898723 0.06657043 -0.011987347 -0.17015362 -0.021019556
0.20749773 0.05611846 0.012537338 -0.015029505 -0.2869752 -0.067245886 -0.05388055 -0.15749694
-0.0075194836 -0.0033752308 0.095974006 -0.08190021 0.111468956 -0.13777506 -0.22135445 0.15666524
-0.084706195 -0.11010724 -0.060813744 -0.04704137 -0.20424628 -0.03785887 -0.21305564 -0.13318312
0.35079485 -0.14494747 -0.01018133 -0.08963259 0.1078562 -0.043457285 0.10081432 0.06423978
-0.0566693 -0.16949543 -0.36033928 -0.1851623 0.11826656 0.11647631 0.08497711 -0.19855432
0.095787354 -0.1246501 0.17982405 -0.08420935 0.20491947 0.1233492 -0.08846543 -0.07278254
-0.36185893 0.27486342 -0.12816183 -0.008736967 0.3142132 -0.11212665 -0.2245967 -0.40554994
-0.11041988 -0.012888172 -0.2206875 -0.23797886 0.008626824 -0.12438658 -0.008531395 0.36902878
-0.25507128 0.17924123 -0.065794766 0.01699132 0.052343026 -0.28421992 0.21678506 0.071808904
-0.19453958 0.3470169 -0.18176728 0.37079966 0.4179353 0.38171723 -0.17356378 -0.2993703
0.43649453 -0.22818439 -0.41215038 0.118131414 -0.06331289 0.30559203 -0.04581271 -0.03321437
-0.19066219 0.32763112 0.051697902 -0.12973517 0.010846803 -0.10256698 0.058000553 -0.12424933
0.178001 -0.26353875 0.08732892 0.15731016 0.046432767 -0.23597893 -0.02762069 -0.36876598
-0.33799034 -0.09628445 -0.43034214 0.35193917 -0.06261108 0.109697044 -0.13590859 -0.116029
00000000: d571 b9be 85fc 8c3e 2264 02be 40ff 14bc
00000010: 791c a13e 2115 e5bd 60cd 65be ffdd cfbe
00000020: 6f94 e1bd cf4e 41bc 00bf 61be 9e0a 74be
00000030: 0194 183c c22b fdbd 11d7 09bc 7c37 bd3e
00000040: 22ae 82be fe60 373e 7133 87bd d685 893c
00000050: 7545 573d 525e 91be 59c6 5d3e 1b5c 933d
00000060: ddf3 46be e308 b23e 6201 3bbe 6202 be3e
00000070: bcdd d53e 9f44 c33e 61e5 31be 4884 99be
00000080: c0b6 df3e efa5 69be 6f64 d3be 8eb8 f13d
00000090: 5d32 81bd ce3e 9c3e 83d5 3bbd d60a 07bd
000000a0: eb11 43be 7d8c a73e aa7a 523d 179c 05be
000000b0: aacd 243c 8d47 d2bd 6f1b 6b3d c3ba fdbd
000000c0: ef4c 363e 96d3 86be f8fc b33d a5bd 213e
000000d0: ace1 3d3d 7dcf 70be 9763 e1bc 2a89 bcbe
000000e0: 9705 adbe 4454 c4bd 89a7 dcbe ce10 b43e
000000f0: 88cd 7fbd bbb3 e03d 68d3 0abe 8f65 ecbd
00000100: 5d71 b9be b709 8d3e 964e 02be d858 16bc
00000110: 2c28 a13e 8df7 e4bd 0dbe 65be 2be9 cfbe
00000120: 2e44 e1bd 3494 3fbc 12c5 61be 1627 74be
00000130: 6062 1b3c d6b6 fcbd 2a92 09bc a457 bd3e
00000140: 45ab 82be 7d60 373e b53d 87bd 7765 893c
00000150: 2673 573d e756 91be 52b8 5d3e 2879 933d
00000160: 09e8 46be b129 b23e a868 3bbe 2011 be3e
00000170: 14e0 d53e 003b c33e 90f8 31be 4880 99be
00000180: 28c1 df3e 96b4 69be 0566 d3be 4fc0 f13d
00000190: 0031 81bd f434 9c3e 461c 3cbd 64a6 06bd
000001a0: 4efe 42be 977f a73e 692b 523d d8dc 05be
000001b0: a899 243c ae91 d2bd abea 6a3d a24e fdbd
000001c0: dc5d 363e 83ca 86be 0534 b43d f7b2 213e
000001d0: 62db 3d3d 9091 70be a9a5 e1bc 2482 bcbe
000001e0: 91fa acbe 953b c4bd 47b4 dcbe 0a05 b43e
000001f0: 4fa5 7fbd 24d0 e03d bec9 0abe 152c ecbd
00000200: a0ce 0abe 9699 913d 49c1 11be c68f 2f3d
00000210: 2da9 4bbd c829 a3bc 21b2 b63d 791c 4bbd
00000220: f4b8 4a3d c6bf 72be 7ed0 3fbe b13b 1bbd
00000230: 1456 883d 9466 44bc c03c 2ebe 3431 acbc
00000240: 497a 543e 78dc 653d 6869 4d3c 503e 76bc
00000250: 6aee 92be 36b8 89bd dab1 5cbd e146 21be
00000260: 0066 f6bb fa32 5dbb 058e c43d 4cbb a7bd
00000270: d649 e43d e814 0dbe beaa 62be da6c 203e
00000280: 717a adbd e87f e1bd d517 79bd 74ae 40bd
00000290: f025 51be e711 1bbd 422b 5abe 2861 08be
000002a0: 629b b33e 1c6d 14be 98cf 26bc 4b91 b7bd
000002b0: b6e3 dc3d 4400 32bd bd77 ce3d 2590 833d
000002c0: 111e 68bd 3690 2dbe 647e b8be 309b 3dbe
000002d0: bd35 f23d 228b ee3d 7b08 ae3d d351 4bbe
000002e0: 292c c43d 8d48 ffbd cc23 383e f475 acbd
000002f0: 69d6 513e 819e fc3d 5d2d b5bd 030f 95bd
00000300: 9345 b9be e6ba 8c3e db3c 03be 7f25 0fbc
00000310: 8de0 a03e a8a2 e5bd adfc 65be 3ea4 cfbe
00000320: d123 e2bd e928 53bc e7fb 61be bbb0 73be
00000330: 8657 0d3c 64be febd 44c7 0bbc 57f1 bc3e
00000340: b498 82be 038b 373e 68bf 86bd 6131 8b3c
00000350: a465 563d 4685 91be e7fc 5d3e 8c10 933d
00000360: 6235 47be 33ac b13e 3421 3abe 74d9 bd3e
00000370: 9efb d53e 7170 c33e b4ba 31be 1047 99be
00000380: 367c df3e 2ba9 69be 6005 d3be e2ee f13d
00000390: 30aa 81bd 8f76 9c3e 1ca6 3bbd cb0b 08bd
000003a0: f33c 43be 44bf a73e 2ec1 533d 4cd9 04be
000003b0: cab6 313c a30e d2bd fd91 6d3d 6f76 febd
000003c0: e545 363e 8dee 86be 81d9 b23d ea15 213e
000003d0: 4930 3e3d 76a4 71be c944 e2bc e5ce bcbe
000003e0: 120d adbe c830 c5bd ce55 dcbe 5f31 b43e
000003f0: 3d3a 80bd d8a8 e03d 9f2b 0bbe 9da0 edbd
