r2l/store/karel-harvester-2000.pt (torch, 60363 bytes, 9 tensors)

weight_ih f4 [192, 4]
0	0x3d5f1028	0.054458767
1	0xbe25384f	-0.16134761
2	0xbbd7a321	-0.006580726
3	0xbebce247	-0.36891386
4	0xbc418adc	-0.011812892
5	0xbc4c1d20	-0.012458116
6	0xbe55f57a	-0.20894423
7	0x3cac366b	0.021022042
8	0x3d6d3ccb	0.057919305
9	0xbe28b7ef	-0.16476415
10	0x3df59508	0.11991316
11	0x3e08b94a	0.13351932
12	0xbd92fd9b	-0.07177278
13	0x3e8969cf	0.26838538
14	0xbe2c4ef5	-0.16826995
15	0x3e5b9a4b	0.21445577
16	0x3e50f129	0.20404495
17	0xbc628272	-0.013825046
18	0xbe2966a2	-0.16543058
19	0xbe034095	-0.12817605
20	0x3e4fd495	0.20295937
21	0x3d363467	0.04448357
22	0x3c991463	0.018686479
23	0x3e87aaa0	0.26497364
24	0x3ec04752	0.37554413
25	0xbca8f400	-0.02062416
26	0x3d8b75db	0.068095885
27	0xbc853c7a	-0.016264189
28	0x3e847e05	0.25877395
29	0xbd013b81	-0.031550888
30	0xbcc45fd0	-0.023971468
31	0x3e53c8bf	0.20682047
32	0x3dba8045	0.09106497
33	0x3dc5bc0c	0.09655008
34	0xbd9f6c05	-0.07784275
35	0x3db66301	0.08905602
36	0xbdafc0a3	-0.085816644
37	0xbe042b49	-0.12907137
38	0xbde5c8ed	-0.11219964
39	0xbdf75e94	-0.12078586
40	0x3e2f1124	0.17096382
41	0x3e3730ad	0.17889662
42	0x3df3a540	0.11896753
43	0xbc095f83	-0.008384588
44	0x3ce29008	0.02765657
45	0xbd20ae2e	-0.03922861
46	0xbd473bd0	-0.048641026
47	0xbdb245b8	-0.08704704
48	0x3ede405e	0.43408483
49	0xbc7f0534	-0.015565205
50	0xbbad87e3	-0.00529574
51	0x3e06bf99	0.13159026
52	0x3e5668cb	0.20938413
53	0x3cddf5c8	0.027094737
54	0xbde2e84e	-0.11079465
55	0x3e041759	0.12899531
56	0xbd22bdd7	-0.039731827
57	0xbd922085	-0.07135109
58	0x3d99d314	0.07510963
59	0x3ec0360a	0.3754123
60	0xbb94104d	-0.0045185448
61	0xbd9a6522	-0.07538821
62	0xbc2f53a5	-0.010701095
63	0xbddd6efe	-0.10812186
64	0x3e834b0d	0.25643197
65	0xbd3746bf	-0.044745203
66	0x3ccea3d8	0.025224611
67	0x3d732a36	0.059366427
68	0x3e6b8107	0.22998439
69	0x3d922b25	0.071371354
70	0xbc872f0f	-0.016501931
71	0x3d98436f	0.07434737
72	0x3e70e9b6	0.23526654
73	0x3dd7b8a8	0.10533267
74	0xbdb8f6a9	-0.09031422
75	0xbeae80c7	-0.34082624
76	0x3d1ca855	0.03824647
77	0xbda835f9	-0.082134195
78	0xbde15b57	-0.1100375
79	0x3e2de56f	0.16982053
80	0x3de32a7d	0.11092088
81	0xbe1b78ee	-0.1518285
82	0x3bd95b3c	0.0066331904
83	0xbe085e70	-0.13317275
84	0x3ea42079	0.32056025
85	0xbc1f158b	-0.009709726
86	0x3c0885b9	0.008332663
87	0xbe4ed61a	-0.20198861
88	0xbe3d350b	-0.18477266
89	0x3e4d376b	0.20040672
90	0xbdc94a08	-0.098285735
91	0x3d8f3371	0.069922335
92	0x3dfbbdd5	0.12292067
93	0x3d8634d4	0.06553045
94	0xbc850bec	-0.016241036
95	0xbe915fa2	-0.28393275
96	0xbd9eb794	-0.077498585
97	0x3ca22047	0.019790782
98	0xbd7eecb7	-0.062237468
99	0x3ec189b4	0.37800372
100	0x3e176514	0.14784652
101	0xbd2457b1	-0.04012269
102	0x3e0603b4	0.1308735
103	0x3ddd64a4	0.10810211
104	0xbda10291	-0.07861818
105	0x3d090eae	0.033461265
106	0xbdd2e502	-0.10297586
107	0x3adeb462	0.0016991014
108	0x3d33013f	0.04370236
109	0xbcb0b9e6	-0.021573018
110	0x3d8e9bf7	0.06963342
111	0xbea04d39	-0.31308916
112	0x3cfc4b9b	0.03079777
113	0x3d6f8519	0.05847654
114	0xbe537bf1	-0.20652749
115	0xbda08d3b	-0.078394376
116	0x3de87876	0.11351101
117	0xbce1115a	-0.027474094
118	0xbdaf4a15	-0.08559052
119	0xbd089779	-0.03334758
120	0x3d6fcc7c	0.05854462
121	0xbd656ef7	-0.056014027
122	0xbdd86a64	-0.105671674
123	0xbea70afe	-0.32625574
124	0xbe34b643	-0.17647652
125	0xbdb5d8a5	-0.08879212
126	0xbe519551	-0.20467116
127	0x3e90f7ca	0.28314048
128	0x3e946711	0.28984883
129	0x3c51c590	0.01280345
130	0xbd51160c	-0.051046416
131	0xbd108650	-0.03528434
132	0x3ed8d0da	0.4234684
133	0x3e1eef09	0.15520872
134	0xbde874ad	-0.11350379
135	0x3bafbfad	0.0053634257
136	0xbd423c11	-0.047420565
137	0xbdd17622	-0.1022761
138	0xbd4bda18	-0.049768537
139	0x3d21dec7	0.039519098
140	0x3d0e7c1f	0.03478634
141	0x3c98fc77	0.018675072
142	0xbe02c562	-0.12770608
143	0xbc8d1ba9	-0.017225103
144	0x3c8794d3	0.016550457
145	0x3d90703c	0.07052657
146	0x3e0347cb	0.12820356
147	0xbebd368e	-0.36955684
148	0x3e6c6cb1	0.23088337
149	0x3df7cb22	0.120992914
150	0xbd77ad1d	-0.060467828
151	0xbd693622	-0.05693639
152	0xbddbbcc9	-0.10729367
153	0xbe22d442	-0.15901282
154	0xbdd34180	-0.103152275
155	0xbd09049b	-0.033451658
156	0x3da56c24	0.08077267
157	0x3ccdf8c4	0.025143035
158	0x3cf23125	0.02956445
159	0xbe1bc94f	-0.15213512
160	0x3e441032	0.19146803
161	0xbe469e9e	-0.19396445
162	0x3e89e374	0.26931345
163	0x3e5bb323	0.21455054
164	0xbd139927	-0.03603473
165	0x3db47cab	0.08812841
166	0xbe31fce0	-0.1738162
167	0x3c417cdb	0.011809553
168	0x3dfce375	0.123480715
169	0x3d6dd649	0.058065686
170	0xbe435a5b	-0.19077437
171	0xbe0a8b0f	-0.13529609
172	0xbdd0b372	-0.101904765
173	0xbdb95a53	-0.09050431
174	0x3cd3687f	0.025806664
175	0x3df74bc1	0.12074996
176	0x3d991bc3	0.07475998
177	0x3da0ffdb	0.078613006
178	0xbd24d2de	-0.04024016
179	0x3d8a991b	0.06767484
180	0xbc351096	-0.011051318
181	0x3e511d53	0.20421343
182	0xbe38255c	-0.17983001
183	0xbdd7f3b1	-0.10544527
184	0xbe00f328	-0.12592757
185	0x3db548e2	0.08851792
186	0xbd9f3231	-0.07773245
187	0x3d947cd0	0.072503686
188	0xbe9d7f70	-0.3076129
189	0xbe172704	-0.14760977
190	0xbd7a8c40	-0.06116891
191	0x3ea9aac6	0.33138102
192	0x3d3ba474	0.04581113
193	0xbc936ce5	-0.01799626
194	0xbdda9aab	-0.10674032
195	0xbef6da7d	-0.48213568
196	0xbe743339	-0.23847665
197	0x3d367d3d	0.04455303
198	0xbd83432a	-0.06409295
199	0x3ceced28	0.028921679
200	0xbb1bf84e	-0.0023799124
201	0x3e154844	0.14578348
202	0xbe814985	-0.25251403
203	0x3e05593a	0.13022318
204	0x3e17819a	0.14795533
205	0xbe812385	-0.25222412
206	0x3e53829d	0.20655294
207	0xbe6e6baa	-0.23283258
208	0xbe832ce3	-0.25620183
209	0x3e0e267e	0.13881871
210	0xbe06f2ec	-0.13178605
211	0x3e53b7e5	0.20675619
212	0x3e5b55bd	0.21419425
213	0xbd862e3d	-0.06551788
214	0x3e06c6fc	0.13161844
215	0x3dea36c6	0.114362285
216	0xbbfebe85	-0.0077741765
217	0x3c11e72f	0.008905216
218	0x3b84c7ca	0.004052137
219	0xbd17c5db	-0.037053924
220	0x3dd03123	0.10165622
221	0x3b78f381	0.0037986937
222	0xbe1fac92	-0.15593174
223	0x3bab93d3	0.005236128
224	0x3e98b5bb	0.2982615
225	0xbe71f01d	-0.23626752
226	0x3de14052	0.10998596
227	0xbe01f4ce	-0.12691042
228	0xbdbea33d	-0.09308479
229	0x3b03fd82	0.0020140116
230	0xbe4ca1be	-0.19983575
231	0x3e442c34	0.19157487
232	0xbeb1e9f8	-0.34748816
233	0x3c029ae7	0.007971502
234	0xbdb6d78f	-0.08927833
235	0x3eb46aa2	0.35237604
236	0x3e2044ce	0.15651247
237	0x3d98b199	0.07455749
238	0xbc962069	-0.018326001
239	0xbddebe97	-0.10876196
240	0xbe0de2e3	-0.13856082
241	0xbd131a27	-0.035913613
242	0x3d8a5181	0.06753827
243	0x3e8fec6b	0.2811006
244	0x3e85558a	0.26041824
245	0xbe272274	-0.16321737
246	0x3e25730d	0.1615717
247	0x3ecda697	0.4016616
248	0x3e46b5e2	0.1940532
249	0xbc97d856	-0.018535774
250	0x3d4468ee	0.04795163
251	0x3e7220d7	0.2364534
252	0xbcd19abd	-0.02558648
253	0x3d5d5fb5	0.05404635
254	0xbe15dad7	-0.14634262
255	0x3dfae308	0.12250334

weight_hh f4 [192, 64]
0	0xbe1e4431	-0.154557
1	0xbd77b816	-0.060478292
2	0xbdfcf708	-0.12351805
3	0xbd20f126	-0.039292477
4	0x3dfe141e	0.12406181
5	0x3ddc6af7	0.107625894
6	0x3db1a474	0.08673945
7	0xbcc0312f	-0.023460953
8	0x3d757db6	0.05993434
9	0x3c28a1b5	0.01029246
10	0xbdeedb03	-0.11662867
11	0x3dc791b5	0.09744588
12	0xbd16113f	-0.03663754
13	0x3d12c202	0.03582955
14	0xbdc83ca8	-0.09777194
15	0x3c780a85	0.015139227
16	0x3da14261	0.07873989
17	0x3c4826a8	0.012216248
18	0xbc67ba6b	-0.014143567
19	0xbbe14706	-0.0068749217
20	0x3dd6e4a2	0.10492827
21	0x3d91bb74	0.07115832
22	0xbd82175c	-0.06352112
23	0x3dde0532	0.10840835
24	0x3de1d40d	0.110267736
25	0x3d3b7104	0.045762077
26	0x3cc1c1b2	0.023651931
27	0xbdd87200	-0.10568619
28	0x3e299e54	0.16564304
29	0x3c43bfbd	0.011947569
30	0xbcd6f0b9	-0.026237832
31	0xbc7e780f	-0.015531554
32	0x3d25d6cd	0.040488053
33	0x3d9ce472	0.0766076
34	0x3cfaa694	0.030597009
35	0x3dc8e9b6	0.09810202
36	0xbdd9b65b	-0.10630485
37	0x3dd8aad6	0.10579459
38	0x3ce5dc6d	0.028059209
39	0x3d71f876	0.05907484
40	0xbdcf8e4e	-0.10134564
41	0x3e0f0dea	0.13970152
42	0x3d2ac915	0.041695673
43	0xbd935d75	-0.0719556
44	0x3c6398ec	0.01389144
45	0x3d08a340	0.033358812
46	0x3c10177e	0.0087946635
47	0xbce60b29	-0.028081493
48	0xbdc474cc	-0.0959259
49	0x3da39f26	0.079893395
50	0x3d7b15de	0.06130015
51	0xbd078274	-0.033083394
52	0xbda617ab	-0.08109983
53	0xbde02855	-0.10945193
54	0xbdbc858b	-0.09205159
55	0xbe0e22e9	-0.13880505
56	0x3ceffa78	0.029294237
57	0x3d45cace	0.048289113
58	0xbbb624c2	-0.005558581
59	0x3c0b5250	0.008503512
60	0x3dfc8eae	0.123319015
61	0x3dee120b	0.11624535
62	0x3b546b88	0.0032412726
63	0xbd93dfa2	-0.07220389
64	0xbd9b85ae	-0.07593857
65	0xbbcd088f	-0.006257124
66	0xbdd0a2a1	-0.10187269
67	0x3ddcb1c6	0.10776095
68	0xbd4aab06	-0.049479507
69	0xbdf139e8	-0.11778623
70	0xbdb413ec	-0.08792862
71	0x3c8526ec	0.016253911
72	0x3dd9c7ca	0.1063381
73	0xbd86270d	-0.06550417
74	0x3d97b27f	0.07407092
75	0xbe2e70a1	-0.17035152
76	0xbdcf6d33	-0.1012825
77	0x3e18b7af	0.1491382
78	0xbd0d2026	-0.034454487
79	0x3db8a029	0.09014923
80	0xbe2a9d17	-0.16661488
81	0x3df31f70	0.118712306
82	0xbdbae708	-0.09126097
83	0x3d5cbf17	0.053893175
84	0xbd729b41	-0.059230093
85	0x3b862858	0.004094165
86	0xbdd69468	-0.10477525
87	0xbe2bebc6	-0.16789159
88	0xbe565b04	-0.20933157
89	0xbc649e9c	-0.013953831
90	0xbd36f0a1	-0.044663075
91	0xbd6ea147	-0.058259275
92	0xbd190d93	-0.03736646
93	0x3d2c03af	0.0419957
94	0xbd3ae3ae	-0.04562729
95	0xbd2b1250	-0.04176551
96	0x3dcaad9f	0.09896397
97	0xbde95ca9	-0.11394627
98	0x3c815c2c	0.015791021
99	0xbd133a84	-0.035944477
100	0x3d48c281	0.04901362
101	0x3d6b1c06	0.057399772
102	0xbddff1f0	-0.10934818
103	0xbe10b325	-0.14130838
104	0x3d2a79f7	0.04162022
105	0x3c99c41c	0.01877027
106	0xbdf30a59	-0.11867208
107	0xbe17911b	-0.14801447
108	0xbbbdd3cb	-0.00579307
109	0x3e11dd58	0.14244592
110	0x3e310599	0.17287292
111	0x3d0fd234	0.035112575
112	0x3c1d653b	0.009606655
113	0xbe08b308	-0.13349545
114	0xbce495fd	-0.027903551
115	0xbe005180	-0.1253109
116	0x3e0f2e89	0.13982596
117	0x3db39b9b	0.08769914
118	0xbdfea3d8	-0.124335945
119	0x3da672b7	0.08127349
120	0xbc1a2161	-0.009407372
121	0xbd25a1bb	-0.04043744
122	0x3de8dd6c	0.11370358
123	0xbb74ae7e	-0.003733545
124	0xbe058eb8	-0.13042724
125	0xbd3b301c	-0.045700178
126	0x3de09e42	0.10967685
127	0xbe2bf7af	-0.16793703
128	0xbe060bcb	-0.13090436
129	0x3e14fce2	0.14549592
130	0x3e72cecb	0.23711698
131	0xbe1ae168	-0.15125048
132	0x3a645c7e	0.0008711292
133	0xbbc0648a	-0.00587136
134	0xbd7645b2	-0.06012506
135	0x3c7eba59	0.015547358
136	0xbda00c08	-0.07814795
137	0x3cc342b4	0.023835517
138	0x3d2b67e1	0.041847114
139	0xbd6ff760	-0.058585525
140	0x3cf2cd94	0.029639043
141	0x3e06a1c5	0.13147648
142	0xbe0a5b5f	-0.13511418
143	0x3d974b91	0.0738746
144	0x3cf6e821	0.030139985
145	0xbc648b86	-0.013949281
146	0xbdea5d3d	-0.11443565
147	0x3c3a3069	0.011364081
148	0xbdfeeef9	-0.12447924
149	0x3d0f1f69	0.034942064
150	0x3d9bcdfa	0.07607646
151	0x3c77fa94	0.015135426
152	0x3e208208	0.15674603
153	0xbc8b18b3	-0.016979551
154	0x3d240a48	0.040048867
155	0x3d92f7af	0.07176148
156	0xbd506c92	-0.05088479
157	0x3dd9249e	0.10602687
158	0xbcf95b14	-0.030438937
159	0x3e370925	0.17874582
160	0x3cbce72e	0.023059454
161	0xbd0fb548	-0.035084993
162	0x3cebcfa6	0.028785538
163	0xbd60f5e8	-0.054922014
164	0x3dbf1a99	0.09331245
165	0xbcd31af7	-0.025769694
166	0xbdfdb34c	-0.12387714
167	0xbd904d31	-0.07045973
168	0xbc9a4c64	-0.018835254
169	0x3b83df78	0.0040244423
170	0xbd74eb64	-0.0597948
171	0xbc85f8c8	-0.01635398
172	0x3deb9506	0.11503033
173	0xbde5026f	-0.11182105
174	0x3d8e7e85	0.069577254
175	0x3d1448af	0.03620213
176	0x3dd64267	0.10461884
177	0x3a4bb254	0.00077704084
178	0x3d87d0e5	0.0663164
179	0xbe0d335d	-0.13789125
180	0xbde02029	-0.10943634
181	0xbd1d65b7	-0.03842708
182	0xbd4cee45	-0.05003192
183	0xbdb88e8d	-0.090115644
184	0xbd495348	-0.04915169
185	0xbdec5603	-0.11539843
186	0xbe470ca4	-0.19438416
187	0x3d46ded9	0.048552368
188	0x3d74846c	0.0596966
189	0x3dc4af4b	0.09603747
190	0xbdb6426e	-0.08899389
191	0x3e230843	0.1592112
192	0x3dde5a85	0.10857109
193	0xbe133e14	-0.1437915
194	0xbe516601	-0.20449068
195	0x3d061354	0.032733276
196	0xbdaaf5a2	-0.08347632
197	0xbc44188e	-0.011968745
198	0x3ce7cb10	0.02829507
199	0xbc454381	-0.01204002
200	0x3ca933e3	0.020654624
201	0xbe09d431	-0.13459851
202	0x3e22f5d2	0.15914086
203	0xbdd66458	-0.10468358
204	0xbdbfacd4	-0.09359136
205	0xbcfd6a4d	-0.030934477
206	0x3dab1d90	0.08355248
207	0x3da4a6c5	0.08039621
208	0x3ca08efa	0.019599427
209	0xbcd4fcfa	-0.025999535
210	0xbde48174	-0.11157504
211	0x3dd64981	0.104632385
212	0xbd1cc6eb	-0.03827564
213	0x3dc18090	0.094483495
214	0x3d8d6f73	0.06906023
215	0x3dd6b8af	0.10484444
216	0xbdb7b339	-0.08969731
217	0x3c961489	0.018320339
218	0xbddb8e52	-0.10720505
219	0x3dd5a42c	0.10431704
220	0xbdb9d040	-0.09072924
221	0x3cabcee1	0.020972671
222	0xbda5b1bc	-0.08090541
223	0xbdf948a3	-0.121720575
224	0xbe095d8e	-0.13414595
225	0xbd8f8acc	-0.07008895
226	0x3dc8c3a1	0.09802938
227	0x3db964cd	0.09052429
228	0xbdf13f47	-0.11779647
229	0xbb1dadbc	-0.0024059853
230	0xbccb66f5	-0.024829367
231	0xbcb5f2c1	-0.02221048
232	0x3e26a22a	0.16272798
233	0xbca1e454	-0.019762196
234	0x3d74402e	0.05963152
235	0x3cc2145a	0.023691345
236	0x3dc7af94	0.09750286
237	0x3cf7a661	0.030230703
238	0xbdf7301e	-0.120697245
239	0xbb8fbb0f	-0.004386313
240	0xbdcb23d9	-0.09918947
241	0x3c1cc9ee	0.009569628
242	0x3dc06ea3	0.09396102
243	0x3daf8af9	0.08571429
244	0xbd8762b1	-0.06610621
245	0xbe03edab	-0.12883632
246	0xbd3dd111	-0.04634196
247	0x3e1e4a1b	0.15457956
248	0x3daf89a0	0.08571172
249	0x3d0b1711	0.033957545
250	0xbd0dcbea	-0.034618296
251	0xbb685206	-0.003544928
252	0xbcaae4f2	-0.020861123
253	0xbddaf60c	-0.10691461
254	0x3c2a0aed	0.0103785815
255	0xbd5654af	-0.052326854

bias_ih f4 [192]
0	0x3d8f93b3	0.07010593
1	0x3cfa987a	0.030590285
2	0xbab59292	-0.0013852885
3	0xbd9efd46	-0.07763152
4	0xbd04e723	-0.03244699
5	0x3e0f52c0	0.1399641
6	0xbdb0035d	-0.085943915
7	0xbcfe2327	-0.031022621
8	0x3c5bf58d	0.013425243
9	0xbd1e5624	-0.03865637
10	0xbdae7919	-0.08519191
11	0x3dac2d4b	0.084070764
12	0x3d3977c9	0.04528025
13	0x3dda4e94	0.10659519
14	0xbc476626	-0.01217035
15	0x3c10376f	0.008802279
16	0x3d6ffc57	0.05859026
17	0xbd696b16	-0.05698689
18	0x3de1f6bf	0.11033391
19	0x3ca3ebc4	0.020009883
20	0x3c5ddcf3	0.013541448
21	0x3d8d599a	0.06901856
22	0xbddcf6be	-0.1078925
23	0xbc3e2055	-0.011604388
24	0x3c23071a	0.009950424
25	0x3e3d4a6d	0.18485422
26	0x3dd7f716	0.10545175
27	0xbdb7a6ac	-0.08967337
28	0xbd668432	-0.056278415
29	0x3e3c12bf	0.18366526
30	0xbb5aeaf3	-0.00334042
31	0xbdcc813d	-0.09985588
32	0x3cf3f6f9	0.029780852
33	0x3d7b9bc3	0.061427843
34	0x3e0cf38c	0.13764781
35	0x3da481e2	0.08032586
36	0xbd0e6fba	-0.03477452
37	0xbd3a9502	-0.04555226
38	0x3d2757a9	0.040855084
39	0xbc1a868c	-0.009431493
40	0x3dc33b89	0.0953284
41	0x3dea5ed7	0.114438705
42	0xbd7eb1f9	-0.062181447
43	0x3dacbca1	0.084344156
44	0x3dd91336	0.10599367
45	0x3d5eab72	0.05436272
46	0x3ddd65b2	0.108104125
47	0xbcf1edc7	-0.029532326
48	0xbddfbc5a	-0.10924597
49	0xbc13a127	-0.00901059
50	0xbcf64a26	-0.030064654
51	0x3da41015	0.0801088
52	0x3e04478c	0.12917918
53	0x3e1af5d0	0.15132833
54	0x3e4e8206	0.20166788
55	0xbdf1442f	-0.11780583
56	0x3cff1530	0.031138033
57	0x3c91d25d	0.017800504
58	0x3d034421	0.032047395
59	0xbd49b517	-0.049244966
60	0xbd1e1b79	-0.03860042
61	0x3b40dcc2	0.0029428457
62	0x3dcb91a5	0.09939889
63	0x3cfa7480	0.03057313
64	0xbc25921b	-0.010105635
65	0xbdf851f1	-0.12125004
66	0xbe00013e	-0.12500474
67	0xbe55a865	-0.20865019
68	0xbde14b88	-0.110007346
69	0xbe4caac2	-0.19987014
70	0xbe418309	-0.18897642
71	0xbe715670	-0.2356813
72	0xbe335dba	-0.17516223
73	0xbe7830fb	-0.24237435
74	0xbe51ab4f	-0.20475505
75	0x3d8368e0	0.06416488
76	0xbe454a92	-0.19266728
77	0xbe95cf11	-0.29259542
78	0xbe226a95	-0.1586097
79	0x3dc4dae7	0.09612065
80	0xbe11a2ae	-0.14222214
81	0xbd83bfdd	-0.064330794
82	0xbe6fa81e	-0.23403975
83	0xbe8adf70	-0.27123594
84	0xbe366d81	-0.1781521
85	0xbd947a0d	-0.07249842
86	0xbe47bca1	-0.1950555
87	0xbdf3c189	-0.11902148
88	0xbe3a1eec	-0.18175858
89	0xbdd24898	-0.102677524
90	0xbdc34d92	-0.0953628
91	0xbaaa1d03	-0.0012978617
92	0xbe345efd	-0.1761436
93	0xbe257b6f	-0.16160367
94	0xbd5dabe4	-0.054119006
95	0xbdc5c123	-0.096559785
96	0xbc6a5659	-0.014302813
97	0xbcdb934b	-0.026803633
98	0x3b225cde	0.0024774591
99	0xbd9d9055	-0.07693545
100	0xbe311c88	-0.1729604
101	0xbe5fa3da	-0.21839848
102	0xbe3b2020	-0.18273973
103	0xbddf7f48	-0.10912949
104	0xbde5d1b3	-0.112216376
105	0xbb29f2d0	-0.002593208
106	0xbd4d59b6	-0.050134383
107	0x3c818d29	0.01581438
108	0x3d767df9	0.06017873
109	0xbdc67fe8	-0.09692365
110	0xbe3d0db1	-0.18462254
111	0xbe30dcb1	-0.17271687
112	0xbd5e058d	-0.054204512
113	0x3d2f6eb3	0.04283018
114	0x3d389ba7	0.045070317
115	0xb8a5fec0	-7.915264e-05
116	0xbe752667	-0.2394043
117	0xbe23782b	-0.15963809
118	0x3d8cd7c8	0.068770945
119	0xbd2d2015	-0.042266924
120	0xbe29039c	-0.16505283
121	0xbe0899a9	-0.13339867
122	0xbe3f2467	-0.1866623
123	0xbe0c0835	-0.13675006
124	0xbe5479f8	-0.20749652
125	0xbdd5535c	-0.1041629
126	0xbe17eb7f	-0.14835928
127	0xbd89d508	-0.067300856
128	0xbe27f319	-0.16401328
129	0x3e2a3396	0.16621241
130	0xbd8be98d	-0.06831656
131	0xbdb939d8	-0.09044236
132	0xbd6d66bc	-0.057959303
133	0xbd74d08e	-0.059769206
134	0x3d80e62a	0.062939
135	0xbe112fe5	-0.14178427
136	0x3e0484ef	0.12941335
137	0xbd8fcb3a	-0.07021184
138	0xbdb42f88	-0.08798128
139	0xbd744ed6	-0.059645496
140	0xbdd5f79f	-0.104476206
141	0x3dc850c0	0.09781027
142	0xbd921d36	-0.07134478
143	0x3e5778e7	0.21042214
144	0xbdb00db7	-0.08596366
145	0x3e06d237	0.13166128
146	0x3dfc99a0	0.12333989
147	0x3deab722	0.11460711
148	0xbe1eba7a	-0.15500823
149	0x3d8b015b	0.06787368
150	0x3deead8b	0.116541944
151	0x3d8db1bd	0.069186665
152	0xbdf3e287	-0.11908441
153	0xbd10db60	-0.035365462
154	0xbd37aad7	-0.04484066
155	0xbc0524ca	-0.008126447
156	0xbd2415e5	-0.040059943
157	0x3d82f33a	0.06394048
158	0x3ddbff0e	0.10742007
159	0x3d69c1d3	0.05706961
160	0x3d0421f8	0.032258958
161	0x3d834f4e	0.064116105
162	0xbdd34394	-0.10315624
163	0xbe0e8c20	-0.13920641
164	0x3cc5193c	0.024059884
165	0xbdb7de21	-0.089779146
166	0xbdb9f705	-0.09080318
167	0x3db6d776	0.08927815
168	0x3dcb4924	0.0992606
169	0xbdc3e882	-0.09565832
170	0xbdf6a70a	-0.12043579
171	0xbe1146a3	-0.14187102
172	0xbaabdd94	-0.00131123
173	0x3dccb505	0.09995464
174	0x3ddb0433	0.1069416
175	0xbbe6cd90	-0.007043548
176	0xbbd15eaa	-0.0063894587
177	0xbd07931f	-0.03309929
178	0xbdd8e0e4	-0.105897695
179	0xbd93d224	-0.072178155
180	0x3b1c8d8d	0.0023888082
181	0x3e20e251	0.15711333
182	0xbe3756ac	-0.17904156
183	0xbe092fc7	-0.13397132
184	0x3dae58a5	0.08513001
185	0xbe174f7c	-0.14776415
186	0xbcee759b	-0.029108813
187	0xbdbc4f24	-0.091947824
188	0xbdc8ceb6	-0.09805052
189	0xbdf65cc9	-0.12029416
190	0x3d195650	0.03743583
191	0xbd9c9466	-0.07645492

bias_hh f4 [192]
0	0x3db8d5ad	0.090251304
1	0x3e35cb38	0.17753303
2	0xbd9c8847	-0.0764318
3	0xbd36bac6	-0.044611715
4	0x3d5f9e74	0.054594472
5	0xbd847c8e	-0.064690694
6	0x3de67e1b	0.112545215
7	0x3e216be9	0.1576382
8	0x3a3227b8	0.00067960797
9	0x3e073c83	0.13206677
10	0xbd390e09	-0.0451794
11	0xbcec6d10	-0.028860599
12	0xbd8d5576	-0.06901066
13	0x3d405aef	0.04696172
14	0x3dc2b28a	0.0950671
15	0x3db6d933	0.08928146
16	0x3d95df12	0.07317938
17	0x3e2da64c	0.16957968
18	0xbd57282e	-0.052528553
19	0xbdb3a427	-0.08771544
20	0xbcc28d85	-0.023749122
21	0xbd8e4d08	-0.06948286
22	0x3dba7d60	0.09105945
23	0x3d9f358c	0.07773885
24	0x3da68b7b	0.081320725
25	0xbcf4a060	-0.029861629
26	0x3dfed5b7	0.124431066
27	0xbde823aa	-0.113349274
28	0x3a212d60	0.0006148424
29	0x3dc05aee	0.093923435
30	0xbd8a2913	-0.067461155
31	0x3ad2942e	0.001606589
32	0x3df5c123	0.119997285
33	0x3da63959	0.08116407
34	0x3e3fcad7	0.18729721
35	0x3d5863ff	0.05282974
36	0x3d8c00e6	0.06836109
37	0x3d2d897c	0.042367443
38	0x3d0f9f7f	0.035064217
39	0xbd3f6d59	-0.04673514
40	0xbd66ff22	-0.056395657
41	0xbcbaf1a7	-0.022820307
42	0x3ce47d68	0.02789183
43	0x3caa1cc7	0.020765675
44	0x3e09d351	0.13459517
45	0xbdd3b903	-0.103380226
46	0xbd54ba4b	-0.051935475
47	0x3dab313f	0.08359002
48	0x3d1901de	0.037355296
49	0x3e10d72e	0.14144585
50	0x3d930190	0.071780324
51	0xbd758fc8	-0.059951574
52	0xbd8e7460	-0.069557905
53	0xbb9ec7c9	-0.0048455936
54	0xbcfbd5bf	-0.03074157
55	0x3dd9a133	0.106264494
56	0x3de9e3e0	0.11420417
57	0x3da78d3b	0.081812344
58	0x3d5987b3	0.05310793
59	0x3e0cbd2c	0.13744038
60	0xbdbb2d71	-0.09139527
61	0xbd28cefd	-0.041213024
62	0x3df7e7ff	0.121047966
63	0x3c5b0884	0.0133687295
64	0xbe6ff5e6	-0.23433647
65	0xbdb74460	-0.08948588
66	0xbe4e5be4	-0.20152241
67	0xbe242d23	-0.16032843
68	0xbe0a9da0	-0.13536692
69	0xbe27ad30	-0.1637466
70	0xbdf66d8f	-0.120326154
71	0xbe4ca61a	-0.19985238
72	0xbdc6c1fd	-0.09704969
73	0xbdb8c4a9	-0.09021885
74	0xbe890bc1	-0.2676678
75	0xbd64a4e0	-0.0558213
76	0xbdf7be4e	-0.120968446
77	0xbe004dac	-0.1252963
78	0xbe7fa2f5	-0.24964507
79	0x3dd77511	0.105203755
80	0xbe4a6574	-0.19765264
81	0xbde7b5f9	-0.113140054
82	0xbd1fa997	-0.038980093
83	0xbe0aa7ad	-0.13540526
84	0xbe5c4c11	-0.21513392
85	0xbe540cfe	-0.20708081
86	0xbe2e5807	-0.17025767
87	0xbe0af71a	-0.13570824
88	0xbe040841	-0.12893774
89	0xbcd5cc37	-0.026098354
90	0xbdaf157a	-0.08549018
91	0xbcd5275a	-0.02601974
92	0xbe1014c2	-0.14070418
93	0xbbf070b6	-0.007337655
94	0xbe0e173e	-0.13876054
95	0xbdce6def	-0.10079562
96	0xbdf9dbe8	-0.12200147
97	0xbe72c488	-0.23707783
98	0x3d8d35ba	0.06895013
99	0x3d1c05c2	0.03809143
100	0xbd6b12d3	-0.057391
101	0xbe53a73c	-0.20669264
102	0xbe79b2d5	-0.24384625
103	0xbe227844	-0.1586619
104	0xbe7d9e13	-0.24767332
105	0xbdc5757b	-0.09641548
106	0xbe3f87ab	-0.18704097
107	0xbc4fad15	-0.012675543
108	0xbe1d2e20	-0.15349627
109	0xbe2e9b53	-0.17051439
110	0xbe7d5e2f	-0.2474296
111	0xbd9009b2	-0.07033099
112	0xbe155b62	-0.14585641
113	0x3c477680	0.012174249
114	0xbdc6703a	-0.09689374
115	0xbdf10711	-0.11768926
116	0xbe2845f6	-0.16432938
117	0xbe64ed39	-0.22356118
118	0x3d22bbea	0.03972999
119	0x3d04c359	0.03241286
120	0xbe38c2e4	-0.18043095
121	0xbd3f7dcd	-0.046750832
122	0xbd8ad7ed	-0.06779466
123	0xbe028c73	-0.1274889
124	0xbe0ea16a	-0.13928762
125	0xbe56a294	-0.20960456
126	0xbd8a4d19	-0.067529865
127	0xbcdbb8d0	-0.026821524
128	0x3dac2c4f	0.08406889
129	0x3e3b263f	0.18276308
130	0xbd4e0d55	-0.050305683
131	0xbdec2b32	-0.11531676
132	0xbcffe664	-0.031237788
133	0xbe38142c	-0.17976445
134	0x3da0e8e5	0.07856921
135	0xbe13b250	-0.1442349
136	0x3d966f75	0.073454775
137	0xbd8d51b9	-0.06900353
138	0x3d168aa9	0.03675333
139	0xbd08b52f	-0.033375915
140	0xbc2f1506	-0.010686165
141	0xb9d45be1	-0.00040504246
142	0xbd9f44e6	-0.07776813
143	0x3c9996e3	0.018748706
144	0xbe427a15	-0.18991883
145	0x3dbac54b	0.09119662
146	0xbe17e1dc	-0.14832252
147	0xbc0f6039	-0.008750969
148	0xbda8ce2d	-0.0824245
149	0x3c8c743a	0.017145265
150	0xbced0365	-0.028932283
151	0xbe20b2d6	-0.1569322
152	0xbdc7d316	-0.09757058
153	0x3d8b7a67	0.06810456
154	0xbd9ece80	-0.077542305
155	0x3c814b50	0.015782982
156	0xbdd87421	-0.10569025
157	0x3d99ac1c	0.075035304
158	0xbd976419	-0.07392139
159	0x3d893c99	0.06701011
160	0x3d7abd7a	0.061215855
161	0xbdb73d10	-0.089471936
162	0xbe2bb879	-0.1676959
163	0xbdcd58ec	-0.10026726
164	0x3d22f0f1	0.03978056
165	0xbdb69d69	-0.08916742
166	0xbcf839c3	-0.03030098
167	0xbcd055ce	-0.02543154
168	0xbb90d9e2	-0.004420505
169	0xbd881e84	-0.066464454
170	0xbcb4fbb3	-0.022092676
171	0xbe2b6395	-0.16737206
172	0x3e3f4df9	0.18682088
173	0x3db78c27	0.08962279
174	0x3df62aa5	0.120198525
175	0x3dc3ac9d	0.09554408
176	0x3c987f8f	0.018615512
177	0x3d2df842	0.042473085
178	0x3d14113e	0.036149256
179	0xbe147824	-0.14498955
180	0x3da03667	0.078228764
181	0x3e19a5bb	0.15004627
182	0xbe482fe6	-0.19549522
183	0xbdfdbad0	-0.12389147
184	0xbe0f319b	-0.13983767
185	0xbd0df1dc	-0.034654483
186	0x3dd063b5	0.101752676
187	0xbcb2c9ce	-0.021824744
188	0xbd0c510e	-0.034256987
189	0x3e1f72df	0.15571164
190	0xbd946427	-0.07245665
191	0x3baf6feb	0.005353918

weight f4 [5, 64]
0	0x3ea85032	0.32873684
1	0x3e0185c0	0.12648678
2	0xbce962fa	-0.028489579
3	0xbcb7d503	-0.02244044
4	0xbe81577d	-0.2526206
5	0xbc7e2d0a	-0.015513668
6	0xbeb1d29c	-0.34730995
7	0xbcd4658a	-0.025927324
8	0xbd8f9cef	-0.070123546
9	0xbe022241	-0.1270838
10	0x3e310683	0.1728764
11	0xbd4765e5	-0.04868116
12	0x3e1e9479	0.15486325
13	0x3e700f15	0.23443253
14	0x3e4a09d5	0.19730313
15	0x3be79caa	0.0070682364
16	0xbe0fe066	-0.14050445
17	0x3ccf7fd1	0.025329502
18	0xbe857393	-0.2606474
19	0xbcb78724	-0.022403307
20	0xbe2c379c	-0.16818088
21	0x3e590a5e	0.21195361
22	0x3e1fe184	0.15613371
23	0xbe2ebe6a	-0.17064825
24	0x3e56f42b	0.2099158
25	0x3e00178c	0.12508982
26	0x3e9a3378	0.30117393
27	0x3ea4e8d8	0.32208896
28	0xbe90e32c	-0.28298318
29	0x3d990200	0.074710846
30	0xbe447c6b	-0.19188087
31	0x3eaf6b4d	0.34261551
32	0x3e9bfb28	0.30465055
33	0xbe256ced	-0.16154833
34	0xbd263ed1	-0.04058725
35	0xbde37593	-0.1110641
36	0x3e30f1b8	0.17279708
37	0xbe1c9f36	-0.15295109
38	0x3eb31487	0.349766
39	0xbe51e224	-0.20496422
40	0x3a34b333	0.0006893158
41	0xbdb09d8e	-0.08623801
42	0xbe26294d	-0.16226692
43	0xbc07be84	-0.008285169
44	0x3d27e2b0	0.04098767
45	0x3d3ff2c0	0.046862364
46	0xbdc0f5d2	-0.094218865
47	0xbeadfe7d	-0.33983222
48	0x3e5ae87b	0.21377747
49	0x3d1a0ac0	0.03760791
50	0x3befb357	0.00731508
51	0xbd3b161f	-0.045675393
52	0xbe87008a	-0.263676
53	0x3db28103	0.08716013
54	0xbd6ed7fb	-0.058311444
55	0x3e0cfbe5	0.13767965
56	0xbe6a2383	-0.22865109
57	0xbe4df35c	-0.20112365
58	0xbea8d91a	-0.32978135
59	0xbe62dde7	-0.22154962
60	0x3d731bc2	0.059352644
61	0xbdb24fb6	-0.0870661
62	0xbd3317b0	-0.043723762
63	0x3e38d4f5	0.18049987
64	0x3d00fb90	0.03148991
65	0x3da37778	0.07981771
66	0xbebffbe4	-0.37496865
67	0x3e66e8ea	0.22549787
68	0x3d224c3e	0.03962349
69	0x3e20d100	0.15704727
70	0x3ea5de20	0.3239603
71	0x3e708dac	0.23491544
72	0xbddaa3eb	-0.10675796
73	0x3c1e758b	0.009671579
74	0xbe418dad	-0.18901701
75	0xbe17930c	-0.14802188
76	0xbe5e845c	-0.21730179
77	0xbea25c6e	-0.31711143
78	0x3e952d66	0.291362
79	0x3d93b0c5	0.072114505
80	0x3d11dfc0	0.035613775
81	0xbe5708a8	-0.20999396
82	0xbd9302b4	-0.0717825
83	0xbdc9684a	-0.09834345
84	0xbdb65ca3	-0.08904388
85	0xbdb675f6	-0.08909218
86	0xbe4fd747	-0.20296966
87	0x3dcdc635	0.100475706
88	0x3d132039	0.0359194
89	0xbeb55fc4	-0.35424626
90	0xbd245233	-0.040117454
91	0x3d822e87	0.06356531
92	0x3d9c64af	0.07636391
93	0x3bb26d15	0.0054451325
94	0xbe138c49	-0.14408983
95	0xbebdea78	-0.37092948
96	0xbeaabf23	-0.3334895
97	0x3d8fd555	0.07023112
98	0x3d81b9fa	0.063343
99	0x3aa4a5ce	0.0012561621
100	0x3c5841ef	0.013199314
101	0x3b0daa72	0.0021616486
102	0x3dc1457d	0.09437082
103	0xbe2f4e0b	-0.17119615
104	0x3e702877	0.23452936
105	0xbdebdb57	-0.11516445
106	0x3dae3c03	0.0850754
107	0x3c287c0d	0.010283482
108	0x3de06170	0.10956085
109	0x3bdcbee6	0.006736624
110	0x3dc09ed7	0.09405296
111	0x3d400db7	0.04688808
112	0x3e20d670	0.15706801
113	0xbe1a1268	-0.15046084
114	0xbd976423	-0.073921464
115	0x3d991ae1	0.0747583
116	0x3e89ab81	0.2688866
117	0xbdc91b61	-0.09819675
118	0x3dc5f255	0.09665362
119	0x3db2d5ac	0.08732161
120	0x3eb2bf05	0.3491136
121	0x3eab00c1	0.33399013
122	0x3e9378b2	0.2880302
123	0x3d5e23cc	0.054233357
124	0x3dc716be	0.097211346
125	0xbe879abc	-0.2648524
126	0x3ea3e39a	0.32009584
127	0xbe391f66	-0.18078384
128	0x3c64c33d	0.013962564
129	0xbd208251	-0.03918678
130	0x3e6e6366	0.23280105
131	0xbe96cb4e	-0.29451984
132	0xbdb45874	-0.088059336
133	0x3e5006af	0.2031505
134	0x3e5b4fad	0.21417113
135	0xbb0461e3	-0.0020199947
136	0xbe93f002	-0.2889405
137	0x3d75a9b1	0.059976283
138	0xbe9afb06	-0.3026964
139	0x3dc1c859	0.094620414
140	0xbe7a45b3	-0.2444065
141	0xbe369e75	-0.17833884
142	0x3d7d0631	0.061773483
143	0x3d7cb60e	0.06169706
144	0xbbb91fcb	-0.005649542
145	0xbe0de1c7	-0.13855658
146	0x3e8d4c52	0.2759729
147	0xbe90e914	-0.28302824
148	0xbdd21113	-0.10257163
149	0xbe226be5	-0.15861471
150	0x3e29c93f	0.16580676
151	0x3d453523	0.04814638
152	0x3e1467e1	0.14492752
153	0x3e1e58f0	0.15463614
154	0xbd7dd188	-0.061967403
155	0x3d84b646	0.064800784
156	0x3da8811d	0.082277514
157	0x3d37b392	0.044848986
158	0xbbf4b28f	-0.007467575
159	0xbdc4fe89	-0.09618861
160	0x3e548141	0.20752431
161	0x3d83724f	0.06418287
162	0x3da39c28	0.07988769
163	0xbd86fc96	-0.06591146
164	0x3d6cd885	0.057823677
165	0x3e185afa	0.14878455
166	0xbe01e2c0	-0.12684155
167	0xbd4605cd	-0.048345376
168	0xbe10a3c0	-0.14124966
169	0x3db4d96f	0.08830535
170	0x3e09a917	0.13443409
171	0x3d5a60ff	0.05331516
172	0x3d9d583c	0.07682845
173	0xbe29c1d7	-0.1657785
174	0xbe112128	-0.14172804
175	0x3e0b7ea2	0.13622525
176	0x3e05ffda	0.13085881
177	0xbde297c9	-0.11064107
178	0x3e4843d7	0.19557129
179	0xbdfc27df	-0.12312292
180	0xbe5988c8	-0.21243584
181	0x3db7b805	0.08970646
182	0xbda4e041	-0.080505855
183	0xbe77fdd9	-0.24217929
184	0xbe164277	-0.14673792
185	0x3ce77d89	0.028258102
186	0xbdcb4aec	-0.099263996
187	0x3d3aa6dc	0.045569286
188	0x3df95155	0.12173716
189	0xbcdad77b	-0.026714077
190	0x3dbfccac	0.0936521
191	0x3dd46255	0.10370318
192	0xbe9984bb	-0.29984078
193	0x3df48ae6	0.11940555
194	0x3dbf6501	0.09345437
195	0x3e5c82d4	0.21534282
196	0x3e152553	0.1456502
197	0xbe807edd	-0.2509679
198	0xbd5c4c19	-0.05378351
199	0xbdd591e6	-0.104282185
200	0x3eaf8d71	0.342876
201	0x3e8d6c5f	0.27621743
202	0x3e0b3063	0.13592677
203	0xbd8ce4e4	-0.06879595
204	0x3de6bcf1	0.112665065
205	0x3e0fe9f4	0.1405409
206	0xbebd1a1f	-0.3693399
207	0x3cbd8a8f	0.023137359
208	0xbe064db3	-0.13115577
209	0x3e8815e2	0.26579195
210	0x3e3690b3	0.17828636
211	0x3e843841	0.25824168
212	0xbbbd6781	-0.005780161
213	0xbbcdf1bc	-0.0062849205
214	0xbde4fcd9	-0.11181039
215	0x3e08f8c0	0.1337614
216	0xbed54691	-0.416554
217	0x3e71b900	0.23605728
218	0xbe28346e	-0.1642625
219	0xbe93e26e	-0.2888369
220	0x3e486f21	0.19573642
221	0x3dd679f3	0.10472479
222	0x3ec98e76	0.39366502
223	0xbea7c2fd	-0.32765952
224	0x3d143a69	0.036188517
225	0xbdb1a8a5	-0.086747445
226	0xbc37f4d4	-0.011227805
227	0xbdae9fed	-0.08526597
228	0xbe1878c2	-0.14889815
229	0xbd963a4d	-0.07335339
230	0xbe6fbfb4	-0.23412973
231	0x3eb6fd34	0.35740054
232	0xbe64aa88	-0.22330678
233	0xbc782f84	-0.015148047
234	0xbce0a364	-0.02742166
235	0xbdcf8b3e	-0.1013398
236	0x3e3414cf	0.17586063
237	0xbd876f8d	-0.066130735
238	0x3e060407	0.13087474
239	0x3e40b3da	0.18818608
240	0xbe936cb3	-0.28793868
241	0xbba6b7f3	-0.0050878464
242	0xbdba7c73	-0.09105768
243	0x3dcd5fc8	0.100280344
244	0x3e6dd9ef	0.23227666
245	0x3dc7902b	0.09744295
246	0xbe2d3764	-0.16915661
247	0x3d0e80bc	0.03479074
248	0x3bf79030	0.0075550303
249	0x3e2078c7	0.15671073
250	0x3e6c2a9e	0.23063132
251	0xbdcc9f97	-0.09991377
252	0xbea83340	-0.328516
253	0x3ec02043	0.37524614
254	0xbe7d88a9	-0.24759163
255	0xbe4cfb8c	-0.20017833

bias f4 [5]
0	0xbcd23b71	-0.02566311
1	0x3dbfbf9a	0.09362717
2	0x3d12cf4c	0.035842225
3	0xbda72715	-0.08161751
4	0xbd2eaffc	-0.0426483

welford_state_mean f4 [4]
0	0x3f51686e	0.8179997
1	0x3f5c28f7	0.8600001
2	0x3f60831c	0.8770006
3	0x3f47ae1c	0.78000045

welford_state_mean_diff f4 [4]
0	0x43149cb4	148.61212
1	0x42f0a2d5	120.31803
2	0x42d78b3e	107.77196
3	0x432b88a0	171.53369

hidden f4 [6, 64]
0	0xbe522430	-0.20521617
1	0x3f71ec42	0.94501126
2	0xbeed0eb5	-0.46300283
3	0x3c83ef94	0.01610545
4	0xbf010637	-0.5040011
5	0x3f28461f	0.65731996
6	0x3f27b06b	0.6550357
7	0xbe8ec01b	-0.2788094
8	0xbf47086a	-0.77747214
9	0xbf16d151	-0.5891314
10	0xbf5d8d33	-0.8654358
11	0xbf699540	-0.9124336
12	0xbe0bb349	-0.1364261
13	0xbf357dd2	-0.7089511
14	0x3eacd168	0.33753514
15	0x3f7cbd3c	0.9872625
16	0xbf0d290e	-0.5514077
17	0xbef26f2d	-0.47350445
18	0xbf18120d	-0.59402543
19	0xbea388a3	-0.31940183
20	0xbf7a5c0f	-0.9779672
21	0x3eb74a98	0.35799098
22	0x3eab1be0	0.33419704
23	0xbf343b2c	-0.7040279
24	0xbdb7ec8d	-0.08980665
25	0xbf1d30ee	-0.61402786
26	0xbddc3d96	-0.10753934
27	0x3f3b46f9	0.7315517
28	0xbf12f1c7	-0.5740017
29	0x3f7dfe6a	0.9921633
30	0xbf46836f	-0.775443
31	0xbf3ac57f	-0.72957605
32	0xbda4e0e3	-0.08050706
33	0x3e52c821	0.20584156
34	0xbf79746d	-0.97443277
35	0xbf7ecc45	-0.9953044
36	0x3f66457b	0.8994977
37	0xbf5939ca	-0.84853804
38	0xbcaa1ceb	-0.020765742
39	0xbf2e7621	-0.68149
40	0x3f4cf3fe	0.800598
41	0xbf73f7db	-0.9530007
42	0x3e119cee	0.1422002
43	0xbf6df193	-0.9294674
44	0x3f7c80e6	0.98634183
45	0x3f3d5109	0.73951775
46	0x3f052ace	0.5201844
47	0x3f574135	0.84083873
48	0x3f6bbd48	0.92085695
49	0xbf1da33a	-0.6157719
50	0xbf4b1aae	-0.79337585
51	0xbf49f778	-0.7889323
52	0x3eefa2df	0.46803948
53	0x3f336230	0.700717
54	0xbf7619d6	-0.9613317
55	0xbe95fd58	-0.29294848
56	0x3f1c0e16	0.60958993
57	0x3f35a1f0	0.7095022
58	0x3f459044	0.77173257
59	0xbd92ad18	-0.07161921
60	0x3dcbbd15	0.09948174
61	0xbf65500f	-0.89575285
62	0x3ec05fe7	0.37573168
63	0xbeeb889b	-0.4600266
64	0xbe522430	-0.20521617
65	0x3f71ec42	0.94501126
66	0xbeed0eb5	-0.46300283
67	0x3c83ef94	0.01610545
68	0xbf010637	-0.5040011
69	0x3f28461f	0.65731996
70	0x3f27b06b	0.6550357
71	0xbe8ec01b	-0.2788094
72	0xbf47086a	-0.77747214
73	0xbf16d151	-0.5891314
74	0xbf5d8d33	-0.8654358
75	0xbf699540	-0.9124336
76	0xbe0bb349	-0.1364261
77	0xbf357dd2	-0.7089511
78	0x3eacd168	0.33753514
79	0x3f7cbd3c	0.9872625
80	0xbf0d290e	-0.5514077
81	0xbef26f2d	-0.47350445
82	0xbf18120d	-0.59402543
83	0xbea388a3	-0.31940183
84	0xbf7a5c0f	-0.9779672
85	0x3eb74a98	0.35799098
86	0x3eab1be0	0.33419704
87	0xbf343b2c	-0.7040279
88	0xbdb7ec8d	-0.08980665
89	0xbf1d30ee	-0.61402786
90	0xbddc3d96	-0.10753934
91	0x3f3b46f9	0.7315517
92	0xbf12f1c7	-0.5740017
93	0x3f7dfe6a	0.9921633
94	0xbf46836f	-0.775443
95	0xbf3ac57f	-0.72957605
96	0xbda4e0e3	-0.08050706
97	0x3e52c821	0.20584156
98	0xbf79746d	-0.97443277
99	0xbf7ecc45	-0.9953044
100	0x3f66457b	0.8994977
101	0xbf5939ca	-0.84853804
102	0xbcaa1ceb	-0.020765742
103	0xbf2e7621	-0.68149
104	0x3f4cf3fe	0.800598
105	0xbf73f7db	-0.9530007
106	0x3e119cee	0.1422002
107	0xbf6df193	-0.9294674
108	0x3f7c80e6	0.98634183
109	0x3f3d5109	0.73951775
110	0x3f052ace	0.5201844
111	0x3f574135	0.84083873
112	0x3f6bbd48	0.92085695
113	0xbf1da33a	-0.6157719
114	0xbf4b1aae	-0.79337585
115	0xbf49f778	-0.7889323
116	0x3eefa2df	0.46803948
117	0x3f336230	0.700717
118	0xbf7619d6	-0.9613317
119	0xbe95fd58	-0.29294848
120	0x3f1c0e16	0.60958993
121	0x3f35a1f0	0.7095022
122	0x3f459044	0.77173257
123	0xbd92ad18	-0.07161921
124	0x3dcbbd15	0.09948174
125	0xbf65500f	-0.89575285
126	0x3ec05fe7	0.37573168
127	0xbeeb889b	-0.4600266
128	0xbe522430	-0.20521617
129	0x3f71ec42	0.94501126
130	0xbeed0eb7	-0.4630029
131	0x3c83ef97	0.016105456
132	0xbf010638	-0.50400114
133	0x3f28461f	0.65731996
134	0x3f27b06b	0.6550357
135	0xbe8ec01b	-0.2788094
136	0xbf47086b	-0.7774722
137	0xbf16d152	-0.5891315
138	0xbf5d8d33	-0.8654358
139	0xbf699540	-0.9124336
140	0xbe0bb349	-0.1364261
141	0xbf357dd2	-0.7089511
142	0x3eacd168	0.33753514
143	0x3f7cbd3c	0.9872625
144	0xbf0d290d	-0.55140764
145	0xbef26f2d	-0.47350445
146	0xbf18120d	-0.59402543
147	0xbea388a3	-0.31940183
148	0xbf7a5c0f	-0.9779672
149	0x3eb74a9a	0.35799104
150	0x3eab1be0	0.33419704
151	0xbf343b2c	-0.7040279
152	0xbdb7ec8d	-0.08980665
153	0xbf1d30ee	-0.61402786
154	0xbddc3d96	-0.10753934
155	0x3f3b46f9	0.7315517
156	0xbf12f1c7	-0.5740017
157	0x3f7dfe6a	0.9921633
158	0xbf46836f	-0.775443
159	0xbf3ac57f	-0.72957605
160	0xbda4e0e6	-0.080507085
161	0x3e52c824	0.2058416
162	0xbf79746d	-0.97443277
163	0xbf7ecc45	-0.9953044
164	0x3f66457b	0.8994977
165	0xbf5939ca	-0.84853804
166	0xbcaa1ce9	-0.020765739
167	0xbf2e7621	-0.68149
168	0x3f4cf3fe	0.800598
169	0xbf73f7db	-0.9530007
170	0x3e119cee	0.1422002
171	0xbf6df193	-0.9294674
172	0x3f7c80e6	0.98634183
173	0x3f3d5109	0.73951775
174	0x3f052ace	0.5201844
175	0x3f574135	0.84083873
176	0x3f6bbd48	0.92085695
177	0xbf1da33b	-0.61577195
178	0xbf4b1aae	-0.79337585
179	0xbf49f778	-0.7889323
180	0x3eefa2e0	0.4680395
181	0x3f336231	0.70071703
182	0xbf7619d6	-0.9613317
183	0xbe95fd58	-0.29294848
184	0x3f1c0e16	0.60958993
185	0x3f35a1f0	0.7095022
186	0x3f459044	0.77173257
187	0xbd92ad18	-0.07161921
188	0x3dcbbd19	0.09948177
189	0xbf65500f	-0.89575285
190	0x3ec05fe6	0.37573165
191	0xbeeb889b	-0.4600266
192	0xbe522430	-0.20521617
193	0x3f71ec42	0.94501126
194	0xbeed0eb5	-0.46300283
195	0x3c83ef94	0.01610545
196	0xbf010637	-0.5040011
197	0x3f28461f	0.65731996
198	0x3f27b06b	0.6550357
199	0xbe8ec01b	-0.2788094
200	0xbf47086a	-0.77747214
201	0xbf16d151	-0.5891314
202	0xbf5d8d33	-0.8654358
203	0xbf699540	-0.9124336
204	0xbe0bb349	-0.1364261
205	0xbf357dd2	-0.7089511
206	0x3eacd168	0.33753514
207	0x3f7cbd3c	0.9872625
208	0xbf0d290e	-0.5514077
209	0xbef26f2d	-0.47350445
210	0xbf18120d	-0.59402543
211	0xbea388a3	-0.31940183
212	0xbf7a5c0f	-0.9779672
213	0x3eb74a98	0.35799098
214	0x3eab1be0	0.33419704
215	0xbf343b2c	-0.7040279
216	0xbdb7ec8d	-0.08980665
217	0xbf1d30ee	-0.61402786
218	0xbddc3d96	-0.10753934
219	0x3f3b46f9	0.7315517
220	0xbf12f1c7	-0.5740017
221	0x3f7dfe6a	0.9921633
222	0xbf46836f	-0.775443
223	0xbf3ac57f	-0.72957605
224	0xbda4e0e3	-0.08050706
225	0x3e52c821	0.20584156
226	0xbf79746d	-0.97443277
227	0xbf7ecc45	-0.9953044
228	0x3f66457b	0.8994977
229	0xbf5939ca	-0.84853804
230	0xbcaa1ceb	-0.020765742
231	0xbf2e7621	-0.68149
232	0x3f4cf3fe	0.800598
233	0xbf73f7db	-0.9530007
234	0x3e119cee	0.1422002
235	0xbf6df193	-0.9294674
236	0x3f7c80e6	0.98634183
237	0x3f3d5109	0.73951775
238	0x3f052ace	0.5201844
239	0x3f574135	0.84083873
240	0x3f6bbd48	0.92085695
241	0xbf1da33a	-0.6157719
242	0xbf4b1aae	-0.79337585
243	0xbf49f778	-0.7889323
244	0x3eefa2df	0.46803948
245	0x3f336230	0.700717
246	0xbf7619d6	-0.9613317
247	0xbe95fd58	-0.29294848
248	0x3f1c0e16	0.60958993
249	0x3f35a1f0	0.7095022
250	0x3f459044	0.77173257
251	0xbd92ad18	-0.07161921
252	0x3dcbbd15	0.09948174
253	0xbf65500f	-0.89575285
254	0x3ec05fe7	0.37573168
255	0xbeeb889b	-0.4600266
