r2l/store/karel-randomMaze-0.pt (torch, 60363 bytes, 9 tensors)

weight_ih f4 [192, 4]
0	0x3c385f75	0.0112532275
1	0xbce176d1	-0.027522476
2	0xbd8c6c69	-0.06856615
3	0xbd7afef2	-0.06127829
4	0xbe0e30db	-0.13885824
5	0xbd38d0d9	-0.045121048
6	0x3d6ca7b7	0.057777133
7	0x3dcafc07	0.09911352
8	0x3cf0449c	0.02932959
9	0xbd420ef0	-0.047377527
10	0x3d013d5a	0.03155265
11	0xbd9915da	-0.07474871
12	0xbe00c29b	-0.12574236
13	0xbe132731	-0.14370419
14	0xbb9ddd05	-0.0048176073
15	0x3b85382d	0.0040655346
16	0x3dd3eb4b	0.10347613
17	0x3d2a1057	0.04151949
18	0xbdadccab	-0.08486303
19	0xbd73d4b1	-0.05952901
20	0x3d95c419	0.07312793
21	0x3e0cc849	0.13748278
22	0xbd4f0ab5	-0.05054732
23	0x3d7f8785	0.0623851
24	0xbd360a36	-0.04444333
25	0x3da27534	0.07932511
26	0x3da71d1d	0.0815985
27	0xbde7583c	-0.11296126
28	0xbe04d3f7	-0.12971483
29	0xbccb29d3	-0.024800217
30	0x3c6aa56d	0.014321667
31	0x3e0c8d87	0.13725863
32	0xbde686b4	-0.11256161
33	0xbda5ae47	-0.080898814
34	0xbdd23df1	-0.10265721
35	0xbdeec9fa	-0.11659618
36	0xbdaef430	-0.08542669
37	0x3d7d3d56	0.061826073
38	0x3e0ebebf	0.13939951
39	0x3d09228c	0.033480212
40	0xbd30901c	-0.043106183
41	0xbd8fbeeb	-0.070188366
42	0x3d3a8a05	0.045541782
43	0xbdc17cc7	-0.094476275
44	0xbd941ac1	-0.072316654
45	0xbe2922ec	-0.16517228
46	0x3e052417	0.13002048
47	0x3da9740f	0.082740895
48	0xbdf01466	-0.11722641
49	0x3d8d6c1b	0.06905385
50	0x3d931c06	0.071830794
51	0x3e1a31e7	0.15058099
52	0x3d863210	0.065525174
53	0xbdda2f73	-0.106535815
54	0x3e03cc64	0.12870938
55	0xbd492a23	-0.04911245
56	0x3d846d11	0.06466115
57	0xbda9c2eb	-0.08289131
58	0xbde49dce	-0.11162911
59	0xbdf059a1	-0.11735845
60	0xbcf091ff	-0.029366491
61	0x3dc033c8	0.093848765
62	0xbdfce87d	-0.12349031
63	0x3d3c6d91	0.04600293
64	0x3e1d2753	0.15347032
65	0xbd5c5c68	-0.053799063
66	0xbb93b8ae	-0.0045080995
67	0xbcf157b3	-0.029460764
68	0x3c01f1d9	0.007931196
69	0x3dd44543	0.10364773
70	0xbd97e67f	-0.074170105
71	0xbd188427	-0.037235405
72	0x3d49aa33	0.04923458
73	0x3dcdca72	0.10048379
74	0x3de1dfc5	0.11029009
75	0x3de53f76	0.11193745
76	0x3debce7f	0.115139954
77	0xbde32fd6	-0.11093108
78	0xbc1c4418	-0.009537719
79	0xbe167df8	-0.14696491
80	0xbd8ccfe4	-0.068755895
81	0x3de309b5	0.11085836
82	0x3e01a1ac	0.12659329
83	0xbe17e654	-0.14833957
84	0xbd08333e	-0.033251993
85	0xbc253b07	-0.010084874
86	0xbc2d4028	-0.010574378
87	0xbd244da5	-0.04011311
88	0xbb8aa4a3	-0.004231052
89	0xbdc0cd27	-0.0941413
90	0x3dec0375	0.11524097
91	0x3dabd01d	0.08389304
92	0x3df70a19	0.12062473
93	0x3d04b017	0.032394495
94	0xbdcb9cb9	-0.09942002
95	0xbe006445	-0.1253825
96	0xbd153e0c	-0.036436126
97	0xbd8b12e5	-0.06790713
98	0x3cabb98f	0.020962505
99	0xbd8f09a3	-0.0698426
100	0x3d1a52e9	0.037676726
101	0x3daac388	0.08338076
102	0xbc44d9db	-0.012014831
103	0xbceaaa2d	-0.0286456
104	0xbe50f597	-0.20406185
105	0x3d964233	0.07336845
106	0xbe12676d	-0.14297266
107	0xbdb87750	-0.09007132
108	0xbd88ed41	-0.066858776
109	0xbd9affa5	-0.075682916
110	0x3cb09a28	0.021557882
111	0x3daf47fc	0.08558652
112	0xbe3db719	-0.18526877
113	0x3e2056d0	0.15658116
114	0x3dc4a209	0.09601218
115	0xbd714673	-0.058905076
116	0xbd79e87d	-0.061012734
117	0xbdc6515f	-0.09683489
118	0x3db1623c	0.08661315
119	0x3da10ace	0.07863389
120	0x3ddd57d7	0.1080777
121	0x3d11df27	0.035613205
122	0xbdd171ba	-0.1022677
123	0x3d83ac34	0.064293295
124	0xbe03e9d6	-0.1288217
125	0xbcfb5358	-0.03067939
126	0xbd0089c2	-0.031381376
127	0xbd9bff27	-0.07617026
128	0xbd0c0f6e	-0.034194402
129	0xbe52584e	-0.20541498
130	0x3d013c5a	0.031551696
131	0x3d166f6e	0.03672736
132	0xbe0f5c41	-0.14000036
133	0xbd1fe6af	-0.039038356
134	0x3e02645f	0.12733601
135	0x3c2bd3ba	0.010487491
136	0x3d498654	0.04920037
137	0xbc8e8fb9	-0.017402517
138	0x3ba1099b	0.004914475
139	0x3d763ff0	0.06011957
140	0x3e7a934f	0.24470256
141	0x3dc52029	0.09625275
142	0x3dc03dd4	0.09386793
143	0xbd8ca2ae	-0.06866966
144	0xbdb96a16	-0.090534374
145	0xbccfe2b2	-0.025376651
146	0x3d1a5cbc	0.037686095
147	0xbccc87e2	-0.024967138
148	0xbe2d0fb3	-0.1690052
149	0xbe475010	-0.19464135
150	0xbd466642	-0.048437364
151	0xbdd28f76	-0.10281269
152	0xbe29fac7	-0.1659957
153	0x3d9e3769	0.077254124
154	0x3ddc20a0	0.1074841
155	0xbd8ffa44	-0.07030156
156	0x3e0dd0fa	0.1384925
157	0xbe435b3e	-0.19077775
158	0x3cd1c8e8	0.025608495
159	0xbdb1e046	-0.08685355
160	0xbdf67b44	-0.1203523
161	0x3c166963	0.0091804
162	0xbe1e8e56	-0.15483984
163	0xbd9b25b6	-0.07575552
164	0x3d3a35e4	0.04546155
165	0xbb048c47	-0.0020225213
166	0xbdcc170d	-0.09965334
167	0x3c451a16	0.012030145
168	0xbe6e9c93	-0.23301916
169	0xbce4e5de	-0.02794164
170	0x3e375c66	0.17906341
171	0xbd98621b	-0.07440587
172	0x3b299524	0.0025876248
173	0xbd460440	-0.048343897
174	0x3b85e63f	0.0040862854
175	0x3dd4588b	0.10368451
176	0xbd7b5c93	-0.061367583
177	0xbdb16348	-0.086615145
178	0x3dbced8f	0.09224998
179	0xbdcf72fc	-0.101293534
180	0xbd87325e	-0.06601404
181	0xbd86df0c	-0.065855116
182	0x3dd90c98	0.10598105
183	0x3d039b7b	0.0321307
184	0x3d034828	0.032051235
185	0x3d8aef5f	0.06783938
186	0xbd4c383b	-0.049858313
187	0x3c006bf0	0.007838234
188	0xbdcaad1b	-0.098962985
189	0x3d598075	0.05310102
190	0x3dbca858	0.092117965
191	0x3deb9782	0.11503507
192	0xbd6d3a6d	-0.057917047
193	0xbc6b209e	-0.014351038
194	0xbe203261	-0.15644218
195	0xbdacf0a5	-0.08444337
196	0xbc8d4ebe	-0.017249461
197	0x3be2cc74	0.0069213454
198	0xbdf6d748	-0.120527804
199	0xbca6b938	-0.020351991
200	0xbce4c147	-0.027924193
201	0x3de97c1d	0.11400626
202	0xbe13c9f8	-0.14432514
203	0xbdc5a2e7	-0.09650212
204	0xbccdc2e4	-0.025117345
205	0x3d1cee17	0.038312998
206	0xbd18e6a2	-0.037329324
207	0x3dfd5f98	0.12371749
208	0x3e104fca	0.14092937
209	0x3bc3b544	0.0059725363
210	0x3ae6f3da	0.0017620281
211	0xbd9bf1c3	-0.07614472
212	0x3d6337ec	0.055473253
213	0xbc902f2f	-0.017600624
214	0xbc2627e2	-0.010141345
215	0xbbf9d807	-0.0076246294
216	0xbdd26eb2	-0.1027502
217	0xbda6217e	-0.08111857
218	0x3e19d172	0.15021303
219	0xbe0045b0	-0.12526584
220	0xbe0a622a	-0.13514009
221	0x3db0d5aa	0.08634503
222	0x3e14f50a	0.145466
223	0x3cc19d5a	0.023634601
224	0xbdf0bc1a	-0.117546275
225	0x3e2d6770	0.1693399
226	0xbe2e185f	-0.17001484
227	0xbd867f1e	-0.065672144
228	0x3ca0e230	0.019639105
229	0x3bc1ebd0	0.0059180036
230	0xbd74ac1b	-0.059734445
231	0x3da8f6c7	0.08250194
232	0xbca171fe	-0.019707676
233	0x3d8ba80e	0.06819163
234	0x3deee775	0.11665241
235	0xbd4a27b2	-0.049354263
236	0x3d9846ce	0.0743538
237	0x39224c22	0.00015477886
238	0xbe1355ee	-0.14388248
239	0x3c94b0ce	0.018150713
240	0x3dced037	0.100983076
241	0x3e2ad6c6	0.16683492
242	0xbdf5a352	-0.119940415
243	0xbc5d55e1	-0.013509245
244	0x3e0c9bf0	0.1373136
245	0xbe06e749	-0.13174166
246	0x3d152fce	0.036422543
247	0xbe1a8242	-0.15088752
248	0xbd7cb969	-0.06170026
249	0xbdcd7a67	-0.10033112
250	0xbd08acac	-0.033367798
251	0x3d4855b9	0.048909876
252	0x3d757bf6	0.05993267
253	0x3d3f9780	0.04677534
254	0xbe36a057	-0.17834602
255	0xbd446ce1	-0.047955398

weight_hh f4 [192, 64]
0	0xbda74743	-0.08167889
1	0xbc1887c3	-0.009309712
2	0x3d53ae09	0.051679645
3	0xbdfb3120	-0.12265229
4	0x3d55e090	0.052216113
5	0x3cd72f2e	0.026267614
6	0x3db191fb	0.08670422
7	0xbde4aa35	-0.11165277
8	0x3e2aae12	0.16667965
9	0xbdad4be1	-0.084617384
10	0x3db05ed4	0.08611837
11	0xbdd7b417	-0.10532396
12	0xbdb87c5a	-0.09008093
13	0x3db6e635	0.08930627
14	0x3d0b2afd	0.033976544
15	0x3cf2f8ca	0.029659647
16	0xbdb66713	-0.089063786
17	0xbdb10f78	-0.086455286
18	0xbc86076b	-0.016360959
19	0xbdf6b2ed	-0.12045846
20	0xbab69857	-0.0013930899
21	0x3b9ffd3e	0.0048824837
22	0x3c4d40b6	0.012527635
23	0x3bf18453	0.0073705106
24	0x3dabc817	0.083877735
25	0x3d579135	0.052628715
26	0xbd892161	-0.0669582
27	0xbc4d2f70	-0.012523517
28	0xbdd649e7	-0.104633145
29	0xbdc00511	-0.09375966
30	0xbd6b4b14	-0.057444647
31	0xbd539736	-0.051657878
32	0x3d0dcb9c	0.034618005
33	0xbd48beda	-0.049010135
34	0x3d9cdf7a	0.07659812
35	0xbda910dc	-0.08255169
36	0x3d07f7b0	0.033195198
37	0x3e0ea406	0.13929757
38	0x3e2b7b0a	0.16746154
39	0xbd5a52d8	-0.053301662
40	0xb9049195	-0.00012642735
41	0xbbb42b25	-0.0054983073
42	0xbdaf45a2	-0.08558203
43	0xbc119e99	-0.00888791
44	0x3d5acac3	0.053416025
45	0xbda29f50	-0.07940543
46	0xbc37ca6a	-0.011217693
47	0x3da64221	0.08118082
48	0xbd1dfbcb	-0.038570207
49	0x3e100a33	0.1406639
50	0x3c27e7a8	0.010248102
51	0x3d931fbb	0.071837865
52	0x3dd8a1a9	0.10577709
53	0xbd908a10	-0.07057583
54	0x3dbf6d08	0.09346968
55	0xbbd96658	-0.006634515
56	0xbd177e1c	-0.0369855
57	0xbc0953f7	-0.008381835
58	0x3a672205	0.000881702
59	0xbcc5657e	-0.024096247
60	0x3da25a1a	0.07927342
61	0x3ab4b58a	0.0013787013
62	0x3de6efc5	0.11276201
63	0xbd3e712f	-0.04649466
64	0x3db7e17a	0.08978553
65	0x3d0c7e00	0.03429985
66	0xbcde79b9	-0.027157651
67	0x3d7aafa1	0.06120265
68	0x3d06bd41	0.03289533
69	0xbd8d85bc	-0.069102734
70	0x3ce685c0	0.028139949
71	0xbd49c2c2	-0.049258
72	0xba005133	-0.0004894912
73	0x3bc54211	0.0060198386
74	0xbd035064	-0.03205909
75	0x3e03c90a	0.12869659
76	0x3e07bd7f	0.13255881
77	0xbd9adab8	-0.075612485
78	0x3dc0c0fe	0.0941181
79	0x3e10a648	0.14125931
80	0xbcff5f4b	-0.031173369
81	0x3cd12651	0.025530966
82	0x3da9529c	0.082677096
83	0x3d73778e	0.059440188
84	0xbdff2647	-0.12458473
85	0xbe061489	-0.13093771
86	0x3ddeba72	0.10875405
87	0xbe1af223	-0.1513143
88	0xbd99313e	-0.07480095
89	0x3bab5d3c	0.0052296203
90	0x3da1183b	0.0786595
91	0xbdbefafc	-0.09325215
92	0x3e0ef58b	0.13960855
93	0x3e035180	0.12824059
94	0xbd0f9816	-0.03505715
95	0xbc05e47e	-0.008172153
96	0x3d9a9d91	0.07549585
97	0xbdd42d65	-0.10360221
98	0xbd54e151	-0.05197269
99	0xbd0d7dce	-0.034543805
100	0xbcc5c7fb	-0.02414321
101	0x3dc1bfb0	0.094603896
102	0x3c996f77	0.018729908
103	0xbdedfdd1	-0.11620677
104	0xbe3365d7	-0.17519318
105	0xbd001f59	-0.031279895
106	0xbd96db59	-0.07366056
107	0x3d9a8d43	0.07546475
108	0x3e15009a	0.1455101
109	0x3d6ea793	0.05826528
110	0xbd9c05ef	-0.07618319
111	0x3cb35384	0.02189041
112	0x3caa5cb9	0.020796167
113	0xbdf4ecb9	-0.11959214
114	0x3a820e05	0.0009922391
115	0x3de953d1	0.1139294
116	0x3d813955	0.06309763
117	0x3cc0420c	0.023468994
118	0x3e13a582	0.14418605
119	0xbd043fcc	-0.032287404
120	0x3d8f8b3f	0.07008981
121	0x3e1caa8e	0.15299436
122	0xbdaebd61	-0.08532215
123	0x3e25b28c	0.16181391
124	0x3d2ed6a1	0.042685155
125	0x3ca54bd5	0.020177761
126	0xbd176da7	-0.036969807
127	0x3d332c83	0.04374362
128	0xbdd06655	-0.10175768
129	0x3d0bf2c1	0.034167055
130	0x3d8de9cf	0.06929361
131	0x3d8eb3c5	0.06967882
132	0x3e12655b	0.14296477
133	0x3df0a6a0	0.11750531
134	0x3dee67f7	0.116409235
135	0x3d0e51f6	0.034746133
136	0x3da5b950	0.08091986
137	0xbd865eac	-0.06561026
138	0xbde3436d	-0.11096845
139	0xbca50be2	-0.020147268
140	0x3bee875e	0.0072793206
141	0xbda7ab69	-0.08186991
142	0x3da2af5b	0.07943603
143	0x3d18a5e0	0.037267566
144	0x3c980bf2	0.018560383
145	0xbb7b49f0	-0.003834363
146	0x3e0ef5e4	0.13960987
147	0x3cb69c50	0.022291332
148	0xbe06f4ca	-0.13179317
149	0xbdcba130	-0.099428535
150	0x3d8d70f8	0.06906313
151	0x3c165eea	0.009177903
152	0x3cd0608d	0.025436664
153	0xbdfbc95d	-0.122942664
154	0xbd98f0ef	-0.074678294
155	0x3d9870b5	0.07443372
156	0x3e05730f	0.13032173
157	0xbdbb5593	-0.09147181
158	0x3cf1ca7b	0.029515496
159	0xbe07b3c8	-0.13252175
160	0x3dc54858	0.09632939
161	0x3cde3274	0.027123667
162	0x3df34bfc	0.11879727
163	0xbe0b234e	-0.13587686
164	0xbe1bd1d2	-0.15216759
165	0x3de3bb5b	0.111197196
166	0x3dd73a57	0.10509174
167	0x3cf871fd	0.030327791
168	0x3da35141	0.07974482
169	0xbddb779e	-0.107161745
170	0x3d6c147c	0.057636723
171	0xbdc21fd5	-0.09478728
172	0x3d2ac609	0.041692767
173	0xbdbac793	-0.09120097
174	0xbcef47d7	-0.02920906
175	0x3c0b9311	0.00851895
176	0xbd0c0583	-0.034184944
177	0xbcbe9d09	-0.02326824
178	0xbda01f46	-0.07818465
179	0xbdbfdf2f	-0.09368741
180	0x3d358260	0.04431379
181	0xbd249e47	-0.040190008
182	0xbd550e93	-0.052015852
183	0xbd3516ab	-0.04421107
184	0xbd51a42c	-0.051181957
185	0xbd6a0132	-0.057130046
186	0x3da07177	0.07834142
187	0x3d8aabb9	0.06771035
188	0x3d011f5d	0.03152405
189	0xbdb39bea	-0.087699726
190	0x3cc26a9e	0.02373248
191	0x3d1489ed	0.03626435
192	0xbd81cf8a	-0.06338413
193	0x3d57e0dc	0.052704677
194	0x3e1c7e35	0.15282519
195	0xbdb8618a	-0.09002979
196	0xbdd84d4e	-0.1056162
197	0x3cc536d3	0.024073994
198	0x3df91c5c	0.12163612
199	0xbdbec4b2	-0.093148604
200	0x3b801019	0.003908169
201	0x3d69b422	0.057056554
202	0x3d2c6c87	0.042095687
203	0x3d688809	0.05677036
204	0x3e13235d	0.14368959
205	0x3d4ad1a4	0.049516335
206	0xbd7f4c4b	-0.062328618
207	0x3c59c83b	0.013292368
208	0x3d6c9043	0.057754766
209	0x3ddb0118	0.10693568
210	0xbdcbb1e9	-0.09946043
211	0x3d42b24a	0.04753331
212	0xbd8ba666	-0.06818847
213	0xbe16f85d	-0.1474318
214	0x3d14cd1f	0.03632843
215	0xbd87dd90	-0.066340566
216	0x3b4e04c7	0.0031435953
217	0xbd8cd2d8	-0.06876153
218	0xbd933e9b	-0.071896754
219	0xbba1993b	-0.0049315966
220	0x3c00f8ac	0.007871788
221	0x3da1d57a	0.079020455
222	0x3baeff4d	0.005340493
223	0x3dba419c	0.09094545
224	0x3ca4ad24	0.020102091
225	0xbda23cba	-0.07921739
226	0x3dad430a	0.08460052
227	0x3c02f902	0.007993938
228	0xbc7b4f41	-0.01533872
229	0xbc8f5652	-0.017497215
230	0xbd066ccf	-0.03281861
231	0xbd985664	-0.07438353
232	0xbcb76b72	-0.022390101
233	0xbdc16277	-0.09442609
234	0xbc8091cb	-0.01569452
235	0xbdb878e8	-0.09007436
236	0xbbc72b04	-0.006078126
237	0x3d64488f	0.05573326
238	0xbd7eb67f	-0.06218576
239	0xbdcd29af	-0.10017716
240	0xbc43b710	-0.011945501
241	0xbd71aaf7	-0.059000935
242	0x3d663f1a	0.056212522
243	0x3c61bea7	0.013778365
244	0x3da505af	0.08057725
245	0xbdab1b52	-0.0835482
246	0x3bfa6339	0.007641223
247	0x3d97ea06	0.07417683
248	0x3e1a5cce	0.15074465
249	0x3c8be52a	0.017077047
250	0xbd9a11b1	-0.075229056
251	0x3d2e669e	0.042578332
252	0x3d647594	0.055776194
253	0xbddb5a1b	-0.10710546
254	0xbdcb6715	-0.09931771
255	0x3d81a5ee	0.06330477

bias_ih f4 [192]
0	0xbd863284	-0.06552604
1	0xbd07f0ff	-0.033188816
2	0x3da48d2b	0.08034738
3	0xbd1a31a3	-0.037644994
4	0x3d8217e7	0.06352215
5	0x3dfd859f	0.12379002
6	0x3cebfa22	0.028805796
7	0x3e86feeb	0.26366362
8	0x3b29002e	0.002578746
9	0xbd340504	-0.043950096
10	0x3d821047	0.06350761
11	0xbd5c4b94	-0.053783014
12	0x3dbc8317	0.09204691
13	0xbe0dea8c	-0.13859004
14	0x3c538de9	0.012912252
15	0x3cb64dec	0.022253953
16	0x3e29e826	0.16592464
17	0xbd6243e5	-0.05524053
18	0xbdd03f69	-0.101683445
19	0xbce1c663	-0.027560418
20	0x3e1a2c05	0.15055855
21	0x3e27cf65	0.16387708
22	0xbc46da93	-0.012137073
23	0x3e5e252d	0.21693869
24	0x3e357b77	0.1772288
25	0x3e1f154f	0.15535472
26	0x3d8ec9a2	0.06972052
27	0x3d138897	0.036018934
28	0xbd86faf5	-0.06590835
29	0xbdbc7506	-0.09202008
30	0x3e38ed01	0.1805916
31	0x3da8c749	0.082411356
32	0xbde4b69f	-0.11167645
33	0x3dff54c4	0.1246734
34	0x3e3519e4	0.17685658
35	0x3d332945	0.04374053
36	0x3de630e1	0.11239792
37	0x3d54f3f3	0.05199046
38	0x3d3e711a	0.04649458
39	0xbcdcaad0	-0.026936918
40	0x3c74657f	0.014916777
41	0x3e3fb21c	0.18720287
42	0x3d86afae	0.06576477
43	0x3cb51801	0.022106173
44	0x3de5d09b	0.11221429
45	0x3d785d08	0.060635597
46	0x3b8be0f7	0.0042687613
47	0xbdf93c8e	-0.12169753
48	0xbcf7ee27	-0.030264927
49	0xbd607c5a	-0.05480609
50	0x3ddbb02c	0.107269615
51	0xbdcc5018	-0.09976214
52	0xbbd3ebe0	-0.0064673275
53	0x3e20ab13	0.1569026
54	0x3e0e7a8c	0.13913935
55	0x3dac11ba	0.084018186
56	0x3dd02797	0.10163801
57	0x3de453c2	0.11148788
58	0x3d92e579	0.07172675
59	0x3e058f62	0.13042977
60	0x3d8057e5	0.062667646
61	0xbbc09844	-0.0058775265
62	0xbe25f85a	-0.1620802
63	0xbd3be6f4	-0.04587455
64	0xbba5292c	-0.0050403085
65	0xbd96f5da	-0.07371111
66	0xbe006664	-0.12539059
67	0x3c611434	0.013737727
68	0xbe123fca	-0.14282146
69	0xbe8d900a	-0.27648956
70	0x3d0d00cc	0.034424588
71	0xbe37be31	-0.17943646
72	0xbe4e62d8	-0.20154893
73	0xbda2a1f4	-0.07941046
74	0xbd21f85f	-0.039543506
75	0xbdcf8f7a	-0.10134788
76	0xbe75c6ff	-0.24001692
77	0x3d677c1f	0.056514855
78	0xbd8434dd	-0.06455395
79	0x3d1c2819	0.038124178
80	0xbe820260	-0.25392437
81	0xbe643557	-0.22285973
82	0x3bc76746	0.006085309
83	0xbde4a233	-0.111637495
84	0xbe8cc62a	-0.27494937
85	0xbd265c50	-0.04061538
86	0xbcc74581	-0.024325134
87	0xbe316032	-0.17321852
88	0xbe90bb65	-0.2826797
89	0xbde49985	-0.11162094
90	0xbc4aa51f	-0.0123684695
91	0xbd789c8e	-0.060696177
92	0xbdab3847	-0.083603434
93	0xbe5c7f51	-0.21532942
94	0xbe89936c	-0.26870286
95	0xbcbe48d5	-0.023228088
96	0xbe0890ba	-0.13336459
97	0xbd4bb8ef	-0.049736913
98	0xbd728833	-0.05921192
99	0xbe90c644	-0.28276265
100	0xbe2d447c	-0.16920656
101	0x3c3a835e	0.011383859
102	0xbe496ff1	-0.19671609
103	0x3ccc608b	0.024948379
104	0x3d55bc44	0.052181497
105	0xbe1603b0	-0.14649844
106	0xbe4745b8	-0.1946019
107	0x3d78b927	0.06072345
108	0xbde610b7	-0.11233657
109	0xbdaf7d4e	-0.08568822
110	0x3c93a49d	0.01802283
111	0xbe4d8a53	-0.20072298
112	0x3d55ac90	0.05216652
113	0xbe0ee9a6	-0.13956317
114	0xbe1322ba	-0.14368716
115	0xbe405964	-0.187841
116	0xbe7f9ee9	-0.24962963
117	0xbd0d27be	-0.03446173
118	0xbda719aa	-0.08159192
119	0xbda448df	-0.080217116
120	0xbe830155	-0.25586954
121	0xbda3f57e	-0.08005808
122	0xbd211a1f	-0.03933155
123	0xbdc47917	-0.095934086
124	0xbe1a60fb	-0.15076058
125	0xbd0520f7	-0.03250214
126	0xbd830992	-0.0639831
127	0xbd88423b	-0.066532575
128	0x3e05b3e7	0.13056909
129	0x3e3316b0	0.17489123
130	0x3dd4e8fd	0.103960015
131	0xbda87561	-0.08225513
132	0xbdb71fb0	-0.08941591
133	0xbe2d7117	-0.16937672
134	0xbd7bea22	-0.061502583
135	0xbdefbe92	-0.1170627
136	0x3e5ac599	0.2136444
137	0x3d87aae8	0.06624395
138	0xbd7416c1	-0.059592012
139	0x3e5cf905	0.21579368
140	0x3e829416	0.25503606
141	0xbd090950	-0.033456147
142	0x3e408199	0.18799438
143	0xbd0eb9a7	-0.03484502
144	0xbe50d43e	-0.20393464
145	0xbe24f50e	-0.16109106
146	0x3e043416	0.12910494
147	0x3df2582a	0.11833222
148	0xbe62f814	-0.22164947
149	0xbe7c42f6	-0.24634919
150	0xbe0fd10d	-0.1404459
151	0xbe83bc39	-0.2572954
152	0xbe48d319	-0.19611777
153	0x3d563777	0.05229899
154	0x3ddfd7e6	0.10929851
155	0x3dbdc913	0.092668675
156	0x3e01ed1e	0.1268811
157	0xbdf5446b	-0.1197594
158	0xbe7ab21f	-0.2448201
159	0xbe0df2ef	-0.13862203
160	0xbe588c94	-0.21147376
161	0xbdedc79f	-0.1161034
162	0xbe82a42a	-0.25515872
163	0x3e103699	0.14083327
164	0x3d46ba6c	0.04851763
165	0x3dbf73ea	0.09348281
166	0xbd41a89c	-0.04727994
167	0xbd83064e	-0.06397687
168	0xbb3660a3	-0.0027828596
169	0xbe6e13f8	-0.23249805
170	0xbd8e62b9	-0.069524236
171	0x3e197f3e	0.14989945
172	0x3e33e5d3	0.1756814
173	0x3ddb9f60	0.10723758
174	0xbcbea699	-0.0232728
175	0x3e813c9d	0.25241557
176	0x3e2ccd41	0.16875173
177	0xbdb6654c	-0.089060396
178	0x3e071635	0.13192065
179	0xbdbf3907	-0.09337049
180	0xbbeab543	-0.0071627214
181	0xbd565308	-0.05232528
182	0x3e676710	0.22597909
183	0x3dd9fe2f	0.10644185
184	0x3e2d71eb	0.16937988
185	0xbc9b1ffe	-0.018936154
186	0x3e097d0d	0.1342661
187	0x3e5288fe	0.20560071
188	0x3e487a7a	0.19577971
189	0xbdad5aa5	-0.08464555
190	0x3e4b250c	0.19838351
191	0x3d85dff8	0.06536859

bias_hh f4 [192]
0	0x3d346dc5	0.044049997
1	0xbd12ed0b	-0.035870593
2	0x3df11962	0.117724195
3	0x3e1091fb	0.14118187
4	0x3dfe0b7a	0.12404533
5	0x3e7f75f8	0.24947345
6	0x3c720dee	0.014773829
7	0x3e8d1829	0.27557495
8	0x3db4dada	0.08830805
9	0xbb4f9b5d	-0.0031678297
10	0x3d2a47f1	0.041572515
11	0x3e069a23	0.13144736
12	0x3c882c97	0.016622825
13	0xbd8b603e	-0.06805466
14	0x3e483934	0.19553071
15	0xbcbfb5d0	-0.023402125
16	0x3d704b5f	0.05866563
17	0xbd6869f3	-0.056741666
18	0x3d73f7ec	0.05956261
19	0xbcb31b29	-0.021863537
20	0x3e32c4db	0.17457907
21	0x3e08a28d	0.13343258
22	0x3d53880d	0.05164342
23	0x3e24c88f	0.16092132
24	0x3e5a42d3	0.21314554
25	0x3d1d8f88	0.03846696
26	0x3de42e9a	0.11141701
27	0x3dca1b09	0.09868438
28	0xbdb20ee9	-0.0869425
29	0xbdd6a5e0	-0.10480857
30	0x3e31e5dc	0.1737284
31	0x3cc2f68f	0.023799209
32	0xbd898279	-0.06714339
33	0x3c8d827e	0.017274138
34	0x3da5caa8	0.08095294
35	0x3d8da016	0.069152996
36	0x3e066204	0.13123327
37	0x3deaa49a	0.114571765
38	0x3c533726	0.012891566
39	0x3d7bb4bc	0.06145166
40	0x3dec1620	0.115276575
41	0x3cfecc13	0.03110317
42	0xbccb9a2c	-0.024853788
43	0x3d80d1f1	0.06290043
44	0x3d681143	0.056657087
45	0xbd36ae3c	-0.044599757
46	0xbb370778	-0.0027928036
47	0xbdc1cb94	-0.094626576
48	0x3d09c679	0.033636544
49	0x3e038d44	0.12846857
50	0x3e07eed1	0.13274695
51	0x3e03ed7d	0.12883563
52	0x3ce1b636	0.027552705
53	0x3e6f0f15	0.23345597
54	0x3d95a4dd	0.07306836
55	0x3e4cc05c	0.19995254
56	0x3dc4fa22	0.096180215
57	0x3e49af6a	0.19695821
58	0x3dce13ed	0.10062394
59	0x3dd4b0a3	0.10385253
60	0x3d77cb98	0.060496897
61	0x3d9cf7f0	0.07664478
62	0xbc62dd8b	-0.013846765
63	0xbcb9c168	-0.022675231
64	0xbdcd6665	-0.10029296
65	0xbe59240b	-0.21205156
66	0xbdbe1f6c	-0.09283337
67	0x3d38df27	0.04513469
68	0xbde1bd76	-0.11022465
69	0xbe48b8f5	-0.19601806
70	0xbe1879b7	-0.1489018
71	0xbe8756f9	-0.26433542
72	0xbe8d4bbd	-0.27596846
73	0xbdc0174a	-0.09379442
74	0xbe68edd9	-0.22746982
75	0xbe0d5b02	-0.13804248
76	0xbe8cebc3	-0.27523622
77	0x3c1023ed	0.008797628
78	0xbd7be956	-0.061501823
79	0x3b231df4	0.002488968
80	0xbe28c01f	-0.16479538
81	0xbd79af25	-0.060958046
82	0xbdfff586	-0.12498002
83	0xbd713ded	-0.058896948
84	0xbd8f53df	-0.06998419
85	0xbc7e028c	-0.015503537
86	0xbe1a2a8c	-0.15055293
87	0xbdc9fe3d	-0.09862945
88	0xbe50a2ce	-0.20374605
89	0x3bb43772	0.0054997737
90	0x3b7cf5fc	0.0038598767
91	0xbd3e64e2	-0.046482928
92	0xbc8e633b	-0.017381301
93	0xbe2c613f	-0.16833971
94	0xbe8a22b4	-0.269796
95	0xbcd28111	-0.02569631
96	0xbe9c82b9	-0.30568483
97	0xbd1a9a59	-0.037744854
98	0xbe2aabf0	-0.16667151
99	0xbe7ae128	-0.24499953
100	0xbe7f18ee	-0.24911854
101	0xbddbb47d	-0.10727785
102	0xbe311135	-0.1729172
103	0xbd88ec17	-0.066856556
104	0x3ca3a43f	0.01997578
105	0xbe8fd986	-0.28095645
106	0xbe134165	-0.14380415
107	0xbe1bb1f9	-0.1520461
108	0x3c978084	0.018493898
109	0xbe390ab7	-0.18070494
110	0xbdd2c0eb	-0.102907024
111	0xbe43c69b	-0.1911873
112	0xbe0a3819	-0.13497962
113	0xbd16de82	-0.036833294
114	0xbc7bc359	-0.015366399
115	0xbdc16ea7	-0.094449334
116	0xbd388548	-0.045048982
117	0xbe3141d5	-0.17310269
118	0xbda4b77b	-0.080428086
119	0xbaf6abca	-0.0018819508
120	0xbe335277	-0.17511927
121	0xbe05b404	-0.13056952
122	0xbdc9b690	-0.09849274
123	0xbea6ec8e	-0.32602352
124	0xbde427c4	-0.11140397
125	0xbdc83618	-0.097759426
126	0xbe5a7afa	-0.21335974
127	0x3d26c9a4	0.040719643
128	0x3c86ce12	0.016455684
129	0x3d450052	0.04809601
130	0x3e2dcebc	0.16973394
131	0xbcb8d932	-0.022564504
132	0xbdbcb9c6	-0.09215121
133	0xbe2ec510	-0.17067361
134	0xbe0538a7	-0.13009892
135	0xbe4801c3	-0.19531922
136	0x3dd29ae5	0.1028345
137	0xbe0f35ae	-0.13985321
138	0xbdd04e2b	-0.10171159
139	0x3d930150	0.07177985
140	0x3e7c13d3	0.24616937
141	0xbc6ba96a	-0.014383653
142	0x3e1c305c	0.15252823
143	0xbbf4072d	-0.0074471445
144	0xbe64df27	-0.22350751
145	0x3ca314b5	0.019907335
146	0x3cba853a	0.022768606
147	0x3debcfc6	0.11514239
148	0xbe3bba93	-0.18332891
149	0xbe4d71cb	-0.2006294
150	0x3d1526d4	0.036413983
151	0xbe3c9fa6	-0.18420276
152	0xbe094d15	-0.1340831
153	0x3d738a39	0.05945799
154	0xbdac011e	-0.083986506
155	0x3d849c51	0.064751275
156	0xbdf4b543	-0.119486354
157	0x3ccca2a2	0.024979893
158	0xbdfcc16c	-0.1234158
159	0xbd955812	-0.07292189
160	0xbd7f95ea	-0.06239883
161	0x3d1e0b42	0.038584955
162	0xbe2187bb	-0.15774433
163	0x3e63368d	0.22188778
164	0x3e0f9ed5	0.14025433
165	0x3c1d53ca	0.009602496
166	0x3dc0be35	0.09411279
167	0xbd9bc15f	-0.07605242
168	0xbdc3efb6	-0.095672056
169	0xbe2e3354	-0.17011768
170	0xbc1203c7	-0.008912033
171	0x3e10d2e8	0.14142954
172	0xbd86f039	-0.065887876
173	0xbcc86f97	-0.024467273
174	0xbe0b90f7	-0.13629518
175	0x3d8ab69f	0.067731135
176	0x3e341e28	0.17589629
177	0xbcf87397	-0.030328555
178	0x3e52be08	0.20580304
179	0xbceb43ff	-0.028718947
180	0x3e1ec54d	0.15504952
181	0xbe6aaefd	-0.22918315
182	0x3e3d1d97	0.18468319
183	0x3e1dc9fe	0.15409085
184	0x3dd1b3f0	0.102393985
185	0xbe147335	-0.14497073
186	0x3c429f90	0.011878863
187	0x3e86a5fa	0.26298505
188	0x3dee7c88	0.11644846
189	0xbe6752b6	-0.22590145
190	0x3d006841	0.031349424
191	0xbd9897a9	-0.07450802

weight f4 [5, 64]
0	0x3d5f6bcd	0.054546166
1	0xbcb43e90	-0.022002488
2	0x3e64e065	0.22351225
3	0xbc580d89	-0.013186821
4	0xbe611c6d	-0.219835
5	0xbde1ec24	-0.110313684
6	0xbc5f69d8	-0.013636075
7	0x3c7b693f	0.015344917
8	0x3d0e950d	0.034810115
9	0xbcf6e3ce	-0.030137923
10	0x3da7ab98	0.08187026
11	0x3e27a206	0.16370401
12	0x3cbc32a1	0.02297336
13	0xbe17335f	-0.1476569
14	0x3e63935e	0.22224185
15	0xbd45098e	-0.048104815
16	0xbe813ab8	-0.2524011
17	0xbd88806c	-0.066651195
18	0xbc404105	-0.011734252
19	0x3e827d50	0.2548623
20	0xbd9aa3c2	-0.075507656
21	0xbdacb323	-0.08432605
22	0xbe485e11	-0.19567133
23	0xbe4dd163	-0.20099406
24	0xbd3507c6	-0.044196866
25	0x3d43da26	0.047815464
26	0x3d5b4dfc	0.05354117
27	0x3e276b80	0.16349602
28	0x3de8831f	0.11353134
29	0xbe7ee994	-0.2489379
30	0xbdc6d49a	-0.09708519
31	0xbe3b45d7	-0.1828836
32	0xbe007cff	-0.12547682
33	0xbdbbc195	-0.09167782
34	0xbdb54daa	-0.08852704
35	0x3e64fb6f	0.2236154
36	0x3e06a523	0.13148932
37	0xbc6054de	-0.013692109
38	0xbdf447dd	-0.11927769
39	0xbdf35b44	-0.11882642
40	0xbb44db33	-0.003003788
41	0xbd7a659f	-0.06113207
42	0x3e34b2ec	0.17646378
43	0xbc3428d4	-0.010996062
44	0x3c9cf1bb	0.019158235
45	0x3d822009	0.063537665
46	0x3d5b07ba	0.053474165
47	0x3e3d944c	0.18513602
48	0x3d1afd0f	0.03783899
49	0xbe5c27e0	-0.21499586
50	0x3d3b12a3	0.04567207
51	0xbe820e0e	-0.25401348
52	0x3e622f6b	0.22088401
53	0xbe299fbb	-0.16564839
54	0x3d9e0536	0.07715838
55	0x3c7921cc	0.015205812
56	0x3e5318fe	0.20615003
57	0xbe3c7861	-0.18405296
58	0x3e44164c	0.1914913
59	0x3de5b05f	0.11215281
60	0x3e0436b8	0.12911499
61	0xbe151004	-0.1455689
62	0x3e44d1f8	0.19220722
63	0xbaab7506	-0.001308114
64	0xbda71696	-0.08158605
65	0x3cf9fa9a	0.030515004
66	0xbdd1fc22	-0.10253169
67	0x3dfd3114	0.123628765
68	0x3dc68015	0.096923985
69	0x3c351869	0.011053183
70	0x3e2cea91	0.16886355
71	0x3ca9b44a	0.020715851
72	0x3d6e44ac	0.05817096
73	0x3d95e8d9	0.07319803
74	0xbe0d93ec	-0.13825959
75	0xbdcb87e6	-0.0993803
76	0x3dc79145	0.09744505
77	0x3de80f68	0.113310635
78	0x3ce7573b	0.028239837
79	0x3e0e4777	0.13894449
80	0x3dca7204	0.09885028
81	0x3d9dcb80	0.0770483
82	0x3d1705c1	0.03687072
83	0xbdce37c0	-0.10069227
84	0x3e515921	0.20444156
85	0xbdbfa87c	-0.09358308
86	0x3c131763	0.008977744
87	0x3c807548	0.015680924
88	0x3d8b1f36	0.067930624
89	0x3d4976ff	0.04918575
90	0xbe5c7cd0	-0.21531987
91	0x3d84748a	0.064675406
92	0xbe55ddd5	-0.20885403
93	0x3e2b2153	0.16711931
94	0xbe2d5ac9	-0.16929163
95	0x3d959c51	0.073052056
96	0x3d83be53	0.06432786
97	0x3d5dc7a6	0.054145478
98	0x3d805cdb	0.06267711
99	0x3c37094f	0.011171653
100	0x3d9d215f	0.07672381
101	0x3d74aec6	0.05973699
102	0x3e62c3fa	0.22145072
103	0x3e5ee38d	0.21766491
104	0xbe0d4318	-0.13795125
105	0x3dd8b44b	0.10581263
106	0x3baa9a94	0.0052064154
107	0x3c9a6b80	0.018850088
108	0x3d2395bc	0.03993772
109	0xbdd99fc3	-0.10626175
110	0xbe26583f	-0.162446
111	0x3d772b4a	0.060344018
112	0xbc131018	-0.008976005
113	0x3e12f988	0.14353001
114	0x3da0155c	0.07816574
115	0x3df22312	0.118230954
116	0xbe614060	-0.21997213
117	0xbd353506	-0.04424002
118	0xbce75a96	-0.028241437
119	0x3dec5634	0.115398794
120	0xbe24f2a0	-0.16108179
121	0xbcdf90ae	-0.027290668
122	0xbd8ccc2a	-0.06874879
123	0x3d82a831	0.06379736
124	0xbc0d29a2	-0.008615883
125	0x3d0f0ef1	0.03492636
126	0x3d6dc98e	0.058053546
127	0xbe2b165c	-0.16707748
128	0xbdbb18ff	-0.09135627
129	0x3e079172	0.13239077
130	0x3e004415	0.12525971
131	0x3d90ea00	0.07075882
132	0x3e20d458	0.15706003
133	0x3dfea6aa	0.124341324
134	0x3e3a42ee	0.18189594
135	0xbd0f09f2	-0.034921594
136	0xbd95a237	-0.07306331
137	0xbe64c998	-0.22342527
138	0xbcb8f1d9	-0.02257626
139	0xbc9cab4b	-0.019124648
140	0xbbdd5cb1	-0.0067554344
141	0x3dc18ee3	0.094510816
142	0xbd762da5	-0.060102124
143	0xbd91bf4f	-0.07116567
144	0x3e2eb2f0	0.17060447
145	0xbd044dea	-0.032300867
146	0xbd4e3c6d	-0.050350595
147	0xbdb38965	-0.0876644
148	0x3c99bd14	0.018766917
149	0x3d9f50b4	0.07779065
150	0x3e4d4707	0.20046626
151	0xbcaad737	-0.020854576
152	0xbdb45e8e	-0.088070974
153	0x3c807cbe	0.015684482
154	0x3e0a1e6b	0.13488166
155	0x3e03d298	0.12873304
156	0xbb0273c2	-0.0019905423
157	0x3ce2c94a	0.027683873
158	0x3cea76f1	0.028621169
159	0xbdcd5a68	-0.10027009
160	0x3d3186be	0.04334139
161	0x3db453bd	0.08805034
162	0x3e28396b	0.16428153
163	0x3a1af156	0.00059105956
164	0xbdd535ad	-0.104106285
165	0xbc05b788	-0.008161433
166	0x3de0cb14	0.10976234
167	0xbdf1d20d	-0.11807642
168	0x3d112a59	0.035440776
169	0x3e3b6d45	0.18303402
170	0xbd7ca589	-0.061681304
171	0x3db0a3ae	0.086249694
172	0xbd901f41	-0.07037211
173	0xbd63ea51	-0.055643383
174	0x3e317623	0.17330222
175	0xbda28169	-0.07934839
176	0xbdb01689	-0.08598048
177	0x3d954540	0.07288599
178	0xbc178b2c	-0.00924949
179	0x3e16dbb1	0.14732243
180	0x3d7c6824	0.061622754
181	0x3cedda4a	0.029034752
182	0x3daca702	0.08430292
183	0x3dcbce6c	0.09951481
184	0x3de25080	0.110505104
185	0x3e4217a5	0.18954332
186	0xbe32af88	-0.17449772
187	0xbe27978b	-0.16366403
188	0x3d5653be	0.052325957
189	0x3d1509ae	0.036386184
190	0xbe290181	-0.1650448
191	0x3e02943e	0.12751862
192	0x3c918369	0.017762857
193	0xbdd02cc0	-0.101647854
194	0xbd28ebbe	-0.041240446
195	0xbdf9841f	-0.12183403
196	0xbd04bb42	-0.032405145
197	0xbceda4de	-0.029009279
198	0xbd00b0d5	-0.03141864
199	0xbd4fa70b	-0.050696414
200	0x3aedd566	0.0018145263
201	0x3db00f7d	0.08596704
202	0x3db053fd	0.086097695
203	0xbdca5497	-0.098794155
204	0x3d35750f	0.04430109
205	0xbd8b2416	-0.06793992
206	0xba10ce0c	-0.00055238674
207	0xbd89dca7	-0.06731539
208	0xbd8edfc7	-0.06976276
209	0xbdb3a9c5	-0.08772615
210	0xbdd833c0	-0.105567455
211	0xbd39ccfb	-0.0453615
212	0xbd331efb	-0.043730717
213	0xbdfe88a2	-0.124284044
214	0x3d046b5a	0.03232894
215	0xbdaefc0b	-0.08544167
216	0xbd86163a	-0.06547208
217	0x3d6c3aa6	0.05767312
218	0x3e2045fa	0.15651694
219	0x3d5385cc	0.05164127
220	0xbdac85bf	-0.084239475
221	0x3daf1e75	0.08550731
222	0xbcff1044	-0.031135686
223	0x3c95c3d3	0.018281853
224	0xbdb2dc6a	-0.08733447
225	0x3e0214c7	0.12703238
226	0xbdc791ca	-0.09744604
227	0x3db684ec	0.089120716
228	0x3ddfc804	0.10926822
229	0xbba809a6	-0.0051281033
230	0x3de09314	0.10965553
231	0x3d5e5b6c	0.054286405
232	0x3aefc1f5	0.0018292057
233	0xbbb1b078	-0.005422648
234	0xbc13830a	-0.00900341
235	0xbc1178fc	-0.008878943
236	0xbdf4f9e2	-0.11961724
237	0x3d93b8fe	0.07213019
238	0xbdeb00f3	-0.114747904
239	0x3d6f5e81	0.058439735
240	0xbd018d0d	-0.031628657
241	0xbc58ed35	-0.013240148
242	0xbce8f58e	-0.028437402
243	0xbd7fc3c3	-0.062442552
244	0xbd482891	-0.048866812
245	0xbdfd19d3	-0.12358441
246	0xbd5771d8	-0.052598804
247	0x3d98e9ed	0.07466493
248	0x3df40cfb	0.11916538
249	0xbe001796	-0.12508997
250	0xbc93f776	-0.018062335
251	0x3cec7c01	0.028867723
252	0xbd3520ed	-0.044220854
253	0x3ba360f8	0.004985925
254	0x3ae8bb1a	0.0017755956
255	0x3d413577	0.04717013

bias f4 [5]
0	0x3e4a8902	0.19778827
1	0xbdace03e	-0.08441208
2	0xbde4c198	-0.111697376
3	0x39a9d6a4	0.00032394112
4	0xbe2fa123	-0.17151313

welford_state_mean f4 [4]
0	0x3f2b851f	0.67
1	0x3f0a3d73	0.54000014
2	0x3e8f5c29	0.28
3	0x00000000	0.0

welford_state_mean_diff f4 [4]
0	0x41b11469	22.134966
1	0x41c5ba1a	24.71587
2	0x41a3cf11	20.476107
3	0x3f800000	1.0

hidden f4 [6, 64]
0	0x3f34dc19	0.7064834
1	0x3f6d2a99	0.92643124
2	0x3ecd84ec	0.40140474
3	0xbd77841e	-0.06042873
4	0x3d9b1a07	0.07573324
5	0xbf1ba64f	-0.6080064
6	0x3f58ba22	0.84659016
7	0xbf2fd407	-0.68682903
8	0x3f280ba2	0.6564275
9	0xbf05c66a	-0.5225588
10	0xbf5fe5b3	-0.8745987
11	0x3f3699ce	0.7132844
12	0x3f630106	0.88673437
13	0xbc97737d	-0.018487686
14	0x3e3fbce2	0.18724397
15	0x3f43edba	0.76534617
16	0xbf080025	-0.5312522
17	0x3d92ec1c	0.071739405
18	0x3f030621	0.51181227
19	0xbed3e135	-0.41382757
20	0xbeec97c5	-0.4620954
21	0xbf760a18	-0.9610915
22	0x3f34a62f	0.70566076
23	0xbf4358bd	-0.7630728
24	0xbf50fe0f	-0.8163766
25	0x3f5fd785	0.8743823
26	0xbf238b4a	-0.63884413
27	0x3f43276f	0.76232046
28	0xbe3ba1ef	-0.18323492
29	0x3d8a3025	0.06747464
30	0xbf647045	-0.8923381
31	0x3d971693	0.073773526
32	0xbf218225	-0.6308921
33	0xbe9032c7	-0.2816374
34	0xbf0dd468	-0.5540223
35	0x3ddda09c	0.108216494
36	0x3e74a323	0.23890357
37	0x3f77519a	0.9660889
38	0x3f0905eb	0.53524655
39	0xbc1f51c9	-0.009724089
40	0xbf4a5cc2	-0.7904779
41	0xbeaaec58	-0.3338344
42	0xbf644866	-0.8917297
43	0x3f68e9bb	0.90981644
44	0x3f67356e	0.903159
45	0xbf155dac	-0.58346057
46	0xbee0e065	-0.439212
47	0x3eda222e	0.42604202
48	0x3ef8cf0d	0.48595467
49	0x3f1bcb34	0.6085694
50	0x3f5ce525	0.86287147
51	0x3ea05984	0.31318295
52	0xbeb4fd48	-0.35349488
53	0xbf2c10d1	-0.6721316
54	0x3f4f654b	0.81013936
55	0x3f7845eb	0.96981686
56	0xbe72cb2b	-0.23710315
57	0x3eef1143	0.46692857
58	0xbeb87e1f	-0.36033723
59	0x3f34c458	0.70612097
60	0x3db6b914	0.089220196
61	0xbe60de52	-0.21959808
62	0x3ed46ab5	0.4148766
63	0xbf10c65b	-0.56552666
64	0x3f386d0e	0.72041404
65	0x3f6e6891	0.93128306
66	0x3f3e65f5	0.74374324
67	0xbe54d857	-0.20785652
68	0x3d391528	0.04518619
69	0xbf5bb967	-0.85829777
70	0x3f460616	0.77353036
71	0xbf5b3091	-0.8562098
72	0x3f1d28b8	0.61390257
73	0xbf4a33b0	-0.7898512
74	0xbf1142dc	-0.56742644
75	0x3f58d8ce	0.8470582
76	0x3f36be10	0.7138376
77	0xbea25cc6	-0.31711406
78	0x3f284c88	0.6574178
79	0x3ed01db9	0.40647677
80	0xbf60bbf1	-0.87786776
81	0xbf15f5d5	-0.58578235
82	0x3effaa7a	0.4993475
83	0x3d5a439a	0.053287126
84	0xbf303ed5	-0.68845874
85	0xbf74f066	-0.9567932
86	0x3f134502	0.5752717
87	0xbf60c074	-0.8779366
88	0xbf613f43	-0.87987155
89	0x3f69c013	0.91308707
90	0x3e8891b7	0.26673672
91	0x3f4c29d9	0.79751354
92	0xbd1ba500	-0.037999153
93	0xbe8cb3c7	-0.2748091
94	0xbf475452	-0.7786304
95	0xbece8964	-0.40339196
96	0xbf342d8f	-0.70382017
97	0xbe8b5ebc	-0.27220714
98	0xbf490908	-0.78529406
99	0x3ee2ee51	0.44322446
100	0x3ec8c2d4	0.39211142
101	0x3f6ea52e	0.93220794
102	0x3eed95a4	0.4640323
103	0xbee7d459	-0.45279196
104	0xbebb98a9	-0.36639908
105	0xbed0b0d4	-0.4075991
106	0xbf6ba67d	-0.92050916
107	0x3f748ece	0.955304
108	0x3f699a30	0.91250896
109	0xbe91baba	-0.28462774
110	0xbd2bcbdc	-0.041942462
111	0x3e57dc78	0.21080196
112	0x3ec1d1d4	0.378554
113	0x3eaef427	0.34170648
114	0x3f3ce74a	0.7379042
115	0x3e5033a3	0.20332198
116	0x3b6870e0	0.003546767
117	0xbf5be1bc	-0.8589132
118	0x3f61a1de	0.88137615
119	0x3f73fbc3	0.9530603
120	0xbccde5eb	-0.025134047
121	0x3f1a8e02	0.60372937
122	0x3e1fecf6	0.15617737
123	0x3f08c8a7	0.5343117
124	0x3ed32447	0.41238615
125	0xbf0bdc87	-0.54633373
126	0x3ec04a5a	0.37556726
127	0xbeef34ed	-0.46720067
128	0x3f34dc19	0.7064834
129	0x3f6d2a99	0.92643124
130	0x3ecd84ec	0.40140474
131	0xbd778421	-0.060428742
132	0x3d9b1a06	0.07573323
133	0xbf1ba650	-0.6080065
134	0x3f58ba22	0.84659016
135	0xbf2fd408	-0.6868291
136	0x3f280ba1	0.65642744
137	0xbf05c66a	-0.5225588
138	0xbf5fe5b3	-0.8745987
139	0x3f3699ce	0.7132844
140	0x3f630106	0.88673437
141	0xbc97737c	-0.018487684
142	0x3e3fbce2	0.18724397
143	0x3f43edbb	0.7653462
144	0xbf080025	-0.5312522
145	0x3d92ec1b	0.0717394
146	0x3f030621	0.51181227
147	0xbed3e135	-0.41382757
148	0xbeec97c5	-0.4620954
149	0xbf760a18	-0.9610915
150	0x3f34a62e	0.7056607
151	0xbf4358bd	-0.7630728
152	0xbf50fe0f	-0.8163766
153	0x3f5fd785	0.8743823
154	0xbf238b4b	-0.6388442
155	0x3f43276f	0.76232046
156	0xbe3ba1ef	-0.18323492
157	0x3d8a3025	0.06747464
158	0xbf647045	-0.8923381
159	0x3d971697	0.073773555
160	0xbf218225	-0.6308921
161	0xbe9032c7	-0.2816374
162	0xbf0dd468	-0.5540223
163	0x3ddda09e	0.10821651
164	0x3e74a322	0.23890355
165	0x3f77519a	0.9660889
166	0x3f0905eb	0.53524655
167	0xbc1f51c7	-0.009724087
168	0xbf4a5cc2	-0.7904779
169	0xbeaaec58	-0.3338344
170	0xbf644866	-0.8917297
171	0x3f68e9bb	0.90981644
172	0x3f67356e	0.903159
173	0xbf155dac	-0.58346057
174	0xbee0e065	-0.439212
175	0x3eda222e	0.42604202
176	0x3ef8cf0d	0.48595467
177	0x3f1bcb34	0.6085694
178	0x3f5ce525	0.86287147
179	0x3ea05985	0.31318298
180	0xbeb4fd48	-0.35349488
181	0xbf2c10d1	-0.6721316
182	0x3f4f654b	0.81013936
183	0x3f7845eb	0.96981686
184	0xbe72cb2b	-0.23710315
185	0x3eef1143	0.46692857
186	0xbeb87e1f	-0.36033723
187	0x3f34c459	0.706121
188	0x3db6b916	0.08922021
189	0xbe60de52	-0.21959808
190	0x3ed46ab5	0.4148766
191	0xbf10c65c	-0.5655267
192	0x3f34dc18	0.70648336
193	0x3f6d2a99	0.92643124
194	0x3ecd84eb	0.4014047
195	0xbd77841f	-0.060428735
196	0x3d9b1a08	0.075733244
197	0xbf1ba650	-0.6080065
198	0x3f58ba22	0.84659016
199	0xbf2fd408	-0.6868291
200	0x3f280ba1	0.65642744
201	0xbf05c66a	-0.5225588
202	0xbf5fe5b3	-0.8745987
203	0x3f3699ce	0.7132844
204	0x3f630106	0.88673437
205	0xbc977376	-0.018487673
206	0x3e3fbce2	0.18724397
207	0x3f43edba	0.76534617
208	0xbf080025	-0.5312522
209	0x3d92ec19	0.07173938
210	0x3f030621	0.51181227
211	0xbed3e135	-0.41382757
212	0xbeec97c4	-0.46209538
213	0xbf760a18	-0.9610915
214	0x3f34a62e	0.7056607
215	0xbf4358bd	-0.7630728
216	0xbf50fe0f	-0.8163766
217	0x3f5fd785	0.8743823
218	0xbf238b4b	-0.6388442
219	0x3f43276f	0.76232046
220	0xbe3ba1f1	-0.18323494
221	0x3d8a3025	0.06747464
222	0xbf647045	-0.8923381
223	0x3d971695	0.07377354
224	0xbf218225	-0.6308921
225	0xbe9032c8	-0.28163743
226	0xbf0dd468	-0.5540223
227	0x3ddda09e	0.10821651
228	0x3e74a322	0.23890355
229	0x3f77519a	0.9660889
230	0x3f0905eb	0.53524655
231	0xbc1f51ca	-0.00972409
232	0xbf4a5cc2	-0.7904779
233	0xbeaaec58	-0.3338344
234	0xbf644865	-0.89172965
235	0x3f68e9bb	0.90981644
236	0x3f67356e	0.903159
237	0xbf155dac	-0.58346057
238	0xbee0e066	-0.43921202
239	0x3eda222e	0.42604202
240	0x3ef8cf0d	0.48595467
241	0x3f1bcb33	0.6085693
242	0x3f5ce525	0.86287147
243	0x3ea05987	0.31318304
244	0xbeb4fd48	-0.35349488
245	0xbf2c10d1	-0.6721316
246	0x3f4f654b	0.81013936
247	0x3f7845eb	0.96981686
248	0xbe72cb28	-0.2371031
249	0x3eef1142	0.46692854
250	0xbeb87e1f	-0.36033723
251	0x3f34c457	0.7061209
252	0x3db6b914	0.089220196
253	0xbe60de52	-0.21959808
254	0x3ed46ab5	0.4148766
255	0xbf10c65b	-0.56552666
