r2l/store/karel-doorkey-2000.pt (torch, 60363 bytes, 9 tensors)

weight_ih f4 [192, 4]
000000 17 bb bd bd e1 57 0e be 99 c7 7e 3c 4c cd 47 bd
       -0.092642 -0.1390071 0.0155505175 -0.04877977
000010 e9 8e d6 3d 00 ad d8 3b d0 bf 5b be 0c 0c c0 3d
       0.10476477 0.00661242 -0.2145989 0.09377298
000020 2c fa 80 be 7a 41 34 be 0d 13 2d 3d 83 18 90 3d
       -0.25190866 -0.17603102 0.042254496 0.07035925
000030 e8 b6 82 3d 25 84 41 3e 7f ec 21 be 8d 6c 1c 3e
       0.06382543 0.18898065 -0.15812872 0.15275784
000040 18 5a f8 3d cc b1 28 bd b5 bd 23 bd a8 9c 6e bd
       0.12126559 -0.041185185 -0.03997584 -0.058254868
000050 2d 78 52 3e cd 9e a9 38 67 38 ca 3c 4a 2b 92 3e
       0.20553656 8.088127e-05 0.024685098 0.28548652
000060 a2 a9 d3 3e 03 d5 92 be 72 62 bc 3d 9b de c8 3c
       0.41340357 -0.2867814 0.091984645 0.024520209
000070 ce bc b3 3d 8d ef 5e 3d 3a 07 b4 bd 60 9e 2c 3e
       0.08776246 0.054427672 -0.08790441 0.1685729
000080 f1 65 56 3e 10 50 05 3e 95 d9 01 be 33 52 4e 3e
       0.20937325 0.13018823 -0.12680657 0.20148544
000090 f6 87 d6 bd 03 21 10 be 52 b2 cc bd d9 57 8b 3e
       -0.10475151 -0.14075093 -0.099949494 0.2721546
0000a0 e8 91 9d 3e 31 b1 c7 3b 03 2f 83 bc d8 91 f1 3a
       0.3077538 0.006094121 -0.016013628 0.0018430306
0000b0 09 bd e0 bd 21 d0 9e be a5 33 72 3e 3e e1 2f bb
       -0.109735556 -0.31018165 0.23652513 -0.0026837136
0000c0 97 96 97 3e e8 3f 87 be 3d 43 ab bc 48 c6 9c 3d
       0.29607078 -0.26415944 -0.020906085 0.07655007
0000d0 60 e5 76 3e 56 f2 a5 bc 3a ae af bc eb a9 81 3e
       0.24110937 -0.020257156 -0.021445382 0.2532495
0000e0 c1 25 a8 bc e7 d7 0d be 27 2c e2 3d 74 19 50 3e
       -0.020525815 -0.13851891 0.11043578 0.2032221
0000f0 88 dc 46 3e 0a ce 7c be 8d 09 15 3e 3e 47 a2 3c
       0.19420063 -0.24687973 0.14554425 0.019809362
000100 bb 75 8c 3e 5e 55 3f bd 2f 2c 6d 3d d6 c1 81 3d
       0.2743357 -0.046712272 0.057903465 0.063357994
000110 04 15 1f 3e 38 98 93 3c 18 50 da bb dc 39 b5 3d
       0.1553536 0.01801692 -0.00666238 0.088489264
000120 57 ae d3 3e 05 83 3a bd 3b cb 45 be 96 a5 98 be
       0.41343948 -0.045535106 -0.19315808 -0.29813832
000130 90 eb 83 bc 53 c3 e4 bd 8c 8e f9 bd 4b 6d 48 3e
       -0.016103536 -0.11170068 -0.12185392 0.19572942
000140 a1 12 4e bb 7c c9 0d be 13 ce 4d bd c9 09 af 3e
       -0.003144421 -0.13846391 -0.050245356 0.34187153
000150 c7 79 ba 3e 67 42 7a be f9 69 d8 bc 79 f4 6e be
       0.36421034 -0.24439393 -0.02641772 -0.23335446
000160 b0 01 98 bd 4f 32 6f bc 35 18 fb 3d 6b df ba bd
       -0.07422197 -0.014599397 0.122604765 -0.09124645
000170 06 00 3c bc e5 11 94 3d 91 0e 95 bb 67 77 6b be
       -0.011474615 0.072299756 -0.0045488556 -0.22994767
000180 47 89 c2 bc f3 80 70 bd 77 35 5b 3d e0 57 de 3c
       -0.0237471 -0.058716726 0.053517785 0.027141511
000190 f9 3b 1c bd 27 9e 5d bd 6b 1f a6 3d d3 fd ca 3d
       -0.038143132 -0.054105904 0.08111461 0.099116944
0001a0 1b f7 4f be 5a f2 47 3d f2 9f c9 bd a3 ca 9f 3e
       -0.20309107 0.04881511 -0.0984496 0.31209287
0001b0 b9 da 83 bc 1c 81 b4 bd 8a 32 d6 3d 7d 0e 14 3e
       -0.016095506 -0.08813688 0.10458858 0.14458652
0001c0 c7 d7 c6 3c ca e9 e4 bd 9c 95 c1 bd 08 f5 e7 3d
       0.024272813 -0.11177404 -0.09452364 0.11326033
0001d0 17 a7 c9 3d 0a ec 90 bc cd 39 1c be 4a cc 79 3e
       0.09846323 -0.017690677 -0.15256424 0.24394336
0001e0 e3 b8 0e 3d fd 9f 7b bd 17 4a a1 bd da 7d 80 be
       0.03484429 -0.061431874 -0.0787546 -0.25096017
0001f0 9c 48 c0 3d f4 ea 90 bd b5 8c f3 bb d3 0c 72 3d
       0.09388849 -0.07076064 -0.007432545 0.05909426
000200 85 9d 88 3d 05 23 8c 39 4b 46 05 bd 55 a8 5d bd
       0.066706695 0.00026728972 -0.03253774 -0.054115612
000210 d9 1c 0c bd 2c 68 f8 3d d3 25 32 be 34 c4 48 3d
       -0.0342072 0.12129244 -0.17397241 0.04901524
000220 2b 84 ff 3c 79 0e 08 be 2f 53 21 3d 1b 54 3e 3d
       0.031190952 -0.13286771 0.03938597 0.046466928
000230 ff 54 73 3c 4a 7f 2b 3d 4b c0 27 be ed 5b 93 3e
       0.014851808 0.04186944 -0.16381948 0.2878107
000240 d3 54 c1 bc a8 88 33 3d da 6b 13 3e 66 a2 75 be
       -0.023600018 0.043831497 0.14396611 -0.23987731
000250 a7 81 0e 3e 98 46 52 bc 62 9f 38 bb 71 fd 09 3c
       0.13916646 -0.012834214 -0.0028171171 0.008422242
000260 9f ac 34 be 02 d1 bb bd 89 da 5d bd c0 79 9a 3e
       -0.17643975 -0.091707245 -0.05416349 0.30171013
000270 64 a8 19 3e cf 2f a3 bd 39 cb 28 3e 80 6b 28 3d
       0.15005642 -0.07968103 0.16483773 0.041118145
000280 53 bb 1d 3d 4a 23 08 be 8b 81 da 3d dd cb 2c 3e
       0.038508724 -0.13294712 0.106692396 0.16874643
000290 a8 c4 e1 3d a5 02 d2 bd 6b 93 1a be af e0 36 bc
       0.11023837 -0.10254411 -0.15095298 -0.011161967
0002a0 b0 18 00 3e 72 08 dc bd 8f 7c 01 be 8f 0e 06 be
       0.12509418 -0.10743798 -0.12645172 -0.13091491
0002b0 f4 e6 bd bb f3 57 e8 bd 0e 86 2a 3c bf 18 2f 3e
       -0.005795354 -0.113449 0.010407938 0.17099284
0002c0 33 5f 0b 3e 6e fe 95 3d e6 67 b7 3c d6 e6 9d 3e
       0.13610534 0.07323919 0.02238841 0.30840176
0002d0 8e 09 1c bd db a7 61 3e 79 2f 13 be 21 b0 de bd
       -0.03809505 0.22036688 -0.14373578 -0.10873438
0002e0 79 47 7a 3d 99 ae 79 bb 1f 38 a2 bd c9 b9 c6 3c
       0.061103318 -0.0038098453 -0.079208605 0.024258511
0002f0 1c e7 85 3e 65 df a5 be 61 36 30 be d8 ca 50 3d
       0.26152885 -0.32397 -0.17208244 0.050974697
000300 21 af b6 3d f5 11 61 3d b9 ec a0 bc c1 55 4e be
       0.08920122 0.054948766 -0.019644128 -0.201499
000310 41 d9 c8 3d 88 96 c3 3d 21 60 45 bd 3d 4c 9e 3d
       0.09807063 0.09550196 -0.04818738 0.07729385
000320 fa b0 84 bd 05 48 26 be 76 ef 2e bd 98 35 ff bc
       -0.06479068 -0.16238411 -0.042708836 -0.031153485
000330 39 1d e1 3d cc 19 1c be b5 c9 22 3e 02 fa 17 be
       0.10991902 -0.15244216 0.15897258 -0.14841464
000340 6b 35 1d be 0d c3 58 3e 32 6d 49 be fe 35 40 3e
       -0.15352409 0.21168156 -0.19670561 0.18770596
000350 24 38 4e 3e 59 fe 6e bd 1c d2 0a 3e 6e 4d 26 3d
       0.20138603 -0.058348034 0.13556713 0.040601186
000360 e5 4f 03 bd 3a 47 12 3d f2 c6 b7 bc 63 56 97 bc
       -0.032058615 0.03571246 -0.022433732 -0.01847381
000370 23 1f a7 be 05 c4 4a be 02 b6 a4 3d 1a 84 b0 3d
       -0.32640943 -0.19801338 0.08042528 0.086189464
000380 d8 eb 18 bd a4 5a 3d be 4e 70 61 bd 39 38 42 be
       -0.037334293 -0.18491608 -0.055038743 -0.1896676
000390 c2 9a 94 3e fb ce ed bc f5 40 e5 3c ed a6 28 3e
       0.2902432 -0.02902936 0.027985075 0.16469927
0003a0 c3 b1 37 be 06 83 9e bd 6c 09 cf bc 12 a5 5b 3d
       -0.17938904 -0.077398345 -0.025273047 0.05362422
0003b0 93 db 28 be ae 64 09 3d 7a 8c 80 bd e4 28 c3 3d
       -0.16490011 0.03354328 -0.06276794 0.09529284
0003c0 5f 89 8c bd a5 cd b1 bd b3 c9 dc 3d c0 e2 8b 3e
       -0.06862139 -0.08681802 0.107806586 0.27321434
0003d0 62 36 cf 3e eb cc 1f be 5a 29 32 3e 88 e9 87 3e
       0.40471178 -0.15605514 0.17398587 0.26545358
0003e0 c2 e1 37 3e 6f b9 04 be 6c ef d2 3d c8 a0 5f 3e
       0.17957214 -0.12961362 0.10299572 0.21838677
0003f0 4c e3 85 3e b8 86 24 bd 92 d4 9c bc bd 7a 44 3d
       0.26149976 -0.04016754 -0.01914433 0.047968615

weight_hh f4 [192, 64]
000000 9e ac 0b be b5 e4 4a bc 30 0c d6 bd 10 cd 20 bc
       -0.13640067 -0.01238363 -0.10451543 -0.009814516
000010 3d fb 60 3d ae 1a 53 3d 7c 89 4e 3d 96 59 8b bd
       0.0549271 0.051539116 0.050424084 -0.068041965
000020 ab 0c bf 3d e4 4c 50 3c 48 23 68 bd a5 69 c8 3d
       0.09328588 0.012713645 -0.05667427 0.09785775
000030 e6 c7 7c bc 7b 6d bd 3d 85 a0 04 be 0d 7b fb 3c
       -0.015428519 0.09249397 -0.12951858 0.030698324
000040 d5 71 11 3d d4 e3 5a 3d bc 6e 25 bd 3b 95 47 3d
       0.03550895 0.05343993 -0.040388808 0.0487263
000050 91 a5 e2 3d 84 5c cf 3d ff 9a de bc fb dc 49 3d
       0.110667355 0.10125068 -0.027173517 0.04928301
000060 f9 53 d9 3d 44 23 94 3d 98 14 44 3c b9 8f d7 bd
       0.1061172 0.07233289 0.011967801 -0.1052546
000070 14 81 2b 3e 71 35 0d 3d bb 1e 92 bd 26 a2 9c 3d
       0.16748458 0.034474794 -0.071347676 0.07648115
000080 98 c0 67 3d a1 c8 8f 3d 6b 8c 04 bd 16 9a a3 3d
       0.056580156 0.07020689 -0.032360476 0.07988374
000090 cc 5f 36 bd bb 94 a7 3d 71 3d 3d 3d 3c 85 6d 3d
       -0.044524953 0.08182665 0.046201173 0.05798839
0000a0 86 e4 d0 bd 4c a6 9e 3d b3 9a 38 3c f0 b8 eb bd
       -0.101998374 0.07746562 0.011267352 -0.115098834
0000b0 c3 81 12 3d 8d df c8 3d d3 8d 13 3d 83 73 58 bd
       0.03576828 0.09808264 0.036023926 -0.052844536
0000c0 d2 c9 8e bd b9 3b ac 3d a4 aa 15 3d 58 bd b5 bd
       -0.06972088 0.08409829 0.03653969 -0.08874005
0000d0 5e 42 a1 bd 69 cf a7 bd 09 eb e9 bd ef da 13 be
       -0.07873987 -0.08193857 -0.114217825 -0.14438985
0000e0 8f 0b 59 3c 7c 98 92 3c 17 24 8f bc fe 65 8f 3c
       0.013247385 0.017894976 -0.017473264 0.017504688
0000f0 4c 67 8d 3d e9 87 ec 3d 64 2e 3b bd 2a d7 b1 bd
       0.06904468 0.1154936 -0.04569854 -0.086836174
000100 7f 90 b4 bd 1d dd f5 bc 38 4c da bd 96 2c bb 3d
       -0.08816623 -0.030012662 -0.10659069 0.091393635
000110 97 ab b2 bc 8e 54 e5 bd 34 d9 e1 bd ba 80 cc 3c
       -0.021810336 -0.11197768 -0.11027756 0.024963725
000120 ef 79 ca 3d 28 6b 2d bd 57 2a a2 3d f3 b2 1a be
       0.09886538 -0.04233852 0.07918232 -0.15107326
000130 16 c4 f2 bd 37 f2 17 3e bf e1 f2 bb 24 9b ea 3d
       -0.11853807 0.14838491 -0.007412165 0.11455372
000140 40 6f 21 be 20 a1 05 3e ad 03 a0 bd d6 4e 43 3d
       -0.15765095 0.13049746 -0.07813201 0.047682606
000150 a5 cc 7a bc cd 85 29 3c 51 7a ca bd 6e 0c 13 be
       -0.01530758 0.010346842 -0.09886611 -0.1436021
000160 bd 8a 5b be 48 bd 06 bd 87 2b bd bd 5b 90 c5 bd
       -0.21439643 -0.032895356 -0.09236818 -0.09646674
000170 9b 51 63 bc 64 73 19 bc c6 4a b4 bc a9 9a 5e 3d
       -0.013874437 -0.00936589 -0.022008311 0.054346714
000180 e7 3d 63 3d 9a c1 9e bd 92 f6 36 3d 00 d9 67 3c
       0.055478957 -0.0775177 0.04466874 0.014150858
000190 4b fa a6 3c 7d 9e a3 3d 57 33 1a be 44 58 a2 bd
       0.02038302 0.079892136 -0.15058647 -0.079269916
0001a0 9f b1 9c b9 0a 56 4a bd 40 34 df bd 92 c0 3d be
       -0.00029886977 -0.04939846 -0.10898638 -0.18530491
0001b0 28 75 66 bb d0 a3 f4 3d b4 e7 31 3e 8a ae a0 bd
       -0.0035165045 0.11945307 0.17373544 -0.07845791
0001c0 3c 80 15 bd 84 e8 d7 bd 50 70 8b 3c ed 58 d4 bd
       -0.036499247 -0.10542396 0.017021328 -0.10368524
0001d0 05 0a ba 3d 23 8f 8a 3d c3 50 06 be 48 64 6d 3d
       0.09083942 0.067655824 -0.13116746 0.057956964
0001e0 84 94 6f 3c 29 fd ed bd 35 f9 4c 3d 82 5d aa 3c
       0.014622811 -0.11620552 0.05004235 0.020796541
0001f0 cf 35 c3 bd 85 25 05 3c bf 0f 03 3e ad 4e 03 be
       -0.095317475 0.008126621 0.12798975 -0.12822981
000200 d3 0f 21 be 4c 2e 0f 3e 1e a3 e9 3d a3 79 bf bd
       -0.15728693 0.13982505 0.11408065 -0.09349372
000210 37 67 fd 3c 2c d0 26 bd 4b 60 9e bd c8 cf 13 3d
       0.030933006 -0.040725872 -0.0773321 0.036086828
000220 73 03 0a 3b 75 11 b5 3d f1 58 b9 3d f5 96 bc 3a
       0.0021059185 0.0884122 0.09050167 0.001438825
000230 4e 6e 21 3d 57 ff ee 3d b2 ee 20 be ba 17 c5 bc
       0.039411835 0.11669796 -0.15716055 -0.024059165
000240 40 2f 67 3d 48 fa a4 bb 23 d0 ee bd 5d 40 74 3d
       0.056441545 -0.0050347187 -0.11660793 0.059631694
000250 35 72 af bd a4 db ab 3c e3 36 65 3d 70 02 1f 3d
       -0.08566705 0.020978756 0.055960547 0.038820684
000260 7d 63 e0 3d 57 ca 2e bd ae 19 1b 3d af 19 18 3d
       0.10956476 -0.042673435 0.037866287 0.03713387
000270 88 63 26 bd b5 cb ee 3d 64 27 a6 bd f9 64 7a 3d
       -0.040622264 0.11659948 -0.08112982 0.06113145
000280 98 ed 91 bc d6 c2 2d bd 44 a1 71 3d 87 02 67 bd
       -0.017813489 -0.04242214 0.058991686 -0.056398895
000290 16 b2 68 3d 22 a3 2d bd 01 f1 03 be e1 d4 34 bd
       0.05681046 -0.042391904 -0.12884904 -0.04414833
0002a0 19 b0 cf 3d bb 41 f3 3d a0 5e 92 bd f5 06 25 bc
       0.1014101 0.118777715 -0.071469545 -0.0100724595
0002b0 6d f4 b6 3d ea 0d f1 bd 19 80 a6 3d ec 5e 02 bd
       0.08933339 -0.11770232 0.081299014 -0.031828806
0002c0 4d cd 94 3d bc 56 0f 3d e0 d9 e2 3c d3 9f e1 bd
       0.072657205 0.034994826 0.027691782 -0.11016812
0002d0 27 be 14 bd 01 d3 21 bd 69 35 53 bc 23 48 c8 bc
       -0.036314156 -0.03950787 -0.012891152 -0.02444846
0002e0 fb f5 07 3d d4 ef 29 bd 2f c7 b0 bd 2d 59 73 3c
       0.03319357 -0.041488484 -0.08631741 0.014852804
0002f0 cf 32 34 3d 25 d6 fb 3d ab 00 ab bd 99 3c 07 3e
       0.043993767 0.12296704 -0.08349737 0.1320671
000300 58 01 91 3d 17 49 9c bd e2 d2 d5 bd 56 57 2b 3c
       0.070803344 -0.07631128 -0.10440613 0.010457834
000310 42 b8 ec bd a9 ce b0 bc 80 57 10 3c 5c 3e bb bd
       -0.11558582 -0.021582918 0.008809924 -0.091427535
000320 76 43 12 bd e2 c9 2e be 4b 2d e3 3d d4 d0 22 be
       -0.035708867 -0.170692 0.11092623 -0.15899974
000330 87 8c 2c bd 09 81 91 3c 1e ed 2d 3d 4a 2e 2f 3e
       -0.042126205 0.017761724 0.04246246 0.17107502
000340 22 b8 91 bd 1d 2e 4a bc 84 ec 14 be 2a 75 ba 3d
       -0.07115199 -0.012340096 -0.14543349 0.091043785
000350 25 e6 d6 bd 85 12 30 3e ca ed fc 3d 58 e0 5c 3d
       -0.10493115 0.17194565 0.12350042 0.05392489
000360 60 80 01 be 8a 58 f1 3c 8a 09 e9 bd 22 1b f4 3d
       -0.12646627 0.029461164 -0.113787726 0.11919238
000370 94 c6 01 be a3 73 63 3d e3 f8 d1 bd 98 bb b6 bd
       -0.12673408 0.0555302 -0.102525495 -0.089224994
000380 40 50 e8 bd 38 43 fa bd ce 8a 2b 3c b4 33 3e 3d
       -0.113434315 -0.12219852 0.010470105 0.046436027
000390 f1 cc 63 bd fb 87 26 bd 80 92 dd bd eb f0 95 bc
       -0.05561537 -0.040657025 -0.10818958 -0.018303355
0003a0 82 6f eb 3d b2 15 43 be 3c 8e 39 39 b9 a9 71 bd
       0.11495878 -0.19051245 0.00017695961 -0.05899975
0003b0 cd 93 1c 3e 20 bc 8e 3d e8 57 cc bd ce f6 fb 3c
       0.15290757 0.06969476 -0.09977704 0.030757334
0003c0 0a 28 b0 bd c7 4a f5 3c 0a f3 18 3e 6a 8e da 3c
       -0.08601387 0.029942883 0.14936462 0.026679236
0003d0 40 68 ce bd 2a 88 7f bd 43 c3 2c be 74 ff 70 3d
       -0.10078478 -0.062385716 -0.16871361 0.05883737
0003e0 2f 83 21 3d bf d1 e5 bc b7 4c 96 bd 28 0d 47 bd
       0.039431747 -0.028054116 -0.07338851 -0.04859653
0003f0 d4 98 1a bd c4 05 40 bd d0 d2 b6 3b 6d c2 6d bd
       -0.037743405 -0.0468805 0.00557933 -0.058046747

bias_ih f4 [192]
000000 f5 d0 fd 3d f0 4d b7 3c 46 11 f1 bc 89 a9 c1 3b
       0.12393371 0.02237603 -0.029427182 0.0059101027
000010 f3 83 06 3c 29 91 2b 3e 7f 3f c7 bd a1 99 c5 3c
       0.00821017 0.16754593 -0.09728908 0.024121108
000020 6f b9 61 3c 11 2e 7d bd d7 ee 2d bd b3 a6 2d 3d
       0.013777121 -0.06181151 -0.042464104 0.042395305
000030 94 38 8f 3d d0 d9 c7 3d 7c 5e 89 3d 17 bc 26 bd
       0.06993213 0.09758341 0.067074746 -0.04070672
000040 f3 49 ab 3d be e5 7c 3c 66 11 b9 3d ca ab 2d 3d
       0.08363714 0.015435634 0.090365216 0.04240016
000050 3b 54 25 bd a8 7a d2 3d e1 6f be bd 1f 42 b7 bc
       -0.04036353 0.10277301 -0.09298683 -0.022370396
000060 f5 f0 78 3d 29 e3 5c 3e e9 87 b2 3d 84 96 ad bc
       0.06077667 0.2157103 0.08717329 -0.021189936
000070 5c a0 27 bd 45 a5 0a 3e 3c 71 93 3d c0 97 04 bc
       -0.040924415 0.13539608 0.07199332 -0.008092821
000080 f1 45 c8 3c 9d 7b cd 3d 61 21 10 3e b8 87 f1 3c
       0.024447413 0.10033343 0.14075233 0.029483661
000090 e0 94 44 3d 30 09 8b bc f1 ae 4a 3d 35 5f 8b 3c
       0.04799354 -0.016972154 0.049483243 0.017013172
0000a0 5f a1 12 3e 2f 9a 11 3e 64 43 5f bd 21 35 f2 3d
       0.1431937 0.14218973 -0.054507628 0.1182654
0000b0 b9 86 49 3d 0e 9a a4 3d 7e 9a 12 3e 42 a2 ee bb
       0.049200747 0.08037196 0.14316747 -0.007282526
0000c0 f2 10 0b bb b9 9a 16 3d 6d bd 95 3c db d1 e2 3d
       -0.0021219817 0.03676865 0.018278802 0.11075183
0000d0 50 40 0d 3e 07 25 4a 3e 52 f0 81 3e fd dc de bd
       0.13794065 0.19740687 0.25378662 -0.10881994
0000e0 c1 9d 6b 3d 19 e5 20 3d 2e 2d ae 3d af 3c 42 bd
       0.057523493 0.039280985 0.08504711 -0.047421154
0000f0 ba 70 06 bc f8 1d 06 3d ec 6c 05 3e f7 0d 73 3d
       -0.008205587 0.032743424 0.13029832 0.05933949
000100 86 5e 00 be 00 1a 5f be b9 51 33 be 8a de a3 be
       -0.12536058 -0.21787262 -0.17511643 -0.3200572
000110 04 8d 0d bd 13 32 86 be ae ed 8a be ec 22 81 be
       -0.03455831 -0.2621008 -0.2713446 -0.25221956
000120 b1 81 a7 be b4 58 a8 be ef d5 56 be 0c 59 b3 bd
       -0.32716134 -0.32880175 -0.20980047 -0.08757219
000130 0d 38 82 be ba 4c ab be ee 73 63 be 09 ae 06 3c
       -0.25433388 -0.33456975 -0.22212192 0.008220204
000140 2d 59 55 be 8f 0f c5 bc 7d f2 ac be bc 5e af be
       -0.20834799 -0.02405527 -0.33778754 -0.34251964
000150 4d 4c 97 be 5c 8b f0 bd 54 76 13 be 1e 96 62 bd
       -0.295504 -0.11745331 -0.14400607 -0.055318944
000160 4c e4 9f be c1 1c 22 be 97 04 6d be 18 d6 e3 bd
       -0.31228864 -0.15831281 -0.23146282 -0.111248195
000170 85 77 95 be e5 94 76 be ea 0b b5 bb 05 67 25 bd
       -0.2919275 -0.24080236 -0.005525102 -0.04038145
000180 74 82 ce bd 70 51 d6 bd 1b 44 1b 3d 6c 8b 61 be
       -0.10083476 -0.10464752 0.037906747 -0.22025841
000190 c1 30 0f be d2 8e 8a be 51 f2 87 be 40 80 61 be
       -0.13983442 -0.27062088 -0.2655206 -0.2202158
0001a0 c3 e9 c7 bd 54 53 bd bc e1 dc 9e bd 07 da 8f bd
       -0.097613834 -0.023111023 -0.07756973 -0.07024007
0001b0 63 94 1f bd 7b b5 49 bd 5e 15 3e be 1f 73 90 be
       -0.038959872 -0.04924534 -0.18562838 -0.2821283
0001c0 c4 c7 f6 bd a6 e9 93 3d a1 2d 83 3d 9d 38 66 3d
       -0.12049821 0.07222299 0.064051874 0.056206334
0001d0 91 3d 8f be e8 e4 6c be 24 26 c3 bd 32 43 cc bd
       -0.2797666 -0.23134196 -0.09528759 -0.09973754
0001e0 53 75 76 be eb 53 34 be fc 49 71 be 2b aa 4b be
       -0.24068193 -0.17610137 -0.23563379 -0.19889133
0001f0 12 a2 85 be 3b 2a 1b be 17 a3 10 be 2e 60 e4 bd
       -0.26100212 -0.15152828 -0.14124714 -0.11151157
000200 77 71 0e be 43 83 1f 3e d3 37 c2 bd 6f 88 28 bd
       -0.13910471 0.15577416 -0.09483304 -0.04114574
000210 bf 1f 8d bd e4 dc 7c bd ae ed 9b 3d 71 6e 18 be
       -0.06890821 -0.061734095 0.07613693 -0.1488588
000220 b9 b2 21 3e 46 c5 b8 bd d0 39 e6 bd 43 24 9f bc
       0.15790834 -0.09022002 -0.112414956 -0.01942647
000230 d7 32 c9 bd 8c de ae 3d 27 ed b7 bd 9c e7 1d 3e
       -0.0982415 0.08538541 -0.0898078 0.15420383
000240 45 18 b9 bd 94 a6 06 3e 83 0d 18 3e b9 94 1b 3e
       -0.09037832 0.13149482 0.14848904 0.15193452
000250 c9 2d 05 be 29 5f 88 3d 32 df 01 3e e0 13 76 3d
       -0.13005747 0.06658775 0.12682799 0.060077548
000260 30 e2 33 be 3d c2 1f bd 07 e7 23 bd 5b 57 9e 3c
       -0.17566752 -0.0390036 -0.040015247 0.019328764
000270 0e 56 fa bb d0 c6 27 3d 0d 23 90 3d 06 ef 42 3c
       -0.007639653 0.040961087 0.070379354 0.011897808
000280 90 28 32 3c 9a 67 c9 3d 7e 9a de bd ed 2c 01 be
       0.010873929 0.098342136 -0.10869311 -0.12614794
000290 44 a8 c9 3c 9f 28 d4 bd bb a0 91 bd 43 74 8c 3d
       0.024616368 -0.1035931 -0.07110735 0.06858113
0002a0 1e 06 c5 3d e0 c4 83 bd 2f 86 d7 bd 8a eb 15 be
       0.096203074 -0.06434035 -0.1052364 -0.14640632
0002b0 f0 a3 3d bc 4f a7 89 3d e6 9a 04 3e ce 30 e5 3b
       -0.01157473 0.06721365 0.12949714 0.0069943434
0002c0 6b 86 4a 3d 0a b6 85 3c e3 e6 9a bd ac f0 80 bd
       0.049444597 0.016322155 -0.075635694 -0.062959045
0002d0 97 58 00 3d ae 1c 0a 3e 45 18 3d be 71 c5 fe bd
       0.031334486 0.13487503 -0.1846629 -0.12440003
0002e0 c8 ff d8 3d 3e 35 e6 bd 5e d4 f8 3c 4c f6 c7 bd
       0.105956614 -0.11240624 0.030374702 -0.09763774
0002f0 7f ef bd bd ea a8 72 bd 8c 98 65 3d 63 19 af bd
       -0.09274196 -0.05924312 0.056053683 -0.08549764

bias_hh f4 [192]
000000 8c 89 13 3e 0a 62 2d 3e 6c f6 d5 bd 35 75 1f 3d
       0.14407939 0.1693193 -0.10447392 0.038930137
000010 31 13 c3 3d 56 fe 17 bd 5d 42 cf 3d 5b e3 59 3e
       0.09525145 -0.037107788 0.1012008 0.21278135
000020 3f 34 87 3a 1d 0d df 3d 43 a9 20 bb 71 75 90 bd
       0.0010315253 0.10891173 -0.002451495 -0.0705365
000030 da b1 35 bd fe 71 1b 3d 08 7f 32 3e 51 e8 22 3d
       -0.044359066 0.03795051 0.17431271 0.039772335
000040 e7 2a c9 3d 7c cf 77 3e 7e 79 94 bd 1d c9 85 bd
       0.09822636 0.24200243 -0.07249735 -0.065325
000050 ef 08 9f bd 44 58 12 bd 91 04 d9 3d 14 29 89 3d
       -0.07765376 -0.035728708 0.10596574 0.06697288
000060 e3 51 07 3e 31 76 82 3a 8d 66 d9 3d d7 c4 37 bd
       0.13214831 0.0009953437 0.10615263 -0.044865455
000070 55 d0 82 3c c3 fe 3a 3d 63 fb 00 3c 75 38 bf 3d
       0.015968481 0.045653116 0.007872435 0.0933694
000080 de d4 ea 3d 3b e7 f5 3d a4 f8 42 3e d2 3e 02 3b
       0.114663824 0.12006994 0.19040161 0.001987387
000090 81 c1 1a 3e f0 4c 91 3d ad f6 32 3d 2b 38 a6 bc
       0.15112878 0.07094753 0.04369228 -0.020290455
0000a0 48 c1 0b bc a0 95 a1 3b cc ad 11 3d 7d ff 5f 3d
       -0.008529969 0.004931167 0.035566136 0.054687012
0000b0 ba 56 9f 3d c2 74 9e bd 67 36 8a bc 43 c2 d8 3d
       0.07780214 -0.077371135 -0.016871644 0.105839275
0000c0 56 f2 13 3e ed b7 3f 3e 38 03 f6 3d 14 18 f0 bc
       0.14447913 0.18722506 0.12012333 -0.029308356
0000d0 5b 06 79 bd 07 e4 28 3d 28 1d af 3c 19 08 ec 3d
       -0.060797077 0.04123309 0.021376207 0.11524982
0000e0 c2 f6 0f 3e 54 8b d3 3d fc 4e d9 3d 67 9b 0e 3e
       0.14058974 0.10329309 0.10610768 0.13926469
0000f0 df db 79 bd 9a fa 3a bc e8 97 1b 3e 23 96 2c 3d
       -0.0610007 -0.011412287 0.15194666 0.04213537
000100 a9 fd b2 be 36 93 3e be 10 d6 80 be 0a 21 8b be
       -0.34959152 -0.18610844 -0.25163317 -0.27173644
000110 3d 6c 75 bd 56 66 67 be 2c 8f 4f be 9f 95 5d be
       -0.059917677 -0.22597632 -0.2026946 -0.21639107
000120 2a 06 7f be f4 e2 34 be 4a a1 8b be 31 8a 54 be
       -0.24904695 -0.17664701 -0.2727149 -0.20755841
000130 9e 04 3b be 61 48 2b be 32 56 a0 be 49 bf 8d 3c
       -0.1826348 -0.16726829 -0.31315762 0.017303126
000140 ec 0d 87 be dc 39 95 bd d7 27 12 be e9 a5 53 be
       -0.2637781 -0.072864264 -0.1427301 -0.20668758
000150 97 3b aa be cb 0a 81 be 33 23 f4 bd 6b 77 93 bd
       -0.33248588 -0.25203547 -0.11920776 -0.072005115
000160 f1 d8 84 be eb 63 a7 bd 9d e8 62 be b0 3b 0b be
       -0.25946763 -0.08173355 -0.22159047 -0.13596988
000170 77 52 83 be 2b 39 b1 bd 8f a9 b8 bd 95 c0 36 bd
       -0.25648853 -0.08653482 -0.09016716 -0.044617254
000180 c4 89 55 be 78 3d a1 be cc c4 d5 3d e7 83 d7 bd
       -0.20853335 -0.3149221 0.10437927 -0.10523205
000190 79 c8 c6 bc 88 90 84 be d9 3b a7 be 6e 1c 8a be
       -0.024265515 -0.2589152 -0.32662848 -0.26974815
0001a0 36 aa 6e be c2 7a ef bd 30 9f 5b be dd 32 ca bd
       -0.23307118 -0.11693336 -0.21447444 -0.09872983
0001b0 83 59 81 be 5e 91 fb bd be 65 7e be 1f 0e 38 be
       -0.25263605 -0.12283586 -0.24843499 -0.17974137
0001c0 a4 3d 59 be ff 41 2a 3d 2b 90 9f bd 13 83 7b bd
       -0.2121492 0.041566845 -0.0779117 -0.0614043
0001d0 3c 9a 51 be bc 2c 97 be 36 a0 fe bd c6 44 cd bc
       -0.20468992 -0.29526317 -0.124329016 -0.025057208
0001e0 33 1a 83 be 5b 33 b7 bd 75 22 ef bd 69 2e 42 be
       -0.25605926 -0.08945342 -0.11676494 -0.18963017
0001f0 b7 6b 45 be b9 91 83 be 1f 79 77 bd 70 79 91 bd
       -0.19279371 -0.25697115 -0.060418244 -0.071032405
000200 bb 69 73 3d e9 95 42 3e 9d f5 d0 bd 7c f8 8a bd
       0.059427004 0.19002499 -0.10203097 -0.06785676
000210 77 c3 12 bd ba 5f 37 be 09 5c db 3d 4f 43 0d be
       -0.03583094 -0.1790761 0.10710914 -0.13795207
000220 fe 92 ed 3d 76 e5 99 bc b9 7c f9 3c ae c5 fc 3c
       0.11600302 -0.018786173 0.03045498 0.03085598
000230 ee ba de bc 20 bd 83 3c c9 fc 90 bd 6a 00 67 bd
       -0.027188744 0.016081393 -0.07079465 -0.05639688
000240 28 f1 4f be a1 a7 b3 3d 2d f5 04 be 52 99 e0 3c
       -0.20306838 0.08772207 -0.12984152 0.027416859
000250 24 ea a7 bc c8 b6 8c 3c 39 95 c3 3c fe 85 01 be
       -0.02049739 0.017177 0.023874866 -0.1264877
000260 7e 05 bd bd 1c 5e 5e 3d 6c 08 de bd 81 63 37 bd
       -0.09229563 0.05428897 -0.1084145 -0.04477263
000270 f8 33 5a bd 2f f8 c7 3c 64 1b a7 bd b0 2f ca 3d
       -0.053272218 0.024410335 -0.08159521 0.09872377
000280 47 e4 f2 3c a5 69 f4 bc 74 97 30 be e7 82 2b bd
       0.029649867 -0.029835531 -0.17245275 -0.041872885
000290 fa 98 dc ba 09 95 d4 bd 13 e3 ae bd a7 08 57 bb
       -0.0016830259 -0.10379989 -0.08539405 -0.0032811554
0002a0 64 96 89 3c ec ea 03 bd 2a d2 60 bc 82 22 33 be
       0.016795345 -0.03220646 -0.013721982 -0.17493632
0002b0 b3 24 24 3e 31 ac a6 3d d8 dc 04 3e a9 4e d7 3c
       0.16029625 0.08138312 0.1297487 0.026282625
0002c0 bd 65 66 bd 27 fe df 3d a0 7b c3 3d ab 02 ee bd
       -0.05624937 0.109371476 0.09545064 -0.116216026
0002d0 14 90 b4 3d 3f 27 06 3e 77 6c 4b be cd 23 1d be
       0.08816543 0.13100909 -0.19865595 -0.15345688
0002e0 b6 b9 b9 bd 86 48 59 bd 9f a5 9b 3d a9 69 a0 bb
       -0.09068625 -0.05304768 0.07599949 -0.004895408
0002f0 02 03 a7 bc ab 83 33 3e 59 9c 66 bd fd 74 8c 3b
       -0.020387176 0.17530696 -0.05630145 0.004286407

weight f4 [5, 64]
000000 b6 e8 83 3e 5b 95 da 3d f9 50 48 bc 68 2d 51 bd
       0.25763482 0.106730185 -0.012226337 -0.051068693
000010 05 e7 0d be 70 41 3b 3d ca ee c3 be 98 31 66 3c
       -0.13857658 0.045716703 -0.3826812 0.01404991
000020 a7 5c c5 3c b1 1c 76 be b5 82 3b 3e d9 b4 d5 bd
       0.024092032 -0.24034382 0.1831158 -0.104348846
000030 54 84 76 3e 24 69 34 3e d0 ba 5b 3e 07 72 0c 3e
       0.24073917 0.17618233 0.21457982 0.13715373
000040 1f d0 34 be 47 07 db bd 41 c9 a9 be b2 75 89 bd
       -0.17657517 -0.106947474 -0.33161357 -0.06711902
000050 91 27 89 be c1 94 8b 3e 59 47 bc 3d 58 2b b1 bd
       -0.26788 0.27261928 0.09193296 -0.08650845
000060 39 28 85 3d c9 4b cd 3c 9d 7a c0 3e 36 92 b3 3e
       0.065018125 0.025060551 0.37593547 0.35072488
000070 9f 73 bb be ec 46 67 3d ab 4b f2 bd 2e e4 69 3c
       -0.3661165 0.05646412 -0.11830839 0.014275594
000080 41 87 83 3e c8 bf a6 be 5d 7e c2 bc ea a5 15 be
       0.25689128 -0.32568192 -0.023741895 -0.14614072
000090 4c cc fa 3d cc 82 3b be 95 37 ad 3e 8a 46 85 be
       0.12245998 -0.18311614 0.33831468 -0.2603038
0000a0 4f c5 77 3d 15 b1 28 bd d4 81 68 be e0 1b ba 3d
       0.060490903 -0.041184504 -0.22705775 0.09087348
0000b0 d7 b7 50 bd b2 20 10 3d e7 29 44 be e7 aa c9 be
       -0.050956573 0.03518743 -0.1915661 -0.393882
0000c0 6e 80 3a 3e 55 8d c9 3c ed a9 67 bc 95 fc 20 bc
       0.18213055 0.024603525 -0.014139635 -0.009825845
0000d0 65 ce 8b be 97 1e 24 3e a3 f7 27 bd 06 87 fd 3d
       -0.27305904 0.16027294 -0.04100765 0.12379269
0000e0 7c 00 54 be 30 03 07 be 0c 9f 81 be 9d a3 c5 be
       -0.2070331 -0.1318481 -0.25316656 -0.3860139
0000f0 a9 2c 8d 3d 85 0b 13 3e 81 9b db 3c 90 87 3a 3e
       0.06893284 0.14359863 0.026807548 0.18215775
000100 05 00 5f 3d 46 fb ee 3d 4b 26 a7 be f1 07 93 3e
       0.054443378 0.1166902 -0.32646403 0.28716996
000110 81 80 79 bc d3 d3 bc 3d 96 6b 1e 3e e3 ad 98 3e
       -0.015228392 0.0922009 0.15470728 0.29820165
000120 0d 82 22 3d 24 e2 e0 bd 6b 42 22 3c 76 8e b6 be
       0.039674807 -0.10980633 0.009903531 -0.35655564
000130 54 53 47 bd 45 3b 35 be 7b 01 86 3e 1b 0a 10 3e
       -0.048663452 -0.17698391 0.26173005 0.14066355
000140 60 e3 1b 3d 9b 2d db bd a4 77 47 be ed 70 1d bd
       0.03805864 -0.10702058 -0.19479233 -0.038437773
000150 37 d7 e4 bd 98 17 67 3c 5c 4f a8 bd bc d8 b6 3d
       -0.111738615 0.014104746 -0.082182616 0.089280576
000160 60 9e 98 bc 52 15 9c be ab e6 13 bd 11 47 b1 3d
       -0.018630207 -0.30485016 -0.036108654 0.08656133
000170 1e a4 f5 3c 7d 2b 22 be a3 6f 91 bd bf 52 c8 bd
       0.029985484 -0.15836902 -0.07101371 -0.097814076
000180 ca 63 ba be b6 35 f1 3d 40 8b bc 3d fe c8 12 3e
       -0.36404258 0.11777823 0.09206247 0.14334485
000190 8e 92 2c 3d b0 f8 1b bd 12 ac 15 3e 4a 8f 60 be
       0.042131953 -0.038078964 0.14616421 -0.2192966
0001a0 c6 e7 d7 3d c2 cf 54 be 7f 33 5e 3d 63 ec af bd
       0.10542254 -0.20782378 0.05424833 -0.08590009
0001b0 fb 37 76 3e 9c f5 e6 3c c9 2d 82 3d af 38 ef bd
       0.24044792 0.028193288 0.06356389 -0.116807334
0001c0 e2 42 23 3e 9a c4 b8 bd b3 af 01 be 12 7b 6c 3d
       0.15943483 -0.09021874 -0.1266468 0.057734556
0001d0 b8 7b 8a 3e 48 b1 55 be 22 33 80 3e 9d e4 36 3e
       0.27047515 -0.20868409 0.2503901 0.17860647
0001e0 17 63 a6 3e 02 71 91 3e 38 2c a0 3e 43 16 e1 3d
       0.32497475 0.2840653 0.31283736 0.10990574
0001f0 ed 17 78 3d 75 01 65 be b2 2b 0a 3e 68 93 03 be
       0.060569692 -0.22363837 0.13493231 -0.128492
000200 5f a3 40 3e 52 4b c3 bd 0c d5 48 3e b7 c0 b1 be
       0.18812321 -0.095358506 0.19612521 -0.34717342
000210 0c 7e 08 be 47 51 8b 3e 4a d9 ba 3e d3 2e 06 bd
       -0.13329333 0.27210447 0.36493903 -0.0327595
000220 2b 44 f9 be fc ab 07 3d ad df e7 be 2b 55 8b 3e
       -0.4868482 0.033123 -0.4528784 0.27213416
000230 ed 97 ec be b5 83 82 be 90 88 32 3e 2a 12 6f bd
       -0.4620966 -0.2549111 0.17434907 -0.058366932
000240 ee 9a 63 3d 2a 65 e7 bd 8f ab de 3e d0 24 ca be
       0.055567674 -0.112985924 0.43490264 -0.3948121
000250 40 4c 4c be 9a b1 86 be a5 da f0 3d f5 ea a3 3b
       -0.19950962 -0.26307374 0.11760453 0.0050023743
000260 83 6b 82 3e 2b ba eb 3d b5 eb 36 3d dd a3 24 3e
       0.2547265 0.11510118 0.04465838 0.16078134
000270 4c bc 31 3d fd 86 19 3e 80 6a 9d bd 40 8b 8c bd
       0.043392465 0.149929 -0.07686329 -0.06862497
000280 cc d0 80 3e 9c 73 e6 3d 7b 1a 33 3d 11 45 83 be
       0.251593 0.112525195 0.043726426 -0.2563863
000290 74 d4 e9 3d c6 a5 f9 3d 12 2e 76 3d 56 98 a5 bd
       0.11417475 0.12189822 0.06010253 -0.080856964
0002a0 8e 5c 67 39 2a df 6b 3e 06 d6 78 3e 31 4a 8d 3e
       0.00022064356 0.23034349 0.24300393 0.27595666
0002b0 20 44 84 bc eb 47 04 be d9 47 72 be 9f c4 e0 3e
       -0.016145766 -0.1291806 -0.2366022 0.4390001
0002c0 3b ef 3b 3e c6 9d e5 bd 71 4a 23 3e 59 85 0a be
       0.18352978 -0.112117335 0.15946366 -0.1352743
0002d0 41 2c 2f be 34 61 cc 3d 47 53 10 be 9e ba 42 be
       -0.17106725 0.099794775 -0.14094268 -0.19016501
0002e0 e3 57 39 be 52 10 35 3e 49 ad 95 bd 77 05 00 3e
       -0.18099932 0.17682007 -0.07308442 0.12502085
0002f0 cb 9c 8d 3e 43 1c 83 be d8 06 68 3e 4d d6 95 3d
       0.27658686 -0.256075 0.2265886 0.07316265
000300 c4 8e 48 be 6b 96 00 3e ac c6 bb bd ef f9 35 3e
       -0.19585711 0.1255738 -0.09168753 0.17771123
000310 c2 17 3a 3e fc 48 40 be 72 b9 75 3c 69 c5 ea bd
       0.18173125 -0.18777841 0.014997827 -0.11463434
000320 40 c7 54 3e 24 a7 37 3e 43 00 52 3b b2 92 31 bd
       0.20779133 0.17934853 0.0032043613 -0.04335279
000330 b5 1e d5 3d 2e cd d5 3d 74 94 88 be 39 51 a9 bc
       0.104062475 0.104395255 -0.2667576 -0.020668613
000340 5e e6 df bd 2f 5a a5 3e bd bc 45 3e 8a cb 6f 3e
       -0.10932611 0.32295367 0.19310279 0.23417488
000350 98 a4 00 3d e8 58 75 bd 55 12 e0 bd d0 46 28 3e
       0.03140697 -0.05989924 -0.109409966 0.16433263
000360 35 2c b1 be fa 1a 8f 3e 88 15 ad bd 16 d3 8e be
       -0.3460404 0.2795027 -0.084513724 -0.2789542
000370 21 11 62 3e ba 50 66 3e 52 73 c1 3e 6d a8 94 be
       0.22076847 0.22491732 0.37783295 -0.2903475
000380 37 11 94 3d 61 6b ae bd 1b 00 04 3d cb db c2 bd
       0.07229846 -0.08516575 0.032226663 -0.095145784
000390 49 61 99 be 97 be aa bd 4a b0 19 be 81 ab 96 3e
       -0.29957035 -0.083371334 -0.15008655 0.29427722
0003a0 e9 82 94 be c6 03 80 bc 9d 9b e0 bc 8e ca 22 be
       -0.29006127 -0.0156268 -0.027417952 -0.15897581
0003b0 a8 44 85 3e 09 07 3e be 8d 68 77 3e e5 49 dc 3d
       0.26028943 -0.18557371 0.24160977 0.10756282
0003c0 db c0 a5 be b1 03 9c bd 0e cc 3b 3d 8b ec 37 3e
       -0.323737 -0.076178916 0.0458489 0.17961328
0003d0 e0 99 9d 3d 6e b4 c9 3d b8 4c 58 be 91 c7 3c 3d
       0.07695365 0.09848867 -0.21123016 0.04608876
0003e0 b1 c8 a6 bc 8d fe 38 3d 54 5d 8e 3d 13 bb 47 be
       -0.020359369 0.045164634 0.06951395 -0.19504957
0003f0 bb c3 6f be fd 1f 18 3e f7 6b 0b be 53 71 9b be
       -0.23414509 0.14855953 -0.13615404 -0.30359897

bias f4 [5]
000000 0c 5e 6c bd fd d3 e4 3d ee 06 59 3d 0c 2f 9f bd
       -0.057706878 0.11173246 0.052985124 -0.07772645
000010 e5 d4 e4 bc
       -0.027933547

welford_state_mean f4 [4]
000000 90 c2 15 3f 0b 2d 32 3f b3 9d 2f 3f 5d 64 3b 3f
       0.58500004 0.6959998 0.68600005 0.7320002

welford_state_mean_diff f4 [4]
000000 05 64 72 43 e2 6d 53 43 a4 1a 57 43 41 e0 43 43
       242.3907 211.42923 215.10406 195.87599

hidden f4 [6, 64]
000000 a7 52 0f 3f 17 cf 9b 3e 48 93 c6 be 8d 2d e9 3d
       0.5598549 0.30431435 -0.38784242 0.11385641
000010 8f df 72 bf 79 4f 2b 3f 8e 76 c2 3e c6 fc 50 3e
       -0.94872373 0.6691814 0.37981075 0.20408925
000020 4b 7d 01 bf 8b 5e 11 bf 7c d9 2a bd 4e 8d ec be
       -0.50581807 -0.56784886 -0.041711316 -0.46201557
000030 30 a8 10 bd 4a 76 08 bf a3 6d 5d 3f 53 0a 48 3f
       -0.035316646 -0.53305495 0.8649542 0.78140754
000040 c3 4a 11 3d 19 c5 43 bf 29 c6 3b bf 0c 0e 05 bf
       0.03547169 -0.7647262 -0.73349243 -0.5197456
000050 3c fb 4b bf 23 13 44 3f e2 e6 3b 3f ad 31 5e bf
       -0.7968023 0.765917 0.73399174 -0.8679455
000060 6b 4c 86 3e 5d 9e 5d bf 42 76 42 3e 44 5b 3f 3f
       0.26230177 -0.8656977 0.18990424 0.74748635
000070 0f 3f 09 bf 93 64 80 be 4b f7 74 bf 70 aa 58 3f
       -0.53611845 -0.25076732 -0.9568984 0.84635067
000080 6d 35 a6 be 1a 04 02 3f e3 88 40 bf a7 e1 4e 3d
       -0.32462636 0.5078751 -0.7520887 0.050508168
000090 e7 87 71 3f 7a 2f 60 be 51 9b b1 3e 77 c7 2c bf
       0.94347996 -0.21893111 0.3468881 -0.6749186
0000a0 03 36 76 3f 52 c6 5b bf dd 34 a1 3e b5 99 6a be
       0.96176165 -0.8584949 0.31485644 -0.22910197
0000b0 45 fc 90 3e 16 20 7a 3f ba 8e 01 bf 0c 1f f5 be
       0.28317466 0.9770521 -0.5060841 -0.4787525
0000c0 db a1 40 3f 00 6b 58 3f b7 eb 37 bf 24 2c 5b bf
       0.7524697 0.8453827 -0.7184405 -0.8561423
0000d0 c2 25 18 3d 15 9b fe bd 13 3a 75 be 59 3c c7 be
       0.037145384 -0.12431923 -0.23947935 -0.3891323
0000e0 ac 9e f9 3e a4 f9 c2 3e 7a 73 38 3f 9f bf b1 3e
       0.4875387 0.38081086 0.72051203 0.34716508
0000f0 75 5f 1f 3f cf 39 3a bf 67 c0 22 3f 8b a6 c4 3e
       0.6225503 -0.7274446 0.6357483 0.38408312
000100 a9 52 0f 3f 12 cf 9b 3e 4b 93 c6 be 8c 2d e9 3d
       0.55985504 0.3043142 -0.3878425 0.113856405
000110 8f df 72 bf 79 4f 2b 3f 91 76 c2 3e cd fc 50 3e
       -0.94872373 0.6691814 0.37981084 0.20408936
000120 4c 7d 01 bf 8c 5e 11 bf 8c d9 2a bd 51 8d ec be
       -0.5058181 -0.5678489 -0.041711375 -0.46201566
000130 58 a8 10 bd 4a 76 08 bf a3 6d 5d 3f 52 0a 48 3f
       -0.035316795 -0.53305495 0.8649542 0.7814075
000140 c7 4a 11 3d 18 c5 43 bf 29 c6 3b bf 0b 0e 05 bf
       0.035471704 -0.76472616 -0.73349243 -0.5197455
000150 3c fb 4b bf 24 13 44 3f e1 e6 3b 3f ab 31 5e bf
       -0.7968023 0.76591706 0.7339917 -0.8679454
000160 6a 4c 86 3e 5c 9e 5d bf 4a 76 42 3e 45 5b 3f 3f
       0.26230174 -0.8656976 0.18990436 0.7474864
000170 11 3f 09 bf 8d 64 80 be 4b f7 74 bf 6e aa 58 3f
       -0.53611857 -0.25076714 -0.9568984 0.84635055
000180 76 35 a6 be 1c 04 02 3f e1 88 40 bf d5 e1 4e 3d
       -0.32462662 0.5078752 -0.7520886 0.05050834
000190 e6 87 71 3f 75 2f 60 be 55 9b b1 3e 76 c7 2c bf
       0.9434799 -0.21893103 0.3468882 -0.67491853
0001a0 03 36 76 3f 53 c6 5b bf e3 34 a1 3e af 99 6a be
       0.96176165 -0.85849494 0.31485662 -0.22910188
0001b0 44 fc 90 3e 15 20 7a 3f ba 8e 01 bf 0c 1f f5 be
       0.28317463 0.97705203 -0.5060841 -0.4787525
0001c0 db a1 40 3f fe 6a 58 3f b6 eb 37 bf 03 2c 5b bf
       0.7524697 0.8453826 -0.7184404 -0.8561403
0001d0 8a 25 18 3d 0a 9b fe bd 15 3a 75 be 59 3c c7 be
       0.037145175 -0.12431915 -0.23947938 -0.3891323
0001e0 af 9e f9 3e a3 f9 c2 3e 79 73 38 3f 9d bf b1 3e
       0.48753878 0.38081083 0.720512 0.34716502
0001f0 76 5f 1f 3f cf 39 3a bf 68 c0 22 3f 88 a6 c4 3e
       0.62255037 -0.7274446 0.6357484 0.38408303
000200 c6 57 0f 3f 9c bc 9b 3e ca 98 c6 be 58 17 e9 3d
       0.55993307 0.30417335 -0.38788444 0.113814056
000210 e7 dc 72 bf b5 4e 2b 3f d8 7d c2 3e ec 08 51 3e
       -0.9486832 0.6691697 0.37986636 0.2041356
000220 98 7e 01 bf 79 64 11 bf a2 14 2b bd 41 93 ec be
       -0.5058379 -0.56793934 -0.041767724 -0.46206096
000230 31 0c 11 bd bd 76 08 bf c2 6d 5d 3f de 07 48 3f
       -0.035412017 -0.5330618 0.864956 0.78137004
000240 7e 6e 11 3d 5d c2 43 bf a5 c8 3b bf c1 0d 05 bf
       0.035505764 -0.7646845 -0.73353034 -0.5197411
000250 ac fb 4b bf 46 17 44 3f ff e3 3b 3f 8a 2d 5e bf
       -0.79680896 0.7659801 0.7339477 -0.8678824
000260 8f 4b 86 3e a0 9d 5d bf 18 94 42 3e 22 5d 3f 3f
       0.26229522 -0.8656864 0.19001806 0.74751484
000270 72 48 09 bf cf 5d 80 be 4e f7 74 bf 0a a4 58 3f
       -0.5362617 -0.2507157 -0.95689857 0.84625304
000280 1c 48 a6 be ad 08 02 3f 69 83 40 bf 55 08 4f 3d
       -0.3247689 0.5079449 -0.75200516 0.050545055
000290 3f 86 71 3f de 23 60 be 62 a4 b1 3e 9f c6 2c bf
       0.9434547 -0.21888682 0.34695727 -0.6749057
0002a0 3e 36 76 3f c2 c8 5b bf 35 40 a1 3e 06 91 6a be
       0.96176517 -0.8585321 0.314943 -0.22906885
0002b0 9d fc 90 3e 4f 1f 7a 3f ba 8f 01 bf 8a 24 f5 be
       0.2831773 0.97704023 -0.50609934 -0.4787944
0002c0 b7 a1 40 3f df 60 58 3f d8 ea 37 bf 3b d5 5a bf
       0.7524676 0.84522814 -0.7184272 -0.85481614
0002d0 75 b5 17 3d 27 86 fe bd d5 40 75 be c3 3e c7 be
       0.037038285 -0.12427931 -0.23950513 -0.3891507
0002e0 83 ab f9 3e b8 f7 c2 3e af 6f 38 3f a9 b7 b1 3e
       0.48763666 0.3807962 0.72045416 0.34710434
0002f0 31 64 1f 3f 1f 3c 3a bf 86 c2 22 3f fe 9c c4 3e
       0.62262255 -0.7274799 0.6357807 0.38401026
000300 dc 2b a0 be e1 e9 27 3f 5d 7f 3e 3f 22 20 14 3c
       -0.31283462 0.65591246 0.7441309 0.009040864
000310 f7 78 5a bf d2 e5 8d be e5 8c b0 3e 67 87 0f bf
       -0.8534083 -0.277144 0.34482494 -0.5606598
000320 b9 a0 1f 3f 9f 6d 4f 3f 5e b7 ef 3d 55 72 51 3f
       0.6235462 0.81026644 0.117048964 0.8181508
000330 f7 85 e2 bc 0b ae 3f 3f 9a 97 56 bf a7 52 38 bf
       -0.02765177 0.74874943 -0.83825076 -0.7200112
000340 3a 71 29 bf 0e c5 1a bf ef 2d fe 3e 19 2b bc 3e
       -0.66188395 -0.6045693 0.4964442 0.3675163
000350 ac f4 ff 3e c6 b4 0e bf f4 16 6e 3f 91 69 fc bd
       0.49991357 -0.5574459 0.93003774 -0.12324823
000360 57 a0 e1 be 0e 3f e8 3e 0d 02 2b bf e6 30 4d bf
       -0.44067642 0.45360607 -0.66800004 -0.8015274
000370 82 45 45 3f 8d 37 b9 bd d2 f6 e5 be 45 22 3d 3f
       0.77059186 -0.090437986 -0.4491487 0.73880416
000380 8c 4e eb 3e b3 a0 82 3d 11 0e 73 bf 56 4d de 3d
       0.45958364 0.06378307 -0.9494334 0.108545944
000390 6f ef ba 3e 41 1a ef 3e 08 09 41 bf ee 35 13 3f
       0.36510798 0.46699718 -0.75404406 0.57504165
0003a0 a2 c6 12 3e 2c 6c f1 3d c4 d1 c0 3d b5 8c 08 be
       0.14333585 0.1178821 0.094150096 -0.13334925
0003b0 57 42 13 bf 3a 62 90 bd 12 1b ab be 9a a2 c8 3e
       -0.575231 -0.07049985 -0.3341909 0.39186555
0003c0 5e 11 4c bd 7b 48 6d 3f 95 ea 1e 3f 8f 1a 66 bf
       -0.04982125 0.9268872 0.62076694 -0.89884275
0003d0 9a e2 a0 bd 7a 51 98 3d 81 5e 15 bf e1 7e 4c bf
       -0.07855721 0.074374154 -0.58347327 -0.798811
0003e0 22 71 04 bf fd 24 48 bf aa 21 cc be f0 74 cf 3e
       -0.51735127 -0.7818144 -0.39869434 0.40518904
0003f0 41 15 04 bf 66 89 58 3f 34 b8 26 bf b4 cc 16 3f
       -0.5159493 0.84584653 -0.6512482 0.589061
