minigrid/r2l/MiniGrid-MultiRoomR2L-N6-v0_with_library/MiniGrid-MultiRoomR2L-N6-v0_seed_107_length_150.pt (torch, 65540 bytes, 9 tensors)

weight_ih f4 [192, 8]
0.037886698 0.053654443 -0.06889969 -0.057549387 -0.067281514 0.021290943 0.041922122 -0.043447733
-0.03278329 0.036876395 -0.11400788 -0.01909995 -0.03276226 0.03962186 0.042192772 -0.12073201
-0.006433816 -0.060223613 0.010613673 0.09979582 0.017171517 0.03183663 0.057091773 -0.10108877
-0.047111876 -0.12393 0.023906374 -0.12364824 0.106299385 -0.113487974 0.026114374 -0.0021655103
-0.08645385 0.060070835 0.0019398014 -0.016496375 0.10536203 -0.07423225 -0.11428787 -0.080976665
0.100712344 0.0102568315 0.03222562 0.050352827 0.10277456 -0.032660067 0.09657213 -0.018314024
0.015596526 -0.04417489 -0.10027465 -0.05425328 -0.04406388 -0.0034548491 -0.114804864 0.074493244
0.10977934 0.007890523 -0.016279154 -0.08651663 -0.06958018 -0.110005006 0.030176044 0.04946723
0.09804455 0.099230714 -0.093462266 -0.057237655 -0.00903523 -0.06800263 0.09359233 -0.006206054
0.08455959 -0.04186064 -0.06317486 0.117170975 -0.12454365 0.035808668 0.041270748 0.11040178
0.07424998 0.11758738 -0.121845335 -0.11097886 0.014352441 -0.12345886 -0.11510089 0.11502493
-0.00014297306 -0.07609035 0.05855441 -0.048495337 0.027838156 0.092072785 -0.0060566217 0.0068091606
-0.06157987 0.101721704 0.059243575 0.056098595 -0.041914284 0.06532943 0.05035384 0.0755607
0.060961746 -0.06162145 0.08568837 -0.114128724 -0.011875808 0.0875954 0.037681684 0.03525467
0.033667926 0.11155017 0.06138878 -0.067436814 -0.07229707 0.069960386 0.121078596 -0.032502506
-0.06935039 -0.108311996 0.08046982 -0.11402425 -0.11444022 0.06866059 -0.033370525 0.12222894
-0.12219621 0.07098965 -0.02420401 -0.11885969 0.0017675757 0.02431807 -0.012044832 -0.03784918
0.09168443 -0.010836792 0.102966644 -0.039553 0.03248608 -0.05456537 0.104865834 -0.057184618
-0.014738096 -0.12303441 0.11204342 0.028531581 -0.10080682 -0.09151515 -0.060379654 0.093173586
-0.087728694 -0.05616063 -0.020448064 0.04733807 -0.117277235 0.0079384595 -0.044231355 -0.06812069
-0.01348743 0.002321456 0.063360296 -0.10995343 0.07997267 -0.045151815 -0.08290224 0.02396927
0.031352792 -0.12017576 -0.014877303 -0.04220812 -0.020616606 0.05121462 0.07848838 0.029630931
0.11034634 0.06415301 -0.06385528 0.09226133 -0.07328759 0.015799806 -0.11872257 -0.011179426
-0.08298952 -0.11812242 0.0010142905 -0.09840287 0.101855665 -0.09320064 0.11372909 -0.02337314
-0.026530564 0.11701808 0.07723385 -0.12066503 -0.06633617 0.06395769 -0.08501677 0.027978983
0.044148967 0.04260057 -0.091772 0.10395324 0.0548815 0.034204915 0.049385086 -0.021076502
-0.12095548 0.09675645 -0.07544639 -0.087707385 -0.027823642 -0.07120438 0.00823535 -0.03532294
0.0038774787 0.010936129 0.019069586 0.10679525 0.005204186 -0.06600033 -0.014112353 0.11255676
-0.111145236 0.062035684 0.078315675 0.122408286 0.09508678 0.100241154 -0.069466695 0.064068176
0.078056656 0.012328471 -0.11244195 0.032749712 0.10430826 -0.036589816 0.103888705 0.029003752
-0.068866394 -0.053538997 0.07091696 -0.006842524 0.064634115 -0.0771613 0.120391965 -0.012763985
-0.0919936 0.10274065 0.049951617 0.025538757 0.06398378 -0.10174143 -0.08276498 0.019115971
00000000: 152f 1b3d c3c4 5b3d 481b 8dbd e8b8 6bbd
00000010: e4ca 89bd 586a ae3c 88b6 2b3d 40f6 31bd
00000020: c547 06bd b40b 173d f77c e9bd 8077 9cbc
00000030: b831 06bd 884a 223d 54d2 2c3d 5842 f7bd
00000040: c3d2 d2bb 09ad 76bd f9e4 2d3c c061 cc3d
00000050: 48ab 8c3c 2067 023d 10d9 693d a107 cfbd
00000060: 62f8 40bd 03cf fdbd 4dd7 c33c 4a3b fdbd
00000070: 7eb3 d93d 626c e8bd d0ed d53c 3ceb 0dbb
00000080: b70e b1bd d60c 763d ef40 fe3a 6823 87bc
00000090: 0cc8 d73d 1407 98bd c20f eabd 18d7 a5bd
000000a0: 4642 ce3d 450c 283c 03ff 033d c43e 4e3d
000000b0: 787b d23d 90c6 05bd 9cc7 c53d 4b07 96bc
000000c0: 9288 7f3c bbf0 34bd cc5c cdbd b038 5ebd
000000d0: 547c 34bd c06a 62bb d01e ebbd ea8f 983d
000000e0: fed3 e03d 4147 013c dc5b 85bc a22f b1bd
000000f0: 0e80 8ebd 4e4a e1bd c033 f73c 269e 4a3d
00000100: 95cb c83d 7939 cb3d 2569 bfbd 0872 6abd
00000110: 8008 14bc f644 8bbd 56ad bf3d 275c cbbb
00000120: 942d ad3d 1076 2bbd d261 81bd 56f7 ef3d
00000130: be10 ffbd 1cac 123d 840b 293d 541a e23d
00000140: 6010 983d a7d1 f03d 0c8a f9bd e248 e3bd
00000150: 8026 6b3c 00d8 fcbd 04ba ebbd 3192 eb3d
00000160: 0aeb 15b9 42d5 9bbd c0d6 6f3d 0ca3 46bd
00000170: d80c e43c a890 bc3d a076 c6bb 611f df3b
00000180: 2c3b 7cbd 7853 d03d 64a9 723d a4c7 653d
00000190: 50ae 2bbd 70cb 853d d43f 4e3d 91bf 9a3d
000001a0: 06b3 793d c666 7cbd 627d af3d 52bc e9bd
000001b0: c092 42bc 3865 b33d 1c58 1a3d 3367 103d
000001c0: 61e7 093d 6a74 e43d cd72 7b3d 501c 8abd
000001d0: 7c10 94bd 6447 8f3d 0ef8 f73d 5921 05bd
000001e0: 9407 8ebd aed2 ddbd 5ccd a43d 8c85 e9bd
000001f0: a25f eabd ec9d 8c3d 88af 08bd 2b53 fa3d
00000200: 0242 fabd 0663 913d 7d47 c6bc b66c f3bd
00000210: 00ae e73a b036 c73c b057 45bc be07 1bbd
00000220: 0cc5 bb3d cd8c 31bc 2de0 d23d 5402 22bd
00000230: 2010 053d f07f 5fbd e6c3 d63d 6b3a 6abd
00000240: 0e78 71bc 77f9 fbbd 0577 e53d 10bb e93c
00000250: ce73 cebd 4c6c bbbd a850 77bd cbd1 be3d
00000260: 1aab b3bd b008 66bd b382 a7bc 90e5 413d
00000270: 0c2f f0bd 5010 023c f02b 35bd dc82 8bbd
00000280: 62fa 5cbc 9223 183b 0bc3 813d 442f e1bd
00000290: b6c8 a33d 1cf1 38bd a6c8 a9bd 345b c43c
000002a0: c96b 003d b51e f6bd eebf 73bc 6ce2 2cbd
000002b0: 28e4 a8bc 6cc6 513d 84be a03d 91bc f23c
000002c0: 43fd e13d a762 833d 8fc6 82bd 82f3 bc3d
000002d0: ce17 96bd 986e 813c d224 f3bd e929 37bc
000002e0: 69f6 a9bd 2bea f1bd f1f1 843a 7287 c9bd
000002f0: b499 d03d fadf bebd ccea e83d 0779 bfbc
00000300: a056 d9bc 2da7 ef3d c82c 9e3d 3a1f f7bd
00000310: 42db 87bd 40fc 823d 461d aebd 2e34 e53c
00000320: 8cd5 343d ef7d 2e3d f5f2 bbbd 70e5 d43d
00000330: 6ccb 603d 741a 0c3d 0448 4a3d a1a8 acbc
00000340: 82b7 f7bd 3f28 c63d a383 9abd ee9f b3bd
00000350: 68ee e3bc 9ad3 91bd 90ed 063c caae 10bd
00000360: 4c1d 7e3b 732d 333c d237 9c3c 78b7 da3d
00000370: e087 aa3b 2e2b 87bd 8037 67bc 2984 e63d
00000380: 1da0 e3bd 2119 7e3d f863 a03d 32b1 fa3d
00000390: dcbc c23d 3c4b cd3d 8e44 8ebd 2d36 833d
000003a0: 2bdc 9f3d 5bfd 493c f747 e6bd 9024 063d
000003b0: 929f d53d 34df 15bd 9ac3 d43d 4799 ed3c
000003c0: d309 8dbd b54b 5bbd e93c 913d 4037 e0bb
000003d0: e45e 843d be06 9ebd 1090 f63d 0920 51bc
000003e0: 2467 bcbd b169 d23d 119a 4c3d a836 d13c
000003f0: ee09 833d d05d d0bd b080 a9bd 1999 9c3c

weight_hh f4 [192, 64]
0.017485498 -0.10840017 -0.10780237 -0.02220683 -0.07460215 -0.08441063 -0.05089949 0.12313604
-0.09532611 -0.12037436 -0.052767053 -0.049783986 0.030092655 0.0034702145 -0.07409029 0.05070832
-0.10612167 0.08843161 0.017062774 0.056548763 -0.08059699 -0.041755173 0.08748698 -0.013548196
-0.052289642 0.0018997199 -0.10231646 -0.10481218 -0.10496126 0.09905469 0.004201494 -0.025189288
0.07967611 0.029538514 -0.005775378 -0.05847878 0.10610618 -0.0051573254 -0.09097359 -0.008762807
-0.012911222 -0.10749129 0.024125269 -0.113265485 -0.06791059 -0.11410814 0.10928872 -0.119682945
-0.066831164 -0.043246254 0.041393977 0.12310509 0.12047625 0.076437496 0.034679446 -0.08305044
-0.060963143 -0.029954316 -0.046935827 -0.024127224 0.018023994 0.05364526 -0.0991021 -0.11531321
0.059041314 -0.021289375 0.11572301 -0.08718015 -0.023235101 -0.028654298 0.021643115 0.015917389
0.036816936 -0.11910657 -0.0974516 -0.02099014 -0.064123526 -0.042421006 -0.00078128534 -0.117442966
-0.0697014 0.10007986 0.0878052 0.121538654 0.014950434 -0.10825347 -0.07681219 0.04743054
0.07398125 0.01536842 0.098720245 0.092011675 0.05394607 -0.059843566 -0.1029544 -0.08825313
-0.022548832 -0.10523575 -0.025465986 -0.009363489 0.12236078 -0.11324732 -0.08913407 0.06286057
-0.027098471 -0.012461787 -0.0909732 0.123579316 0.031081986 0.04561759 0.016422484 -0.014879644
0.09028843 0.09058038 -0.1200982 0.039068487 -0.024260694 -0.10526543 -0.047093187 0.0877893
-0.00643359 -0.11364949 -0.11336362 0.021324318 0.037598997 -0.08851806 0.08361211 -0.028601125
0.04024755 0.0056671333 -0.11714489 -0.11810872 0.069499195 0.07530258 0.0945682 0.086394645
-0.029214676 0.0628482 -0.08832686 0.0034129738 -0.05848778 0.059423372 0.0026854826 0.015818488
0.05897027 -0.10208278 0.046973616 0.041093223 0.10277664 0.07107747 0.04068039 0.057807717
-0.03837476 0.062621534 0.08611946 0.028219542 0.0042073065 -0.019283919 -0.033695366 -0.086625256
-0.020571107 -0.0002761225 -0.08647704 -0.10393662 -0.06876479 -0.06491865 0.008551401 0.09126884
0.094203144 0.0071263094 0.107511796 -0.075712234 0.082924165 0.090276934 0.12156634 0.06569007
-0.07348749 -0.032252394 -0.015093949 0.085023165 -0.08051657 -0.053694032 0.046261597 -0.09270679
-0.02542624 0.07340019 -0.0141797 -0.053605642 0.011986722 0.036449242 0.05401217 0.030712541
0.009250981 0.033566244 0.11256997 0.0415735 -0.008049792 0.051422007 0.06469317 -0.07042407
-0.085291214 -0.10196114 -0.08349019 -0.06967471 0.096106395 0.023349455 -0.037816137 0.048403285
-0.097261585 0.048830222 -0.09095623 0.07616572 -0.12310419 -0.10838526 -0.037075266 0.10039648
0.03832527 -0.08249122 -0.1015908 0.11501545 0.06431323 -0.04285604 0.00308003 -0.043266587
0.086222954 -0.033545714 0.050572492 0.09949334 0.03165993 -0.09428154 -0.100058794 0.11651325
-0.04665164 0.07109561 -0.053572096 -0.06984491 0.013496523 0.049590748 -0.07980092 0.035547085
0.0073778625 -0.08649905 -0.008280575 -0.09510935 -0.07275052 0.09625038 0.08088658 -0.052683305
-0.06503771 -0.026244488 0.088774204 0.087209426 -0.038120575 0.017407473 0.05327014 0.06315348
00000000: bf3d 8f3c e900 debd 7dc7 dcbd 19eb b5bc
00000010: 03c9 98bd 7bdf acbd fc7b 50bd c02e fc3d
00000020: 563a c3bd d586 f6bd 4422 58bd 4bea 4bbd
00000030: df84 f63c 8a6c 633b a6bc 97bd 87b3 4f3d
00000040: 5156 d9bd a21b b53d 3bc7 8b3c ad9f 673d
00000050: 0910 a5bd 7907 2bbd 602c b33d 41f9 5dbc
00000060: aa2d 56bd 0600 f93a 4b8b d1bd c5a7 d6bd
00000070: eef5 d6bd 2fdd ca3d b0ac 893b c459 cebc
00000080: 3a2d a33d c1fa f13c 623f bdbb 7287 6fbd
00000090: 324e d93d c8fe a8bb 5d50 babd e091 0fbc
000000a0: 9789 53bc 6524 dcbd 5ba2 c53c bcf7 e7bd
000000b0: b514 8bbd 87b1 e9bd c4d2 df3d 551c f5bd
000000c0: c7de 88bd fc22 31bd bb8c 293d 851e fc3d
000000d0: 41bc f63d 438b 9c3d 090c 0e3d 5916 aabd
000000e0: 7db4 79bd c162 f5bc c83f 40bd 75a6 c5bc
000000f0: 0ea7 933c 22bb 5b3d 0bf6 cabd 5529 ecbd
00000100: 4ed5 713d 0e67 aebc 2f00 ed3d 828b b2bd
00000110: 8a57 bebc 6bbc eabc e74c b13c 2f65 823c
00000120: 5bcd 163d 25ee f3bd b494 c7bd 84f3 abbc
00000130: 3253 83bd a6c1 2dbd 2ccf 4cba f085 f0bd
00000140: 9cbf 8ebd abf6 cc3d 36d3 b33d 42e9 f83d
00000150: aaf2 743c ffb3 ddbd b64f 9dbd 8746 423d
00000160: 7b83 973d d3cb 7b3c d72d ca3d 9e70 bc3d
00000170: 8ef6 5c3d 871e 75bd c2d9 d2bd 0fbe b4bd
00000180: 54b8 b8bc d785 d7bd 0b9e d0bc 5269 19bc
00000190: 4a98 fa3d 36ee e7bd ec8b b6bd 0bbd 803d
000001a0: 9dfd ddbc 862c 4cbc 2850 babd 2717 fd3d
000001b0: a69f fe3c 83d9 3a3d 7288 863c c0c9 73bc
000001c0: 24e9 b83d 3582 b93d 0cf6 f5bd 4706 203d
000001d0: 5dbe c6bc 6795 d7bd c9e4 40bd e0ca b33d
000001e0: ddd0 d2bb 10c1 e8bd 302b e8bd 56b0 ae3c
000001f0: 6801 1a3d f548 b5bd d33c ab3d e84c eabc
00000200: 9dda 243d 5cb3 b93b a9e9 efbd fce2 f1bd
00000210: 9855 8e3d 3d38 9a3d f9ac c13d adef b03d
00000220: 9e53 efbc 8fb6 803d b6e4 b4bd 33ac 5f3b
00000230: e290 6fbd ec65 733d ecfe 2f3b c695 813c
00000240: cf8a 713d c710 d1bd 6867 403d 5e51 283d
00000250: 8f7c d23d 1191 913d 7ba0 263d c9c7 6c3d
00000260: da2e 1dbd b83f 803d 665f b03d ab2c e73c
00000270: 72dd 893b 4ff9 9dbc 2704 0abd 9568 b1bd
00000280: bd84 a8bc 89c4 90b9 e01a b1bd b9dc d4bd
00000290: 8ed4 8cbd 12f4 84bd 2d1b 0c3c 28eb ba3d
000002a0: 94ed c03d d183 e93b 252f dc3d 040f 9bbd
000002b0: 25d4 a93d 1de3 b83d c6f7 f83d 8488 863d
000002c0: 9c80 96bd 161b 04bd 9c4c 77bc a020 ae3d
000002d0: dfe5 a4bd 46ee 5bbd cd7c 3d3d 0fdd bdbd
000002e0: b14a d0bc d752 963d f951 68bc 9791 5bbd
000002f0: f563 443c cd4b 153d dd3b 5d3d de98 fb3c
00000300: 6d91 173c c27c 093d 168b e63d f948 2a3d
00000310: 46e3 03bc e29f 523d da7d 843d 7f3a 90bd
00000320: 29ad aebd 01d1 d0bd e8fc aabd 9db1 8ebd
00000330: 6ed3 c43d 5b47 bf3c 18e5 1abd 8642 463d
00000340: 1531 c7bd 3302 483d 4347 babd c6fc 9b3d
00000350: 0d1e fcbd 17f9 ddbd 3cdc 17bd ab9c cd3d
00000360: f5fa 1c3d 28f1 a8bd d60e d0bd 388d eb3d
00000370: a8b6 833d d189 2fbd 54da 493b 4e38 31bd
00000380: a995 b03d 3b67 09bd 1a25 4f3d 2ac3 cb3d
00000390: d8ad 013d ae16 c1bd a0eb ccbd 809e ee3d
000003a0: ca15 3fbd 939a 913d 6a6e 5bbd d90a 8fbd
000003b0: 8520 5d3c ab1f 4b3d aa6e a3bd d299 113d
000003c0: ffc1 f13b 6a26 b1bd 40ab 07bc b1c8 c2bd
000003d0: 3afe 94bd eb1e c53d dda7 a53d 73ca 57bd
000003e0: 7e32 85bd aefe d6bc 40cf b53d db9a b23d
000003f0: 5224 1cbd 1e9a 8e3c ca31 5a3d 9d56 813d

bias_ih f4 [192]
0.11121322 -0.0079967 0.060304053 0.090574056 -0.09240904 0.03623145 -0.06908006 -0.014717985
0.100210205 0.020969393 -0.03375567 0.09826777 0.05752819 -0.0007886774 0.124243915 0.009744055
0.0850744 0.082714625 -0.07749174 -0.01909106 -0.05178951 0.03305754 -0.0064392244 -0.0023647202
-0.08086983 0.11622664 -0.11640461 -0.06026258 0.05766239 -0.03634018 -0.08482408 0.085778415
-0.10156861 -0.026629973 -0.031118535 -0.036977865 -0.054539535 0.045106504 0.074883 0.043646537
-0.05526268 -0.021355523 -0.024576169 0.01849374 0.057347845 0.017955445 0.047963444 0.047489386
0.104914516 -0.062706985 0.031587686 0.039213996 0.026176063 0.033017255 0.060195453 -0.06900794
-0.042925805 -0.023744594 0.04721976 -0.08294472 0.06576539 -0.070531316 0.08084346 0.034319397
-0.04691823 -0.003113978 -0.08737575 -0.0406138 0.104733534 -0.08245772 -0.08293386 -0.044575635
-0.070415385 -0.10437949 0.10303731 -0.06171413 -0.109354496 0.050362844 -0.08471958 0.02667077
0.08186508 0.12319361 -0.07037155 -0.03827458 0.047164857 0.047528632 -0.047560293 -0.10162084
-0.117268845 0.07484881 -0.09444519 -0.123867474 0.04649308 -0.06761298 0.08365499 -0.009647004
-0.0064274413 0.08852494 0.09844341 -0.07978974 -0.0064615645 -0.009759431 0.04689805 -0.053693384
0.06457762 -0.06776666 -0.015349792 0.09743999 -0.0612866 0.03447471 -0.057009384 0.02587948
-0.11171679 -0.027947418 -0.02617608 -0.06080255 0.06899219 -0.013410847 -0.034188546 0.04571292
0.07605528 0.09800528 -0.0914727 -0.10383871 0.10580407 -0.018053517 -0.10738853 -0.041557282
-0.12224769 0.10363355 0.085699126 -0.097259484 0.056160357 0.016667575 -0.08469119 -0.060263056
0.013688573 -0.016898371 0.041425634 -0.021635784 0.06536439 0.07001519 -0.032341827 -0.014913796
0.061606947 0.013512087 -0.09111197 0.072254024 -0.10214592 -0.08724483 0.048902288 -0.05041055
-0.034689825 -0.075469606 -0.08261926 -0.012686229 0.051686373 0.0437204 -0.10985999 -0.019646153
-0.035462003 0.03670312 0.0130819045 0.07846527 -0.12435891 0.016431559 0.12203997 0.007149626
0.09446118 -0.04827909 -0.015845776 -0.0046868403 -0.05946697 0.087850206 -0.07682431 -0.044964463
0.032014273 0.0615923 -0.10967689 0.026098091 0.05779815 -0.06945109 0.020019121 -0.09751115
0.075000495 -0.06925401 0.117226504 -0.12463949 0.09747272 0.084843665 0.12264574 -0.004626634
00000000: c2c3 e33d 9704 03bc 6201 773d e47e b93d
00000010: f340 bdbd 6e67 143d d979 8dbd b423 71bc
00000020: 023b cd3d 01c8 ab3c 6343 0abd 9d40 c93d
00000030: aea2 6b3d 3fbf 4eba 9873 fe3d 87a5 1f3c
00000040: 7d3b ae3d 4966 a93d fdb3 9ebd db64 9cbc
00000050: 3d21 54bd 5867 073d 2100 d3bb 6cf9 1abb
00000060: 159f a5bd 3c08 ee3d 8a65 eebd e5d5 76bd
00000070: 662f 6c3d 71d9 14bd 3fb8 adbd 98ac af3d
00000080: 3403 d0bd 1a27 dabc 4cec febc 1a76 17bd
00000090: d964 5fbd 99c1 383d 425c 993d b6c6 323d
000000a0: 1f5b 62bd c7f1 aebc f653 c9bc 2f80 973c
000000b0: 93e5 6a3d 4c17 933c 5175 443d 3b84 423d
000000c0: 6cdd d63d 856c 80bd 1762 013d db9e 203d
000000d0: 2f6f d63c 1a3d 073d 828f 763d 0954 8dbd
000000e0: f8d2 2fbd 0684 c2bc 8269 413d ecde a9bd
000000f0: 01b0 863d b972 90bd 4291 a53d 7f92 0c3d
00000100: 542d 40bd e213 4cbb 0ff2 b2bd a85a 26bd
00000110: 897e d63d 98df a8bd 3ad9 a9bd f194 36bd
00000120: f135 90bd eac4 d5bd 3a05 d33d f5c7 7cbd
00000130: 40f5 dfbd 4549 4e3d 7681 adbd a97c da3c
00000140: e1a8 a73d ee4c fc3d f61e 90bd cec5 1cbd
00000150: f02f 413d 62ad 423d 95ce 42bd 961e d0bd
00000160: a62a f0bd 554a 993d 7b6c c1bd 3bae fdbd
00000170: 876f 3e3d ad78 8abd 4f53 ab3d 780e 1ebc
00000180: 499d d2bb 904c b53d b39c c93d ce68 a3bd
00000190: 88bb d3bb 05e6 1fbc 2b18 403d 98ed 5bbd
000001a0: 4541 843d 3fc9 8abd b27d 7bbc 9e8e c73d
000001b0: a807 7bbd 5a35 0d3d ac82 69bd 3401 d43c
000001c0: c6cb e4bd fcf1 e4bc 386f d6bc 180c 79bd
000001d0: c74b 8d3d 2bb9 5bbc 4a09 0cbd 793d 3b3d
000001e0: dfc2 9b3d feb6 c83d 0a56 bbbd 64a9 d4bd
000001f0: ceaf d83d f8e4 93bc 85ee dbbd f837 2abd
00000200: ff5c fabd d43d d43d 0683 af3d fb2f c7bd
00000210: 6708 663d 708a 883c 9372 adbd 65d6 76bd
00000220: 0946 603c 746e 8abc edad 293d 873d b1bc
00000230: c4dd 853d 2064 8f3d dd78 04bd ff58 74bc
00000240: 9157 7c3d cd61 5d3c ea98 babd ebf9 933d
00000250: e131 d1bd 6bad b2bd c44d 483d 4b7b 4ebd
00000260: eb16 0ebd cf8f 9abd 4934 a9bd e7d9 4fbc
00000270: 17b5 533d 2a14 333d 46fe e0bd f8f0 a0bc
00000280: 9b40 11bd 0356 163d 7c55 563c 66b2 a03d
00000290: e2af febd 7a9b 863c 17f0 f93d 6947 ea3b
000002a0: dd74 c13d 4cc0 45bd 00cf 81bc 1194 99bb
000002b0: a393 73bd cfea b33d 1056 9dbd a82c 38bd
000002c0: 6621 033d 3548 7c3d 479e e0bd aacb d53c
000002d0: c1bd 6c3d 603c 8ebd 24ff a33c edb3 c7bd
000002e0: dc99 993d 0cd5 8dbd 7314 f03d fd42 ffbd
000002f0: c79f c73d 84c2 ad3d b12d fb3d 059b 97bb

bias_hh f4 [192]
-0.11071113 -0.08557001 -0.114465535 -0.029068891 -0.03606727 0.12394679 0.07985204 -0.04497216
-0.07825607 0.008304478 -0.027578805 0.06801324 0.10049203 0.048166975 0.11245459 -0.028801363
0.08163462 -0.005823162 -0.082977675 0.10140928 -0.065759696 -0.1030673 -0.115663156 0.020233506
0.1024059 0.035101064 -0.01834507 -0.07814506 0.06249269 0.10580112 0.0857416 0.038731184
0.005269258 -0.07110016 0.031672444 -0.03946104 0.124524586 -0.0063139694 0.07910319 0.05678805
-0.05742262 -0.070231795 -0.111086465 -0.0012140885 0.0013148156 -0.0271407 -0.07049089 0.013930113
-0.023017671 -0.09784981 -0.058719862 0.11792363 -0.022058712 0.05134853 -0.067036934 -0.056772392
-0.05958639 -0.004530318 -0.075181454 -0.075566396 0.11589845 -0.12098103 0.118324295 -0.0357699
-0.071897924 0.11475853 0.08590867 -0.10544712 -0.001922429 -0.09244041 -0.03454751 -0.09487327
-0.048664972 0.10501979 0.07739723 0.07444795 -0.027329493 0.0041281674 -0.0034802342 0.1118517
0.09837688 0.034739703 0.115034014 0.053137325 0.033464044 0.016238207 0.012219374 -0.09721531
0.01773434 0.087062724 0.004777842 -0.00080455025 0.05849616 0.012228608 0.024512911 0.01690022
0.05393813 -0.0035539984 -0.090640195 0.09718655 -0.0808294 0.017410573 -0.041145984 0.005702291
-0.105464794 -0.112502284 0.12486036 0.04040932 0.11229048 -0.10953506 -0.056150958 0.06839808
0.052660864 0.04713827 0.0073823244 0.0030182991 0.040508684 -0.111497894 0.10036938 0.022978798
0.12244981 0.055479582 -0.027987912 -0.08717975 -0.07633336 0.1239781 -0.06630597 0.048118487
0.042903904 0.07631459 0.0051001045 -0.05472991 -0.029230088 -0.061128546 0.0632403 -0.0120838825
-0.020758504 0.027836936 -0.12513226 0.11259212 -0.060922936 -0.020565432 -0.011052311 -0.09342117
-0.04874989 -0.024230981 -0.04548086 0.053475343 0.0055881813 0.07959037 0.017387325 -0.040102817
-0.11697327 0.06517278 0.070370615 0.014157104 0.06841974 -0.024929058 0.08685216 -0.088192426
0.10393804 0.06780275 0.030332375 0.0028599605 0.024224771 -0.0838861 0.047144227 -0.10215381
0.103475764 -0.071382254 0.1188069 -0.019549811 -0.021354534 -0.07544014 0.04780578 -0.03627525
0.08282803 0.11273035 -0.0872262 -0.10864007 -0.07783098 -0.014193154 -0.007705543 -0.10089049
-0.033170503 -0.042167712 0.120528094 -0.087394506 -0.08255822 -0.024139358 0.06635717 0.051090516
00000000: 84bc e2bd 543f afbd e86c eabd e221 eebc
00000010: 46bb 13bd d1d7 fd3d 7789 a33d ba34 38bd
00000020: b844 a0bd 810f 083c f2ec e1bc 874a 8b3d
00000030: c4ce cd3d bc4a 453d 984e e63d d6f0 ebbc
00000040: 0d30 a73d 39d0 bebb 33f0 a9bd abaf cf3d
00000050: 05ad 86bd f314 d3bd cee0 ecbd bdc0 a53c
00000060: 2fba d13d 22c6 0f3d 6648 96bc 840a a0bd
00000070: 56f8 7f3d 42ae d83d 4b99 af3d 97a4 1e3d
00000080: bda9 ac3b f69c 91bd f7ba 013d e6a1 21bd
00000090: bf06 ff3d 6ae5 cebb da00 a23d 969a 683d
000000a0: fb33 6bbd b0d5 8fbd 4d81 e3bd 0d22 9fba
000000b0: e455 ac3a 2c56 debc 875d 90bd 213b 643c
000000c0: 8e8f bcbc 7b65 c8bd 3d84 70bd f281 f13d
000000d0: 79b4 b4bc d652 523d a94a 89bd 2b8a 68bd
000000e0: dc10 74bd 1073 94bb bcf8 99bd 8ec2 9abd
000000f0: 2b5c ed3d e7c4 f7bd 0254 f23d 7583 12bd
00000100: 383f 93bd 8506 eb3d e3f0 af3d a9f4 d7bd
00000110: 03fa fbba 6651 bdbd b181 0dbd eb4c c2bd
00000120: ec54 47bd 9e14 d73d 7082 9e3d 2b78 983d
00000130: 1ae2 dfbc 9445 873b a414 64bb 8112 e53d
00000140: d179 c93d 384b 0e3d f496 eb3d 86a6 593d
00000150: 9811 093d fd05 853c c533 483c d218 c7bd
00000160: 9b47 913c f14d b23d 728f 9c3b 74e8 52ba
00000170: ab99 6f3d 805a 483c 4dcf c83c 5572 8a3c
00000180: 3bee 5c3d 33ea 68bb 91a1 b9bd be09 c73d
00000190: e289 a5bd 9ea0 8e3c b188 28bd 49da ba3b
000001a0: edfd d7bd 9967 e6bd cab6 ff3d 3e84 253d
000001b0: 8df8 e53d eb53 e0bd 8cfe 65bd 4b14 8c3d
000001c0: ebb2 573d 0f14 413d 6de7 f13b a8ce 453b
000001d0: 6fec 253d 0259 e4bd 768e cd3d 083e bc3c
000001e0: f7c6 fa3d 8f3e 633d e846 e5bc 4c8b b2bd
000001f0: aa54 9cbd 3be8 fd3d 6dcb 87bd e417 453d
00000200: 01bc 2f3d d34a 9c3d c71e a73b 782c 60bd
00000210: f073 efbc ed61 7abd 2184 813d 7afb 45bc
00000220: bd0d aabc 490a e43c ac22 00be b396 e63d
00000230: 548a 79bd d678 a8bc c114 35bc 9953 bfbd
00000240: f7ad 47bd 0d80 c6bc 234a 3abd f608 5b3d
00000250: 101d b73b 4700 a33d dd6f 8e3c da42 24bd
00000260: af8f efbd 4e79 853d 781e 903d 33f3 673c
00000270: a61f 8c3d 0638 ccbc 8cdf b13d 3b9e b4bd
00000280: 78dd d43d 2bdc 8a3d 9a7b f83c 2d6e 3b3b
00000290: 0773 c63c 7acc abbd 4e1a 413d 0436 d1bd
000002a0: 1aeb d33d dc30 92bd 0851 f33d ed26 a0bc
000002b0: b4ef aebc 5c80 9abd fecf 433d 5b95 14bd
000002c0: bea1 a93d 2bdf e63d a6a3 b2bd af7e debd
000002d0: d965 9fbd 678a 68bc c87e fcbb ac9f cebd
000002e0: cbdd 07bd 0db8 2cbd 6fd7 f63d e4fb b2bd
000002f0: 4914 a9bd e7bf c5bc 45e6 873d 4a44 513d

weight f4 [5, 64]
0.123564705 -0.032526135 -0.025557457 -0.08251065 0.034620475 -0.11133902 -0.047096554 -0.11592323
-0.0060350657 0.079540856 -0.07907771 0.03563968 -0.07088391 -0.013846543 0.034220714 0.11731212
-0.10803142 0.044979703 0.047864977 0.016203234 0.09453709 -0.03199041 -0.06055029 -0.06014353
0.011587674 -0.03935248 0.058925107 -0.04109079 -0.039829034 -0.05492322 0.087341785 -0.1090305
-0.01948494 0.03530026 0.002999002 0.036267955 0.072157346 0.07820413 -0.07891796 0.09994394
0.008206995 -0.10672737 -0.018142622 -0.12091874 -0.051275615 0.12012773 -0.021789804 -0.0047173
0.044884957 -0.12156915 -0.10322311 0.026480798 -0.076301485 0.031416863 -0.017145462 -0.024696616
0.04523915 0.014803818 0.08992616 -0.082000256 -0.026737802 0.04397085 0.118514195 -0.03305141
0.015132064 0.114709824 0.078334585 -0.026004305 -0.015457944 0.03664054 0.09330941 0.05012601
-0.042504467 -0.116453126 -0.016177697 -0.11536578 -0.06476144 -0.09139721 -0.042337336 0.114618145
0.11105522 -0.076241314 -0.0029383078 0.010982939 -0.028401352 0.08519549 -0.090197064 -0.08411662
-0.06352363 0.09293545 0.11730926 -0.08135916 0.027816724 -0.035080273 -0.052818194 -0.054968778
0.0048951795 -0.08451294 -0.07497082 0.041208636 -0.08398693 -0.084982544 0.020205079 0.0045110327
0.11471982 0.03643731 0.003780562 0.10803183 0.1228278 -0.03901769 0.042577926 -0.0025881073
-0.0076124417 -0.008825045 0.082066916 -0.035386585 0.0053143753 0.033522196 -0.041565698 -0.048310068
-0.119673856 0.038900588 -0.11577239 -0.08253529 0.01778609 0.094531454 -0.12287861 -0.09946575
0.10775538 0.05502445 0.0066292714 0.09819155 0.04478872 -0.08819249 -0.05861452 0.08549979
0.08190102 -0.0157891 -0.034251977 0.031137032 0.03318825 -0.014219441 -0.07814026 0.12555327
-0.08350024 -0.057290006 0.008779001 -0.07710797 0.020509478 0.10629875 -0.008576592 0.027467288
0.07601139 -0.054318495 0.012797295 0.0064168 -0.006221094 0.044524305 0.034190346 -0.032047678
0.021736579 -0.08927473 -0.0273898 0.11149398 0.09484774 -0.047492404 0.09338884 0.08612198
-0.036855098 -0.020208586 -0.015574522 -0.011215688 0.07520206 -0.09501956 0.036687464 -0.09931638
-0.074680395 0.027259264 -0.08161864 -0.10854349 -0.12116674 0.08737935 -0.0076744556 0.09352526
0.07420015 -0.034599364 0.11349294 -0.013558679 0.05466258 0.061641525 -0.06571551 0.041388348
-0.019886842 -0.06808264 0.0015478431 -0.005647806 0.05221318 -0.105755135 -0.09996128 0.09438504
-0.06450229 0.04714191 -0.059231415 -0.0993194 0.06584136 -0.10970906 -0.08481122 0.03563977
-0.018193344 -0.04950935 0.021156402 0.06861041 -0.08819618 -0.09007883 0.017359486 -0.010940574
-0.05524966 0.11091089 0.099215075 0.0582575 -0.0089193825 -0.033252943 -0.09221077 -0.06134482
-0.07678292 0.08805272 0.02025461 0.009821743 0.106229484 -0.020699125 -0.017597618 0.12465858
0.09411816 0.01628321 0.06593823 -0.06355078 0.04136234 -0.026930062 0.09108379 0.08310745
-0.024840726 -0.05422853 0.121900186 -0.009841437 0.09135465 0.040100478 0.018528866 0.065911874
-0.10820707 0.11217873 -0.0015284113 -0.123416156 0.015481603 0.008176939 -0.11721296 0.07368465
00000000: 7e0f fd3d 203a 05bd df5d d1bc 58fb a8bd
00000010: 33ce 0d3d b605 e4bd 51e8 40bd 2969 edbd
00000020: cdc1 c5bb 51e6 a23d 7ff3 a1bd eafa 113d
00000030: 952b 91bd 9cdc 62bc 052b 0c3d 5641 f03d
00000040: 943f ddbd a33c 383d 110e 443d a5bc 843c
00000050: a99c c13d 6008 03bd 9503 78bd 1059 76bd
00000060: 3ada 3d3c 1130 21bd 745b 713d d14e 28bd
00000070: c523 23bd 2cf7 60bd 40e0 b23d 624b dfbd
00000080: e29e 9fbc 0197 103d e88a 443b b58d 143d
00000090: 3bc7 933d 7d29 a03d bd9f a1bd 69af cc3d
000000a0: a276 063c e193 dabd d69f 94bc 3fa4 f7bd
000000b0: 6106 52bd 8705 f63d 8880 b2bc 9593 9abb
000000c0: 4ad9 373d 3ff9 f8bd a366 d3bd 42ee d83c
000000d0: f443 9cbd f8ae 003d a474 8cbc 8f50 cabc
000000e0: b04c 393d b78b 723c 352b b83d c0ef a7bd
000000f0: 3c09 dbbc c71a 343d 92b7 f23d ea60 07bd
00000100: 7aec 773c fcec ea3d e26d a03d fb06 d5bc
00000110: 5143 7dbc 6414 163d 0119 bf3d ee50 4d3d
00000120: 2a19 2ebd fa7e eebd 1787 84bc e544 ecbd
00000130: a5a1 84bd 762e bbbd ea69 2dbd ebbc ea3d
00000140: eb70 e33d 6824 9cbd a090 40bb c9f1 333c
00000150: f4a9 e8bc f97a ae3d 3db9 b8bd 5645 acbd
00000160: ad18 82bd f154 be3d d63f f03d a29f a6bd
00000170: e6df e33c 55b0 0fbd e457 58bd f126 61bd
00000180: be67 a03b 1f15 adbd 4d8a 99bd 63ca 283d
00000190: 5701 acbd 540b aebd 1f85 a53c 49d1 933b
000001a0: 3af2 ea3d 4a3f 153d 4ec3 773b cb3f dd3d
000001b0: 248d fb3d 03d1 1fbd 3166 2e3d 3c9d 29bb
000001c0: ca71 f9bb ec96 10bc b312 a83d 86f1 10bd
000001d0: 3624 ae3b 924e 093d cb40 2abd c7e0 45bd
000001e0: 9117 f5bd 3956 1f3d 131a edbd 4308 a9bd
000001f0: 22b4 913c b599 c13d c8a7 fbbd b3b4 cbbd
00000200: daae dc3d 5161 613d 5c3a d93b a718 c93d
00000210: 6074 373d 449e b4bd c715 70bd 841a af3d
00000220: b9bb a73d 2558 81bc cd4b 0cbd 1713 ff3c
00000230: 67f0 073d a9f8 68bc 0008 a0bd 0991 003e
00000240: 2d02 abbd eda8 6abd cdd5 0f3c c9ea 9dbd
00000250: 7e03 a83c 29b3 d93d d684 0cbc 1403 e13c
00000260: dcab 9b3d 127d 5ebd bfab 513c 0544 d23b
00000270: 52da cbbb 1e5f 363d 2d0b 0c3d 6d44 03bd
00000280: e910 b23c abd5 b6bd 9360 e0bc f556 e43d
00000290: 883f c23d 6587 42bd a642 bf3d b860 b03d
000002a0: 5ff5 16bd 7a8c a5bc 482c 7fbc 01c2 37bc
000002b0: 8a03 9a3d 9d99 c2bd 9845 163d 6366 cbbd
000002c0: 09f2 98bd d24e df3c ac27 a7bd 0d4c debd
000002d0: 4526 f8bd f2f3 b23d 007a fbbb 2c8a bf3d
000002e0: 40f6 973d 10b8 0dbd fd6e e83d 3925 5ebc
000002f0: dfe5 5f3d d37b 7c3d da95 86bd d486 293d
00000300: bbe9 a2bc e96e 8bbd ffe0 ca3a 3b11 b9bb
00000310: 7ddd 553d 2696 d8bd 80b8 ccbd f24c c13d
00000320: c719 84bd e017 413d a49c 72bd f867 cbbd
00000330: d6d7 863d 25af e0bd 81b1 adbd 02fb 113d
00000340: 350a 95bc 51ca 4abd 3150 ad3c 9d83 8c3d
00000350: 33a0 b4bd 407b b8bd 7b35 8e3c 1840 33bc
00000360: 784d 62bd 4025 e33d 4631 cb3d 6b9f 6e3d
00000370: 9a22 12bc 3d34 08bd 00d9 bcbd b544 7bbd
00000380: 5d40 9dbd fc54 b43d ffec a53c 60eb 203c
00000390: d88e d93d 3691 a9bc e128 90bc ff4c ff3d
000003a0: 06c1 c03d 5e64 853c 9f0a 873d e926 82bd
000003b0: 8f6b 293d 6f9c dcbc 238a ba3d 3d34 aa3d
000003c0: c77e cbbc bc1e 5ebd cea6 f93d fb3d 21bc
000003d0: 2618 bb3d 6640 243d d9c9 973c cefc 863d
000003e0: ab9b ddbd f6bd e53d f954 c8ba 9cc1 fcbd
000003f0: 8da6 7d3c 91f8 053c 590d f0bd fae7 963d

bias f4 [5]
-0.021543728 -0.11448694 -0.063922726 -0.08310713 0.081578396
00000000: 797c b0bc 2178 eabd ebe9 82bd 1234 aabd
00000010: 9312 a73d

welford_state_mean f4 [8]
0.77333355 0.80666655 0.6733334 0.0 0.0 0.0 0.0 0.013333335
00000000: 30f9 453f b381 4e3f 945f 2c3f 0000 0000
00000010: 0000 0000 0000 0000 0000 0000 0f74 5a3c

welford_state_mean_diff f4 [8]
26.365044 23.612192 33.090687 1.0 1.0 1.0 1.0 2.8789895
00000000: 9ceb d241 c5e5 bc41 dd5c 0442 0000 803f
00000010: 0000 803f 0000 803f 0000 803f 5d41 3840

hidden f4 [6, 64]
-0.024955776 0.19149786 0.17094275 -0.16125566 0.13129663 -0.022225762 0.06369575 -0.064591
-0.025549844 -0.0851918 -0.12530455 -0.051929466 0.022475036 0.039635815 -0.008335672 -0.060050484
-0.018567037 -0.03361464 -0.048073247 0.15955152 -0.11729668 -0.0727766 0.14688578 -0.06327802
-0.10624476 -0.016941182 -0.1021065 0.10733298 0.07699804 -0.045573287 -0.17533678 0.053833835
0.004666388 0.061353683 0.06231019 0.13889183 -0.05513884 -0.00614167 0.013116998 0.01506288
0.102814525 0.005220987 0.013795011 0.07955203 -0.14707886 0.16724257 0.019382905 -0.1095859
0.024322174 0.15237907 -0.026345506 0.047103807 0.08400156 -0.06560023 0.033380084 -0.08159449
-0.027732134 -0.18013589 0.20495433 -0.22296835 0.13225707 0.1305981 0.18046966 -0.08412995
-0.030932799 0.2512157 0.13705467 -0.044057336 -0.006659914 -0.049151223 -0.012941179 -0.07475025
0.21089673 -0.052192673 -0.06510648 0.13953851 0.04096815 0.059149727 -0.06700103 -0.047247663
0.09624557 -0.01821787 -0.092310846 -2.8565526e-05 -0.097075626 -0.15416792 -0.014624302 -0.0958846
-0.18761395 -0.02258382 0.077639505 -0.030290356 0.08659786 -0.0077805594 -0.009217422 0.002001226
0.1505385 0.06030243 0.008229166 0.08955439 0.11297564 0.07244986 0.12258932 -0.08635931
0.15675962 -0.14940298 0.14360513 -0.04154894 0.014529251 0.12359436 -0.032068755 -0.016585724
0.066153094 0.2785341 -0.22550298 -0.016727407 0.123211235 -0.045597166 0.019786581 -0.13094342
0.052749902 -0.06999652 0.40178266 -0.23938026 0.015029967 0.023464754 0.091936566 0.07610959
-0.024734885 0.273601 0.19025949 -0.05026366 0.05422438 -0.018798295 -0.03177818 -0.041749172
0.15161638 -0.06268133 -0.113648355 0.0913758 -0.013431691 0.04969924 -0.06976546 -0.024416234
0.059142068 0.016625736 -0.07755536 6.0781837e-05 -0.09515018 -0.15831561 0.012077879 -0.058193818
-0.13292928 -0.013137594 0.06501537 0.012921942 0.057351105 -0.007951416 -0.0041088685 0.04323367
0.08747067 0.102340266 0.061461747 0.06936226 0.08836065 0.097753055 0.04764532 -0.06965032
0.1354506 -0.12857583 0.15998185 -0.03248401 -0.0049728528 0.12169099 -0.016830891 -0.030511606
0.034387413 0.2852696 -0.22881284 0.020039562 0.0687933 -0.13148066 -0.020819902 -0.13790533
0.08776056 -0.12760237 0.3813569 -0.22177336 0.09839011 0.09569441 0.084152624 -0.020716071
-0.04908286 0.24212395 0.2164269 -0.120152965 0.13770357 0.042892486 0.032707043 -0.03615528
0.08390246 -0.13919859 -0.14476866 -0.0010818839 -0.002616331 0.038155627 -0.06400032 -0.020349119
-0.007988229 0.0117055625 -0.069528624 0.08818323 -0.105563626 -0.13085437 0.08784916 -0.017957438
-0.11739077 -0.00088085607 0.02921255 0.08173705 0.029851569 -0.027809758 -0.10372029 0.102127746
0.029836345 0.08948097 0.081615776 0.05869663 0.04360661 0.048306495 -0.032887638 0.0011345856
0.1393781 -0.0347746 0.08067064 0.0020752698 -0.057274826 0.11495918 0.014427443 -0.042662404
-0.017004246 0.2311517 -0.11351639 0.07214396 0.028350543 -0.13641265 -0.008414455 -0.12305804
0.046291932 -0.2053447 0.30444553 -0.20364594 0.12755299 0.13219161 0.11142338 -0.1353279
00000000: 0e70 ccbc 0418 443e 9e0b 2f3e 3420 25be
00000010: a072 063e cd12 b6bc eb72 823d 4948 84bd
00000020: e84d d1bc 0a79 aebd d64f 00be feb3 54bd
00000030: 911d b83c 2a59 223d 5892 08bc 7ff7 75bd
00000040: e619 98bc 81af 09bd 74e8 44bd 7961 233e
00000050: 3e39 f0bd e60b 95bd 3a69 163e e897 81bd
00000060: da96 d9bd 3cc8 8abc 361d d1bd 65d1 db3d
00000070: 26b1 9d3d 0eab 3abd 7c8b 33be de80 5c3d
00000080: 80e8 983b 004e 7b3d f838 7f3d a939 0e3e
00000090: 44d9 61bd 1040 c9bb ade8 563c 4cca 763c
000000a0: 6c90 d23d d014 ab3b 7804 623c 2dec a23d
000000b0: d79b 16be a341 2b3e e6c8 9e3c 936e e0bd
000000c0: 4c3f c73c 4209 1c3e 88d2 d7bc ecef 403d
000000d0: 0309 ac3d 6a59 86bd 8eb9 083d 031b a7bd
000000e0: 802e e3bc 8b75 38be 8cdf 513e d151 64be
000000f0: 666e 073e 82bb 053e 0acd 383e 534c acbd
00000100: c866 fdbc 589f 803e 0f58 0c3e 7775 34bd
00000110: 683b dabb cb52 49bd 3d07 54bc a916 99bd
00000120: 50f5 573e fcc7 55bd 8c56 85bd 2fe3 0e3e
00000130: 38ce 273d fc46 723d d637 89bd c486 41bd
00000140: 661c c53d a43d 95bc 780d bdbd 00a0 efb7
00000150: 96cf c6bd 32de 1dbe c59a 6fbc 255f c4bd
00000160: df1d 40be b401 b9bc 7601 9f3d 7b23 f8bc
00000170: 385a b13d 10f4 febb ac04 17bc 0027 033b
00000180: c426 1a3e aeff 763d a0d3 063c 4b68 b73d
00000190: c65f e73d 9860 943d 1c10 fb3d 26dd b0bd
000001a0: 9885 203e 18fd 18be 390d 133e 392f 2abd
000001b0: 180c 6e3c 0a1f fd3d 875a 03bd c9de 87bc
000001c0: 467b 873d 069c 8e3e 41ea 66be ea07 89bc
000001d0: 2c56 fc3d 18c4 3abd 7817 a23c 0816 06be
000001e0: 4810 583d 565a 8fbd 75b6 cd3e 1920 75be
000001f0: 4040 763c 2839 c03c 3d49 bc3d 58df 9b3d
00000200: d0a0 cabc 6e15 8c3e 62d3 423e 44e1 4dbd
00000210: 621a 5e3d e2fe 99bc d629 02bd 2e01 2bbd
00000220: 5341 1b3e 125f 80bd 78c0 e8bd 3c23 bb3d
00000230: 9810 5cbc 6e91 4b3d 32e1 8ebd 8e04 c8bc
00000240: f43e 723d b232 883c 58d5 9ebd 00f0 7e38
00000250: 19de c2bd 7d1d 22be 4ce2 453c a45c 6ebd
00000260: 9d1e 08be 103f 57bc c726 853d 8eb6 533c
00000270: fee8 6a3d a846 02bc b0a3 86bb ca15 313d
00000280: d323 b33d c697 d13d 50bf 7b3d cd0d 8e3d
00000290: 6ef6 b43d c132 c83d bd27 433d d4a4 8ebd
000002a0: 90b3 0a3e 62a9 03be 48d2 233e f40d 05bd
000002b0: 50f3 a2bb 2039 f93d f0e0 89bc 7af3 f9bc
000002c0: d1d9 0c3d db0e 923e ea4d 6abe 022a a43c
000002d0: 80e3 8c3d dea2 06be 808e aabc 0e37 0dbe
000002e0: cfbb b33d 32aa 02be 3641 c33e 8e18 63be
000002f0: c180 c93d 6efb c33d 3658 ac3d c0b4 a9bc
00000300: 1c0b 49bd 57ef 773e 039f 5d3e c212 f6bd
00000310: 2a02 0d3e 08b0 2f3d d2f7 053d 8f17 14bd
00000320: 0ed5 ab3d 138a 0ebe 3c3e 14be 00ce 8dba
00000330: c076 2bbb 1349 1c3d 9a12 83bd 32b3 a6bc
00000340: 10e1 02bc b0c8 3f3c 0665 8ebd 6999 b43d
00000350: be31 d8bd b0fe 05be 43ea b33d 7a1b 93bc
00000360: 926a f0bd 40e9 66ba 284f ef3c c165 a73d
00000370: 478b f43c 4ad1 e3bc 4e6b d4bd 5a28 d13d
00000380: 5a6b f43c cc41 b73d 2c26 a73d e16b 703d
00000390: d89c 323d 08dd 453d 30b5 06bd 60b6 943a
000003a0: 22b9 0e3e d06f 0ebd a636 a53d 4001 083b
000003b0: 0299 6abd b86f eb3d 1561 6c3c c6be 2ebd
000003c0: 7d4c 8bbc 08b3 6c3e 487b e8bd 36c0 933d
000003d0: 663f e83c c2af 0bbe c8dc 09bc db05 fcbd
000003e0: 9c9c 3d3d e245 52be 49e0 9b3e 9088 50be
000003f0: 409d 023e 3d5d 073e f131 e43d 6693 0abe
