r2l/store_demo/karel-stairClimber-2000.pt (torch, 60363 bytes, 9 tensors)

weight_ih f4 [192, 4]
00000000: d7f3 e1bd 5ca4 f9bd 35a6 ec3a 6ca4 e9bd
00000010: 76e8 f4bd 96d2 96bd 3f72 afbd 7820 6c3d
00000020: 16da 8ebd 9dd3 c9bb bdc6 93bd afe3 3f3d
00000030: ff9a 29bc b71a e93d df4e 003d d965 a93d
00000040: d008 cf3d 254d 08bc 4fa3 afbd dbdd 063d
00000050: aada d83d a2ae babb 8369 343b d008 a03d
00000060: a0e1 b23d 5aa3 54bc 3948 483d b3d3 993d
00000070: e9b6 d23d cf3a 643d a444 a6bd 2134 dc3d
00000080: 50cb 2c3d 6ff7 903d 9abf 41bd 4bd6 ae3a
00000090: 08d8 e3bd 16ae 93bd 194a c2bd 5a6c acbc
000000a0: 8be0 e3bd 0a36 8a3d e36b b33d c2fc d0bd
000000b0: 4acb 603d 69c7 d9bd a0b5 393d ef06 e9bd
000000c0: f193 dd3d 5341 c9bd 4837 40bd 698a 143d
000000d0: ffaf 10bd 2bb3 d2bc 53b3 f3bd 871f cd3d
000000e0: bc7c c1bd 5aab edbc d241 523d fb6d b43d
000000f0: 5816 3f3d aebe 78bd 2916 823d 54cc d8bc
00000100: 00e6 263d d32b 13bd 630e 103d 88c5 f23c
00000110: bf95 f63d 1ee2 a33d 2e61 29bd 64cd 60bd
00000120: 464a f33d 3664 8b3d 35a4 c0bd 93fc c4bd
00000130: 0eba 82bd 9ef1 eabd 03a1 c0bd c52b a83d
00000140: 1d6c b53d 2ac0 b5bd 60ea 2f3d 4b5a 173d
00000150: fa95 973d 40e7 8fbd b120 c6ba 06fc cfbd
00000160: 6949 bbbd 743a 5c3d 2133 2a3d 57ae 98bd
00000170: 41a2 f7bc ca69 a43c 9d2c cabc cd79 a1bd
00000180: 51bf da3a 8c7f 2d3c 04af 86bd 3ecc fa3d
00000190: 5b27 bdbd e36b aa3d d1fa 433c 153f 523d
000001a0: e238 7abc f138 e43d 30bb 98bd a42f 0d3d
000001b0: 22a0 41bd 1c70 4fbc f46d c23d 026b 4ebd
000001c0: a621 22bd 1f25 a23d 8d9d 4ebd 5123 9a3d
000001d0: 42e9 183d b2e9 07bd a6ac 55bd cd72 853c
000001e0: 6b58 193d 1c0d 4ebd 6a1e b0bd af0b 7b3c
000001f0: ad48 5abc a891 3fbd 8f2d 3abd 7537 503d
00000200: 523d 413d b2ef 033d 386d 51bc ae9e 923d
00000210: 3312 d03d efea ef3d 1a74 d5bd ca4e 50bd
00000220: 90a1 03be ac17 e7bd b891 073d ceae f03d
00000230: 170f f8bc b4fb 5d3d 7619 92bd c8ed ac3d
00000240: 159c 7ebc c453 e03d ea99 a43d 008f f0bd
00000250: 2336 bc3d c9d9 a13d 3e3d 863b b9e8 83bc
00000260: 7987 5cbd 37db 10bd 5218 c9bd effd 883c
00000270: f1fd db3d 8288 b63b 1d01 cb3d e82e 87bd
00000280: 211f db3c baf0 c4bd cc5f b93d 1753 e43d
00000290: d1f4 82bc 28e9 2ebd 4ee9 28bd a976 b93d
000002a0: 87bf 98bd 3d52 d33b e404 f3bd 5123 64bd
000002b0: 353a bcbd 449a b8bd bb94 a93c a2ce e33d
000002c0: a5a0 bb3d f1ff bd3d dc1d 8cbc ed3c b83d
000002d0: e261 b8bd 1ef6 de3d 3e14 5fbd aa2e 50bb
000002e0: c6d9 513d e400 dc3c 0377 21bd 9cda 70bd
000002f0: 24dc 7dbd 1f94 59bc e270 c3bd 3b5e 8a3d
00000300: dd19 033d 2129 403d fbec 8bbd d63e e3bd
00000310: 6b79 debd cf2b cc3d 5f58 5dbd a70f aa3d
00000320: 7a33 fdbc 01aa 223d d1b7 65bd e9a5 073d
00000330: 3171 f13d 83c4 a8bd 6b16 603d 548f c9bd
00000340: 76f4 3ebd 5c51 063d c3f6 813c 4cda 67bb
00000350: 43b0 003e 1dac 8cbc b753 eb3d c7ed c73d
00000360: 5636 babd a25a 843d a652 b8bc 20e1 f8bc
00000370: 28ac 76bd 0566 b9bd edd5 47bc 977b 673d
00000380: c9fc a13d 5ad7 dabd 43e1 063d d31c 54bd
00000390: 6c52 e03d 1ef0 babc c751 6fbd c3d9 5a3d
000003a0: d31d b2bd 44d5 8abd dd7e 213d 9352 bd3d
000003b0: 4911 13bd 70d8 8f3d 3b06 9cbc 1f79 f2bd
000003c0: 2064 e0bd 8543 1dbd 68e3 853d f546 bd3d
000003d0: fe58 e23d 2d5a e1bd 6af3 e33d 6fee e33d
000003e0: d602 3eba 6900 3cbc 5d69 c63c 121f ef3c
000003f0: 0a2e f23d 4ffa 8cbc 457e c1bd 958f 6bbb
-0.11032837 -0.12189552 0.0018054905 -0.11408314 -0.11958401 -0.07364385 -0.085667126 0.057648152
-0.0697519 -0.0061592595 -0.07215641 0.046847995 -0.010351895 0.113820486 0.031325217 0.08271379
0.10109103 -0.008319174 -0.085760705 0.03292642 0.10588582 -0.0056970874 0.002752871 0.07814181
0.08734441 -0.012978399 0.048897002 0.075110815 0.102887936 0.055720147 -0.08118561 0.1075213
0.04218608 0.07078444 -0.047301866 0.0013339011 -0.11125189 -0.07210939 -0.09486789 -0.02104776
-0.111268125 0.067485884 0.08760812 -0.1020446 0.05488137 -0.106337376 0.045339227 -0.113782756
0.10819233 -0.09826913 -0.04692772 0.03626481 -0.035324093 -0.0257202 -0.11899438 0.10015779
-0.09447619 -0.02901237 0.051332302 0.088100396 0.046652168 -0.06072872 0.06351883 -0.026464619
0.04074669 -0.035930466 0.03516997 0.029635206 0.120402806 0.08002113 -0.041352443 -0.054883376
0.11879401 0.06806223 -0.0940632 -0.09618487 -0.06383143 -0.11471866 -0.094057105 0.082114734
0.088585116 -0.08874543 0.042948127 0.036951344 0.07401653 -0.07026529 -0.0015115944 -0.101554915
-0.09144861 0.053766683 0.041552667 -0.07455128 -0.030228736 0.020069975 -0.024679476 -0.0788456
0.0016689097 0.010589492 -0.0657635 0.12245987 -0.09236022 0.08321359 0.011961655 0.05132969
-0.015272351 0.11143673 -0.07457578 0.03446926 -0.047271855 -0.012661006 0.09493628 -0.05039502
-0.03958287 0.079172365 -0.05044322 0.07526267 0.037331827 -0.033181854 -0.052166604 0.016290093
0.037437838 -0.05030547 -0.08599551 0.01532261 -0.013322991 -0.046769768 -0.045453604 0.050834138
0.04717762 0.032211013 -0.012782387 0.07159172 0.10159721 0.11714732 -0.10422535 -0.05085639
-0.128546 -0.11283812 0.033097953 0.11752091 -0.030280633 0.05419512 -0.071337625 0.08443791
-0.015540143 0.10953477 0.08037169 -0.11746025 0.09190013 0.07902867 0.004096656 -0.016102182
-0.053840134 -0.03536531 -0.09819092 0.016722647 0.10741795 0.005570472 0.09912322 -0.066007435
0.026748242 -0.096162274 0.09051475 0.11148661 -0.015985878 -0.042702824 -0.04123812 0.09055836
-0.07458406 0.0064490126 -0.11866167 -0.055697743 -0.091907896 -0.09013799 0.020700803 0.111233965
0.091615 0.092773326 -0.017104082 0.08995996 -0.09003045 0.10886787 -0.054462664 -0.0031766095
0.051233076 0.026855893 -0.03942014 -0.058802232 -0.06197752 -0.013279944 -0.09543015 0.06756254
0.032007087 0.046914224 -0.0683231 -0.110959694 -0.108630024 0.09969293 -0.054039355 0.08303767
-0.030908335 0.03971291 -0.056083504 0.03311721 0.11789168 -0.08240607 0.05470888 -0.09841791
-0.046619855 0.032792434 0.015864735 -0.0035377918 0.12567239 -0.017171914 0.11490577 0.09762149
-0.09092395 0.06462599 -0.022500347 -0.030380785 -0.060222775 -0.09052662 -0.012197 0.05651435
0.07909543 -0.10685606 0.03292967 -0.0517853 0.10953221 -0.022819575 -0.0584276 0.05343033
-0.08697095 -0.067789584 0.039427627 0.092442654 -0.035905156 0.07023704 -0.01904594 -0.11839508
-0.10956597 -0.03839447 0.06537515 0.092420496 0.1105213 -0.11003528 0.11130412 0.11129462
-0.00072483474 -0.011474707 0.024220163 0.02918962 0.118251875 -0.0172092 -0.09447912 -0.0035943736

weight_hh f4 [192, 64]
00000000: 76db eebd a497 d3bc 75b7 ecbd a56f d2bc
00000010: e3ff 9e3d d9a2 733d 1f0b fc3c f456 89bd
00000020: 2d5f ae3d 2406 0abd 4cc7 72bd ee4e 863d
00000030: e3a0 753c 4b1b b73d ecd3 eebd 8435 3b3d
00000040: 19d9 253d 730e 663d 2ffc 75bd 5077 2e3d
00000050: c34b 9a3d b3d1 f23d 37b0 60bd c41f 9b3d
00000060: 0966 f23d 3078 8d3d 96c3 8b3d f7df 98bd
00000070: 2497 ed3d 3d46 313d bad3 71bd 6de1 4c3d
00000080: 5eb5 913d 6d00 093d e136 1bba df40 8b3d
00000090: bbee 95bd 2ab1 8d3d bcf5 a33d 03ac ff3c
000000a0: 284c debd 6aea dc3d 48c1 05b9 4afd d5bd
000000b0: 82ec 4d3d 318f 8a3d 048e 023d 3a24 8abd
000000c0: f373 89bd 043b 5b3d 23d3 f53c 87bd 6fbd
000000d0: 78bf e7bd dc11 9ebd b756 00be e0d7 d8bd
000000e0: 7210 e9bb 8b8d b33c ff04 2abd 5c08 04bd
000000f0: b50d af3d 6687 d13d cd09 16bd 3384 afbd
00000100: fed8 3cbc 26b8 99bd 2dcc 88bd 7ea1 7b3d
00000110: 356c 6bbb fe3c 9fbd 42d0 e6bd 35a7 a13d
00000120: 3d0d d03c c634 29bc c978 9d3d fbc0 eabd
00000130: c325 f2bd e06b fe3d dd81 403c b5f6 d53c
00000140: 5272 dcbd a7b6 763d aa6a 1dbd 4dc2 6bbc
00000150: d1db 133b 66a5 68bd c7dc 00be 46d6 f4bd
00000160: 787d efbd e4a7 ab3b b6bc d0bb bb18 b3bd
00000170: 54e9 c43b 2d86 65bc 0a4d 96bc c94b 363d
00000180: ca86 b23d 0359 b5bd a89b 883d 6cd3 e43c
00000190: d337 22bc c002 ef3d ecd0 a4bd d516 e4bd
000001a0: 7613 cabc de76 8e3d ca9f a5bd 0ef2 91bd
000001b0: 4751 a3bd e8b5 bb3d 7a1b e03d 050a 07bd
000001c0: db92 e2bc f4a5 ddbd 669c 803c 0e6b 93bd
000001d0: 6de0 313d 4786 f53c da98 59bd 4628 b03d
000001e0: a094 3fbc c5f6 e0bd c2c5 3abc df39 0f3d
000001f0: 11bd a1bd 73e0 9f3a e630 983d ba71 8abd
00000200: 5884 f9bd ede1 cd3d 871a cc3d 2fce 94bd
00000210: a351 263d 23a8 163d 3874 82bb b7ba 603d
00000220: b3b9 7f3c 16c5 e43c aa29 5d3d 0ba9 18bd
00000230: 5534 633c 8816 8a3d 05cb 9dbd 5bd7 1f3d
00000240: f379 9a3d 257d 37bd 75a8 e9bd 721b 283d
00000250: a639 bbbd 16eb 943c d901 263d e004 6d3d
00000260: 08da b73d 628d f9bd e7fc 5cbc 73d6 483d
00000270: bf4f 28bc f54c 2f3d f024 92bd f034 583d
00000280: d4a2 93bd 2f2b 0d3c 3fda b53d 76c6 4bbc
00000290: 6bf9 733d eb04 83ba 3105 ddbd 4b2d a4bd
000002a0: eb1d fa3d b84c 7f3d ac9a 84bc 6418 783c
000002b0: 4f5a a83d 6380 fcbd d402 d53c 69a4 bfbb
000002c0: a9f1 9b3d 2ed9 cc3c f13f 9e3d 9ea0 e4bd
000002d0: 9ff8 1ebd ada6 a7bd 1465 29bc d8ec 043c
000002e0: 5dee 303d efbb 8d3a 8420 1cbd 3fd5 a93d
000002f0: 7350 e43d 2c31 4e3d f077 6a3c 8f27 f03d
00000300: b94a c93d 0071 e2bd d0af d2bd 57b7 0abd
00000310: 4e19 c9bd 6356 e7bc cbbb df3c 421f ffbc
00000320: e0b0 cfbd 9b85 f6bd f83f a83d f411 efbd
00000330: 4b57 eabd 832a 68bc 7fc0 243d b6a3 de3d
00000340: 0d84 54bc 10a5 1ebd 8b52 b8bd 63c0 663d
00000350: f017 97bd 7d5f ba3d 208a 923d 42aa a43d
00000360: cc35 23bd e843 6c3d 11c0 8dbd 728a f83d
00000370: 325f cebd 876a 853d 6734 94bd b31c cebd
00000380: 8021 a1bd 6c0d acbd e64a 3c3d 9854 5b3d
00000390: 1f16 c6bd 9e64 92bc c843 94bd 998b abbc
000003a0: b7f6 a93d 9860 88bd ecf6 103d 6e2c c33b
000003b0: 58d3 ef3d 7114 d53c 552d b5bd ffea 9e3d
000003c0: 9334 95bd 5697 7d3a 7e2f a53d e5b7 763d
000003d0: 73e2 b4bd eb4b c2bd fcd9 a4bd bb99 8b3d
000003e0: 69f3 523d c5bf 9abb 31ab b5bd d7d1 63bc
000003f0: 920a 57bd 857e b3bd e430 12bd 4fb0 43bc
-0.116629526 -0.025829144 -0.11558429 -0.025688002 0.0776365 0.059481476 0.030767022 -0.06706038
0.08514247 -0.033697262 -0.059272096 0.065580234 0.014991972 0.089407526 -0.11661515 0.045705333
0.040490244 0.056166124 -0.060054954 0.042594254 0.07533982 0.11856403 -0.05485555 0.07574418
0.11835868 0.069076896 0.068244144 -0.07464593 0.116010934 0.043279875 -0.05903981 0.05001967
0.07114671 0.03344767 -0.00059209584 0.067994826 -0.07320925 0.06918557 0.080058545 0.031209951
-0.108543694 0.107868984 -0.00012755871 -0.10448702 0.05027438 0.06765593 0.031873718 -0.06745191
-0.06711569 0.05352308 0.030007904 -0.058530357 -0.11315817 -0.0771825 -0.12533079 -0.1058805
-0.007112556 0.021918079 -0.04150867 -0.032234535 0.08547536 0.10230903 -0.03663044 -0.08570137
-0.011526344 -0.07505827 -0.066795684 0.061433308 -0.003592265 -0.07775305 -0.11270191 0.0789322
0.025396938 -0.010327524 0.076890536 -0.11462589 -0.11823609 0.12422919 0.011749712 0.026118616
-0.10763992 0.060232785 -0.0384318 -0.014389587 0.002256144 -0.05679836 -0.1258422 -0.11954932
-0.11693853 0.00523852 -0.0063701523 -0.08744951 0.00600926 -0.014009041 -0.018347282 0.044505868
0.08717115 -0.08854868 0.06670314 0.027932845 -0.009901005 0.116704464 -0.08047661 -0.11137167
-0.024667483 0.06956266 -0.08087118 -0.071262464 -0.07974487 0.09165555 0.10942741 -0.03296854
-0.027657917 -0.10822669 0.015699577 -0.071981534 0.04342692 0.029971255 -0.053124286 0.086014315
-0.01169315 -0.109845676 -0.011399688 0.0349673 -0.0789739 0.0012197628 0.07431202 -0.06759973
-0.12183446 0.100528575 0.09965997 -0.07265889 0.0406052 0.03678144 -0.0039811395 0.054865565
0.015608239 0.02792601 0.053994812 -0.037270587 0.013867457 0.06742579 -0.077047385 0.03902374
0.07542791 -0.04479708 -0.11409084 0.0410418 -0.09141855 0.018178504 0.040529106 0.057865977
0.08977133 -0.1218517 -0.013488031 0.04903264 -0.010272919 0.042798 -0.071359515 0.05278486
-0.072087914 0.008616253 0.08879518 -0.0124374535 0.059564035 -0.0009995973 -0.10792006 -0.080164514
0.12212738 0.062329024 -0.016187035 0.015142534 0.0822035 -0.12329175 0.026002325 -0.0058484566
0.076144524 0.025005903 0.077270396 -0.11163448 -0.038811322 -0.08186088 -0.01033904 0.008113109
0.04319607 0.0010813455 -0.038116947 0.082926266 0.11148157 0.050339863 0.014310822 0.11726295
0.09828705 -0.11056709 -0.1028744 -0.033866253 -0.098192796 -0.028239435 0.027311226 -0.031142835
-0.10141158 -0.12037202 0.08215326 -0.11673346 -0.11442431 -0.014170292 0.04022264 0.10871069
-0.0129709365 -0.038731635 -0.09000119 0.056335818 -0.073776126 0.09100244 0.071552515 0.080402866
-0.039846227 0.057681948 -0.069213994 0.12135781 -0.10076751 0.06514459 -0.072365575 -0.10064068
-0.07867718 -0.084009975 0.045969866 0.05354747 -0.09672188 -0.017870244 -0.07239491 -0.020940589
0.0829901 -0.06659049 0.035391733 0.005956224 0.117102325 0.026010724 -0.08846537 0.07759666
-0.07285418 0.0009673735 0.08065699 0.06023397 -0.08832254 -0.094871365 -0.0804939 0.06816431
0.051501665 -0.0047225677 -0.08870543 -0.01390501 -0.052500315 -0.08764366 -0.035691157 -0.011943891

bias_ih f4 [192]
00000000: 1547 d63d 84a6 2fbd ffc2 30bd 3c60 2abd
00000010: 4d45 96bd 03a2 003e 0468 bcbd 67cd 99bd
00000020: a3b8 a0bc 85f2 7ebd 24c7 b8bd c903 243d
00000030: 381c be3c 6611 a03d f1e9 d9bc 310f 98bd
00000040: 4a4f be3c a09a edbd 8c12 c23d 1d9a 24bb
00000050: 7b78 48bc ae53 ae3d a6b9 cfbd 9e76 27bd
00000060: 5ba7 123d 63d9 013e 380e d33d 86d9 94bd
00000070: ae83 02be 4151 703d 8b95 103d 6bd9 b1bd
00000080: 92a4 0fbd 6efd 993d caad 5f3d 3254 0ebd
00000090: 3ab6 e4bc f05a d2bd c649 c03c 61bf d4bc
000000a0: c89b 903d acea 793d 5525 debd c716 4a3c
000000b0: 6f0d b03c 046b 343d 5b88 793d 74a7 1cbd
000000c0: 9c97 9cbd af4d dcbc 82cb cfbc ecd0 983d
000000d0: 3b03 fd3d 1a55 b13d d9d8 ea3d a56a d5bd
000000e0: 8437 973b 47f5 313d 6ed0 9b3d 1984 9bbd
000000f0: 8cac 3dbd c19f 6739 1d90 633d 9963 bdbb
00000100: 0890 f33d 776b f2bc b277 c8bc 02fa efbd
00000110: 4632 613d 0252 9dbc 0b81 18bd 60d8 e8bd
00000120: fea4 11bd 7180 d4bd ac78 febc 7752 f63d
00000130: faf2 46bd 6e49 cabd 0315 89bb 976d b23d
00000140: 0f2e da3c e146 b63d 0fde b1bd 4777 01be
00000150: 9e9c 19bd ff66 a83d 29fd 46bd fdb3 b3bb
00000160: 3263 6fbd e486 f8bb 2acf e2bb 6f99 f53d
00000170: 4e4c 8ebd 98ca c6bd 4098 d53d 8c47 4a3d
00000180: 3536 cf3d 8b3d fb3d b509 f0ba ecfe cabc
00000190: 4bfc b9bc 36cc c7bd f8ad 16bd 6a37 633c
000001a0: ffa0 b83c 8b9d 3e3c f206 013e 0f7d f73d
000001b0: 0bb4 c03d 4369 6a3d d636 64bd 1172 c5bc
000001c0: 0cab dc3d fb30 673d 0d6b c83d b960 8b3d
000001d0: b0bf b4bd 6076 6dbd 5549 993d d96f 1b3d
000001e0: 41a0 7dbd 74af eb3b 1fcc 2fbd ad3c 2d3d
000001f0: 9d43 74bd b4f7 943d 7059 92ba 693b 6f3d
00000200: 1247 d5bd e36b bb3d 9c99 a6bd ee6a 6bbd
00000210: 7a7d 9abd f1a5 21bd 039a 4b3d ebf4 b7bd
00000220: a8e0 f23d 0e22 a7bd b4b8 d9bd ac79 e2bb
00000230: 4810 dcbd eb15 893d 4e39 93bd 9fa4 f73d
00000240: a0d1 dbbc e5b3 bc3d 41af c23d 2d09 a93d
00000250: 726d b4bd fd9a 583d 7820 cf3d 9e78 913d
00000260: 868d f1bd c325 b4bd f091 5cbd e025 093d
00000270: 9cfc d8bc 767f f0bc f1de 053d 2e3a 113d
00000280: 0f3d dbb9 56a8 ac3d bf38 6fbc 5c83 61bd
00000290: 9ecb 053d 466d 2cbd cd45 3bbd ed0d 9b3c
000002a0: fe06 003e 9fbb 02bd eca1 a2bd b3ae 8fbd
000002b0: cc2f 85bd 17f0 583d 6a16 923d 69e1 b9bc
000002c0: b4ea f13d cd5c 8cbc 7a08 cabd 734f 85bd
000002d0: 7178 d23c 9789 9c3d 7553 d0bd 35b2 ffbd
000002e0: 6263 e43d 3c41 d4bd 1198 3f3d 7f13 30bd
000002f0: 5576 92bd ab9a aabd 7f66 983d d110 05bd
0.104627766 -0.04288341 -0.043154713 -0.041595683 -0.07337437 0.12561803 -0.09199527 -0.075098805
-0.019619292 -0.062243003 -0.09022358 0.040042672 0.023206815 0.078158185 -0.02660081 -0.074247725
0.023231167 -0.11601758 0.09476194 -0.0025116273 -0.012235756 0.085120544 -0.101428315 -0.040884607
0.035804134 0.12680583 0.103054464 -0.07268052 -0.12745544 0.05867124 0.035298865 -0.08684047
-0.035069056 0.07519041 0.054609098 -0.034748264 -0.027918924 -0.10271251 0.023472678 -0.025970163
0.07060963 0.061014816 -0.10846964 0.012334532 0.02149078 0.04404737 0.060921054 -0.038245633
-0.07646105 -0.026892511 -0.025365595 0.07461724 0.12354132 0.0865881 0.11467142 -0.104207315
0.0046147723 0.043446805 0.07608114 -0.07593555 -0.04630713 0.0002208939 0.05555736 -0.005779695
0.11892706 -0.029592259 -0.024471138 -0.11717607 0.054979585 -0.019204143 -0.03723244 -0.11369395
-0.03555774 -0.10376061 -0.0310634 0.12027448 -0.048571564 -0.09877287 -0.004183413 0.08712309
0.02663329 0.08900238 -0.086849324 -0.12643157 -0.037502877 0.0822277 -0.048581276 -0.0054841028
-0.05844421 -0.0075844396 -0.0069216685 0.11992156 -0.06948148 -0.097066104 0.1042943 0.04938464
0.10117761 0.12267598 -0.001831344 -0.02477976 -0.02270331 -0.09755747 -0.036787003 0.013868192
0.022537706 0.011634241 0.12600306 0.120844 0.094093405 0.05722929 -0.055716358 -0.024102243
0.10774812 0.056443196 0.09786043 0.06805558 -0.08825624 -0.05797422 0.0748469 0.037948463
-0.06192041 0.0071925465 -0.042919274 0.042294193 -0.059634794 0.07273808 -0.001116557 0.058406267
-0.10413946 0.09151437 -0.081347674 -0.057475023 -0.07543464 -0.039464895 0.049707424 -0.08982261
0.11859256 -0.08160792 -0.106309325 -0.006911477 -0.10745293 0.06693634 -0.071886644 0.12091946
-0.026833355 0.09214 0.09506083 0.08253703 -0.088099375 0.052882183 0.10113615 0.07103084
-0.117945716 -0.08796265 -0.053850114 0.033483386 -0.026487641 -0.029357653 0.032683317 0.035455875
-0.00041816427 0.08430545 -0.014600932 -0.055056915 0.032664888 -0.0420964 -0.045720864 0.018927539
0.12502667 -0.03191721 -0.079410404 -0.07015743 -0.06503257 0.052963343 0.071331814 -0.022690492
0.11812344 -0.017134095 -0.09864898 -0.06509294 0.025692197 0.07643431 -0.10172168 -0.12485162
0.11151768 -0.10364005 0.04677588 -0.042987343 -0.07151476 -0.08330282 0.074414246 -0.03248674

bias_hh f4 [192]
00000000: 0989 ff3d 5e1d d53d a813 f2bd d680 0cbc
00000010: e1eb 5f3c 1dde a1bd 7419 da3d 0393 e83d
00000020: 2091 04bd d92a de3d 62aa 4dbd ab46 95bd
00000030: 528a babd 2cc1 973c fc24 a53d a82f cc3b
00000040: 98e9 1a3d 5467 e23d 5878 8bbd d3c3 e1bd
00000050: 13dc 4abd 2ba6 5abd 78ba c73d 567c 463d
00000060: 7a7e db3d f109 b4bd dcec f93d 8456 c5bd
00000070: 0683 90bd 4a89 febc e61b ecbc 4d91 6f3c
00000080: 4ee2 613d 0c69 c23d 7185 d53d 57f4 7ebd
00000090: 510b 9a3d 825d 72bc 66d9 903c a895 81bd
000000a0: 461f a6bd dc25 9cbd 87b3 96bc e1e4 51bd
000000b0: 492d 4d3d 4ad9 e8bd 75fe cabd e158 993d
000000c0: 9ea5 8f3d 000f fd3d 2fa1 9c3d 0207 86bd
000000d0: ab00 9abd dc82 8ebd b120 f1bd bf7a f53d
000000e0: 2992 b33d 4813 dc3d 3ef2 c63d 01d1 e23d
000000f0: eaf5 cabd 09f5 33bd 4f1e 9e3d f648 bcbc
00000100: 6aa9 d7bd cf55 0e3b 2dd3 cebd 9403 8dbd
00000110: dba5 f23c 2e9a 8a3c 03b0 003d a477 9fbd
00000120: 724e 2e3d 163a 463d 1377 c0bd 6604 9739
00000130: 3776 bd3c 8357 8c3d 2702 c3bd a707 c53d
00000140: 12e8 ebbc a6a1 243d 039d dd3d ef03 1a3c
00000150: 5c8b 98bd ab71 56bd 35d5 c2bc fc9e b5bc
00000160: df44 b8bb 0a4d 8d3d 2865 413b 0df8 c23d
00000170: bb6f 0bbd bd4a 6a3d 6efe a03c eced 383d
00000180: 4fae d5bb 9f66 b3bd 9462 843d 6bd3 b83d
00000190: 3d30 be3d f2d2 afbd 3a7c c8bd ee14 12bd
000001a0: 5242 e7bd 3f52 a8bd faa3 32bc 2f24 bd3d
000001b0: 5de7 f4bd d107 86bc 2abc f2bd 6553 a03d
000001c0: a7dc 833c bd3f d33c d8a5 34bd fcf9 4abd
000001d0: 3ef5 57bc 56a5 f9bd f69e 3b3d a3a9 e63d
000001e0: bb4e 9ebd 902f c03d e38a 9b3d a12b 533d
000001f0: 497c 0c3c 82f4 05bd 7140 a33d 8784 ca3d
00000200: 3063 b23d 58e2 d83d e7ab c9bd 59a8 fcbd
00000210: 9b0c babc 872f fabd 4d9b f13d e54b 9bbd
00000220: 507e 3f3d 9e92 53bd 7a9f 2a3c 0aaa 953c
00000230: 5464 97bd e2c5 05bd 0897 66bc fda4 a9bd
00000240: 56b2 fabd 4c30 253d 5263 f0bd d10e 65bd
00000250: df9c 6bbc e124 dabc 07a0 3abc 21a7 d3bd
00000260: 8327 f5bc 280a 753a f421 a9bd b9d1 8fbc
00000270: 6339 afbd a262 f9bc a388 b4bd b697 e23d
00000280: 3079 353c 6739 aabc 8292 a8bd 2132 eabb
00000290: 5195 74bc a3a0 0bbd 7ddf 83bc 4854 86bd
000002a0: baff 823d b65b 9b3b 819f aa3c 59ca bebd
000002b0: 5c57 ef3d a871 163c 684a 983d 4ff6 aa3c
000002c0: f1ff 8b3b 1f1d 953d a567 923d da8f cebd
000002d0: efa1 253d df2e 8d3d 5ea4 f5bd 69ff ffbd
000002e0: 8e3e 8cbd ac86 babc d2f2 a43d 3284 fd3c
000002f0: 5ab7 cb3c 6825 c03d 2a81 a9bc d5a5 583d
0.12477309 0.10405992 -0.118201554 -0.008575639 0.013667078 -0.07903693 0.10649386 0.11356165
-0.032364964 0.10848016 -0.050211318 -0.072888695 -0.09108414 0.018524729 0.08063695 0.006231267
0.03782043 0.110548645 -0.06810063 -0.11023679 -0.049526285 -0.053381126 0.09752363 0.04845842
0.10717483 -0.08790959 0.122033805 -0.09635642 -0.07056241 -0.031071324 -0.028821897 0.014622045
0.05514746 0.09492692 0.104258426 -0.06224474 0.0752169 -0.014792802 0.017681789 -0.06327373
-0.08111434 -0.076244086 -0.018396152 -0.051243667 0.050092015 -0.113695696 -0.09911815 0.074876554
0.07014011 0.12356377 0.07647931 -0.065443054 -0.07519659 -0.06958553 -0.117738135 0.119863026
0.08768112 0.10745865 0.09714173 0.110750206 -0.09910186 -0.043934856 0.07720625 -0.02298401
-0.1053036 0.0021718626 -0.10098872 -0.06885448 0.029620102 0.016919222 0.031417858 -0.077864915
0.04255528 0.04839524 -0.093977116 0.0002880424 0.023127658 0.06852629 -0.09521895 0.096206
-0.028797183 0.040193222 0.10820963 0.009400352 -0.07448456 -0.052354496 -0.023783306 -0.022170536
-0.0056234444 0.0689946 0.0029509757 0.09519968 -0.0340421 0.057200182 0.019652572 0.045148775
-0.0065210233 -0.08759808 0.06464115 0.090247 0.092865445 -0.085851565 -0.09789319 -0.03566449
-0.112919465 -0.08218812 -0.010903353 0.09235417 -0.119581915 -0.016361149 -0.11852296 0.07828406
0.016096426 0.025787229 -0.044103473 -0.04955481 -0.013181029 -0.121897385 0.045805894 0.112628244
-0.077298604 0.09384072 0.0759485 0.05155528 0.008574554 -0.032703884 0.079712756 0.09888559
0.08710325 0.10590047 -0.09847241 -0.12336797 -0.022711089 -0.12216096 0.117971994 -0.07582835
0.04675132 -0.051653497 0.010413999 0.018269558 -0.07392183 -0.03265942 -0.014074095 -0.08283422
-0.12241046 0.040329263 -0.11737694 -0.055922333 -0.014380663 -0.026628913 -0.011390693 -0.10334612
-0.029926067 0.00093475217 -0.08258429 -0.017556058 -0.085558675 -0.03044254 -0.08815124 0.11064093
0.011076257 -0.020779325 -0.08231069 -0.007147089 -0.014928178 -0.034088742 -0.016097778 -0.06559044
0.06396432 0.0047411574 0.02082801 -0.093159385 0.11686584 0.009182371 0.07436067 0.020869402
0.004272454 0.07280945 0.07148675 -0.10086031 0.040437635 0.068937056 -0.11994241 -0.124998875
-0.06847869 -0.022769295 0.08054127 0.030946825 0.024867702 0.09382135 -0.020691473 0.052892525

weight f4 [5, 64]
00000000: 736c 893d 6f11 a33d 8b5e 6abd 952c ce3d
00000010: 7c69 14bd 0ef6 a83c 89bd 02be 8386 a03d
00000020: 91ec 533c a780 993d b871 8c3c 13c5 643c
00000030: 2ff0 f4bc 3a7b 653d 89b6 fe3d 200f 17bd
00000040: 239d 78bd 1374 e5bc 0a3e 8fbd 7e6b 4ebc
00000050: beac 9abd 0323 e63d 3fce 493d a1e0 f3bc
00000060: 674a 9abc 9faf e83d ad69 9a3d c495 fd3d
00000070: 26af 81bd 7779 333d a275 56bd d6e3 83bd
00000080: 328d eb3d a460 43bd c170 86bd 5528 a6bd
00000090: f74e 903d 5a49 b2bd cef4 953d b6d0 673c
000000a0: 3faf aabd 005f ebbd 4f13 19bd 16c8 603c
000000b0: 2705 bb3b 0e0d 49bc 6954 ffbd 8cea e1bd
000000c0: 02be cb3c a683 04bd cd1c 383d 95a5 0f3d
000000d0: bd46 e3bc a6b7 013d 6385 babc 263c 793d
000000e0: 7c8b babc b1ba a13c 28a3 cbbd fd40 b0bd
000000f0: d13a 833d b0a7 ac3d 43ac a03d e5f0 3f3d
00000100: 7eb4 50bd 7872 dd3d 8f97 f5bd 0c43 9f3d
00000110: d4ef cebc 7e31 133d 9a72 f93d 1ed3 d73d
00000120: 218b 94bc 7cc6 983d 3db5 93bd ca6e d2bd
00000130: f767 bbbd ce22 c8bd 10f4 973d 7504 a03d
00000140: 87dd e1bc 0750 60bd 9466 8fbd 130a c0bd
00000150: 50c0 7cbd 52c8 debd 13f9 f6bc 9f24 b73d
00000160: fe5b 86bd 7e3d fbbd 45d1 83bd 2f14 ce3b
00000170: 54ff 85bc 7f7e 733d 6349 043d 39c5 9bbd
00000180: 6541 c4bd 7128 b9bc 5e8f 833d fecd 21bc
00000190: 2e8f 71bc f1b1 f93c cfe6 16bc 579d c9bd
000001a0: b671 313c 9bb1 d6bd 185c 97bb e89d 1c3c
000001b0: 85ce b53d a582 1cbd a5f5 f03d e9b7 19bd
000001c0: 8649 e53d a9dc c8bd 6115 1dbc 2857 d43d
000001d0: 8268 a63d 3be4 7dbd 02ec c93d d51d 4bbd
000001e0: e018 bd3d 839b e53d 4b0c 8f3d 082a 2a3c
000001f0: c553 a5bd 7f03 9dbd f862 313d 173d e5bd
00000200: 049c 233d 1f7e 9fbc 913d 943d d9a8 e8bd
00000210: 6fd9 ecbd 23a9 883d 7fba bf3d 85a3 82bd
00000220: 3201 abbd c5db bdbc 7929 a3bd 7d3e 453d
00000230: 8a54 b9bd 06ee c9bd 438a 8d3d d186 ae3d
00000240: 8b10 13bd 0f30 42bc 479a e43d 3224 93bd
00000250: 0138 b1bd 4e79 3ebd b922 ac3d 888d 3c3d
00000260: 44b1 a83c d917 b33d 0ed6 dabd 5dc8 743d
00000270: a00a ee3c 237f 7c3c 526b 12bc c531 a4bd
00000280: f7a2 f33d 293e 8d3c ca9b ff3d b414 69bd
00000290: fea5 813d 068b a03d 332f 5c3b 7876 b4bd
000002a0: 8a69 833b e58b d13d 53de 8f3d fefc 843b
000002b0: 0d94 d93d 8422 87bd a883 b7bd 244a e8b9
000002c0: e499 f23d 8c3a f4bd c8e9 fb3d 007f e1bd
000002d0: f5eb e3bd 0578 d53d 3b2e b9bd e7e9 1bbd
000002e0: 6e26 f8bd 0834 ad3d 86d6 153c a5fb d3bc
000002f0: e4c0 0a3c 0c48 953a d184 f13d dab8 3bbd
00000300: 9b3e 4db9 4a92 953d 875f 08bc eb1f c73d
00000310: 92a4 1d3c 907a aabd 08e2 4fbd 4718 86bc
00000320: 4cd9 b43d 9dc1 c93d 9331 823d 8fab acbd
00000330: cd0f d73d 3bc3 7e3d cb63 cbbd b5dd 83bc
00000340: f756 a7bd cd94 d93d fae4 d63d 6379 c63d
00000350: 4037 aabd c8de cabc c94f bebd c69e 4d3d
00000360: 2f1a ecbd 30f3 d43d 25da b53d e26b 7fbd
00000370: 7749 de3d bbc6 543d a896 ee3d 5e28 d7bd
00000380: 1245 b73d e644 64bd 3e1b f63c 4799 1abd
00000390: c550 abbd 5410 40bd d454 553d e0f0 993d
000003a0: 9e0d 4dbd dda4 023d fa4e 683b 5fa1 0cbd
000003b0: ba34 003e ffd0 afbd 949f 5e3d a867 0b3d
000003c0: e18e 91bd deb5 4f3d 067f a5bd 0646 293d
000003d0: d5b5 093d e423 5d3d 748b 01be 1c03 e33d
000003e0: 418f 73bc dd4c 923d 9aee 553d 001e f0bd
000003f0: fdeb ecbd 6605 753d 4cde f3bd 5fcd b5bc
0.06710138 0.079623096 -0.05721907 0.10067097 -0.03623341 0.02062514 -0.12767614 0.07838156
0.01293482 0.074952416 0.01714407 0.013963002 -0.029899685 0.05602572 0.124371596 -0.03687966
-0.060696732 -0.02800945 -0.06994255 -0.01259887 -0.07552479 0.11237147 0.049268957 -0.029770197
-0.018834306 0.11361622 0.07539687 0.12382081 -0.06332235 0.04381701 -0.052358277 -0.06439941
0.1150154 -0.047699586 -0.06564475 -0.081131615 0.07046311 -0.08705397 0.073220834 0.014148882
-0.08334207 -0.11492729 -0.03737193 0.013719579 0.0057074013 -0.012271179 -0.12467272 -0.110310644
0.024870876 -0.032352112 0.04494934 0.03507002 -0.027743692 0.03166928 -0.022768682 0.060848378
-0.02277159 0.019742342 -0.09943229 -0.086061455 0.06407703 0.08430421 0.07845356 0.046860594
-0.05095338 0.10812849 -0.11991798 0.0777646 -0.025260843 0.03593587 0.12180062 0.10538314
-0.018132748 0.07459733 -0.07212303 -0.102750376 -0.09150689 -0.097722635 0.07419598 0.0781335
-0.027571453 -0.05476382 -0.07001987 -0.093769215 -0.06170684 -0.10878052 -0.030148065 0.08942532
-0.06560515 -0.12267588 -0.06436399 0.006289027 -0.016357102 0.059446808 0.03229655 -0.076059766
-0.095827855 -0.022602292 0.064238295 -0.0098757725 -0.014743609 0.030480357 -0.0092103025 -0.09844463
0.010830333 -0.10483094 -0.0046191327 0.009559132 0.08877281 -0.03821053 0.11765603 -0.037528906
0.11195664 -0.098077126 -0.009587617 0.10368186 0.08125402 -0.061985236 0.09859468 -0.049588997
0.0923326 0.11211302 0.069847666 0.010385998 -0.080726184 -0.076666825 0.043307275 -0.111932926
0.03994371 -0.019469319 0.07238305 -0.1136033 -0.1156491 0.06672885 0.09361743 -0.06378845
-0.08349837 -0.023176083 -0.07966895 0.048155297 -0.09049328 -0.098598525 0.06911137 0.08521808
-0.03590445 -0.011852278 0.111622386 -0.07184638 -0.0865326 -0.046502404 0.0840506 0.046033412
0.02059234 0.08744783 -0.10685359 0.059761394 0.0290578 0.015411171 -0.00893672 -0.08017305
0.118963175 0.017241554 0.12480886 -0.05690451 0.063304886 0.078390166 0.003359747 -0.088116586
0.004010384 0.10231761 0.07024827 0.0040584793 0.106239416 -0.0659838 -0.08960658 -0.00044305727
0.118457586 -0.119252294 0.123004496 -0.110105515 -0.111289896 0.104232825 -0.09042021 -0.038064864
-0.12116705 0.0845719 0.009145385 -0.02587683 0.00846884 0.001138927 0.11792911 -0.045830585
-0.00019573646 0.07303293 -0.008323557 0.09722885 0.009621756 -0.08324158 -0.05075267 -0.016368998
0.088305086 0.09851382 0.06357112 -0.0843116 0.10501061 0.062197905 -0.099311434 -0.01609693
-0.08170884 0.106240846 0.104928926 0.096911214 -0.08311319 -0.024764434 -0.092925616 0.050200246
-0.115284316 0.10397947 0.088794984 -0.062358744 0.10853856 0.051947337 0.11649829 -0.10505746
0.08948721 -0.05572977 0.030042287 -0.037743833 -0.08365015 -0.04689057 0.05208285 0.075166464
-0.050061814 0.031895507 0.0035447464 -0.034333583 0.12520114 -0.08584785 0.054351404 0.0340344
-0.0710733 0.05071055 -0.080808684 0.041326545 0.033620674 0.053989306 -0.12650853 0.110845774
-0.014865697 0.07143567 0.0522295 -0.11724472 -0.11568449 0.0598196 -0.11907634 -0.022192655

bias f4 [5]
00000000: 4182 69bd bd8d de3d 0877 293d 6645 f0bd
00000010: 8a28 8c3c
-0.057008985 0.10866878 0.041373283 -0.11731987 0.017109174

welford_state_mean f4 [4]
00000000: c109 1c3f 9999 193f 6cdb 363f 5cca 253f
0.60952383 0.59999996 0.7142856 0.647619

welford_state_mean_diff f4 [4]
00000000: 0887 c741 2aab c841 40cc aa41 a269 c141
24.940933 25.083576 21.349731 24.176579

hidden f4 [6, 64]
00000000: c3da 18be 61e1 6d3e 4abf 35be e874 2dbe
00000010: 55d2 bcbd 1235 2d3e efcf a03e a6bc 44be
00000020: 76f0 6dbe 5635 52be 8216 afbe 29c1 47be
00000030: da17 2b3e 5f35 12be 28aa c33d 6650 43be
00000040: a83b 71bb 0b99 53be 4e60 adbd 3624 48be
00000050: 14c5 11bf 7d9e f53d 6250 3e3e ba1f 70bd
00000060: d816 02be baa7 03bf 31bd 7b3e 909b f03d
00000070: 5985 8b3d 0800 c2bd 5329 11be 245d 7bbc
00000080: 0c5f 1d3e 8534 883e 7969 8fbd 864b 33bd
00000090: ce9f c03d 4c42 97bd f19e 84bc 26f1 1cbe
000000a0: 8c66 023f 1a36 cebd c071 a43e 3e1c 22bd
000000b0: 334e 1b3e 7ec0 5dbe 18ea 83be 66f2 e73d
000000c0: 3953 d23d a5cc d63e d520 7cbe e69e b8be
000000d0: 4b1c 0e3d 1a35 2ebe 65d6 d9be a888 a73d
000000e0: c330 d13e 5efb f83d 54d6 ca3e fe5b bd3d
000000f0: efe1 0c3e c50b eabe ec96 1c3b 10c7 5a3e
00000100: c5da 18be 62e1 6d3e 4abf 35be e874 2dbe
00000110: 56d2 bcbd 1235 2d3e efcf a03e a6bc 44be
00000120: 76f0 6dbe 5635 52be 8216 afbe 2bc1 47be
00000130: da17 2b3e 5f35 12be 28aa c33d 6650 43be
00000140: da3b 71bb 0c99 53be 4e60 adbd 3624 48be
00000150: 14c5 11bf 7d9e f53d 6250 3e3e ba1f 70bd
00000160: d816 02be baa7 03bf 30bd 7b3e 909b f03d
00000170: 5985 8b3d 0800 c2bd 5229 11be 245d 7bbc
00000180: 0c5f 1d3e 8534 883e 7969 8fbd 874b 33bd
00000190: ce9f c03d 4c42 97bd f19e 84bc 25f1 1cbe
000001a0: 8c66 023f 1a36 cebd c071 a43e 401c 22bd
000001b0: 334e 1b3e 7ec0 5dbe 18ea 83be 66f2 e73d
000001c0: 3953 d23d a4cc d63e d520 7cbe e69e b8be
000001d0: 4f1c 0e3d 1935 2ebe 65d6 d9be aa88 a73d
000001e0: c330 d13e 5ffb f83d 54d6 ca3e fe5b bd3d
000001f0: efe1 0c3e c50b eabe ec96 1c3b 0fc7 5a3e
00000200: c3da 18be 60e1 6d3e 4abf 35be e874 2dbe
00000210: 56d2 bcbd 1235 2d3e efcf a03e a6bc 44be
00000220: 75f0 6dbe 5635 52be 8216 afbe 2bc1 47be
00000230: da17 2b3e 5f35 12be 28aa c33d 6650 43be
00000240: da3b 71bb 0c99 53be 4e60 adbd 3624 48be
00000250: 14c5 11bf 7d9e f53d 6250 3e3e ba1f 70bd
00000260: d816 02be baa7 03bf 30bd 7b3e 909b f03d
00000270: 5985 8b3d 0800 c2bd 5329 11be 225d 7bbc
00000280: 0c5f 1d3e 8534 883e 7969 8fbd 874b 33bd
00000290: ce9f c03d 4c42 97bd f19e 84bc 25f1 1cbe
000002a0: 8c66 023f 1a36 cebd c071 a43e 3f1c 22bd
000002b0: 334e 1b3e 7ec0 5dbe 18ea 83be 66f2 e73d
000002c0: 3953 d23d a5cc d63e d520 7cbe e69e b8be
000002d0: 4f1c 0e3d 1a35 2ebe 65d6 d9be a888 a73d
000002e0: c330 d13e 5ffb f83d 54d6 ca3e fd5b bd3d
000002f0: efe1 0c3e c50b eabe ec96 1c3b 0fc7 5a3e
00000300: 87e3 04be eaf8 323e 129d 6abc eb1e e2bd
00000310: ab22 b3bd 187a 6ebe cf7d e73b e7e0 03be
00000320: f925 963e b9b2 1ebd 3041 4fbc 3c97 1f3e
00000330: 3f29 6dbe a7ec 1c3e 495a 40be ea3b 5d3e
00000340: 19d5 17be d093 8f3e 7064 413d 3e1a 683e
00000350: fbe5 4d3e b89b 9cba 677f cc3d 7889 eabc
00000360: 9c60 0abe fce5 df3d 231f a3be 8da9 84bd
00000370: e023 eebd 83cc ca3b 9a50 813d 5b84 103e
00000380: d5b6 e8bd 9a63 40bc fa89 15bd 0581 9abd
00000390: 9e5f c53c 81db 45bd 0c5c cfbd ce57 163d
000003a0: 341a afbc 1b9b 223d 601c 72be 026e 3ebe
000003b0: 47fc 6bbd cff4 113e fb66 a63e 60ff 90bd
000003c0: 563d de3d 7ef3 4cbe d3bc ab3d 22bc 8ebd
000003d0: 8852 cf3d 9e44 6e3e c421 d63c 5cf6 9ebe
000003e0: 1076 1dbe b57a 5ebe 405b 46ba 7159 81bb
000003f0: a18f 0fbe 782a 623e 0c94 d33d bee4 d9bd
-0.14927201 0.23230506 -0.17748752 -0.16939127 -0.09219805 0.16914776 0.3140864 -0.19212589
-0.2323626 -0.20528159 -0.3419686 -0.19507279 0.16708317 -0.14278172 0.09553939 -0.19073638
-0.003680924 -0.2066385 -0.08465634 -0.19545063 -0.5694134 0.1199312 0.18585351 -0.058624007
-0.12704027 -0.51427805 0.2458389 0.11748421 0.068125434 -0.09472662 -0.1417592 -0.015342031
0.15368289 0.2660257 -0.07002539 -0.043773197 0.0940548 -0.07385692 -0.01618907 -0.15326366
0.50937724 -0.10068913 0.32118034 -0.039577715 0.1516655 -0.21655461 -0.25764537 0.11325531
0.1026978 0.41953006 -0.246219 -0.3605873 0.03469495 -0.17012444 -0.42546383 0.08180362
0.40857515 0.121573195 0.39616644 0.09246062 0.13758062 -0.45712104 0.0023893667 0.21364999
-0.14927204 0.23230508 -0.17748752 -0.16939127 -0.09219806 0.16914776 0.3140864 -0.19212589
-0.2323626 -0.20528159 -0.3419686 -0.19507281 0.16708317 -0.14278172 0.09553939 -0.19073638
-0.0036809356 -0.20663851 -0.08465634 -0.19545063 -0.5694134 0.1199312 0.18585351 -0.058624007
-0.12704027 -0.51427805 0.24583888 0.11748421 0.068125434 -0.09472662 -0.14175919 -0.015342031
0.15368289 0.2660257 -0.07002539 -0.0437732 0.0940548 -0.07385692 -0.01618907 -0.15326364
0.50937724 -0.10068913 0.32118034 -0.039577723 0.1516655 -0.21655461 -0.25764537 0.11325531
0.1026978 0.41953003 -0.246219 -0.3605873 0.034694966 -0.17012443 -0.42546383 0.081803635
0.40857515 0.1215732 0.39616644 0.09246062 0.13758062 -0.45712104 0.0023893667 0.21364997
-0.14927201 0.23230505 -0.17748752 -0.16939127 -0.09219806 0.16914776 0.3140864 -0.19212589
-0.23236258 -0.20528159 -0.3419686 -0.19507281 0.16708317 -0.14278172 0.09553939 -0.19073638
-0.0036809356 -0.20663851 -0.08465634 -0.19545063 -0.5694134 0.1199312 0.18585351 -0.058624007
-0.12704027 -0.51427805 0.24583888 0.11748421 0.068125434 -0.09472662 -0.1417592 -0.015342029
0.15368289 0.2660257 -0.07002539 -0.0437732 0.0940548 -0.07385692 -0.01618907 -0.15326364
0.50937724 -0.10068913 0.32118034 -0.03957772 0.1516655 -0.21655461 -0.25764537 0.11325531
0.1026978 0.41953006 -0.246219 -0.3605873 0.034694966 -0.17012444 -0.42546383 0.08180362
0.40857515 0.1215732 0.39616644 0.09246061 0.13758062 -0.45712104 0.0023893667 0.21364997
-0.1297742 0.17477766 -0.014319675 -0.110410534 -0.08746847 -0.23288763 0.007064558 -0.12878762
0.29325846 -0.038744662 -0.012649819 0.15585035 -0.23160265 0.1532465 -0.18784441 0.21604887
-0.14827384 0.2804246 0.047214925 0.2266626 0.20107262 -0.0011948263 0.099852376 -0.028630003
-0.13513416 0.10932538 -0.31859693 -0.06477652 -0.11627936 0.0061889305 0.06314202 0.1411299
-0.113629974 -0.011742497 -0.036508538 -0.0754414 0.024093445 -0.04830504 -0.101249784 0.03670483
-0.0213748 0.0396987 -0.23643637 -0.18596652 -0.057613637 0.14253543 0.32500443 -0.07079959
0.10851543 -0.2001476 0.08385625 -0.06969477 0.101231635 0.23268363 0.026139148 -0.31047332
-0.15377069 -0.21726497 -0.0007566698 -0.00394743 -0.14019634 0.22086513 0.10330972 -0.10639332
