r2l/store_demo/karel-stairClimber-0.pt (torch, 60363 bytes, 9 tensors)

weight_ih f4 [192, 4]
0	0x3c1bc83a	0.009508187
1	0x3d82b5b3	0.063823126
2	0xbdcb79a1	-0.09935308
3	0xbdbed4ff	-0.093179695
4	0xbd543af9	-0.051814053
5	0x3d09426b	0.033510607
6	0x3a872012	0.001030924
7	0x3dce5afe	0.10075949
8	0xbc36484b	-0.011125634
9	0x3d236922	0.039895184
10	0xbd357da0	-0.04430926
11	0xbcc86ef3	-0.024466967
12	0xbdf541b1	-0.1197542
13	0xbdac685a	-0.08418341
14	0xbd53e947	-0.051736142
15	0x3b512ce5	0.0031917628
16	0x3d6cb3ef	0.057788786
17	0x3d97c93d	0.0741143
18	0xbda87017	-0.082245044
19	0xbd7070b4	-0.058701232
20	0x3d53e0c5	0.05172803
21	0x3ddc99c2	0.107715145
22	0xbce382ed	-0.027772391
23	0x3db6b209	0.08920676
24	0xbcb50a44	-0.022099622
25	0x3c61f040	0.01379019
26	0x3de89f48	0.113585055
27	0xbdee8400	-0.11646271
28	0xbd9465ba	-0.07245965
29	0xbd07673b	-0.033057433
30	0xbd36b8f5	-0.044609983
31	0x3ddbfb92	0.107413426
32	0xbdb274ac	-0.0871366
33	0xbd56f6ba	-0.05248139
34	0xbdb853d6	-0.090003654
35	0xbde941fb	-0.11389538
36	0xbd9ee609	-0.077587195
37	0x3dd1e152	0.102480546
38	0x3d529186	0.051408313
39	0x3d72cdcb	0.05927829
40	0x3c5952a0	0.013264328
41	0xbd81a3bf	-0.0633006
42	0x3c95f965	0.018307397
43	0xbdf2e64a	-0.118603304
44	0xbdafbe6e	-0.085812435
45	0xbd890488	-0.066903174
46	0x3da93e34	0.082638174
47	0x3d8de719	0.06928844
48	0xbd5ec55c	-0.054387435
49	0xbc1ce09d	-0.009575036
50	0x3dae041e	0.08496879
51	0x3e012650	0.12612271
52	0x3d75e6f9	0.060034726
53	0x3ca5a76a	0.02022143
54	0x3da42cb6	0.080163404
55	0xbd9f96e1	-0.0779245
56	0x3c9ef02b	0.01940163
57	0xbdc863f8	-0.097846925
58	0xbdade85f	-0.08491587
59	0xbd7efe69	-0.062254343
60	0x3d7f783f	0.062370535
61	0x3d5ba74d	0.053626347
62	0xbd9decdf	-0.07711195
63	0x3d0fe4b4	0.035130218
64	0x3d76dc1f	0.060268518
65	0xbc6427e5	-0.013925527
66	0x3b67011b	0.0035248462
67	0x3cf7f20d	0.030266786
68	0x3da0ad69	0.07845575
69	0x3df3d1de	0.11905263
70	0xbdc87cf4	-0.09789458
71	0xbd3cc8ac	-0.046089813
72	0x3d43bf44	0.047789827
73	0x3dd66940	0.104692936
74	0x3ddc6896	0.10762136
75	0x3de520cf	0.11187898
76	0x3cede17b	0.029038182
77	0xbde37e77	-0.11108106
78	0x3c9858f3	0.018597102
79	0xbd9cd3cd	-0.07657585
80	0xbdf5ad70	-0.11995971
81	0x3de18a95	0.110127605
82	0x3dbfc1af	0.09363114
83	0xbe0044dc	-0.12526268
84	0x3cd21afa	0.025647629
85	0xbcdb3b9e	-0.026761826
86	0xbc6d8717	-0.01449754
87	0xbd6c40a1	-0.057678822
88	0x3d5238b2	0.0513236
89	0xbd91efdc	-0.07125828
90	0x3d2ec697	0.04266986
91	0x3d8587d0	0.06520045
92	0x3dbec213	0.093143605
93	0x3d53644c	0.051609322
94	0xbdfb9b02	-0.12285425
95	0xbda170bb	-0.0788283
96	0x3d78b81b	0.06072245
97	0x3ce5b187	0.028038753
98	0xbdd00de3	-0.10158899
99	0xbd908961	-0.07057453
100	0x3df3ccb7	0.11904281
101	0x3db56e39	0.08858914
102	0xbd660835	-0.05616017
103	0xbd003c97	-0.031307783
104	0xbdf5a686	-0.119946525
105	0xbbba28f6	-0.0056811525
106	0xbdbf3492	-0.09336199
107	0xbdc3c355	-0.09558741
108	0xbba75dba	-0.0051076086
109	0x3c818ed3	0.015815174
110	0xbd40a07d	-0.047028054
111	0x3d985ca2	0.07439543
112	0xbd8aae8d	-0.06771574
113	0x3ddbfa8b	0.10741147
114	0x3db8eafc	0.09029195
115	0xbddb043f	-0.10694169
116	0xbcd555f3	-0.02604196
117	0xb9ef2fce	-0.0004562125
118	0x3cd4b9d1	0.02596751
119	0x3cf553b8	0.029947147
120	0x3d398b21	0.0452987
121	0x3c54a30e	0.012978328
122	0xbd840e8c	-0.06448087
123	0x3d730e1b	0.059339624
124	0xbdf2dffe	-0.11859129
125	0xbd91dc98	-0.07122153
126	0xbd077193	-0.033067297
127	0xbd7aee71	-0.06126255
128	0xbd2e6d46	-0.04258468
129	0xbdd39c5b	-0.10332557
130	0xbcd4e164	-0.02598638
131	0x3cd32b75	0.025777558
132	0xbda34eda	-0.07974024
133	0xbabc6269	-0.001437259
134	0x3db1f7e1	0.08689857
135	0xbc65be34	-0.014022399
136	0x3b1a9942	0.0023589884
137	0xbc3c1718	-0.011480115
138	0x3cd8a93c	0.026447885
139	0x3da30655	0.07960192
140	0x3dffad74	0.124842554
141	0x3da49056	0.080353424
142	0x3def566f	0.11686408
143	0xbc28cfeb	-0.010303478
144	0xbdea3301	-0.114355095
145	0xbd68ae55	-0.05680688
146	0x3da53c1d	0.08068106
147	0xb9a9a131	-0.0003235429
148	0xbd6be2ba	-0.05758927
149	0xbdbcf92e	-0.09227215
150	0xbdf5e192	-0.12005915
151	0xbde2ed4b	-0.11080416
152	0xbc80fb96	-0.015744966
153	0x3d78cf49	0.060744558
154	0x3d95e786	0.0731955
155	0xbdfb8b25	-0.12282399
156	0x3d9a9718	0.0754835
157	0xbdb73882	-0.08946325
158	0xbd061945	-0.032738943
159	0xbd4c2233	-0.049837302
160	0xbc8b5e0a	-0.017012615
161	0xbd054aae	-0.032541923
162	0xbddbb301	-0.10727502
163	0xbde034be	-0.1094756
164	0xbcd75aec	-0.026288472
165	0x3b651257	0.0034953558
166	0xbd64c37b	-0.055850487
167	0x3d439ff1	0.047759954
168	0xbde2ba71	-0.11070717
169	0xbbc48ee2	-0.0059984783
170	0x3dde8637	0.10865443
171	0xbd4da8c9	-0.050209794
172	0x3dfb74bb	0.12278124
173	0x3d3923b2	0.045200057
174	0xbdecc9d8	-0.11561936
175	0x3d99405b	0.07482978
176	0xbc8e8970	-0.01739952
177	0xbd59877b	-0.05310772
178	0x3dcb9cf4	0.09942046
179	0xbdd27712	-0.10276617
180	0x3c1eeabd	0.009699521
181	0xbcc7c40b	-0.024385473
182	0x3db2dc37	0.08733409
183	0x3d1523e8	0.036411196
184	0x3d706413	0.05868919
185	0x3d1f6c5a	0.03892169
186	0xbccd557e	-0.02506518
187	0xbcc88137	-0.024475677
188	0xbdbc426e	-0.09192358
189	0x3d8599e4	0.06523493
190	0x3dd16ee8	0.10226232
191	0x3dad0c1f	0.084495775
192	0xbdc1b2c0	-0.09457922
193	0x3be6c9c2	0.0070430944
194	0xbdb423cd	-0.08795891
195	0xbd862207	-0.06549459
196	0xbda3d3ed	-0.07999406
197	0x3d446a27	0.047952797
198	0xbd9fe0fa	-0.07806583
199	0x3a8215f5	0.0009924757
200	0x3a825609	0.0009943853
201	0x3d9e914b	0.07742556
202	0xbdbd7790	-0.0925132
203	0xbda9a29f	-0.08282971
204	0xbd8505ee	-0.064952716
205	0x3db2e36c	0.087347835
206	0xbd38cc0d	-0.045116473
207	0x3dcdfd06	0.10058026
208	0x3d3be778	0.045875043
209	0x3cbb331e	0.022851523
210	0xbb7a6694	-0.0038208114
211	0xbcca3b25	-0.024686405
212	0x3c2af894	0.010435242
213	0xbd005585	-0.031331558
214	0xbae99bce	-0.0017822923
215	0x3c9309fb	0.017949095
216	0xbdbf535b	-0.09342071
217	0xbd7cfe58	-0.061766
218	0x3dc83c57	0.09777134
219	0xbdd6e0f8	-0.10492128
220	0xbb220387	-0.002472134
221	0x3dff2cbc	0.12459704
222	0x3d347121	0.0440532
223	0xb9cdeb7b	-0.00039276094
224	0xbddfdd26	-0.109308526
225	0x3d8d3b23	0.06896045
226	0xbdbbcd63	-0.09170034
227	0xbd0e35a9	-0.034719143
228	0xbd320df9	-0.043470357
229	0xbcaa406b	-0.02078267
230	0x3b518677	0.0031971016
231	0x3dd3a3c8	0.10333973
232	0x3c8d51f7	0.017250998
233	0x3de86a46	0.11348395
234	0x3da04f55	0.078276314
235	0xbda87e3e	-0.08227204
236	0x3d5472c2	0.051867254
237	0xbdc2d55f	-0.095133536
238	0xbd3f7a41	-0.04674745
239	0x3d203951	0.03911716
240	0x3d15424c	0.03644018
241	0x3dbc2a56	0.091877624
242	0xbd165080	-0.036697865
243	0x3b6ad389	0.0035831651
244	0x3d675733	0.056479644
245	0xbdfe5ad3	-0.12419667
246	0x3db96ee3	0.09054353
247	0xbdcb93fd	-0.09940336
248	0x3c299636	0.0103507545
249	0xbc8bd89d	-0.017071063
250	0xbd8c6910	-0.068559766
251	0x3c7fb9cf	0.015608265
252	0x3dc956d4	0.09831014
253	0xbd256a92	-0.040384836
254	0xbd97a9dd	-0.07405446
255	0xbd36464b	-0.04450063

weight_hh f4 [192, 64]
0	0xbdcc7e88	-0.099850714
1	0xbd1a25c4	-0.037633672
2	0x3d4066c8	0.04697302
3	0xbde1c441	-0.110237606
4	0x3d974819	0.073867984
5	0x3d85a3a0	0.065253496
6	0x3d95be7a	0.07311721
7	0xbdaea97c	-0.0852842
8	0x3dfc7a7d	0.1232805
9	0xbd99da51	-0.07512344
10	0x3e03878b	0.12844674
11	0xbdee0642	-0.11622287
12	0xbddd0180	-0.10791302
13	0x3d9d31d5	0.0767552
14	0x3c9672f6	0.018365365
15	0x3996aca7	0.00028738866
16	0xbd94be80	-0.072628975
17	0xbd479553	-0.04872639
18	0xbcff93f5	-0.031198481
19	0xbdf97193	-0.12179866
20	0xbaa4e053	-0.0012579061
21	0x3c61bab2	0.013777422
22	0xbbc1ca1e	-0.005913987
23	0x3d106df9	0.035261128
24	0x3de6cd1f	0.112695925
25	0x3d1234a2	0.035694726
26	0xbd240c43	-0.040050756
27	0xbd6b7c8f	-0.057491835
28	0xbd9d8702	-0.07691766
29	0xbdb5fe00	-0.08886337
30	0xbc8c0008	-0.017089859
31	0xbccaa759	-0.024738
32	0x3d5c26d6	0.053747974
33	0xbd747611	-0.05968291
34	0x3dbc9853	0.09208741
35	0xbda41b8e	-0.08013068
36	0xbb9486da	-0.004532677
37	0x3dd8c463	0.10584333
38	0x3dfd60fa	0.123720124
39	0xbda0beed	-0.07848916
40	0x3c75dda1	0.015006454
41	0x3c13f85e	0.009031383
42	0xbd62b7b9	-0.055350993
43	0xbd124f15	-0.03571995
44	0x3d254fea	0.040359415
45	0xbdb518fb	-0.08842655
46	0x3cdf6e9b	0.02727442
47	0x3d4b0ae9	0.04957095
48	0xbd387b00	-0.045039177
49	0x3dc88b2d	0.09792171
50	0xbbcdcf35	-0.0062808045
51	0x3d6d974f	0.058005627
52	0x3e010fae	0.12603638
53	0xbd18ac04	-0.037273422
54	0x3d984163	0.074343465
55	0xbd127f72	-0.035766073
56	0xbc4abdee	-0.012374384
57	0xbcb532b4	-0.022118904
58	0x3b74fc6b	0.0037381898
59	0xbd2bba87	-0.041925933
60	0x3d04c4c7	0.032414224
61	0x392a2c07	0.00016228865
62	0x3d9e56e3	0.07731416
63	0xbca0be22	-0.019621912
64	0x3c5dece5	0.01354525
65	0xbd353a0d	-0.044244815
66	0xbdd54f08	-0.10415465
67	0x3d5f700e	0.054550223
68	0x3c916955	0.017750422
69	0xbd5518fe	-0.052025788
70	0xbd2eba62	-0.042658217
71	0x3d01abfd	0.03165816
72	0xbcd4aced	-0.025961364
73	0x3da1f949	0.079088755
74	0x3c172f95	0.009227653
75	0x3d462b81	0.048381332
76	0x3d570175	0.052491624
77	0xbd02a3ac	-0.03189437
78	0x3d61a04d	0.055084515
79	0x3dbe0d49	0.09279878
80	0x3bd7d076	0.00658613
81	0x3cac255f	0.021013914
82	0x3b67d246	0.0035373135
83	0x3dafd7c2	0.085860744
84	0xbd4f5f08	-0.05062774
85	0xbd8490c5	-0.06472925
86	0x3d5ccd6a	0.053906836
87	0xbdd798a0	-0.10527158
88	0x3b4affbf	0.003097519
89	0xbd668465	-0.056278605
90	0x3dabec5e	0.08394693
91	0xbdea2d36	-0.114344046
92	0x3da23d42	0.0792184
93	0x3e01c786	0.12673768
94	0x3cdab03f	0.026695369
95	0xbc1fbb3d	-0.009749231
96	0x3e003de7	0.12523614
97	0xbd5fdf28	-0.054656178
98	0xbc068040	-0.008209288
99	0xbd6fb730	-0.05852431
100	0xbc93c3f4	-0.018037774
101	0x3cfc1462	0.030771438
102	0x3c81c70d	0.015841985
103	0xbcc6122f	-0.024178592
104	0xbdfc0b9a	-0.123069
105	0x3c21ac80	0.009867787
106	0xbb990a8b	-0.0046704463
107	0x3c924b6e	0.017858233
108	0x3dc51d2c	0.09624705
109	0x3dfa1d0b	0.12212571
110	0xbd971371	-0.07376755
111	0xbc328bf9	-0.01089763
112	0xbd52ec68	-0.051494986
113	0xbdeaf171	-0.114718325
114	0xbdb287f4	-0.08717337
115	0x3df4f1b8	0.11960167
116	0x3d938c10	0.07204449
117	0x3d8da123	0.069155
118	0x3d89dec7	0.067319445
119	0xbdd0e950	-0.10200751
120	0x3c55d379	0.013050907
121	0x3df657d5	0.120284714
122	0xbd8e16ad	-0.06937919
123	0x3ddd56fa	0.10807605
124	0x3d0520e8	0.032502085
125	0x3db13c5d	0.086540915
126	0xbd69283c	-0.056923136
127	0x3d622e2f	0.055219825
128	0xbde14d4d	-0.11001072
129	0xbc42dc56	-0.0118933525
130	0x3d15dd81	0.036588196
131	0x3d06a2ae	0.032869987
132	0x3dc8f547	0.09812408
133	0x3df50a29	0.119648285
134	0x3ded65d6	0.11591689
135	0x3db4c1da	0.08826037
136	0x3dbf20ee	0.09332453
137	0xbc823514	-0.01589445
138	0xbdc63bed	-0.09679399
139	0xbd54ff91	-0.05200154
140	0xbca44a9b	-0.020055106
141	0xbd8ca86d	-0.06868062
142	0x3d7c5945	0.06160857
143	0x3d441a97	0.04787692
144	0x3cab17f9	0.020885454
145	0x3ce0a1cb	0.027420899
146	0x3dd38a5c	0.10329124
147	0x3d497015	0.049179155
148	0xbdd56c4f	-0.10421049
149	0xbdaebc5f	-0.08532023
150	0x3d6d0e7f	0.057875153
151	0x3c90b8f3	0.017666316
152	0x3d875fbe	0.06610058
153	0xbdfafdd1	-0.12255443
154	0xbdf66325	-0.12030629
155	0x3da885ee	0.0822867
156	0x3d96897d	0.073504426
157	0xbdef8b05	-0.11696438
158	0x3d42b787	0.047538307
159	0xbdc6570d	-0.09684572
160	0x3db8e68e	0.0902835
161	0x3d32e06e	0.043671064
162	0x3e01e7d9	0.12686099
163	0xbe0127eb	-0.12612884
164	0xbde86927	-0.11348181
165	0x3db24b9b	0.08705827
166	0x3dec7770	0.115462184
167	0x3daa5241	0.0831647
168	0x3db5191b	0.08842679
169	0xbdcda6e0	-0.100415945
170	0x3dbf24e6	0.0933321
171	0xbdf9b0d2	-0.12191929
172	0x3cc246c4	0.023715384
173	0xbda00caf	-0.07814919
174	0xbd5b7095	-0.053574163
175	0x3cce77b4	0.025203563
176	0xbd636f56	-0.0555261
177	0xbc627500	-0.01382184
178	0xbe002824	-0.12515312
179	0xbdef8f74	-0.116972834
180	0x3d46faf9	0.04857919
181	0xbd6cd06c	-0.057815954
182	0xbda66a03	-0.08125689
183	0xbd460a17	-0.048349466
184	0xbdde971e	-0.10868667
185	0xbdd647de	-0.10462926
186	0x3d96d634	0.07365075
187	0x3d6eca08	0.05829814
188	0x3c9fccf3	0.019506907
189	0xbd821875	-0.06352321
190	0x3d3b6d06	0.04575827
191	0x38c7a240	9.519281e-05
192	0xbdb6cc1d	-0.0892565
193	0x3ce13fa9	0.027496176
194	0x3deb8f62	0.115019575
195	0xbdfa1782	-0.12211515
196	0xbdfc52d2	-0.12320484
197	0x3c930bea	0.017950017
198	0x3dc1755e	0.09446214
199	0xbd9c99c1	-0.07646514
200	0x3cd8d6b6	0.02646957
201	0x3db4cd1c	0.08828184
202	0x3d1a03b4	0.037601188
203	0x3ce51bbd	0.027967328
204	0x3e01df77	0.12682901
205	0x3da7b4f0	0.08188808
206	0xbd91916a	-0.07107814
207	0x3c285360	0.010273784
208	0x3d830ddd	0.063991286
209	0x3de3e2b8	0.111272275
210	0xbdfb2bbe	-0.122642025
211	0x3d882c55	0.06649081
212	0xbd1a12f6	-0.03761574
213	0xbdfd10e6	-0.12356739
214	0x3ce56b07	0.028005136
215	0xbd8b4095	-0.067994274
216	0x3c8b6bd8	0.017019197
217	0xbda8edda	-0.082484916
218	0xbdbfd54c	-0.09366855
219	0xbc4787ae	-0.012178345
220	0xbd25d192	-0.040483065
221	0x3d97a897	0.07405203
222	0x3c2596b2	0.010106729
223	0x3dc8f92d	0.098131515
224	0x3cc8510b	0.024452707
225	0xbd26ab1c	-0.040690526
226	0x3dad43d0	0.084602
227	0x3bedca97	0.0072568166
228	0x3cb03756	0.021510761
229	0xbd266a4b	-0.040628713
230	0xba61ffe1	-0.0008621198
231	0xbcd1d3b0	-0.025613636
232	0xbc423e24	-0.011855636
233	0xbdca9d39	-0.09893269
234	0xbaf2f646	-0.001853653
235	0xbdd3898a	-0.10328968
236	0xbcd9c23b	-0.026581874
237	0x3d91dc51	0.071221
238	0xbdb20443	-0.08692219
239	0xbdabdf93	-0.08392253
240	0xbcecef09	-0.028922575
241	0xbd12815f	-0.03576791
242	0x3cbafe01	0.022826197
243	0x3ca2ff8b	0.019897243
244	0x3d81838a	0.06323917
245	0xbdae8d02	-0.08522989
246	0xbc009934	-0.0078490265
247	0x3d8fbd02	0.07018472
248	0x3de1c9d3	0.11024823
249	0xbc057e2e	-0.008147759
250	0xbd95832c	-0.0730041
251	0x3d1b57e9	0.037925635
252	0x3d8e8535	0.06959001
253	0xbda1ee74	-0.079068094
254	0xbd9521bd	-0.07281826
255	0x3d67d97e	0.0566039

bias_ih f4 [192]
0	0xbd5acee9	-0.05341998
1	0xbda0e653	-0.07856431
2	0x3b257b00	0.0025250316
3	0xbd567bca	-0.05236415
4	0x3d540c9d	0.05176984
5	0xbd317b1d	-0.0433303
6	0xbd03d876	-0.032188855
7	0x3dee703a	0.11642499
8	0xbd810684	-0.06300071
9	0xbde5bc3c	-0.112175435
10	0x3c95d0ed	0.0182881
11	0xbdb4f31a	-0.088354304
12	0xbd302f27	-0.043013718
13	0xbdba8fae	-0.09109436
14	0xbdbf424f	-0.09338819
15	0x3c8b10f7	0.016975863
16	0x3d4db9a0	0.050225854
17	0xbd0661f6	-0.032808267
18	0xbdf7fce1	-0.1210878
19	0xbdc6c069	-0.09704668
20	0xbc37155b	-0.011174525
21	0x3d7d6ba6	0.06187024
22	0xbcf9b654	-0.030482449
23	0x3d6eca3f	0.058298346
24	0x3cc1a748	0.023639336
25	0x3de20d22	0.11037661
26	0x3d4d3285	0.050097007
27	0x3cd97479	0.026544796
28	0xbd737425	-0.059436936
29	0xbb37aa07	-0.0028024928
30	0x3dd3caf0	0.10341442
31	0x3d243153	0.0400861
32	0xbda51366	-0.080603406
33	0x3dc9ca6b	0.09853061
34	0x3d86ebef	0.065879695
35	0xbd8138f1	-0.06309689
36	0x3c28f5b9	0.010312491
37	0x3d3ee7fd	0.04660796
38	0x3d72b45a	0.059254028
39	0xbc8c6ff8	-0.017143235
40	0x3b89b44a	0.0042024003
41	0x3d9956f1	0.07487286
42	0xba327f38	-0.0006809118
43	0xbd57bffa	-0.052673317
44	0x3db90a80	0.09035206
45	0x3db41f00	0.08794975
46	0xbd3c139e	-0.045917146
47	0xbdd48456	-0.103768036
48	0xbd781af3	-0.060572576
49	0xbdbce9bf	-0.09224271
50	0xbcc89bdc	-0.024488382
51	0xbdda19e6	-0.10649471
52	0xbdc1debe	-0.09466313
53	0x3d054245	0.032533903
54	0xbc7b0c99	-0.015322828
55	0xbc87382e	-0.01650628
56	0x3ca58216	0.020203631
57	0x3d18f12d	0.03733938
58	0x3db7759e	0.089579806
59	0xbc61ff05	-0.013793712
60	0xbba98564	-0.005173372
61	0xbdf94937	-0.12172168
62	0xbde246de	-0.11048673
63	0xbdb264d1	-0.087106355
64	0x3d712753	0.058875393
65	0x3d8bec15	0.068321384
66	0x3d3cf61e	0.046133153
67	0x3d854f80	0.06509304
68	0xbcbb37ee	-0.022853818
69	0xbda56cd4	-0.08077398
70	0x3dbd0689	0.09229762
71	0xbd0b5dbc	-0.03402494
72	0xbca16504	-0.019701488
73	0xbd97afed	-0.07406602
74	0x3dba0460	0.09082866
75	0x3dcd2681	0.1001711
76	0xbd621043	-0.05519129
77	0x3de33e67	0.11095887
78	0x3db239f9	0.08702464
79	0x3cfb9083	0.030708557
80	0xbd69e3fe	-0.057102196
81	0xbdaa0010	-0.08300793
82	0x3c8146f9	0.015780913
83	0x3d6fefb2	0.0585782
84	0xbdab2daf	-0.08358323
85	0x3dc32848	0.095291674
86	0x3daae029	0.083435364
87	0x3b120b73	0.0022284656
88	0xbdfc688b	-0.123246275
89	0xbdc7b048	-0.0975042
90	0x3dbad831	0.091232665
91	0x3c110acd	0.008852673
92	0xbc8c0c20	-0.017095625
93	0xbda5ac27	-0.08089476
94	0xbd59a6bf	-0.053137537
95	0x3dd6726e	0.104710445
96	0x3d73dfd9	0.05953965
97	0x3c33087f	0.010927319
98	0x3dcd5aee	0.10027109
99	0xbda67c1a	-0.08129139
100	0xbd28c3e5	-0.041202445
101	0x3d225db4	0.039640144
102	0xbdbad4f7	-0.09122651
103	0x3dedebd1	0.11617244
104	0x3da50cc2	0.08059074
105	0x3ca9e337	0.020738227
106	0xbdc60167	-0.09668236
107	0x3dac6609	0.08417899
108	0xbd536af1	-0.05161566
109	0xbcc77da6	-0.024351906
110	0x3dd495a1	0.10380102
111	0xbd0f6fa1	-0.035018567
112	0x3de47d83	0.11156752
113	0xbc06a114	-0.008217115
114	0xbda45d3e	-0.08025597
115	0xbce8eb1f	-0.028432427
116	0xbde9ca94	-0.11415592
117	0x3da266c0	0.07929754
118	0x3d7067e9	0.058692846
119	0x3ce10857	0.027469797
120	0xbddb82ba	-0.107182935
121	0x3d3c141e	0.045917623
122	0x3da1c2a8	0.07898456
123	0x3de19c2a	0.11016114
124	0xbd6d1b4c	-0.05788736
125	0x3d4d2db1	0.050092403
126	0x3d639dc1	0.055570368
127	0xbc772ad6	-0.0150858965
128	0x3b47a7e4	0.003046506
129	0x3da3596d	0.07976041
130	0x3ba886f9	0.005143043
131	0xbd1ff661	-0.039053325
132	0x3d659833	0.05605335
133	0x3c4ff261	0.012692065
134	0xbd3e202b	-0.046417397
135	0xbc7f9e78	-0.015601747
136	0x3d9ad83c	0.07560775
137	0x3e06ceb2	0.13164786
138	0xbd0cccf0	-0.03437513
139	0x3db414c0	0.0879302
140	0x3df41abf	0.11919164
141	0x3da5b33f	0.08090829
142	0x3d54df7f	0.051970955
143	0xbde59d98	-0.11211699
144	0xbd4cba58	-0.0499824
145	0xbd566c4f	-0.052349385
146	0x3dfb2675	0.122631945
147	0x3c2695ad	0.010167521
148	0xbddd0fad	-0.107940055
149	0xbde487ee	-0.11158739
150	0xbdda63d9	-0.10663576
151	0xbda83e66	-0.082150266
152	0xbda1070f	-0.078626744
153	0xbd91dd90	-0.07122338
154	0x3dc76088	0.09735209
155	0xbd6e7109	-0.058213267
156	0x3ddf7025	0.10910062
157	0xbca769df	-0.020436225
158	0xbdcd3fed	-0.100219585
159	0xbd2ab82a	-0.04167954
160	0xbd568883	-0.05237628
161	0xbdad942b	-0.084755264
162	0xbdec0414	-0.11524215
163	0x3c3a7761	0.011381001
164	0xbdd3c7f1	-0.1034087
165	0xbd23c8dc	-0.039986476
166	0xbcd6bd69	-0.026213365
167	0xbd93d313	-0.072179936
168	0xbc5dd95c	-0.013540592
169	0xbdbdd13d	-0.09268425
170	0xbd3034d7	-0.043019142
171	0x3df1ef61	0.11813236
172	0x3df98c0e	0.121849164
173	0x3c4de40f	0.01256658
174	0x3ce57058	0.028007671
175	0x3dd10297	0.10205572
176	0x3df462eb	0.119329296
177	0xbd629644	-0.055319086
178	0x3c766a36	0.015039971
179	0xbca212aa	-0.01978429
180	0xbdbcef33	-0.09225311
181	0x3df132c4	0.11777261
182	0x3dc4de02	0.09612657
183	0x3bd2ebfd	0.0064368234
184	0x3dd5e8b1	0.10444773
185	0x3d191369	0.037372027
186	0x3d9c12d5	0.076207794
187	0x3d53e1fe	0.051729195
188	0x3d69e489	0.057102714
189	0x3d520456	0.051273666
190	0x3d5b20d0	0.05349809
191	0x3dea8093	0.11450305

bias_hh f4 [192]
0	0x3d660423	0.05615629
1	0xbda66465	-0.081246175
2	0x3d236fee	0.039901666
3	0x3e017f83	0.12646298
4	0x3de5f9db	0.11229297
5	0x3da8a8bf	0.08235311
6	0xbd3d521e	-0.04622089
7	0x3e036aa3	0.12833647
8	0x3cba3187	0.022728695
9	0xbd92368c	-0.0713931
10	0xbb6f03f2	-0.0036470857
11	0x3dc66704	0.096876174
12	0xbdf28fb1	-0.11843813
13	0xbca86af0	-0.020558804
14	0x3db6be5f	0.08923029
15	0xbceaf2b9	-0.028680192
16	0xbd699b44	-0.05703284
17	0xbd0c8802	-0.034309395
18	0x3d247d14	0.040158346
19	0xbdbb159b	-0.0913498
20	0x3c527839	0.012846046
21	0x3d00b7fa	0.031425454
22	0x3d08638d	0.033298064
23	0x3b157a5b	0.0022808525
24	0x3d73f144	0.05955626
25	0xbbd55dee	-0.0065114414
26	0x3dbbfe31	0.091793425
27	0x3db6b3dc	0.08921024
28	0xbda4ce16	-0.0804712
29	0xbc7f7146	-0.015590971
30	0x3dc5bcac	0.09655127
31	0xbc97c40c	-0.0185261
32	0xbd13bea5	-0.036070485
33	0xbc114ec5	-0.008868878
34	0xbcf5f5fa	-0.030024517
35	0xbd1a5b41	-0.037684683
36	0x3ceec72c	0.029147707
37	0x3ddf9e89	0.1091891
38	0x3cd2221a	0.025651027
39	0x3d91e90f	0.071245305
40	0x3dd6249d	0.10456202
41	0xbda65a85	-0.08122734
42	0xbdbafb2a	-0.09129937
43	0xbc42a04d	-0.011879039
44	0x3d0e8519	0.0347949
45	0xbc8d9a65	-0.017285535
46	0xbd590042	-0.05297876
47	0xbd9d13b2	-0.07669772
48	0x3b5a2b05	0.0033289802
49	0x3dba6ef1	0.09103192
50	0x3a81a2c0	0.0009890422
51	0x3dfa1138	0.122103155
52	0xbd7864ec	-0.06064312
53	0x3ddf68f7	0.10908692
54	0xbda6b1ed	-0.081394054
55	0x3dcba102	0.09942819
56	0x3c719896	0.014745852
57	0x3dfb83cc	0.12280998
58	0x3df2a412	0.118477
59	0xbd255c2e	-0.040371113
60	0xbbf0a768	-0.007344175
61	0xbd208f68	-0.039199263
62	0x3d1a9c74	0.03774686
63	0xbd82e1ba	-0.0639071
64	0xbd15003b	-0.036377173
65	0xbd8f6651	-0.07001937
66	0x3da12899	0.078690715
67	0x3dc59c64	0.0964897
68	0x3c1fa105	0.00974298
69	0xb99e6f26	-0.0003021892
70	0xbdba6d55	-0.09102885
71	0xbdf38eae	-0.11892448
72	0xbdc0c251	-0.09412063
73	0xbdb52529	-0.08844978
74	0xbdc6db10	-0.097097516
75	0x3d81ffd3	0.06347623
76	0xbdb92942	-0.090410724
77	0x3d8184d1	0.06324161
78	0x3db87a1b	0.09007665
79	0xbba17044	-0.004926713
80	0x3d032e4d	0.032026578
81	0x3da1933c	0.07889411
82	0xbdec1a3d	-0.11528442
83	0x3de3fb41	0.11131907
84	0x3df896b5	0.1213812
85	0x3df6960e	0.120403394
86	0xbd2f46f8	-0.04279229
87	0x3d9d5256	0.0768172
88	0xbd3581c5	-0.04431321
89	0x3ca0b27d	0.01961636
90	0x3ddc1483	0.107461
91	0x3cbcf4a6	0.023065876
92	0x3d49390d	0.049126673
93	0xbd0adfdb	-0.03390489
94	0xbd5e20ef	-0.054230627
95	0x3dd16462	0.102242246
96	0xbde6f9a4	-0.11278084
97	0x3cbbc143	0.022919303
98	0xbbeb8d75	-0.007188494
99	0xbd324b50	-0.043528855
100	0xbdf80b0c	-0.12111482
101	0xbda1d60b	-0.079021536
102	0xbd8a177b	-0.0674276
103	0x3cc79ea1	0.024367632
104	0x3d462f98	0.048385233
105	0xbde8e5b7	-0.1137194
106	0xbd3bf23d	-0.045885313
107	0xbe03ad35	-0.12859042
108	0x3da23b6f	0.07921492
109	0xbdf477af	-0.1193689
110	0xbc8c51e0	-0.017128885
111	0xbcd0c130	-0.025482744
112	0xbd9ac8c9	-0.07557828
113	0x3dc18fe2	0.094512716
114	0x3d44dfae	0.04806488
115	0x3d850939	0.064959
116	0x3db930ce	0.09042512
117	0xbd73119c	-0.059342965
118	0x3d752c41	0.059856657
119	0x3dd8b01b	0.105804645
120	0xbcd888c1	-0.026432397
121	0xbb9687d1	-0.0045938273
122	0x3ca26482	0.019823316
123	0xbdf59d18	-0.11992854
124	0xbc97cd27	-0.018530441
125	0xbc7875df	-0.015164821
126	0xbdc01dad	-0.0938066
127	0x3dbcc19e	0.09216617
128	0xbdf25713	-0.11833014
129	0xbd4b3855	-0.04961427
130	0x3d8c9c4a	0.06865747
131	0x3c8fa54e	0.017534878
132	0x3d701389	0.05861238
133	0x3c23e255	0.010002692
134	0xbdf79ea5	-0.12090806
135	0xbdbd33f4	-0.09238425
136	0xbd21ff55	-0.039550144
137	0xbd9c3135	-0.07626573
138	0xbda2a872	-0.07942285
139	0xbd4b0f68	-0.04957524
140	0x3de1b880	0.11021519
141	0x3dd5fcf7	0.1044864
142	0x3c810aa6	0.015752148
143	0xbdb23912	-0.087022915
144	0xbd89ea25	-0.06734113
145	0x3df9814f	0.12182867
146	0x3c85f869	0.016353803
147	0x3b8ccd9f	0.004296973
148	0xbd94b440	-0.072609425
149	0xbd83d36f	-0.06436812
150	0x3d7ead11	0.062176768
151	0xbb1376e9	-0.0022501296
152	0xbc869330	-0.016427606
153	0xbd87fd5a	-0.0664012
154	0xbdb47b16	-0.08812539
155	0xbdb33575	-0.087504305
156	0xbe03f8af	-0.12887834
157	0x3dfb4ac3	0.12270119
158	0x3c9d026c	0.019166194
159	0x3cb256ea	0.02176996
160	0x3dc68401	0.096931465
161	0x3d8283ce	0.06372796
162	0xbc8c8829	-0.01715477
163	0x3dad5621	0.084636934
164	0xbb85cbb9	-0.0040831235
165	0xbe00e006	-0.12585458
166	0x3ddd3482	0.10801031
167	0xbd9683fe	-0.07349394
168	0xbdd36839	-0.10322613
169	0xbccbbf4f	-0.024871496
170	0x3ce90435	0.028444389
171	0x3dd9a2bc	0.10626742
172	0xbdf04455	-0.11731783
173	0xbdea53b7	-0.114417486
174	0xbdac2c67	-0.084069066
175	0xbda72f98	-0.08163375
176	0x3dfa8e6e	0.122341976
177	0x3a986f69	0.0011629883
178	0x3daf8856	0.08570926
179	0x3d21d706	0.039511703
180	0x3d88d50c	0.066812605
181	0xbd6d9e59	-0.05801234
182	0x3d51bcb4	0.051205352
183	0x3d3e57a5	0.046470303
184	0x3d36ff24	0.044676915
185	0xbdb8acaf	-0.09017312
186	0xbd4ac54a	-0.049504556
187	0x3dd73810	0.1050874
188	0xbcf064b1	-0.029344888
189	0xbdac96b8	-0.08427185
190	0xbdebbc81	-0.11510564
191	0xbca78b75	-0.02045224

weight f4 [5, 64]
0	0x3d8be25a	0.068302825
1	0xbd07dbb6	-0.033168517
2	0x3da19d42	0.07891323
3	0x3d663363	0.05620135
4	0xbde1137b	-0.10990044
5	0x3ba0e84f	0.004910506
6	0x3dfe6386	0.12421326
7	0x3db2b3d0	0.08725703
8	0xbd36ce6c	-0.044630453
9	0xbdc0324f	-0.093845956
10	0x3cdd48e1	0.02701229
11	0x3d5544c1	0.052067522
12	0xbce717ec	-0.028209649
13	0xbddd9843	-0.10820057
14	0x3de53f62	0.1119373
15	0x3d91f6ca	0.071271494
16	0xbdee8174	-0.11645785
17	0x3b86d297	0.0041144597
18	0xbd1a43b9	-0.03766224
19	0x3de318e4	0.11088732
20	0x3d9d56a6	0.076825425
21	0x3d336121	0.0437938
22	0xbcd3ab4a	-0.025838513
23	0xbdaeb814	-0.08531204
24	0x3d492f54	0.0491174
25	0x3d48bedb	0.04901014
26	0xbc03dd6b	-0.008048396
27	0x3df42c4f	0.11922514
28	0x3d8632d1	0.06552661
29	0xbdc7883f	-0.09742784
30	0xbc618078	-0.0137635395
31	0xbd41a2e3	-0.04727448
32	0x3a2cfa13	0.0006598543
33	0x3cab2b45	0.020894656
34	0x3cd25ffa	0.02568053
35	0x3d872da0	0.06600499
36	0x3dc37424	0.095436364
37	0x3c5f3ea9	0.013625779
38	0xbd3f66d7	-0.046728935
39	0xbd52d972	-0.051476903
40	0x3d995ca9	0.07488377
41	0x3d57f601	0.052724842
42	0x3dcf5578	0.10123724
43	0xbdedfb2a	-0.11620171
44	0xbddaaf1f	-0.10677933
45	0xbd9ead4e	-0.07747899
46	0x3d3b9305	0.045794506
47	0x3dd4d519	0.10392208
48	0xbc86f6cd	-0.016475106
49	0xbdc1617e	-0.09442423
50	0x3c89a2ff	0.016801355
51	0xbdddb95c	-0.1082637
52	0x3d9867df	0.07441687
53	0xbdc93fba	-0.09826608
54	0x3c0856e6	0.008321499
55	0x3b95ecaf	0.004575334
56	0x3d586d5f	0.05283868
57	0xbdade3f8	-0.08490747
58	0x3d3ec36c	0.046573088
59	0xbb500d4c	-0.0031746207
60	0x3c0069a6	0.007837689
61	0xbd9fdb21	-0.078054674
62	0x3df994b9	0.1218657
63	0xbd0059a2	-0.03133548
64	0xbd8f81cf	-0.07007181
65	0xbd0b1ede	-0.033964984
66	0xbd011e47	-0.031523015
67	0x3e05fd33	0.13084869
68	0x3dc6980a	0.09696968
69	0x3ada2c5c	0.00166453
70	0x3df8ee87	0.121548705
71	0xbbe10705	-0.006867292
72	0x3be20c41	0.0068984334
73	0x3c88817b	0.016663304
74	0xbba67e83	-0.0050809993
75	0xbdb85c36	-0.09001963
76	0x3d1ab733	0.03777237
77	0xbc829191	-0.015938552
78	0x3d54d14c	0.051957414
79	0x3d8e8148	0.06958252
80	0x3dc1697e	0.09443949
81	0x3d09d05b	0.03364597
82	0x3c27efb7	0.010250024
83	0xbd6db3dd	-0.05803286
84	0x3de15aae	0.11003624
85	0xbdeac5dd	-0.11463521
86	0xbd8b6c62	-0.06807782
87	0x3c9756be	0.01847398
88	0x3d679efb	0.0565481
89	0x3d9e5d91	0.0773269
90	0xbdd7ea42	-0.10542728
91	0x3d1a0bfe	0.037609093
92	0xbdc7075f	-0.09718203
93	0x3db76e72	0.08956613
94	0xbdcf854d	-0.10132847
95	0x3cbac2d3	0.022797978
96	0x3cac5e08	0.021040931
97	0xbd0bd55c	-0.034139022
98	0x3d685fbf	0.056731936
99	0x3dba8b49	0.09108598
100	0x3d189a32	0.037256427
101	0x3ce7005f	0.02819842
102	0x3dec2e9a	0.11532326
103	0x3de510c7	0.11184841
104	0xbdb5e17c	-0.08880898
105	0x3de85db6	0.11345999
106	0x3dea5533	0.11442032
107	0xb91fc959	-0.0001523843
108	0x3d3b6038	0.04574606
109	0xbd5d1969	-0.05397931
110	0xbd289811	-0.041160647
111	0x3c62438e	0.013810052
112	0xbd61d1a2	-0.055131562
113	0x3ce118ca	0.02747764
114	0x3d71ca46	0.059030794
115	0x3d964f82	0.07339384
116	0xbda8e482	-0.082467094
117	0xbd7e0626	-0.062017582
118	0xbc8f409c	-0.017486863
119	0x3d3a2be1	0.045452002
120	0xbd3a14d6	-0.045430027
121	0xbd6c1823	-0.057640206
122	0xbcf1f16a	-0.02953406
123	0x3d33592a	0.043786205
124	0x3b2b6c8c	0.0026157228
125	0xbd20ba91	-0.039240424
126	0x3ccc9d21	0.024977269
127	0xbdb69bb1	-0.089164145
128	0xbe043c8b	-0.1291372
129	0x3d80203c	0.06256148
130	0x3deb7370	0.11496627
131	0xbc533ca9	-0.0128928805
132	0x3d800b58	0.06252164
133	0x3dace5ec	0.084422916
134	0x3dcf4df8	0.10122293
135	0x3c0891b4	0.00833552
136	0xbb6be20b	-0.0035992886
137	0xbde78ea0	-0.113065004
138	0xbbcea544	-0.0063063223
139	0xbd227bc2	-0.039668806
140	0xbbdabf49	-0.006675635
141	0x3dfc2135	0.12311021
142	0xbd16c75a	-0.03681121
143	0xbddcad0e	-0.10775195
144	0x3dd9e9e2	0.10640313
145	0x3bfd0e1b	0.007722629
146	0xbda6e451	-0.08149017
147	0x3c6a43c6	0.014298385
148	0xbc0d0233	-0.008606481
149	0x3d0ea869	0.034828577
150	0x3de090b8	0.10965103
151	0xbd9a2dce	-0.07528268
152	0xbd9b8f1e	-0.07595657
153	0xbc199cbd	-0.009375748
154	0x3d9269ee	0.07149111
155	0x3dfccade	0.12343381
156	0xbdb0ca56	-0.086323425
157	0xbd8ef6a2	-0.06980635
158	0xbb944263	-0.0045245155
159	0xbddb9dcd	-0.107234575
160	0xbcaccd57	-0.021094007
161	0x3dbba1b8	0.09161705
162	0x3dd8e5cb	0.105907045
163	0x3dcdd2cc	0.10049972
164	0xbc943d61	-0.018095674
165	0xbd8abd45	-0.067743815
166	0x3dd19330	0.10233152
167	0xbd15a185	-0.03653099
168	0xbaea71f1	-0.001788674
169	0x3de36ad9	0.11104364
170	0xbbb28524	-0.0054480005
171	0x3dcd0f21	0.10012651
172	0xbd87d722	-0.0663283
173	0x3c108a8a	0.008822093
174	0x3e041c40	0.12901402
175	0x3b03c74e	0.0020107809
176	0xbdaa393f	-0.083117
177	0x3ccddafe	0.025128838
178	0xbd8d2064	-0.06890944
179	0x3d8281e7	0.06372433
180	0x3dc5492f	0.09633099
181	0xbccef000	-0.025260925
182	0x3da2073c	0.07911536
183	0x3dd29c02	0.102836624
184	0x3db46532	0.08808364
185	0x3d87b6c5	0.066266574
186	0xbde213c6	-0.11038928
187	0xbdcba100	-0.09942818
188	0x3ddda424	0.10822323
189	0x3d5223f0	0.051303804
190	0xbdc1ceec	-0.09463295
191	0x3dde338d	0.10849676
192	0x3c14471e	0.009050159
193	0xbdde1a28	-0.10844833
194	0xbd45fb4d	-0.048335362
195	0xbdd1d5fb	-0.10245892
196	0xbd213954	-0.039361313
197	0xbc57bc95	-0.01316752
198	0xbc433f30	-0.011916921
199	0xbcabf21a	-0.020989466
200	0xbc79b2a7	-0.015240348
201	0x3dcb5d4b	0.099299036
202	0x3db1e9c8	0.08687168
203	0xbde0a8fb	-0.109697305
204	0x3cfbc26f	0.030732362
205	0xbd82be47	-0.06383949
206	0xbcab1425	-0.02088363
207	0xbd4d36ba	-0.05010102
208	0xbd8076e3	-0.06272676
209	0xbd8e768f	-0.06956207
210	0xbdf56c8c	-0.11983594
211	0xbd4ead2f	-0.05045813
212	0xbcc4fc42	-0.024046067
213	0xbdeaa0c3	-0.11456444
214	0x3d1bbc44	0.03802134
215	0xbd8499f7	-0.06474679
216	0xbd1be8b1	-0.03806371
217	0x3d4f5d87	0.050626304
218	0x3dfd85e7	0.123790555
219	0x3d6c47bf	0.05768561
220	0xbdb623ac	-0.088935226
221	0x3dc20197	0.094729595
222	0xbc465cfd	-0.012107131
223	0x3d317bb9	0.04333088
224	0xbd95325d	-0.07284997
225	0x3dee15b6	0.11625235
226	0xbda44a48	-0.080219805
227	0x3d9acb8f	0.07558357
228	0x3dcf7388	0.10129458
229	0x3c61b3e0	0.013775796
230	0x3dc58460	0.09644389
231	0x3d91140c	0.07083902
232	0xbc99c526	-0.018770766
233	0x3c80ac6f	0.015707223
234	0x3a7ea8ad	0.00097144657
235	0xbca1a9e8	-0.019734338
236	0xbddf2fc9	-0.10897786
237	0x3d8d05c5	0.06885866
238	0xbdf5bde5	-0.1199911
239	0x3d2d4ecb	0.04231147
240	0xbd2d0945	-0.04224517
241	0x3ba07fb5	0.0048980364
242	0xbcb0e705	-0.021594534
243	0xbd8b2336	-0.06793825
244	0xbd4f6ee0	-0.050642848
245	0xbde05d17	-0.109552555
246	0xbd94ff3a	-0.07275243
247	0x3d8312e2	0.06400086
248	0x3dd95a1e	0.106128916
249	0xbdeb9829	-0.115036316
250	0xbcdf45ed	-0.027255023
251	0x3c34e6c1	0.011041344
252	0xbd8ef12b	-0.06979593
253	0x3ca6245f	0.020281015
254	0xbc852d8f	-0.016257076
255	0x3cb5d7b1	0.022197576

bias f4 [5]
0	0x3da18246	0.07886176
1	0xbdbfc300	-0.09363365
2	0xbda5bcd7	-0.08092659
3	0xbc9e16a9	-0.019297915
4	0x3c0162eb	0.007897119

welford_state_mean f4 [4]
0	0x3eccccce	0.40000004
1	0x3f20473c	0.62608695
2	0x3f0356d0	0.5130434
3	0x3f12ebf7	0.57391304

welford_state_mean_diff f4 [4]
0	0x41e01896	28.012005
1	0x41d7dbe5	26.98237
2	0x41e62609	28.768572
3	0x41e241ae	28.28207

hidden f4 [6, 64]
0	0xbceaf1c3	-0.028679734
1	0x3b55d88e	0.0032630297
2	0x3e50d04a	0.20391956
3	0x3dad79cb	0.08470496
4	0xbd7655d5	-0.06014045
5	0x3eaeaa7a	0.34114438
6	0x3c99dc7e	0.018781897
7	0x3dfc6ea7	0.12325793
8	0xbdb90c98	-0.09035605
9	0x3ea480ba	0.3212946
10	0xbd88c43c	-0.06678054
11	0xbd9b2793	-0.075759076
12	0x3eb10a79	0.34578303
13	0x3dbbe951	0.09175361
14	0xbe96f7e6	-0.29486006
15	0xbe479dc4	-0.19493777
16	0xbdaf9ade	-0.085744604
17	0x3e586c6e	0.21135113
18	0x3e004ef1	0.12530114
19	0xbd809870	-0.06279075
20	0xbe8c8c0c	-0.27450597
21	0xbef6c5bd	-0.48197737
22	0x3d2979b1	0.04137582
23	0x3a81942e	0.000988608
24	0xbadbc373	-0.0016766622
25	0xbe8a4dd7	-0.27012512
26	0xbda9836c	-0.0827702
27	0xbe05ec0c	-0.13078326
28	0x3e099fd8	0.13439882
29	0x3c7373a7	0.014859117
30	0xbcbbe4c0	-0.022936225
31	0x3e2a42cf	0.16627048
32	0x3d971a4e	0.07378064
33	0xbddf1a82	-0.10893728
34	0x3cb693b9	0.022287237
35	0x3e579c95	0.21055825
36	0xbe809662	-0.25114733
37	0xbdded18a	-0.1087981
38	0xbe335884	-0.17514235
39	0xbe254619	-0.16140021
40	0xbeadce13	-0.33946285
41	0xbe24fc54	-0.1611188
42	0xbdf6e1eb	-0.12054809
43	0x3e74c327	0.2390257
44	0x3ddc6f7d	0.10763452
45	0xbdb33a5f	-0.08751368
46	0x3d090714	0.033454016
47	0x3dfa9557	0.122355156
48	0x3e13ac23	0.14421134
49	0xbd5a4873	-0.05329175
50	0x3e671c3c	0.22569364
51	0xbe823c9f	-0.25436875
52	0x3dde1997	0.108447246
53	0x3e05d197	0.13068233
54	0x3d0049eb	0.031320494
55	0x3c90a8f2	0.017658684
56	0x3eb3cbc5	0.351164
57	0x3dc70813	0.09718337
58	0xbdcf3eb9	-0.10119385
59	0x3e8ae0a6	0.27124518
60	0xbe68bee0	-0.22729063
61	0x3c9004f3	0.017580485
62	0xbd8bacb2	-0.068200484
63	0x3d9b9acd	0.07597885
64	0xbceaf1c4	-0.028679736
65	0x3b55d883	0.0032630272
66	0x3e50d04a	0.20391956
67	0x3dad79cb	0.08470496
68	0xbd7655d3	-0.060140442
69	0x3eaeaa7a	0.34114438
70	0x3c99dc7a	0.01878189
71	0x3dfc6ea7	0.12325793
72	0xbdb90c98	-0.09035605
73	0x3ea480ba	0.3212946
74	0xbd88c43b	-0.06678053
75	0xbd9b2791	-0.07575906
76	0x3eb10a79	0.34578303
77	0x3dbbe94f	0.091753595
78	0xbe96f7e6	-0.29486006
79	0xbe479dc5	-0.19493778
80	0xbdaf9adf	-0.08574461
81	0x3e586c6e	0.21135113
82	0x3e004ef1	0.12530114
83	0xbd809870	-0.06279075
84	0xbe8c8c0c	-0.27450597
85	0xbef6c5bd	-0.48197737
86	0x3d2979b4	0.04137583
87	0x3a819418	0.0009886054
88	0xbadbc373	-0.0016766622
89	0xbe8a4dd7	-0.27012512
90	0xbda98369	-0.082770176
91	0xbe05ec0c	-0.13078326
92	0x3e099fd8	0.13439882
93	0x3c7373a3	0.014859113
94	0xbcbbe4c0	-0.022936225
95	0x3e2a42cf	0.16627048
96	0x3d971a4e	0.07378064
97	0xbddf1a82	-0.10893728
98	0x3cb693bb	0.02228724
99	0x3e579c94	0.21055824
100	0xbe809662	-0.25114733
101	0xbdded18c	-0.10879812
102	0xbe335885	-0.17514236
103	0xbe254619	-0.16140021
104	0xbeadce13	-0.33946285
105	0xbe24fc54	-0.1611188
106	0xbdf6e1eb	-0.12054809
107	0x3e74c327	0.2390257
108	0x3ddc6f80	0.107634544
109	0xbdb33a60	-0.087513685
110	0x3d090713	0.033454012
111	0x3dfa9558	0.12235516
112	0x3e13ac22	0.14421132
113	0xbd5a4874	-0.053291753
114	0x3e671c3c	0.22569364
115	0xbe823ca0	-0.25436878
116	0x3dde1998	0.10844725
117	0x3e05d197	0.13068233
118	0x3d0049ec	0.031320497
119	0x3c90a8f2	0.017658684
120	0x3eb3cbc5	0.351164
121	0x3dc70811	0.097183354
122	0xbdcf3eb9	-0.10119385
123	0x3e8ae0a6	0.27124518
124	0xbe68bee0	-0.22729063
125	0x3c9004f1	0.017580481
126	0xbd8bacb2	-0.068200484
127	0x3d9b9acd	0.07597885
128	0xbd087f2f	-0.033324417
129	0x3c5eabc5	0.013590758
130	0x3d87564c	0.06608257
131	0x3c8f5e22	0.01750094
132	0x3ecd0e04	0.40049756
133	0xbd922406	-0.07135777
134	0xbcaca26c	-0.021073543
135	0xbe99e239	-0.30055407
136	0xbdaa0ec9	-0.08303601
137	0xbe8ba5fc	-0.27275074
138	0x3e05d9f7	0.13071428
139	0x3e15b6fe	0.14620587
140	0x3dbba660	0.09162593
141	0xbdfbab14	-0.1228849
142	0x3e6c9661	0.2310424
143	0xbd1f8adf	-0.038950797
144	0x3e02ca5d	0.12772508
145	0xbc2e0fee	-0.010623915
146	0x3e9f99e7	0.31172106
147	0xbe344530	-0.17604518
148	0xbe482a98	-0.19547498
149	0xbe1a44cc	-0.15065306
150	0xbe0d8a18	-0.1382221
151	0xbb8c06cf	-0.0042732726
152	0xbe6555b4	-0.22395974
153	0x3e4ec98a	0.20194069
154	0x3e6ededc	0.23327202
155	0xbec8679f	-0.39141557
156	0x3e050d63	0.12993388
157	0x3d5d50b7	0.054032054
158	0x3c394128	0.011307038
159	0xbd6ecabd	-0.058298815
160	0x3b87ae3e	0.0041406443
161	0xbe28dd7b	-0.16490738
162	0xbe4690b3	-0.19391136
163	0x3dd4386d	0.10362325
164	0xbe4581b3	-0.19287758
165	0xbd0e63e0	-0.034763217
166	0x3c08ba87	0.008345253
167	0xbeb64626	-0.35600394
168	0xbd1ddb16	-0.038539015
169	0xbdc7cad5	-0.09755484
170	0x3e11a939	0.1422471
171	0x3cf57661	0.029963674
172	0x3dbfbf85	0.09362701
173	0xbe07d583	-0.13265042
174	0x3dfdd2ee	0.12393747
175	0xbe635059	-0.22198619
176	0x3e6e6e88	0.23284352
177	0xbe8e8f0a	-0.27843505
178	0x3e0fa396	0.14027247
179	0x3e14942f	0.14509653
180	0xbc649efd	-0.013953921
181	0x3c0eecac	0.008723419
182	0x3e986418	0.29763865
183	0x3a430360	0.00074391626
184	0x3e479028	0.19488585
185	0xbcb6fa27	-0.022336079
186	0x3c259497	0.010106227
187	0x3d8264a0	0.06366849
188	0x3d41af71	0.047286455
189	0xbe8d471a	-0.2759331
190	0xbd752904	-0.05985357
191	0x3e8d80dd	0.27637377
192	0xbceaf1bf	-0.028679727
193	0x3b55d893	0.003263031
194	0x3e50d049	0.20391954
195	0x3dad79cb	0.08470496
196	0xbd7655d5	-0.06014045
197	0x3eaeaa7a	0.34114438
198	0x3c99dc82	0.018781904
199	0x3dfc6ea9	0.12325794
200	0xbdb90c9a	-0.09035607
201	0x3ea480ba	0.3212946
202	0xbd88c43c	-0.06678054
203	0xbd9b2793	-0.075759076
204	0x3eb10a79	0.34578303
205	0x3dbbe951	0.09175361
206	0xbe96f7e6	-0.29486006
207	0xbe479dc5	-0.19493778
208	0xbdaf9add	-0.0857446
209	0x3e586c6e	0.21135113
210	0x3e004ef1	0.12530114
211	0xbd809870	-0.06279075
212	0xbe8c8c0c	-0.27450597
213	0xbef6c5bd	-0.48197737
214	0x3d2979b3	0.041375827
215	0x3a819428	0.0009886073
216	0xbadbc373	-0.0016766622
217	0xbe8a4dd7	-0.27012512
218	0xbda9836c	-0.0827702
219	0xbe05ec0c	-0.13078326
220	0x3e099fd8	0.13439882
221	0x3c7373ad	0.014859122
222	0xbcbbe4c0	-0.022936225
223	0x3e2a42d0	0.1662705
224	0x3d971a4e	0.07378064
225	0xbddf1a82	-0.10893728
226	0x3cb693b9	0.022287237
227	0x3e579c95	0.21055825
228	0xbe809662	-0.25114733
229	0xbdded18c	-0.10879812
230	0xbe335883	-0.17514233
231	0xbe254619	-0.16140021
232	0xbeadce13	-0.33946285
233	0xbe24fc53	-0.16111879
234	0xbdf6e1eb	-0.12054809
235	0x3e74c327	0.2390257
236	0x3ddc6f7d	0.10763452
237	0xbdb33a5f	-0.08751368
238	0x3d090716	0.033454023
239	0x3dfa9558	0.12235516
240	0x3e13ac23	0.14421134
241	0xbd5a4874	-0.053291753
242	0x3e671c3c	0.22569364
243	0xbe823c9f	-0.25436875
244	0x3dde1996	0.10844724
245	0x3e05d197	0.13068233
246	0x3d0049ec	0.031320497
247	0x3c90a8f2	0.017658684
248	0x3eb3cbc6	0.35116404
249	0x3dc70811	0.097183354
250	0xbdcf3ebb	-0.10119387
251	0x3e8ae0a7	0.2712452
252	0xbe68bee1	-0.22729065
253	0x3c9004eb	0.01758047
254	0xbd8bacb2	-0.068200484
255	0x3d9b9acd	0.07597885
