r2l/logs_demo/ppo/karel-fourCorners-2000/ae2208-seed2000/critic.pt (torch, 59147 bytes, 8 tensors)

weight_ih f4 [192, 4]
000000 19 16 b7 bd 35 04 45 3d c5 d5 9d bd 85 5c 33 bd
       -0.08939762 0.048099715 -0.07706789 -0.043789405
000010 84 68 81 bd 09 4d 93 bd 8d 38 98 bd 83 84 f1 bd
       -0.06318763 -0.07192428 -0.07432661 -0.11792853
000020 36 9a d4 bd 5b 96 d0 bd 56 bd 3d 3d ac f7 15 be
       -0.10380976 -0.10184928 0.046323143 -0.1464526
000030 2b dd 97 bc ba 09 bc 3d f7 74 b7 3d aa e7 8e bd
       -0.018538078 0.09181543 0.08957856 -0.0697778
000040 c1 7b e3 3d 44 b6 4e bb f0 91 b9 bd 97 ba 40 3d
       0.111075886 -0.0031541744 -0.090610385 0.047052946
000050 57 8e 96 bd a5 63 a1 3d 66 e5 8d 3d a1 5a 84 3d
       -0.07351368 0.07880334 0.0692852 0.064625986
000060 56 48 76 3d 7e 00 df 3d 70 dd 3c bd 35 b9 ab 3d
       0.06012758 0.10888766 -0.046109617 0.08384935
000070 2b 95 35 bd fe bb 40 bd 9f ac cc 3c 99 ae b5 bd
       -0.04433171 -0.047054283 0.024984656 -0.088711925
000080 11 b2 8e bd e8 6e af 3d c7 20 38 3d ce ab 9b 3c
       -0.06967557 0.085660756 0.044953134 0.019002821
000090 7e b4 ea 3d f1 73 b2 bd f0 84 af 3d f6 db c3 3b
       0.114602074 -0.0871352 0.08570278 0.005977149
0000a0 0f 85 ba 3c bf ec 7f 3d f9 46 ac 3d c2 1c 3f ba
       0.022768525 0.062481638 0.084119745 -0.0007290357
0000b0 57 ab ee bb 8d 22 2c bd af ba 98 3d 35 69 34 bb
       -0.007283609 -0.042025138 0.07457482 -0.0027528529
0000c0 a0 76 0f ba 05 aa 33 3d eb ac 03 bc 3b 11 ac 3d
       -0.00054726936 0.043863315 -0.008036832 0.08401724
0000d0 ad 89 c9 3d da da 9d 3d dc 2a 29 bd 7c f6 9d ba
       0.09840713 0.07707758 -0.04130064 -0.0012051607
0000e0 8b c0 38 bc 03 4b d0 3d 1d db 6a 3d 13 33 91 bd
       -0.011276375 0.10170557 0.05733787 -0.0708982
0000f0 53 73 a0 bd 31 53 a6 bd 14 18 40 bd b7 e3 b1 3d
       -0.07834496 -0.08121336 -0.046897963 0.08686011
000100 12 b8 a2 3d 7a f5 7d 3d 6f b7 ab 3d fe bc c0 bd
       0.07945265 0.062001683 0.083845966 -0.094110474
000110 b9 ab 06 be a4 42 c8 bd 3e 08 75 be 46 ea e3 bd
       -0.13151444 -0.09778336 -0.23928925 -0.111286685
000120 fa 31 e9 bd 63 7d ad bd 89 31 fc bd 9e 13 40 3c
       -0.113864854 -0.08471181 -0.123141356 0.011723427
000130 e0 82 00 3e 0c 1e 7a bd cb 45 e3 3d 50 64 8f bc
       0.12549925 -0.06106381 0.11097296 -0.017503887
000140 0a c9 ae bc 0b dc a7 bc 0e e6 fa 38 28 4f ae bd
       -0.021336097 -0.020490667 0.0001196378 -0.085111916
000150 f6 85 b8 3c c0 d3 94 bd 4e 7e 0b be 47 98 38 3d
       0.022524815 -0.072669506 -0.136224 0.045067098
000160 a2 7e 04 3e 8c 1b 14 3e 89 af bc 3d e7 26 36 3d
       0.12938932 0.14463633 0.09213168 0.044470694
000170 80 a3 ba 3d d2 c4 16 bb 23 11 99 bd a2 47 82 3b
       0.091132164 -0.0023005498 -0.07473972 0.0039758245
000180 5d 6d eb 3d 46 86 08 3e 7d e9 46 bd 1d cb cc 3c
       0.11495469 0.13332471 -0.048562516 0.024999196
000190 7c 47 66 bd 09 25 93 bd 3b 6a 7e 3d d2 f9 2c be
       -0.056220517 -0.07184798 0.062113028 -0.16892174
0001a0 b0 7d 42 bd f8 83 4c 3d 37 90 4c ba 2b 96 66 bc
       -0.047483146 0.049930543 -0.0007803472 -0.014073889
0001b0 67 64 ab bd e5 5c bf bd 5d 08 02 3c ec ca af bd
       -0.083687596 -0.0934389 0.007936564 -0.08583626
0001c0 72 5e f7 3c b9 59 29 bc 4e 5e a8 bd 4e 9b 05 be
       0.030196402 -0.010336333 -0.08221112 -0.13047525
0001d0 9c dc 2a bd ea 74 38 bd bf e9 f5 bd 40 45 ad bd
       -0.041714296 -0.045033373 -0.12007474 -0.08460474
0001e0 91 51 9d bd e4 75 b4 bd b9 17 9c bd 41 73 ae bd
       -0.07681573 -0.08811548 -0.07621712 -0.08518077
0001f0 d7 cb b1 3d 8a da 58 3d 6c 92 ca 3d b9 a2 a4 bc
       0.086814575 0.05294279 0.09891209 -0.020097123
000200 72 ab 41 3d d9 16 a8 3c 2c 1a e7 3d 1a b9 ed bc
       0.047282644 0.020518707 0.11284289 -0.029018927
000210 33 2d ce bd 80 02 f5 3d e2 3f 4f 3d 07 21 b1 bd
       -0.10067215 0.119633675 0.050598033 -0.086488776
000220 b1 28 aa bd 1b 09 68 3d ec 6d e6 bd 9f 1c 10 be
       -0.083085425 0.05664931 -0.11251435 -0.14073418
000230 1f 6c 49 bb 8e ef 51 bd 3d d5 8b bd 0e a0 ca 3d
       -0.0030734611 -0.051253848 -0.06827781 0.09893809
000240 8f 6c 1a 3d 26 b6 34 3c 58 8a b4 bd 3b 91 c0 bd
       0.037701186 0.011029756 -0.088154495 -0.094027005
000250 5a f6 62 bd 5f 98 0b bc 09 32 af bd 15 01 80 3d
       -0.05541072 -0.008520215 -0.08554465 0.062502064
000260 95 53 14 bc 11 3f 1e bd 24 dc ce bd 28 21 18 be
       -0.009053131 -0.038634364 -0.10100582 -0.14856398
000270 31 ba 00 bc 4d 71 e0 bc 14 39 d0 bc 15 ac 26 3d
       -0.0078568915 -0.027397776 -0.025417842 0.040691454
000280 ad d7 75 bd 71 11 95 bd f8 89 15 3d 48 56 a1 3d
       -0.060020138 -0.07278717 0.03650853 0.07877785
000290 4e fd 0b bb 6a 79 23 bc 01 52 20 be 30 61 0d be
       -0.0021360698 -0.009977678 -0.15656282 -0.13806605
0002a0 be 99 e8 bc 30 9b 31 bd 49 30 8c bd 9a ed 6c 3d
       -0.028393622 -0.04336089 -0.06845147 0.057843782
0002b0 44 5b e7 bd 74 ca d5 bb 7a a5 39 bb 48 f2 b3 bd
       -0.112967044 -0.0065243784 -0.0028327391 -0.08786446
0002c0 fe cb 71 bd 9d 6b 2f 3d b7 1e 7f 3d fe e0 e2 3c
       -0.059032433 0.042827237 0.06228515 0.027695175
0002d0 f1 af 61 bd 37 3b 1e 3b 0e 73 11 3d 6b 71 ed bd
       -0.05509943 0.0024144182 0.035510115 -0.115938984
0002e0 19 96 24 3d dc 08 22 3d f4 f3 e1 bd 97 03 ba 3d
       0.040182207 0.03955923 -0.110328585 0.09082716
0002f0 46 6c b2 3b 05 04 d2 3d 1d b0 a8 3d a2 a4 92 3d
       0.005445036 0.10254673 0.08236716 0.071603075
000300 8f ea d9 3d f5 33 a5 3d 88 6b 04 be 21 c4 0a be
       0.106404416 0.08066551 -0.12931645 -0.1355138
000310 7b 44 a0 3d dc ea 8f 3d bd 85 8c 3d 4f 87 87 bc
       0.078255616 0.07027218 0.06861446 -0.016544012
000320 0d 3c 19 bd dc db b9 bc b4 e5 69 3d f9 ef b5 bd
       -0.037410785 -0.022687845 0.057103828 -0.08883662
000330 52 3c 91 bb b3 de 55 bc c2 62 77 3c 52 8d 19 be
       -0.0044322396 -0.013053584 0.015099229 -0.14995316
000340 e6 4c 21 3d ea 10 0f bd 66 40 06 3d 65 20 46 bc
       0.039379977 -0.03492824 0.03277626 -0.012092684
000350 37 f2 75 3b 54 aa a8 bd fb 8b 22 bd 0e 9b 7a bd
       0.0037528405 -0.082356125 -0.039684277 -0.061183028
000360 c7 31 40 bd b7 d0 ca 3d 16 a4 a4 3d 11 4b 9d bd
       -0.04692247 0.099030904 0.080391094 -0.076803334
000370 aa b9 db 3d ba 36 98 3d 70 af 56 bd f8 b5 8c bd
       0.10728772 0.07432313 -0.052413404 -0.06870645
000380 1f c6 05 3d 9e 47 9e bd ae 49 8b 3d f4 a3 c2 bd
       0.032659646 -0.07728504 0.06801163 -0.09503928
000390 68 35 b9 bd c7 0e 77 ba 0f 55 ea bd f8 0f a8 3d
       -0.090433896 -0.0009424504 -0.11442005 0.08206171
0003a0 11 6a cf 3d 95 2b 55 3c f2 9f 1d bd 9e 35 0b be
       0.101276524 0.013010879 -0.038482614 -0.13594672
0003b0 77 0e 50 3d 3c f3 e5 bd ee 8b 84 bd 1d 61 af 3d
       0.050795045 -0.11228034 -0.06472002 0.08563445
0003c0 ed 44 9e bd f5 45 07 bd bd da 22 3d 4e 56 8e 3d
       -0.0772799 -0.0330257 0.039759386 0.06950055
0003d0 9f 10 a3 bd df 96 bd 3d 50 86 7d 3d fd 7c dc 3c
       -0.079621546 0.09257292 0.06189567 0.026915068
0003e0 f0 dc 9f 3d 9a 74 81 bd b5 1e 57 3d 58 7d a7 bd
       0.07805812 -0.06321068 0.05251952 -0.08178204
0003f0 48 99 75 3c 7e 8f 7d bc 0d 46 91 3d 57 d7 06 3d
       0.014990158 -0.015476106 0.07093439 0.032920208

weight_hh f4 [192, 64]
000000 03 42 bc bd 6a 24 3d 3d cc 74 df bd f0 dc 02 3d
       -0.09192278 0.046177305 -0.10910949 0.031948984
000010 d6 2e 3d bd cb e8 a4 3d b0 16 22 3b c6 9b a4 3d
       -0.046187244 0.08052214 0.002473276 0.08037524
000020 65 60 14 3d f7 15 31 3d 3e e8 f1 bd ab 44 03 3e
       0.03622474 0.043233838 -0.11811875 0.12819164
000030 d1 55 db 3c 58 b7 bb bc ad a5 b0 bd 87 e4 bd bd
       0.026774319 -0.022914574 -0.0862535 -0.09272104
000040 94 d9 04 be 1d f6 68 bd 70 82 27 bd 7c 8a bd 3d
       -0.12973624 -0.056875337 -0.04089588 0.092549294
000050 fd ba ab bd 3c e5 fa bd 40 9b 38 bd b4 aa d8 3d
       -0.083852746 -0.12250754 -0.045069933 0.10579434
000060 a7 ae ca 39 aa 33 eb bc dd 81 07 bd c5 88 7c bd
       0.00038658569 -0.028711159 -0.03308283 -0.06165387
000070 18 ce de 3d 47 97 d4 3d 8e 59 a8 bd d0 a5 b1 3d
       0.10879153 0.10380416 -0.08220206 0.08674204
000080 cc 03 e8 3b 66 fd 3f bd 80 89 4a bd db 4f c8 bd
       0.0070805307 -0.04687252 -0.049447536 -0.09780856
000090 5c 7d 00 bd a8 8b 98 3d 4e d8 13 3d 1b 8a de bc
       -0.031369552 0.07448512 0.036094956 -0.027165463
0000a0 26 ec f9 bc 5f 82 cd 3d 62 93 bb bc e0 15 1e bd
       -0.030508112 0.10034632 -0.022897426 -0.03859508
0000b0 5d 08 c2 bc 44 42 86 bd 17 58 c4 3c 55 8a 3f 3c
       -0.023685629 -0.06555608 0.023967786 0.011690696
0000c0 26 b2 93 bd 04 aa 17 bd da 9a b4 bd 33 e5 29 3c
       -0.072117135 -0.037027374 -0.08818598 0.010369587
0000d0 48 95 dc 3c d2 d5 e7 3d 4b 8a 1c bd 85 7f ab 3d
       0.026926652 0.1132008 -0.038217824 0.08373932
0000e0 93 3e 0d 3c 25 61 d4 bd 87 52 e9 bb 23 17 15 3d
       0.008620876 -0.10370091 -0.0071204337 0.036399018
0000f0 6b 37 1c 3d f6 c1 bc 3d f4 d9 f6 3a 08 26 bc 3d
       0.03813879 0.092166826 0.0018833266 0.091869414
000100 9c ee 36 3c cf 3c 3c bd c2 26 13 bd 32 f6 c8 bd
       0.011165287 -0.04595643 -0.035925634 -0.09812583
000110 2b 96 f8 3d a0 7b 23 3d 00 53 ad bc 0a 98 b2 3d
       0.12138017 0.03991282 -0.021157742 0.087204054
000120 de ef 13 3e 68 03 e0 bd 43 ac 06 bd a1 10 70 bc
       0.14446971 -0.1093815 -0.032879125 -0.014652402
000130 f7 88 f3 3d d2 8b 17 3e b5 41 ac bd 7e c3 e7 bb
       0.11891358 0.14799431 -0.0841097 -0.007072865
000140 fb ab ca 3d af 8d d8 bc 3c 00 b5 bd e1 c0 9a 3d
       0.09896084 -0.026434748 -0.08837935 0.0755632
000150 3b cc 7b bd 83 3c 46 bd bc 73 cc bd a7 ba 78 bd
       -0.061474066 -0.048397552 -0.09983012 -0.06072488
000160 fe f2 2c ba 1f 18 57 bd f1 39 e4 3d 78 3d e2 bc
       -0.0006597488 -0.052513238 0.11143864 -0.027617201
000170 56 9c ee bd f4 94 40 37 63 ad fb bc b7 6e 66 bc
       -0.116509125 1.1478773e-05 -0.030722326 -0.014064482
000180 d4 76 a0 3d 5e 2a 57 3d 73 db 43 bd 29 34 09 3c
       0.07835165 0.05253064 -0.047816705 0.008374252
000190 de ea d2 bd 78 19 a4 3d 5e bf 84 bd 5f be e6 bd
       -0.102987036 0.0801267 -0.06481813 -0.11266779
0001a0 00 ee c7 3d 97 d3 91 3d 38 d1 0a 3e 40 d9 3c 3d
       0.09762192 0.07120436 0.13556373 0.046105623
0001b0 56 ba e2 3d 27 24 97 bd d8 bb 6b 3d 91 59 19 bd
       0.11070697 -0.073799424 0.05755219 -0.037438933
0001c0 b7 d1 ac 3d 0c a3 0b bc b2 fc f8 3d fd 83 29 bd
       0.084384374 -0.00852276 0.12157573 -0.04138564
0001d0 8d 67 f7 bd 5e 85 09 be 7b 5c 7c bd 10 be dd 3d
       -0.120802976 -0.13429782 -0.061611634 0.10827267
0001e0 4f 08 2d bd 52 ff 16 3c 2a e8 dc 3c 96 41 ac 3d
       -0.04224425 0.009216147 0.026966173 0.08410947
0001f0 b8 fe f9 3d 37 24 a7 3d 8e 5e cc 3d c4 8c 28 3d
       0.12206787 0.08161204 0.099789724 0.04114987
000200 24 a4 a1 3b d7 bf e5 3d 52 44 ff bd 0a d2 a2 bd
       0.004932897 0.11218231 -0.12464203 -0.07950218
000210 f2 ae 4e bd f0 f6 98 bc 74 b1 3d 3d 99 e1 8f 3d
       -0.05045981 -0.018672436 0.04631181 0.07025451
000220 31 6f 22 3d 62 2f 03 bd 20 d9 2a 3d 12 70 b6 bd
       0.03965682 -0.03202761 0.041710973 -0.089080945
000230 d4 2e 85 bd de 04 6a 3d e1 24 e3 3c 50 e2 8f 3d
       -0.065030724 0.057133548 0.027727546 0.070255876
000240 d9 7b cb 3d 99 0e b4 bd dc 73 b7 3b 9a fe 61 bd
       0.099357314 -0.08791847 0.0055985283 -0.055174448
000250 a3 13 bd 3d 16 38 d0 3d fb 55 9a bd 30 47 5b bd
       0.09232261 0.101669475 -0.07535931 -0.053534687
000260 17 9d 18 3c f6 5f 5b 3d ea b5 ab bd a6 53 86 bc
       0.009314797 0.053558312 -0.08384307 -0.016397309
000270 fe dd 67 bd 9e c4 9b bd 7f 91 8e 3d 3f 3a d0 3d
       -0.056608193 -0.07605861 0.06961345 0.101673596
000280 67 2e 81 bd df b2 b6 bd 94 4c b7 3d 25 ac 82 3c
       -0.06307679 -0.08920836 0.08950153 0.015951226
000290 1a 18 86 3d 82 10 52 bc f7 e9 9f 3d 6d f5 02 be
       0.06547566 -0.012821319 0.07808297 -0.12788935
0002a0 99 0e f0 3d 34 80 a5 bd b1 0e 98 3d 7c ab b3 3d
       0.11721534 -0.080810934 0.07424677 0.087729424
0002b0 e1 dd a1 bd a9 db 2e bd 7a 2d 3c bd 11 94 24 3d
       -0.07903648 -0.042689953 -0.045941807 0.04018027
0002c0 e4 27 90 bd 0f 3d 89 3d f3 34 06 3d 85 e7 f5 bd
       -0.070388585 0.06701099 0.03276534 -0.120070495
0002d0 22 31 c8 bd 92 b6 71 3d 6b 98 19 3c 6e 01 94 bb
       -0.09774996 0.059012003 0.009374718 -0.004516772
0002e0 99 af 61 3b 0c 3e 86 bd cc e3 b9 3d b1 fe 3f bc
       0.003443694 -0.06554803 0.09076652 -0.011718438
0002f0 4e 51 8a bd 10 25 fd bd 8a 66 9d bd 3e 32 30 3d
       -0.06753789 -0.12360585 -0.076855734 0.043016665
000300 67 42 c5 3d 85 31 55 3d 23 64 05 bd d0 23 ab 3d
       0.09631806 0.05204918 -0.0325662 0.0835644
000310 27 76 51 3d 5d e2 f8 3b 74 4b fa 3d 6e 63 e6 bd
       0.05113807 0.007595344 0.12221423 -0.112494335
000320 06 02 f9 bb 70 50 08 3a a9 91 78 bd 1b 8d 91 3d
       -0.007599118 0.00051999744 -0.060685787 0.07106992
000330 02 48 5c bd 38 8e 5c bd e2 5c d7 bd 70 5b 45 3a
       -0.05377961 -0.053846568 -0.10515763 0.0007528579
000340 4f 57 f1 bd 52 4b b3 3d 3e 18 3a 3d c8 76 7a 3d
       -0.11784231 0.087546006 0.045433275 0.061148435
000350 14 c1 77 3c 19 56 9e bd 67 e6 a3 3d ca ec 13 3d
       0.015121717 -0.077312656 0.0800293 0.03611449
000360 7e ca 10 bc ed 26 9f 3c 7c 47 b1 3d dd 20 a9 bd
       -0.00883734 0.019427741 0.08656213 -0.08258221
000370 80 d9 2f 3d 6e 9f bc 3d 31 15 96 3c 81 ac b8 bd
       0.042932034 0.09210096 0.018320652 -0.090172775
000380 24 c2 2e 3b f5 1d ce bb 8a ad c0 3c b0 2c 50 bb
       0.002666601 -0.0062901923 0.02352025 -0.0031764917
000390 3d be 42 3d 98 52 77 bd ae c8 f2 3d 47 a1 b8 3d
       0.047544707 -0.060381502 0.11854683 0.09015136
0003a0 36 fc b7 bd 90 f8 cc 3c 99 8c 51 bd fc d0 8a 3c
       -0.08983652 0.025020868 -0.051159475 0.016945355
0003b0 38 62 82 bd 55 2a 59 3d 78 d5 ad bd 48 34 c0 bd
       -0.0636639 0.053018887 -0.084879816 -0.09384972
0003c0 5a 63 ea bd 74 ef ec bd f9 1a fe 3d aa 0a 4a bc
       -0.11444731 -0.115691096 0.124074884 -0.012331644
0003d0 62 15 bd bd 54 86 cc 3d f3 16 0e be cd 26 33 bc
       -0.09232594 0.099865586 -0.13875942 -0.010934544
0003e0 73 8b 80 3d 83 f6 c6 3d 5a db ac 3d b9 07 43 bd
       0.06276598 0.09714987 0.084402755 -0.047614787
0003f0 f4 9c db bc 05 a8 c9 3d 43 97 58 3c b1 f4 b4 3d
       -0.02680824 0.098465 0.013219657 0.08835734

bias_ih f4 [192]
000000 31 ac bd bd 97 06 01 be 9e 60 f2 bd b9 f0 f4 bc
       -0.092613585 -0.1260017 -0.118348345 -0.029899942
000010 64 70 87 3d 9f 01 c5 b7 1a 2b ce 3d 7c 6e c6 bc
       0.06613234 -2.3484985e-05 0.10066815 -0.024222605
000020 15 fc 44 bd 80 22 aa 3d f2 f4 02 3e ed 78 35 bc
       -0.048091967 0.083073616 0.12788752 -0.011076194
000030 92 dd 90 ba 2e c0 8e bd 12 68 94 3d 4a ad aa bc
       -0.0011052361 -0.06970249 0.07246412 -0.020834584
000040 1f 48 c9 3c bd 3a 42 3c 54 5a e5 3d 70 25 ea bd
       0.024570523 0.011854825 0.11198869 -0.11432922
000050 9d f8 d2 3d 46 8b 40 bc fb 09 ba 3d 68 d2 19 bd
       0.103013255 -0.011751955 0.09083935 -0.037554175
000060 ce db 50 3b d9 a4 e1 3d e2 80 ac bc 42 33 7e bd
       0.0031869295 0.1101777 -0.02105755 -0.062060602
000070 17 43 ac ba 2d 51 3c 3d 8a c5 30 3e 2a de d7 bd
       -0.0013142553 0.045975853 0.17262855 -0.10540421
000080 fd b7 e0 3d 32 32 bd 3d 64 27 4a 3b ef cd f5 3d
       0.10972593 0.092380896 0.0030846233 0.12002169
000090 7c cf 8d bd fc a1 a1 bd c6 72 6a bd 35 c9 14 3e
       -0.0692434 -0.07892224 -0.057238363 0.1452988
0000a0 1d cc 37 3e e0 89 dc bd 4e 47 0f 3e ce f8 92 3c
       0.17948957 -0.10768485 0.13992044 0.017940905
0000b0 2c 7c 13 3e 77 8a d0 3d bd 9e 99 3d 7f 02 0c 3d
       0.14402837 0.1018266 0.0750098 0.034182068
0000c0 d7 da f3 3d 76 01 cd 3d 34 bb 48 bc 73 ef b7 bc
       0.11906975 0.10010044 -0.012251664 -0.022453045
0000d0 5d db dc 3d ec b5 f6 3d 0a f3 eb bd f2 80 14 bc
       0.10784028 0.120464176 -0.115209654 -0.009063946
0000e0 9b 54 e7 3d 22 e1 a6 3c 98 50 9b 3c b6 6b ca bc
       0.11295434 0.020371024 0.018959329 -0.024709564
0000f0 0b 7c 63 3c 5e 26 93 3d d0 29 7a 3d 25 cc 01 bd
       0.013884555 0.07185052 0.06107503 -0.031688828
000100 15 d5 df bc ea b0 8a 3e dc 66 2e 3c 4f 41 4d bd
       -0.027323285 0.270881 0.010644641 -0.05011111
000110 c6 54 2a bd 14 c0 e3 3d e3 5e ab bd 02 17 58 bd
       -0.041584753 0.1112062 -0.083677076 -0.052756317
000120 5f d2 89 3e 61 09 50 bd 8c 8e ab bb 00 7c 77 bd
       0.26918313 -0.050790194 -0.005235499 -0.06042099
000130 4b 19 4e be 4d 92 2a 3e 9a d5 26 3e 43 3a 87 3d
       -0.20126836 0.16657372 0.1629242 0.066029094
000140 70 59 d8 bb 46 ff 8b 3d 35 58 99 bc 89 02 65 bc
       -0.0066024587 0.06835799 -0.018718818 -0.013977655
000150 0d 84 e4 3d d4 f0 a4 3d dd 11 f8 3b 1e 02 41 be
       0.11157999 0.08053747 0.007570489 -0.18848464
000160 1d 3c c6 bd be a7 5a bd 55 8c 24 3d b3 b3 88 bc
       -0.096794344 -0.053382628 0.040172894 -0.01668725
000170 17 d8 86 3d 39 85 b3 bd c8 bc 46 bc d3 d0 56 3d
       0.065841846 -0.087656446 -0.01212997 0.052445244
000180 ed 1f 87 3d 71 48 b4 3e a8 31 74 bc 3f 26 09 3e
       0.06597886 0.35211518 -0.014904417 0.13393496
000190 e0 a5 5f 3e 55 5c d1 bd c9 02 89 3d 25 bc 22 be
       0.2184062 -0.10222689 0.06689984 -0.15892084
0001a0 7a b3 94 bd 42 0c c7 3d 2a e5 04 bd aa 20 93 3d
       -0.07260795 0.09719135 -0.03244511 0.071839646
0001b0 c2 f2 ab 3d ac af e3 bb f6 e0 81 3e 08 fc 97 bd
       0.08395912 -0.006948432 0.25366944 -0.07421118
0001c0 e4 9d 76 3c 06 12 ba bd 76 ed ec bb 10 08 09 bd
       0.0150522925 -0.09085469 -0.007230456 -0.033454955
0001d0 7b cc 53 bd c8 bb 30 3d 7a b6 53 3d 23 4f 68 3d
       -0.05170868 0.043147832 0.051687695 0.056716096
0001e0 ff cd fd 3b 12 40 28 3e 95 8f 6f 3e 9a f1 bd bc
       0.007745504 0.16430691 0.23394616 -0.023186494
0001f0 3f e8 d7 bd 5f b3 32 bd 74 19 78 be a9 d0 9b bb
       -0.10542344 -0.043628093 -0.2422846 -0.004755099
000200 d1 c9 9d bc be 88 6d 3d d6 ae 88 bd 8f b5 a9 3c
       -0.019261273 0.057991736 -0.06673972 0.020716457
000210 50 89 ed 3c 0d 50 97 bd a5 3e 8e 3c c4 05 ab bd
       0.02899614 -0.07388315 0.017363856 -0.08350709
000220 93 9c d3 bc de e9 3d 3d d7 13 03 bd a5 fe 95 3d
       -0.025831496 0.04636561 -0.032001343 0.0732396
000230 61 f5 07 3e db 89 ae bd f1 32 2f 3e 9a 00 3d 3c
       0.13277198 -0.085223876 0.17109276 0.011535788
000240 ff 54 98 3d d4 3e 17 bd 2b 4d ff bb fe ee 08 3e
       0.07438087 -0.036925152 -0.0077911816 0.13372418
000250 95 2d 7b 3c e2 16 d3 bc 37 46 e6 bd ae bc 1a bd
       0.015330692 -0.025767747 -0.11243861 -0.037777595
000260 af 39 a6 bd d8 c6 c9 bd 82 b1 a2 bd 99 cd bd 3d
       -0.08116471 -0.098523796 -0.07944013 0.0926773
000270 d5 ca b8 bd 30 b2 b7 3d 10 92 0b be 4d 2a 8d 3d
       -0.09023062 0.089695334 -0.13629937 0.06892834
000280 2c e3 a1 3d 2c 07 e0 3c 0e ba c2 bd d6 3d e2 bd
       0.07904658 0.02734717 -0.09508143 -0.110469505
000290 6b 22 80 3d 79 80 27 bd b3 fc 7f bd cc 3c b0 bd
       0.06256565 -0.040894005 -0.062496852 -0.08605346
0002a0 62 29 03 3e 21 42 a5 3d e8 ed a6 3d 38 16 a8 bc
       0.12808755 0.08069254 0.08150846 -0.020518407
0002b0 1e b8 c0 3a 4b f9 d4 bd 1f 29 89 3d a8 1d 06 be
       0.0014703309 -0.10399111 0.06697296 -0.1309725
0002c0 36 40 5e bb 53 88 50 be 19 e8 d6 3d 3b 88 ba bd
       -0.0033912784 -0.20364504 0.10493488 -0.09108015
0002d0 c9 fd 75 bb ce 99 11 be 12 68 a0 3d de 5e 09 bd
       -0.00375353 -0.14218828 0.0783235 -0.033537738
0002e0 81 15 08 3c 50 ba 0f 3d d4 aa ad bd 28 36 94 3d
       0.008305908 0.03508979 -0.084798485 0.07236892
0002f0 d0 5f 4d 3d 8e ff 92 bd 97 43 f5 3d f1 19 51 bd
       0.050140202 -0.071776494 0.11975782 -0.05105013

bias_hh f4 [192]
000000 51 d9 ea 3c a2 54 b4 bd 4d df 0d be 60 9a a8 3d
       0.028668078 -0.08805205 -0.13854714 0.0823257
000010 d2 28 dd bb 44 f9 ac 3d a0 73 18 bc d1 19 c8 3d
       -0.006749251 0.08445981 -0.009304911 0.09770549
000020 6b b8 92 bc c9 26 42 3d 4a 8b 4a bd 95 4f 61 bd
       -0.017910203 0.04740027 -0.049449243 -0.055007536
000030 b0 ad 00 bd 56 f1 15 3d f9 c5 fb 3d e8 40 e8 3d
       -0.03141564 0.03660711 0.1229362 0.11340505
000040 0a f8 76 3d 12 2e 1e 3d fe 39 67 bd b8 7e b1 3d
       0.060295142 0.038618155 -0.05645179 0.08666748
000050 bd c6 ac bd 11 e3 d4 bd 15 5c ba 3d 38 93 ce 3d
       -0.08436344 -0.10394872 0.090995945 0.100866735
000060 1d 82 ae bd 9b 4e 26 3d 4c c3 f7 3d 69 a9 d2 bd
       -0.08520911 0.040602308 0.12097797 -0.10286219
000070 36 2a a3 bd 83 27 36 3d 83 62 f7 3d b2 5f 2e bd
       -0.079670355 0.044471275 0.120793365 -0.04257173
000080 13 85 1f 3c 08 1f c1 3d 9c 66 dd 3d fc 91 c4 bc
       0.009736317 0.09429747 0.10810587 -0.023995392
000090 ab 9f 90 3b 0d 54 1c bd 03 cd ca 3c 9e 56 1d 3e
       0.004413565 -0.038166095 0.02475596 0.15365073
0000a0 39 83 d4 3d f4 7d a5 3d 41 4f 4b bd e2 6a be 3d
       0.10376591 0.08080664 -0.04963613 0.0929773
0000b0 63 ab 9b 3d c9 b8 af 3d 48 13 63 bd a7 e9 b9 3c
       0.07601049 0.08580167 -0.05543831 0.022694422
0000c0 a6 30 6b bc 36 12 7f 3d 24 b4 ac 3d e7 cc 8c 3c
       -0.01435486 0.062273227 0.084327966 0.017187549
0000d0 1b 5a 17 bd 57 16 ae 3d 7e ab cd bd 1b 8c 01 be
       -0.036951166 0.08500355 -0.10042475 -0.12651102
0000e0 58 77 ab 3d f6 3c b1 3b 28 e3 f6 3c 16 95 0c 3e
       0.083723724 0.0054088784 0.030137613 0.13728747
0000f0 90 bc 9b bd 4c 68 f4 3d c0 61 6d bb 0b bb 86 bc
       -0.07604325 0.119339556 -0.0036221594 -0.01644661
000100 0d 00 b6 3c 69 05 2c 3d 68 75 bc 3d 78 1e d1 3d
       0.022216821 0.041997347 0.09202081 0.102108896
000110 22 9e e6 bc 76 d9 2e bd fb f0 b5 3d 8c 4c 75 bd
       -0.028151575 -0.042687856 0.08883854 -0.059887454
000120 bd ce 82 3e c0 af cd 3d ca 53 dc 3c 26 12 97 3d
       0.25548354 0.10043287 0.026895422 0.073765084
000130 81 34 e8 bd fc 7a 65 3d 44 ff 5f bd a3 44 07 bd
       -0.11338139 0.05602549 -0.0546868 -0.03302444
000140 c3 ca 11 be 9b 5a 65 3d 64 0a da 3d a0 4c fd bd
       -0.14237504 0.05599461 0.10646513 -0.12368131
000150 ef 5b 71 3d 0e 2b 2e 3e 11 1d 97 bd 59 10 2a be
       0.058925565 0.17008612 -0.07378591 -0.16607799
000160 db 4b ea bd cf 98 27 bd aa b7 bd 3d ad 4f d2 bc
       -0.114402495 -0.040917214 0.09263547 -0.025672758
000170 4d 8c bf bd 62 e9 f5 3b 00 ed 87 bd ff 69 1c bd
       -0.09352932 0.007504628 -0.06637001 -0.038187023
000180 81 e9 54 3e 61 fb aa 3e 93 28 1d be b5 a8 07 3e
       0.207922 0.33394912 -0.15347509 0.1324795
000190 c1 a2 2d 3d 74 37 76 bd 08 d4 f0 3d a9 f5 65 be
       0.042391542 -0.060111478 0.11759192 -0.22456993
0001a0 78 38 54 be de c5 14 3e e0 8a ed bd fc 6b fe bc
       -0.20724666 0.14528605 -0.11598754 -0.03105735
0001b0 e9 8b e9 3d 80 75 d6 3d ff 17 9a 3e a2 de 28 bd
       0.11403639 0.1047163 0.30096433 -0.041227944
0001c0 ac b2 17 3e 72 7e 89 3d 61 d2 f0 3c 15 58 cb bd
       0.14814252 0.06713571 0.029397191 -0.0992891
0001d0 d1 df 30 3d 4d dc 28 3c 4a b6 61 3d 3e a5 ce bd
       0.043182198 0.01030643 0.055105485 -0.10090111
0001e0 3f d5 b1 3c d8 80 2d 3e f3 eb 6a 3e de 62 ba bd
       0.021708129 0.16943681 0.2294157 -0.09100889
0001f0 3d 15 6b bd 63 97 5f 3d ec 79 e7 bd a2 fa 8a bc
       -0.0573933 0.054587733 -0.113025516 -0.016965214
000200 71 93 24 3d d7 0d d6 3d a0 b0 81 3d c0 98 85 bd
       0.040179674 0.104518585 0.06332517 -0.065232754
000210 51 3b 33 3d 6e 04 c4 bd d0 fb ee bd 1f 5e 03 3e
       0.04375774 -0.095711574 -0.11669123 0.12828873
000220 f0 13 f8 3d 69 11 8c bc b6 a8 cb bd c1 c0 12 be
       0.12113178 -0.017098146 -0.099442884 -0.14331342
000230 4d 51 a1 3d ad d8 09 3d 26 45 f0 3d 36 62 0f 3e
       0.07876835 0.033653904 0.11731939 0.14002308
000240 34 d4 a4 3d 1f 27 64 bd 7b 8c 3c bd b3 4e 7e 3d
       0.08048287 -0.05570137 -0.04603241 0.062086772
000250 a9 45 3f bc 89 f9 b2 bc 69 db 04 3d f0 d8 03 be
       -0.011674323 -0.021847503 0.03243581 -0.12875724
000260 de 80 e2 bc df 4d bc bd c6 74 2c be b3 9e d6 3c
       -0.02764934 -0.0919454 -0.1684142 0.02619872
000270 ba 60 e1 bd 6a 48 c1 3d 19 e8 76 bd 5a bf 4b 3c
       -0.11004777 0.0943764 -0.06027994 0.0124357585
000280 35 4c 03 3d 13 46 cf 3d fc 37 fa bd d8 3f bb 3d
       0.0320551 0.101207875 -0.122177094 0.091430366
000290 9b 1f 0d bc fb b1 67 bd f1 59 96 3c 52 e4 22 be
       -0.008613492 -0.05656622 0.018353434 -0.1590741
0002a0 bf f6 28 3e 5f 28 7f bd eb c7 e6 3b 77 81 f7 3c
       0.16500376 -0.06229436 0.007042875 0.0302131
0002b0 d6 6c 04 3e c9 34 97 bd 3c 42 80 bd 6e 06 f2 bd
       0.12932143 -0.07383115 -0.06262633 -0.118176326
0002c0 c4 ae 6e bd 5d 8e 6f bd 13 9f 14 bd 89 df 43 be
       -0.05827214 -0.058485378 -0.036284517 -0.1912824
0002d0 c6 35 70 3c 57 6f 3c bd 71 38 6a bd c6 ac e7 bc
       0.014661258 -0.04600462 -0.057182733 -0.028280627
0002e0 a4 4e a1 3d fc c6 d5 bb ea 57 40 bd 23 61 cc 3d
       0.07876328 -0.006523965 -0.04695884 0.09979465
0002f0 5b f0 c7 bd 82 05 f9 3d c3 19 21 3e 53 0b 86 bd
       -0.09762641 0.12159254 0.15732484 -0.06545129

weight f4 [1, 64]
000000 b6 d4 62 3d a8 bf d2 bd 7a 7d ca bd 4f cf bd 3b
       0.05537864 -0.10290462 -0.09887214 0.0057925354
000010 e8 db 44 3c 06 85 12 3d 7b 77 1a bd 4e e4 ef 3c
       0.01201532 0.035771392 -0.0377116 0.029283669
000020 1f 52 0a bc a7 ad 4f bb e1 9a 6a bd 85 37 53 bd
       -0.008442431 -0.0031689198 -0.05727661 -0.05156662
000030 20 38 f2 3d 9f fb ba bd 02 1d c2 3c 79 0a f3 3d
       0.11827111 -0.09130024 0.023695473 0.11867232
000040 12 9c 21 3d 8e e9 04 be 7a 85 56 3d b1 64 ef 3d
       0.03945548 -0.12979719 0.052373387 0.11689127
000050 d8 40 7a bc a4 0e b1 bd 71 f7 ed bc 8f da f1 bd
       -0.015274249 -0.086453706 -0.029048653 -0.11809265
000060 11 57 27 bd c5 72 08 be 48 67 9f bc a6 8b 5f bd
       -0.040854517 -0.13325031 -0.019458428 -0.05457654
000070 11 f1 02 be 6e f5 3f 3d 0c 62 cd bc 5f 33 1b bd
       -0.12787272 0.04686492 -0.025071166 -0.03789079
000080 31 de ee bd 1c 10 92 bd 42 c0 c8 bd 61 80 b3 bd
       -0.116634734 -0.07131979 -0.09802295 -0.08764721
000090 9d c5 c3 bd 81 64 49 bd f6 d4 9c bd 66 e7 db bd
       -0.09559176 -0.049168114 -0.076578066 -0.10737495
0000a0 44 c5 8d 3d c6 74 0b 3d c9 a9 4c 3d 8e 4b d6 bd
       0.06922391 0.03404691 0.049966607 -0.1046363
0000b0 2a c8 2d 3b 1a 05 9b bd 8d ad 8a bc fa 8c 60 bd
       0.0026517012 -0.075693324 -0.016928459 -0.054821946
0000c0 53 b9 97 3d 5d f8 6a bd 1b bd 4b bd 81 f5 b4 bd
       0.07408395 -0.057365764 -0.049740892 -0.08835889
0000d0 07 8d 93 bc 71 39 7b bd 94 a1 a7 3d 26 22 c0 bc
       -0.018011583 -0.061334077 0.081851155 -0.023453783
0000e0 06 3b b0 3c 57 a7 0d bd 4d 28 db 3c 89 f0 a1 3d
       0.02151252 -0.034583416 0.026752615 0.079072066
0000f0 58 aa c8 bd 1b 06 8c 3c 55 82 ff 3d 43 7a c6 bd
       -0.097981155 0.017092755 0.12476031 -0.09691288

welford_state_mean f4 [4]
000000 cb 4b 57 3f aa 47 61 3f 55 0c 62 3f 6f 68 11 3f
       0.84100026 0.87999976 0.8830007 0.5679998

welford_state_mean_diff f4 [4]
000000 61 7a 05 43 61 4f d3 42 fb 88 ce 42 51 01 75 43
       133.47804 105.65504 103.26754 245.00514

hidden f4 [6, 64]
000000 18 c6 d9 be c1 fc 01 3f c6 5e 03 3c 8c c5 85 3d
       -0.42533946 0.50776297 0.008018201 0.0653182
000010 ba b9 88 bd 12 f1 ea be 14 47 c6 3e 08 bd 51 3d
       -0.066760495 -0.45887047 0.38726103 0.051205665
000020 76 0a 33 3f 33 32 3b be 3a 6a e5 3d 6a b0 81 3d
       0.6993784 -0.18280868 0.11201902 0.063324764
000030 ec c8 26 3e 0a 25 7f 3d 8c ae 57 3f 49 24 27 3e
       0.16287583 0.062291183 0.8425071 0.16322435
000040 cc cf 92 3e ef 51 13 3f 4c 7f 9a be d2 7c 0e 3e
       0.2867416 0.57546896 -0.30175245 0.13914803
000050 30 13 ff 3d 51 c0 e5 bd 40 6b 79 3c 07 38 e9 be
       0.124548316 -0.11218322 0.015223324 -0.45550558
000060 31 d0 d3 be e4 7d 93 3e 3c 28 57 bf 58 88 f8 3e
       -0.41369775 0.28806984 -0.8404577 0.48541522
000070 86 f4 aa bd 28 03 f7 bb 1b f8 4a bf 6d f7 49 be
       -0.083474204 -0.007538218 -0.7928483 -0.19723292
000080 a9 5f a0 3e 83 d4 4c 3f ec e2 ab bd b0 60 01 3f
       0.31322983 0.8001177 -0.08392891 0.5053816
000090 0f 2e e0 3e 90 0e 7a 3e f6 a6 59 3f 1a a6 32 bf
       0.4378514 0.24419618 0.8502039 -0.697847
0000a0 a6 f7 64 3f 1d 7b 30 bf 5f 68 57 3f 03 db f8 3e
       0.8944038 -0.68937856 0.8414363 0.48604593
0000b0 1b bf dc 3e 68 76 84 3e 7c 0f 51 3f cc 16 76 bf
       0.43114552 0.25871587 0.8166425 -0.96128535
0000c0 ce 26 a4 be 3f c4 5b bf d1 a1 9d 3e f1 5f 45 bf
       -0.32060856 -0.8584632 0.3078752 -0.7709952
0000d0 7f 3e 4d bf 0e 55 4e bf 06 e2 9a be a8 e8 8c be
       -0.80173486 -0.80598533 -0.30250567 -0.27521253
0000e0 ac 72 4e 3f 38 35 34 3f e9 3c 5a bf 65 50 1f 3f
       0.80643725 0.70393705 -0.8524919 0.6223205
0000f0 28 e6 ed 3d c8 80 90 bd 92 4d 1f 3f bc 56 03 bf
       0.116161644 -0.07055813 0.6222774 -0.5130422
000100 af c0 29 bf 6a e7 1f 3f ec f3 1e 3e 81 5e 3c 3d
       -0.66309637 0.62462485 0.15522736 0.045988563
000110 58 8c 0d 3e d1 20 a7 be fd 29 23 3e 8a ba bb 3e
       0.13823068 -0.32642224 0.15933986 0.36665756
000120 1f ed 3e 3f 6a bd e0 be 03 89 db bd 29 9b 9b be
       0.7458057 -0.4389451 -0.10719492 -0.30391815
000130 bb d4 3c 3e 53 52 05 be 12 01 64 3f 22 96 25 3e
       0.18440525 -0.13019685 0.89064133 0.16170552
000140 36 43 25 3e 9d 45 0d 3f 7c 64 6b bc 04 d8 15 3e
       0.1613892 0.55184346 -0.014367219 0.14633185
000150 d9 d4 7d 3d a9 00 92 be 04 44 08 bf 3e 1b 10 bf
       0.061970565 -0.2851613 -0.53228784 -0.5629157
000160 69 c8 30 be 47 d8 ab 3d 75 d4 6c bf 0a c5 86 3e
       -0.1726395 0.08390861 -0.92511684 0.26322204
000170 ef 71 79 3e ae cf 83 bd d0 6f 64 bf 90 d7 17 3e
       0.24359868 -0.06436096 -0.8923311 0.14828324
000180 86 7b ff 3e 26 a3 45 3f 19 a3 8d 3e ac 2d 28 3f
       0.49898928 0.7720207 0.27663496 0.6569469
000190 c0 8e 3c 3f 0f c9 0d 3f 45 c2 4f 3f 9f 53 58 bf
       0.7365532 0.55384916 0.81155807 -0.84502596
0001a0 b9 33 79 3f 0e 83 3b bf 08 b3 70 3f 1c a9 e1 3e
       0.9734455 -0.7324685 0.9402318 0.44074333
0001b0 99 ae 47 be c3 e3 ae 3d e9 9d 4f 3f 4f 54 79 bf
       -0.19500197 0.08539536 0.81100327 -0.9739427
0001c0 96 0c 8f be fd 53 44 bf 1a aa 6a bd ee 3f 30 bf
       -0.2793929 -0.76690656 -0.057291128 -0.6884755
0001d0 58 33 23 bf b8 d9 61 bf 41 9d 0d bf 6c 04 7b be
       -0.6375022 -0.8822284 -0.55318075 -0.24513406
0001e0 03 98 49 3f 02 a7 3f 3f 37 35 53 bf 0d dd 31 3f
       0.78747576 0.7486421 -0.82503074 0.6947792
0001f0 54 4b d7 bd 8f 98 e0 bd 68 7a 54 3f 15 45 64 be
       -0.105124146 -0.10966598 0.8299928 -0.22291978
000200 56 68 e6 be d7 2a 03 3f ef e8 9e bd dc 20 fc 3d
       -0.45001477 0.51237243 -0.07759272 0.12310955
000210 1e 38 51 3c 8c 97 cb be 7b 13 e8 3e fe 84 4e 3e
       0.012769727 -0.3976406 0.45327362 0.2016792
000220 0c 67 36 3f 9e b8 97 be 10 5a de bc 40 6f 5f bc
       0.7125099 -0.2963304 -0.027142555 -0.013637364
000230 fa 55 c4 3d 0f bc 2b 3e 97 4f 5a 3f 7d 0a 84 3e
       0.09586711 0.16770957 0.85277694 0.25789252
000240 5e 6f cd 3e 8f 92 17 3f ce db 91 be dd a2 6d bc
       0.4012403 0.59208006 -0.2848801 -0.014504162
000250 10 1a 65 3d a5 93 12 be c2 f0 08 bd a2 c4 e4 be
       0.05593306 -0.14314134 -0.03343273 -0.4468127
000260 c5 f6 e7 be 62 19 db 3e 4f 52 5a bf 3f 87 12 3f
       -0.45305458 0.42792803 -0.8528184 0.5723762
000270 70 eb e7 3b 00 38 7d 39 01 20 4e bf bd f1 b3 be
       0.007077627 0.00024148822 -0.80517584 -0.3514537
000280 b7 64 76 3e 04 10 4d 3f ca d2 ca bd da fd f5 3e
       0.24061857 0.8010256 -0.09903486 0.48045236
000290 eb 53 d1 3e 0a 22 b8 3e 5f 1f 58 3f 36 af 39 bf
       0.40884337 0.3596347 0.8442287 -0.72532976
0002a0 3a ab 6c 3f ac 4e 4a bf ce af 65 3f 0b 56 04 3f
       0.9244877 -0.79026294 0.8972138 0.5169379
0002b0 4a 60 02 3f ac 73 8c 3e 14 17 51 3f 4c 46 75 bf
       0.50928175 0.27432 0.8167584 -0.9581039
0002c0 ea 51 73 be 8e bc 56 bf 86 1f a7 3e c4 85 50 bf
       -0.23761716 -0.8388146 0.32641238 -0.8145411
0002d0 45 03 55 bf 50 21 5d bf c2 21 c4 be 36 bb ba bd
       -0.83208114 -0.86378956 -0.38307005 -0.09117739
0002e0 a5 a8 4e 3f 70 13 28 3f b0 0e 59 bf ae ce 18 3f
       0.8072608 0.6565466 -0.84788036 0.5969037
0002f0 d7 6f 84 3e ff 4e 4e bc 60 16 2f 3f b0 10 18 bf
       0.25866577 -0.012592076 0.68393517 -0.59400463
000300 d0 26 2a bf db d8 26 3f 2b 63 1b 3e ed 3d 4c 3d
       -0.66465473 0.65174645 0.15174548 0.049863745
000310 ab 4f 09 3e ce da a2 be 66 f9 18 3e fc af bc 3e
       0.13409297 -0.3180756 0.14938888 0.36853015
000320 6b de 3d 3f d4 02 e0 be 31 77 e1 bd 5d 0b 9a be
       0.7416751 -0.43752158 -0.11009062 -0.30086794
000330 b6 31 3b 3e c2 38 0d be b0 4d 63 3f 04 0f 24 3e
       0.18280682 -0.13791183 0.88790417 0.16021353
000340 ab 53 24 3e 3a 4a 0b 3f f8 2c 25 bc b5 94 14 3e
       0.16047542 0.54410136 -0.010081522 0.14509852
000350 03 9c 6c 3d f4 50 91 be 2e 27 08 bf 89 49 0f bf
       0.057765972 -0.28382075 -0.53184783 -0.5597158
000360 81 77 2d be ce 33 98 3d 26 9c 6c bf f3 0f 81 3e
       -0.16940118 0.07431756 -0.92425764 0.2520748
000370 92 47 7a 3e 9b 3b 7b bd ed b2 63 bf 30 60 14 3e
       0.24441364 -0.06133614 -0.88944894 0.14489818
000380 92 37 ff 3e 00 4f 33 3f 4d 2c 89 3e ec 48 26 3f
       0.49847084 0.7004242 0.2679161 0.6495502
000390 bd 4f 3b 3f b7 72 0c 3f d5 b2 4e 3f 4c ff 57 bf
       0.73168546 0.5486254 0.80741626 -0.8437393
0003a0 d4 f3 78 3f a5 64 3a bf a6 56 70 3f 87 32 df 3e
       0.9724705 -0.7280982 0.93882215 0.43593237
0003b0 b9 1b 4a be bc 49 aa 3d 00 8c 44 3f f8 eb 78 bf
       -0.19737138 0.08314845 0.76776123 -0.9723506
0003c0 06 de 8c be ac aa 42 bf 1d 3e 83 bd 9c 16 2e bf
       -0.2751314 -0.76041675 -0.064083315 -0.6800325
0003d0 a6 86 21 bf 02 16 61 bf f5 ba 0b bf 9d 9c 78 be
       -0.6309608 -0.87924206 -0.5458215 -0.24278493
0003e0 9e 47 48 3f 6d cc 3d 3f 5b 58 51 bf dc 3d 30 3f
       0.7823428 0.74140054 -0.81775445 0.6884439
0003f0 d0 8a e3 bd db a3 c8 bd 45 f7 53 3f 1d 90 5e be
       -0.11110461 -0.09796878 0.8279918 -0.21734662
