minigrid/r2l/MiniGrid-LavaCrossingR2LS11N5-v0_with_library/MiniGrid-LavaCrossingR2LS11N5-v0_seed_104_length_100.pt (torch, 64581 bytes, 9 tensors)

weight_ih f4 [192, 7]
00000000: 4dc9 0b3e b283 0d3d ead1 52bd 2b7d 7c3c
00000010: f291 b83d 4c31 e53d 166c e8bc 8285 49be
00000020: 82cf d93d b29e c23d 4d11 c13d 900c db3d
00000030: eec4 953d 0036 0a3e e09f 443e c4c7 f3bd
00000040: 3926 8abd c9df 81bd e701 343d e4a4 97bd
00000050: c7f4 8c3c 0455 d63d 43ef 9c3d 0cfb 813d
00000060: 5c3c e8bd d9e9 f83c 8a40 fa3d cc6c 183d
00000070: 642d 5f3e b8a6 dcbd bf5e 213d 320d 91bd
00000080: 0ed4 eabd 7810 7bbd 429a 7bbd f7d1 243e
00000090: 4713 bd3c 844e 06be be28 533c 9892 7fbc
000000a0: 90d7 223c e51b 21be 2a98 fbbd 0ce2 323e
000000b0: cf59 a5bc f177 fb3d d707 9fbc 48f0 2abd
000000c0: 1fcf 5a3c 06d1 453e f312 00be d3d0 4d3d
000000d0: 74b6 d03d 60c4 ccbd bc6d bf3d 8d00 363d
000000e0: 6165 533d 90e7 f8bd 0d70 5c3d b5cf 8abd
000000f0: 6faa bf3d 062f b63d 8eac c23d 7874 ea3d
00000100: dfd6 2dbe 929f 94bd 24f7 1b3d 1bae 503d
00000110: f868 dfbd 7233 5ebe 9134 94bb 051e 77bd
00000120: 2a8c 26be 2b5f 993c 7ed2 1c3d d03d ff3c
00000130: b28b fdbd 9c76 303e 1665 243d 5c11 a8bd
00000140: a662 b43c bdb8 653c e087 4b3c b758 27bb
00000150: 9b29 ecbc 894f c4bd 5943 afbd 47b7 483c
00000160: 71e0 343d 6891 f3bd 1688 853e 0b86 4cbe
00000170: 0089 303e 0b22 80bd d1d0 ac3d 5a32 bfbc
00000180: 2038 503d d402 fc3c e76e ad3d bb5e 0dbe
00000190: 4f86 453d 5012 19ba 3037 65bc e0e8 9fbb
000001a0: 9d18 d73b 2b5d 193d 32b5 efbd be8e 453c
000001b0: 43ab 153d 659b 363d 1c19 803d 2257 0c3e
000001c0: 2ff7 2e3d b861 0e3d 1986 0cbd aa7b 373d
000001d0: b60d 7cbd 467a 9bbd ada1 02bc 80ba 7bbd
000001e0: e1f3 e73b 3244 253d 8df2 b83d dbcc 1a3e
000001f0: 8883 f73d b04c f83d 6b3d 323e d8f5 c83c
00000200: b39b bcbd 81ab e6bd ff30 aaba c068 da3d
00000210: 8873 a9bd f88a fd3d d647 56bd 78f3 c33d
00000220: 99a9 a93d fe22 0d3e a8db 0bbd 8dc5 253e
00000230: 096b cabd c42a 783d fab7 abbc 6004 0dbc
00000240: bbef b53d 8011 1d3d f056 a73d 282e 1dbe
00000250: 97be 3abd 8bb4 9b3c 2599 66bd d205 c7bd
00000260: 2008 fc3c ffe9 083e 2221 043d dbe2 cdbd
00000270: a215 c8bc 2002 a83d 7ee3 453d 328d e9bd
00000280: b053 b53d cbf1 ce3d 1bd9 b6bc 8bad 363d
00000290: c5e2 73bd 5435 903d fcde 90bd 4e34 efbd
000002a0: b21a 223d a371 793d e6eb 833d fe68 a2bd
000002b0: 99ac 8c3b 9a6c 963d d83a 353e 0930 03be
000002c0: 0079 013e 32a1 c3bd b96e c03c 4c2a 663d
000002d0: 3e22 8d3d b177 4e3d 56bc 8c3e 30cd 1ebe
000002e0: a4f4 163d d08b a2bd e66d 703d aa8e 8a3d
000002f0: 3856 ddbd 7d28 293e 40c7 d5bd 7854 06bc
00000300: 8c2e af3d 454e b03c b0a4 ca3d 6fcb 6d3d
00000310: d0ee 243c 54b6 3e3d af49 cebd c3e0 e33d
00000320: 8add 213d ae18 863d 5c52 debc ab27 1a3c
00000330: 5642 8e3d 8131 a33d fbb0 883c 81ed b2bb
00000340: c8c6 58bd 8d4f 2d3d 908e a23c d6ab e13d
00000350: b4ed 0e3d 47ae afbd 80d2 8bbd 44fd e7bd
00000360: ffd8 bb3c db36 163d f210 d7bc 060c 68bd
00000370: 5b7a ed3c 8192 8bbc 7e27 ca3d 17f5 a73d
00000380: cab9 04be 7188 003e 1de5 843d 15d6 023d
00000390: 2a59 bdbd b0a5 82bc 6142 b23c 5a0d 60be
000003a0: 69ff febd 8687 fc3d 83b5 f8bc d9f7 233e
000003b0: a6e7 ddbd b696 863e 4dc7 babd c0cd 193d
000003c0: 42c9 8e3d 714d 16bc 0355 05bd e465 7b3d
000003d0: b60d 3f3e f265 5a3d e042 01be c384 22bd
000003e0: 01b6 39bc 4865 c9bb aaca c0bd 60f6 bebc
000003f0: b759 303e 0ec9 a8bd 2847 ac3d e6a0 2abc
0.13651009 0.034549423 -0.05146972 0.015410702 0.09012212 0.11191043 -0.028371852 -0.19679835
0.10635282 0.09502925 0.09427128 0.106957555 0.07312952 0.13497162 0.19201612 -0.11903337
-0.06745572 -0.06341512 0.043947127 -0.07404497 0.017206563 0.10465434 0.07662823 0.063467115
-0.11339638 0.030384945 0.12219341 0.03721313 0.21794659 -0.107739866 0.039396998 -0.07082595
-0.114662275 -0.061295003 -0.06142641 0.1609572 0.023080481 -0.13115889 0.012888132 -0.0155989155
0.009939089 -0.15733297 -0.12284882 0.17469043 -0.020184426 0.122787364 -0.019412918 -0.041733056
0.013355046 0.19318017 -0.12507229 0.05024798 0.1019105 -0.09998393 0.09347102 0.04443412
0.051610354 -0.12153542 0.053817797 -0.06777898 0.093586795 0.08895688 0.095055684 0.11447996
-0.16976498 -0.07256998 0.03807749 0.05094729 -0.10908693 -0.21699312 -0.004522868 -0.060331363
-0.16264406 0.018722137 0.03828668 0.031157404 -0.123801604 0.17232746 0.040135466 -0.08206436
0.022019695 0.014021096 0.012422532 -0.0025535056 -0.028828433 -0.095854826 -0.085577674 0.012250728
0.044159357 -0.118929684 0.26080388 -0.19973008 0.17239761 -0.06256493 0.08438266 -0.02333944
0.050834775 0.030763067 0.084684186 -0.13805668 0.04822379 -0.00058392156 -0.0139902085 -0.004880056
0.0065642134 0.037442368 -0.11704482 0.012057958 0.03654028 0.04458179 0.06254789 0.13705114
0.0427162 0.03476116 -0.034307573 0.04479567 -0.061536513 -0.07591681 -0.007973117 -0.061457157
0.007078633 0.04034824 0.09030638 0.15117209 0.120856345 0.12124002 0.17406242 0.02453129
-0.09209385 -0.112631805 -0.0012984573 0.10664511 -0.08273989 0.12380022 -0.0523146 0.09567922
0.08284301 0.1378288 -0.034145027 0.16188641 -0.098836966 0.06058766 -0.02096175 -0.008607
0.088836156 0.038346767 0.08170879 -0.15349638 -0.045591917 0.019006988 -0.056298394 -0.09717907
0.030765593 0.13370512 0.03225816 -0.10053035 -0.024424378 0.0820353 0.048312657 -0.11403884
0.08853853 0.10104712 -0.02232032 0.044599097 -0.059542436 0.070414215 -0.07073781 -0.11679898
0.03957624 0.060899388 0.064414784 -0.07930182 0.004293036 0.07344933 0.17698228 -0.12811293
0.12643814 -0.0955223 0.023490297 0.05619268 0.06891297 0.050407115 0.2748744 -0.1550796
0.0368544 -0.07936823 0.058698557 0.06765492 -0.108074605 0.16519351 -0.104383945 -0.00819885
0.085538 0.021521697 0.09894693 0.058055338 0.010066703 0.0465606 -0.10072648 0.11126854
0.039517917 0.06547676 -0.027138881 0.009408872 0.06946246 0.079684265 0.016685953 -0.0054604416
-0.052923948 0.042312194 0.01984337 0.11019103 0.03489466 -0.08578163 -0.06827259 -0.113276035
0.02293062 0.036673408 -0.026253197 -0.05665209 0.028989008 -0.017037632 0.09870814 0.08201044
-0.12961498 0.12552048 0.064890124 0.031942446 -0.09245522 -0.015948147 0.021760168 -0.21880093
-0.12451059 0.123305365 -0.030359989 0.16012515 -0.10835199 0.26286858 -0.09120045 0.037549734
0.06971981 -0.009173737 -0.032551777 0.061376467 0.18657574 0.05331988 -0.12623167 -0.039677393
-0.011334897 -0.006146107 -0.09413655 -0.02331084 0.17221723 -0.08241473 0.084120095 -0.010414338

weight_hh f4 [192, 64]
00000000: cf10 bdbb c6ec ddbc 5693 fc3d ec9d 27be
00000010: 32a4 9aba be27 0ebe 251a b0bd e915 d53c
00000020: ea1d f0bd 13eb 1fbd e792 a0bd f522 05bd
00000030: 3e58 95bd 2f82 ae3d f529 0b3e ecb1 963b
00000040: ad01 8dbd fd92 a63d 76ce ae3d 4cc4 f53d
00000050: 9370 e8bd 4530 27bd 47a9 52bd 3d2a 323e
00000060: b522 7abc 4dee a73d e522 4dbd d61c 4bbe
00000070: d178 833c 8383 7ebd 672d eb3d 3039 02be
00000080: 8ead d6bc 3390 dd3d 63ed ce3d 613d 23be
00000090: 6ad9 273c 1819 043d b133 03be b932 14be
000000a0: e30b 66bc 66e3 ff3c aecd b5bc 1f67 d53c
000000b0: ae7c bdbc cb93 143e a20f 3abe 61ea b73d
000000c0: 0a04 babc 4c87 47bc 9f3f 663d 047b 9abd
000000d0: bf58 06be 2f8f 323d 6c71 b33d 11dc e7bd
000000e0: 6033 743c 4b2b ecbc df4d d7bd 8c17 093d
000000f0: d55f af3d 271a b2bc dcc1 383d 3cca 593d
00000100: bb8f 48bc abf5 42bd 6513 053e dd66 eb3c
00000110: 8128 15be bb80 b23a 99cf cb3d 4906 aebb
00000120: c7d7 f4bd 26f7 9a3a bb57 c6bd ee91 943d
00000130: 478a fc3d 6a3d ad3d 22ae c1bc 1207 1a3a
00000140: 6a9c 1abe f8d4 933d 427d 96bd 7a61 59bd
00000150: c2cc 3cbe 1b52 d6bd 3ef1 edbc 89b8 9c3d
00000160: 0eda 373d 110f 25bd 8127 56bd 03ca 723b
00000170: 2a91 213e 8b15 08be 9214 dd3b 013b d7ba
00000180: 4a85 55bd 385a 283c d188 5ebd 1cd3 a3bc
00000190: 392d 92bd 765e 37bd 7017 3a3d 8b93 f3bd
000001a0: 1c6d 823d 2c97 cb3c 3c08 4f3d 461b a13c
000001b0: 39b1 003e a851 823d 6c32 e7bd a309 ae3c
000001c0: 5f19 0e3d 4514 e7bd be9d a1bd 5a75 42bd
000001d0: e14b 02be 46e4 373e ac68 8fbd 3583 abbb
000001e0: 93d2 36bd 45dd a4bd cbda 12be 3ab7 9fbd
000001f0: e515 2b3d ce80 babd d244 62bd 4c71 983c
00000200: fb16 01be 9950 9c3c 92b1 85bc 7e3b 4f3d
00000210: 5a4d 3139 fc08 4dbb 0fbd 2abd ffb3 233a
00000220: 0df5 9abc c986 a3bc 37c2 02be d0ff 1abe
00000230: 9ff9 b4bd 2c8b 34bb a903 fa3d b247 183e
00000240: e1e6 adbd 0961 f8bb 99e3 313d 00b4 b53d
00000250: 199d 02be d265 2fbd e264 623d a19e 403c
00000260: 12f9 083e 8547 f6bd 1a79 06be 9b62 dabc
00000270: 0aef 133d 9f82 90bd d8e5 06bd 2335 01be
00000280: 6524 c7bd 9c7e 83bd 9b1a b33d 173b 9a3d
00000290: 509a 2dbd bac6 9cbd ee4d 153b 5fcc 0ebe
000002a0: 5cfd c73c 90da 503c fb55 d83c b3a4 2fbd
000002b0: 6b89 953d 0687 85bd 7eee ac3d c5b6 f03d
000002c0: e678 c7bd 77ac d23d 18ab 71bc 7caa b13c
000002d0: 0d1c de3d 082f 93bd 202f 96bd 86d3 093d
000002e0: 1bfe cd3d 9cbd 06be e39c 8abd 08b1 ad3d
000002f0: 505c bdbd ce58 11bb 8858 013d 6043 4abd
00000300: 3812 0bbe 4e17 0fbd 9ea9 6b3d 1352 e53c
00000310: a281 17be 2c90 35be 4a58 19bd d075 543c
00000320: c32a c93c acd9 103d e27f 29be b0ed b13c
00000330: 67b0 f43d 709c 053e eff8 103d 82c8 3abd
00000340: b2ab 07be 4336 f9bd 2752 0abc 9aca 863d
00000350: 4da6 27be 9112 adbd 6d32 93bd 5aec 67bd
00000360: 97d8 adbb 020d bb3c 8ae9 4abd 9c49 ccbb
00000370: edc9 ad3c 6635 1bbd fd71 b73d 525a 9fbc
00000380: 74c3 fd3d 93a1 d83b 8b38 3e3d 1a45 9ebc
00000390: 60b1 8bbd 2b5b 793b 9286 b63c 0c72 16be
000003a0: 1df8 18bb a605 d63b 90ce fa3d 0d43 d33d
000003b0: 20ab 133b 8b3f 273e 7f83 fc3c 81ba 4d3c
000003c0: 89b7 e9bd c7eb 5cbd 5bc4 573b d081 96bd
000003d0: 6176 03bd e1a2 983d 3068 373d d852 c23c
000003e0: 0195 b33d 2f24 8dbc 982a cdbd f319 fd3d
000003f0: 3f81 ee3d 6f80 94ba 778a d2bb c1a1 073e
-0.005769826 -0.027090441 0.123327896 -0.16368836 -0.0011798202 -0.13882348 -0.08598737 0.026011424
-0.11724456 -0.039042544 -0.078405194 -0.03250404 -0.072922215 0.08520924 0.13590224 0.0045988467
-0.06885085 0.081335045 0.08535473 0.12000331 -0.11349597 -0.040817518 -0.051430967 0.17398925
-0.015267064 0.08199749 -0.050082106 -0.19835219 0.01604882 -0.062137138 0.11483269 -0.12717128
-0.026205804 0.108185194 0.10103872 -0.15941383 0.010244707 0.032250494 -0.12812687 -0.14472474
-0.01404092 0.031236362 -0.022192802 0.026050149 -0.023130741 0.14509504 -0.18170026 0.08980251
-0.022707004 -0.012178253 0.056213018 -0.075429946 -0.13119791 0.04359358 0.08761868 -0.11321271
0.014904827 -0.028829237 -0.105128996 0.03346972 0.085632004 -0.021740986 0.045106754 0.05317138
-0.012241299 -0.04759757 0.1299568 0.028735572 -0.14566232 0.0013618687 0.099517055 -0.005310808
-0.11955219 0.0011822924 -0.09684702 0.072543964 0.12331062 0.084589794 -0.023642603 0.00058756873
-0.1509873 0.07218355 -0.0734811 -0.053071477 -0.18437484 -0.10464879 -0.029045697 0.07652385
0.044885688 -0.04029757 -0.052283768 0.0037046678 0.15778032 -0.13289468 0.006746837 -0.0016420783
-0.052129067 0.010275416 -0.054329697 -0.019998126 -0.07137532 -0.04476782 0.045432508 -0.11893376
0.06368467 0.024852358 0.050544962 0.019666325 0.12567605 0.06363231 -0.11288914 0.02124483
0.034692165 -0.11283163 -0.07891415 -0.047475196 -0.12724258 0.17958173 -0.070023865 -0.005234147
-0.044634413 -0.08050016 -0.14341275 -0.077986196 0.041768927 -0.09106599 -0.055241413 0.018608712
-0.12606423 0.0190814 -0.016320024 0.050593846 0.00016908851 -0.0031285873 -0.041684207 0.0006244778
-0.018915677 -0.019961732 -0.127694 -0.15136647 -0.08836674 -0.0027548773 0.12207729 0.148711
-0.08491302 -0.007579927 0.043429945 0.08872223 -0.1275524 -0.042821713 0.05527199 0.01175657
0.13376263 -0.1202536 -0.13132134 -0.026658347 0.036116637 -0.07056164 -0.03293404 -0.12617926
-0.097237386 -0.06420633 0.08745309 0.07530802 -0.042383492 -0.076550916 0.0022782045 -0.13945149
0.024412803 0.012747422 0.026408186 -0.04288168 0.07301601 -0.06519894 0.08443926 0.117536105
-0.097398564 0.10286801 -0.014750265 0.021687739 0.10845194 -0.07186705 -0.07333207 0.03364899
0.100582324 -0.13158268 -0.06768205 0.08481032 -0.09246123 -0.0022178176 0.03157857 -0.04938066
-0.13581169 -0.034934334 0.057534806 0.027993238 -0.14795545 -0.17730778 -0.037437715 0.012967542
0.024556523 0.035363838 -0.1655269 0.021719784 0.119477086 0.13047957 0.03539365 -0.045601375
-0.1324909 -0.12168553 -0.008442438 0.06581612 -0.16372032 -0.08450807 -0.07187352 -0.056621887
-0.0053053605 0.022833351 -0.049539126 -0.006234361 0.02121445 -0.03789272 0.089572884 -0.019452248
0.12390795 0.006611058 0.046440642 -0.01932006 -0.06820941 0.0038048725 0.022280965 -0.14691943
-0.0023341246 0.006531435 0.1224643 0.10315523 0.0022532418 0.16332833 0.030824421 0.012556673
-0.1141196 -0.053935792 0.0032923433 -0.073489785 -0.032095317 0.07452942 0.044777095 0.023721144
0.087686546 -0.017229168 -0.1001789 0.12358465 0.116457455 -0.001132978 -0.0064251977 0.13245298

bias_ih f4 [192]
00000000: 6bc3 323e 9fde 5f3c 7916 fc3c 99d7 b2bc
00000010: 30e2 b03d 1bda 493d 6f8f 593c aa4f c63d
00000020: 2268 883d ba11 f7bc 523e 0f3e 849c a4bc
00000030: 4d03 e43d 056b 673d 159e 4b3b 13f7 ce3d
00000040: 7cfe 663d d496 2e3e 50c9 273e 65e1 1d3e
00000050: f1a1 4fbb 1c8a a3bd fb59 403e 72b3 963d
00000060: 1795 e73b 02f9 33bd 4198 d5bd 1ece a03d
00000070: a53d 993d 79a0 12bc 1265 c43c 9eb6 bc3d
00000080: e00a be3d 2159 d23c 6601 d9bb 7f60 7a3d
00000090: fa24 adbd 32e8 85bd 89a9 0f3e 6a1f f43d
000000a0: 332b 27bc 2f2b b23c 39c8 243d b00a d43c
000000b0: e736 a63c 50cc c63d ac4a d33d d32e 533d
000000c0: daa8 013e b0a0 f33d 67f5 0c3e c225 4c3e
000000d0: 12db 253e e6a4 3e3d c1e4 d1bc 87a5 293e
000000e0: f1c8 883d c829 523e cff2 5ebc c583 dd3d
000000f0: 1771 2c3e 4385 44bd a452 73bd 13c7 413e
00000100: f96a 12bd b3d4 64bd 7c7a 48be 45b1 a3b9
00000110: aa03 9ebd 68ac 203c 28f4 d9bd 63b4 04bd
00000120: affb 07be b793 69be c27f 84be ae5b 40be
00000130: 6328 9ebe c0a4 78be 9c0a 16be 5563 25be
00000140: b987 2cbe cc19 18be 93ac 68be de4c 7dbe
00000150: 47fc bdbd 6c13 47be 86fb 6abe ec24 dabc
00000160: 0f2a 8dbe 4451 6e3c 8ad3 51be 830b f0bd
00000170: 0180 65be 0c02 9bbe 793c 19be c76b 77be
00000180: abe8 89bd 3a8a 23be 9e67 44be 3370 8abe
00000190: 0cda 9dbd c95b 3bbe faa8 8fbe d794 90bd
000001a0: 4d86 ffbd aa70 0ebc 2600 09bd 95e8 33be
000001b0: 39ab 83be f289 45bd 2049 58be f67b 10be
000001c0: 0e1b a4bd 2634 96bc 0978 77bc 5632 84be
000001d0: 2885 16be cfa1 50be e617 bcbc f54e 70be
000001e0: fe5c 0e3e a293 5fbe d6c9 54be b0e6 3ebe
000001f0: f243 ffbd ca2e 2abe 5d48 91bd 75b6 c4bd
00000200: 723b e1bc 5555 e33c 070e 423e 1d87 32be
00000210: ef51 1ebe be7a bbbd ebb2 e0bd 2a66 0abd
00000220: e34a 4bbe 6356 9d3d 64fa b53d 519d a7bd
00000230: d2ed 8a3d a607 633d 2a6e 373e 0f75 ef3d
00000240: 06f4 17be d41a e7bd 6f09 cb3d dc20 dd3d
00000250: 7223 4ebe 006a 48be 20d4 93bc ded2 ec3d
00000260: f13e 013d dabb 7c3d 922c 06be 3a31 26be
00000270: c2d2 1b3e 770b b7bd 2bfe 6bbd 1dcc 12be
00000280: 440f 873c cf5f 6e3d a24b 113e 9789 3c3d
00000290: 178d c9bc 7997 4cbe b00b c3bd 289a babd
000002a0: bfce 3d3c 1ee5 a7bd ec45 573e 0990 053e
000002b0: bbc8 a03d 554b 1f3e 246a 1fbe c757 df3d
000002c0: 3696 61be c734 33bd 2bb0 14be bfef 1b3b
000002d0: 53f0 d8bd fdd4 1f3e 878d 493c 793c 703d
000002e0: e9f1 813d 25ec babd be3d e4bd 73fe c7bd
000002f0: c5d9 403e dc87 59be 418e c6bd f2c7 1a3e
0.17457359 0.013663917 0.030772435 -0.02183132 0.08636892 0.049280267 0.013278826 0.096831635
0.06660487 -0.03015982 0.13988617 -0.020094164 0.11133442 0.056498546 0.0031069566 0.101057194
0.05639504 0.17049724 0.16385388 0.15418012 -0.0031682218 -0.07985327 0.18784325 0.07358445
0.0070673334 -0.043938644 -0.10429431 0.07851814 0.07482461 -0.0089493925 0.023973975 0.09214519
0.09279418 0.025677266 -0.006622481 0.061127182 -0.08454318 -0.06538428 0.14029516 0.11920054
-0.010203171 0.021749107 0.04023001 0.025884002 0.020289851 0.09706938 0.10316977 0.051558327
0.12662068 0.11895883 0.13765489 0.19936278 0.1619685 0.04654398 -0.025621774 0.1656705
0.066789515 0.20523751 -0.013607695 0.10816149 0.16840015 -0.04797865 -0.059404984 0.18923597
-0.03574655 -0.05586691 -0.19577974 -0.0003122186 -0.077155426 0.00980673 -0.10642272 -0.032398593
-0.13279603 -0.22810255 -0.2587872 -0.18784973 -0.30890188 -0.24281597 -0.14652485 -0.16151173
-0.16848649 -0.1485359 -0.22722082 -0.24736354 -0.09276634 -0.19441003 -0.22947511 -0.026628934
-0.2757115 0.014545742 -0.20490852 -0.11720946 -0.22412111 -0.30275 -0.14964475 -0.24162208
-0.06733831 -0.15970698 -0.19180152 -0.27038726 -0.07707605 -0.18296732 -0.28058606 -0.07059639
-0.12476788 -0.008693853 -0.033447407 -0.17569192 -0.2571657 -0.048227258 -0.21121645 -0.14109787
-0.08012973 -0.018335413 -0.015104302 -0.25819653 -0.14699233 -0.20374225 -0.022960614 -0.2346762
0.13902661 -0.21833661 -0.2078012 -0.18642688 -0.124641314 -0.16619411 -0.0709388 -0.096051134
-0.027494166 0.02775065 0.18950664 -0.17434354 -0.15460943 -0.091542706 -0.10971626 -0.033788837
-0.19852786 0.076824926 0.08885649 -0.081843026 0.06783642 0.055427216 0.17913118 0.11692249
-0.14839181 -0.11284414 0.09913909 0.10797283 -0.20130709 -0.19571686 -0.018045485 0.11563657
0.031554166 0.061702587 -0.1310294 -0.16229716 0.15217116 -0.089377336 -0.05761544 -0.14335676
0.016486771 0.05819684 0.14189008 0.046029653 -0.02460341 -0.19979657 -0.095237136 -0.09111434
0.011584937 -0.081979975 0.21022767 0.13043226 0.07850786 0.1555608 -0.15567833 0.10905414
-0.22029957 -0.043751504 -0.14520328 0.0023794023 -0.10592713 0.15608592 0.012301809 0.05865142
0.06344969 -0.09127072 -0.11144589 -0.09765329 0.18833072 -0.21243232 -0.096951015 0.15115336

bias_hh f4 [192]
00000000: 718f f93c fea6 8239 811e aa3d 4b5d 4b3c
00000010: dc44 b03d 3349 673d c2bf b53d 3585 813c
00000020: 74b5 f33d 7dda a03d f5bc ea3d 1c1e a13d
00000030: 40c9 05bc 58a0 de3d 85d2 293e c2e0 1e3e
00000040: 5606 70bc b391 833d bd84 a3bc f8a1 ad3d
00000050: 8b41 cd3d 0763 45bc 36a7 5cbc 9640 573e
00000060: f406 b53d 6c5b a43d d3ee 42bc 2815 5b3e
00000070: 8549 ad3d 0c49 063e 5692 f83d 70a6 183d
00000080: b678 b7bd 2c67 b33d dbc2 59bd a539 1abd
00000090: 3e1b 3f3d 2532 123e 446c b03d 0189 123d
000000a0: 6b0b 73bd d990 b7bc fb24 0d3e 0fbc f83c
000000b0: 623e 1e3e 9edb 1d3e 24e6 74bc 4832 103d
000000c0: 971c 1e3e faac f93d cedf f73d 12e2 e93c
000000d0: a1f4 d03d e452 ccbd 54bd c43d 9dd3 05bc
000000e0: df4d 153c 3aac f13c 969b 073d 27a0 413e
000000f0: 3020 90bc 4b9f bc3d 4ab8 cd3c 4015 683d
00000100: cad1 83bd 7c1b bdbd ad15 1dbe ec12 38be
00000110: 2002 11be 9969 40be bb7b 21bd a07f 99bc
00000120: e623 01be 54f4 79bd 70cf 5fbe df6b 4dbe
00000130: c12d b0bd 28c5 06be acfb 99bd c873 4cbe
00000140: 5f0f 12be 5b30 053c e71d 69be f860 9ebd
00000150: 9ce9 b1bd 0b25 b2bd 98bf 89be 3050 c6bd
00000160: 7b0a 11be ea9f 23be 3832 cebd dcd7 c8bd
00000170: ea1f 4abd 7bcf 96be 6391 62be c303 2bbe
00000180: 2fcb 18be dcfe 42be 909a adbe abbe 77bd
00000190: 62b9 953c fa34 84be 5caf 66be 5be0 d8bd
000001a0: b08b c0bd 7728 22be 30a2 36be 2304 52be
000001b0: 4843 bbbd 448b 48be e4d2 02be ec9c d3bd
000001c0: 232f 0dbe ce49 05be 634d 4bbe 5c25 04be
000001d0: 5764 30bd 11cf 38be 4c94 11bd 3979 1dbe
000001e0: 3826 abbc c69d 2fbd 8761 f2b8 a306 22be
000001f0: d9fe 89be bb38 02be 2863 dcbd 5572 0fbd
00000200: a0a2 e3bd e489 aa3d ee69 b73d f800 dc3b
00000210: 253c 96bc bb58 18bd 0244 aebd a52f 213e
00000220: fb72 80bd dc24 cd3c ab1e 15be 41b7 99bc
00000230: bbd0 163e 4f7e 9fbc 9f53 5a3d 438d 073e
00000240: bd6c 08bd 92fc 3dbe e7b4 383d 8665 ae3d
00000250: ce64 f9bd 30c0 9e3c 866b 7d3d 1a6d 093e
00000260: f37f 24bb a7b0 33be cedf 76bd 90b5 52be
00000270: 02d6 7a3b 42e0 49be 3722 d9bd 96b6 15be
00000280: 797d d5bb ded5 08be f3fd 44bd 67f9 54bd
00000290: 9b3a 8fbb 94f5 b4bd 634e 423d f596 88bd
000002a0: b725 89bd 4f05 4dbe f8cc 1a3d 9365 853c
000002b0: e55a bebc f058 ab3d b328 93bd 4135 483e
000002c0: 4f02 11be 5536 0bbd f4a7 24be d3fb 433d
000002d0: 3224 0b3d d66e 90bc 5caf 8b3d 60c8 79bd
000002e0: 2272 3c3d 70f7 13be 565e fcbd 73ec e33b
000002f0: 6270 0a3e f6c9 a7bd 384b 0bbe e70f 493e
0.030463906 0.0002491995 0.083065994 0.0124123795 0.08606884 0.056466293 0.088744655 0.015810588
0.11899844 0.07854173 0.11461822 0.07867071 -0.0081656575 0.10870427 0.16584213 0.15515426
-0.014649948 0.06424274 -0.019960755 0.08478159 0.10022267 -0.012047536 -0.013467601 0.21020731
0.08839217 0.0802525 -0.01189776 0.21394789 0.08461288 0.13113803 0.12137286 0.037268102
-0.08958571 0.08759913 -0.053164344 -0.03765263 0.04665684 0.14276941 0.086144 0.03577519
-0.05933706 -0.022407936 0.13783638 0.03036311 0.15453485 0.15415809 -0.014947448 0.035204202
0.15440594 0.12191196 0.12103234 0.028550182 0.10202909 -0.09976748 0.09606424 -0.008168128
0.009112804 0.02950107 0.033107363 0.1890875 -0.017593473 0.0921007 0.02511229 0.05666089
-0.064364985 -0.09233758 -0.153403 -0.17975968 -0.14160967 -0.18790282 -0.03942464 -0.018737614
-0.1261135 -0.061024025 -0.21856475 -0.20060681 -0.08602477 -0.13161147 -0.07518706 -0.19966042
-0.14263676 0.008129205 -0.22765313 -0.07733339 -0.086871356 -0.08698472 -0.26903987 -0.09683263
-0.14164154 -0.15978971 -0.10068172 -0.09806797 -0.049346842 -0.2945517 -0.22125773 -0.16700654
-0.14921258 -0.19042534 -0.33906984 -0.06048457 0.018276874 -0.25821668 -0.22527832 -0.105896674
-0.09401643 -0.15835749 -0.17835307 -0.2050939 -0.09143692 -0.19584376 -0.12775761 -0.10332665
-0.13787512 -0.13016436 -0.1985374 -0.12904876 -0.04306444 -0.1804774 -0.035541818 -0.15378274
-0.020892248 -0.042875074 -0.00011557625 -0.15822844 -0.26952246 -0.12716953 -0.107611 -0.035021145
-0.11115003 0.08327082 0.08955751 0.0067139827 -0.018339226 -0.037193995 -0.08509065 0.15740831
-0.06271931 0.02504199 -0.1456248 -0.01876414 0.14728062 -0.019469408 0.053302404 0.13237481
-0.033306826 -0.18553379 0.045094397 0.08515458 -0.1217743 0.019378752 0.06187012 0.13420525
-0.0025100678 -0.17547856 -0.06027203 -0.20577073 0.0038274531 -0.19714454 -0.10602229 -0.14620432
-0.0065152016 -0.13362834 -0.048093747 -0.05199566 -0.004371 -0.08835903 0.047438037 -0.06669418
-0.06696647 -0.20021556 0.03779313 0.016283786 -0.023236701 0.08366573 -0.07185497 0.19551565
-0.14161037 -0.033987362 -0.16079694 0.04784758 0.033970065 -0.017630976 0.068205565 -0.060982108
0.046007283 -0.14449859 -0.12322681 0.006955677 0.13519433 -0.08192818 -0.13602912 0.19634973

weight f4 [4, 64]
00000000: ed90 813d 936f f33d f553 4cbe d0c8 db3d
00000010: 53ff 6f3e 9e61 5b3d 1dcd 2cbd f594 0cbd
00000020: a55f 863a 5db5 fcbd a987 063e 0056 ab3d
00000030: 38f4 19be d742 5c3d a4a9 25be 9131 01be
00000040: 45e3 3e3d 6ee6 1f3e 0465 ecbd 86fc 37be
00000050: a4d5 f93c 1ccc f43d eb06 7fbc 2195 38be
00000060: 348e ee3d eb44 0e3e b259 673e a099 053e
00000070: 69cf 54be 46f9 b13d 4f39 afbb d7a3 283d
00000080: 134a 2c3e bcce 8d3d ed08 853d 6b1b df3d
00000090: 06dc f339 37ea 503e 7e75 523d 61ae 0c3e
000000a0: 6afb 463c 9fd0 cf3d 5e74 10be aafa 0fbd
000000b0: b5f3 93bb 5204 0cbd a565 1cbd ba50 bbbd
000000c0: ee20 1e3c c151 853d bc12 9e3d 5d8c 193e
000000d0: 52d3 debd 9de8 b4bd 325a dbbd ab6f d83d
000000e0: 46cd 31bd e5d3 a03d 20e2 5a3e e3a1 e13c
000000f0: dac3 91ba ca15 f93d 31d9 533e 6da3 78bb
00000100: f1e3 a73d 2d24 b63d 06b1 35be a382 0fbd
00000110: a769 243e 5344 2f3e e2f0 253d 75fb a3bd
00000120: 8337 203e 6e09 42be ae8c 1b3e 1a8f 543e
00000130: 9974 9d3d c8f2 d3bc c32d 47be cecc 883b
00000140: fbd0 1e3e ae10 05bd 2edb 4dbe 25aa 1dbc
00000150: a264 263e b991 29be 8568 af3d 0f33 11bd
00000160: ad93 633d 05e3 a6bd 10d9 36bd a867 2b3e
00000170: 4f1b 11be 5c6d 1dbd c24c 2bbe 4454 80bd
00000180: f8b1 13bd 7600 08bd cab0 d33d ff1d 593e
00000190: 38bd 353e bd02 633d 888e 01be 24c3 1d3e
000001a0: f61a 24be 14ac 783d fb46 1b3d 2708 72bd
000001b0: f765 34be 4c7c 31be 270a 013d 58aa aa3b
000001c0: bb16 f63d b38e eabd 0bc9 22bd 5e50 683d
000001d0: 6077 903d c087 41be d6c4 0bbe 45ae 11be
000001e0: dcb5 713d 61af e2bd 9654 c1bb 2c95 4dbd
000001f0: 4cb3 523c 2016 08bc 2672 6a3c d25e 04be
00000200: 1503 e0bc 5fbd 81be 7cec 1cbd cc05 fb3d
00000210: f2d9 ad3c 2986 e1bd 7aff 773e ad9c d83c
00000220: 9768 f2bd 675e 843e 9f0d 6dbe 42d9 1ebe
00000230: 3b57 81be dc30 553e 566e c83d 198f 2dbe
00000240: d24c 013e 1442 c33d d581 de3d 8a68 8fbd
00000250: 902b fa3c 9163 843e cba1 f9bd 6ef5 ad3c
00000260: 9a10 b1be 6cd5 3abd fd32 37be 903c 823c
00000270: b75a 983c d206 8d3e eb5b 9f3e 7824 b03e
00000280: 24ce 80bd db05 c53e f0d7 aebe 271a 32be
00000290: 81aa 0dbe c7e2 dc3d 70c5 9f3e 0a27 e03d
000002a0: 77c1 8a3e 07c1 c4bc 99fa 72bc d472 873e
000002b0: bb5a b73e 413d debc bf81 983e 8db7 30be
000002c0: 8c4e cebd d0de 103e 5157 8dbb 06cb 84be
000002d0: 71eb 773e a550 2b3e d8ec 3b3d 3d35 a23e
000002e0: 779d 1dba 76bc 013e f56b 27be 16a1 3e3e
000002f0: 46d1 86be 2b4f e83d b484 efbd cd30 75bb
00000300: bc2f b6bd eea1 ff3d 4d04 2bbc e788 30be
00000310: 2eb1 16be 901b dabd c9f6 2fbd 6a4d c43d
00000320: 8d7b 08be 93cb edbb cf36 a2bd bc97 11bd
00000330: 4261 c53d 6df4 31be b521 2f3e 7c27 a93c
00000340: 249f 4bbe 7dcd 98bd aba2 9bbc 3552 5e3e
00000350: 2271 ffbd a48f 4ebe fdd7 613e cbf1 693d
00000360: 2063 173e f1df d5bd 59fd 24bd 975b 3dbe
00000370: e9a7 243d 3d1c 30be 4faa 0ebe c838 7cbd
00000380: f841 a5bd d029 80be 3d5e 633e 970c 5cbd
00000390: 6ddd a0bd 9fdc 02be 6038 b9bd c290 06be
000003a0: eb24 51bd bca8 eabd bde6 043e 6cfe 85bd
000003b0: 6b9e 06be 0ac7 eb3d cbc7 14be 00c5 673e
000003c0: 9102 2cbe 8d74 03be f0f6 3bbe 3444 763e
000003d0: 7105 57be d166 173e 76e9 163e 2739 7bbe
000003e0: e536 c1bd fb29 4cbe d782 0cbe 42a9 07be
000003f0: 95a5 123e b0bf 5fbe 6be3 f53c 159f 223e
0.063264705 0.118865155 -0.19953902 0.10731661 0.23437242 0.053559892 -0.0421878 -0.034321744
0.0010251893 -0.1233928 0.13137688 0.083660126 -0.15034568 0.05377468 -0.16177994 -0.12616564
0.04660346 0.15615246 -0.11542705 -0.17967424 0.03049738 0.11952993 -0.015565614 -0.18025638
0.11648217 0.13893478 0.2259281 0.13046885 -0.20782246 0.08690123 -0.005347408 0.041171875
0.16825132 0.06924197 0.06495843 0.108939014 0.00046512502 0.20401846 0.05138158 0.13738395
0.012144903 0.10147213 -0.1410689 -0.03515116 -0.004515136 -0.034183808 -0.038182873 -0.09146257
0.009651406 0.06509734 0.07718417 0.1499495 -0.1088015 -0.0883343 -0.10710563 0.10568174
-0.043408655 0.07852916 0.21375322 0.027543014 -0.001112099 0.12162359 0.2068832 -0.0037939206
0.08197773 0.08893619 -0.1774331 -0.035036694 0.16055928 0.17115907 0.040512927 -0.08006946
0.15646176 -0.1894891 0.15190384 0.20757714 0.07688255 -0.025872603 -0.1945105 0.0041748052
0.15509407 -0.03248661 -0.20103142 -0.009623085 0.16249326 -0.16559495 0.085648574 -0.035449084
0.055560756 -0.08148769 -0.0446406 0.1673876 -0.14170574 -0.03843437 -0.167285 -0.062660724
-0.036058396 -0.033203565 0.10336454 0.21202849 0.17747962 0.055422533 -0.12652028 0.15406471
-0.1602591 0.06071098 0.03790949 -0.059089806 -0.17617022 -0.17332572 0.031503823 0.005208295
0.12016054 -0.11452999 -0.03974251 0.05671727 0.07054019 -0.18899441 -0.13649306 -0.14226635
0.059011325 -0.11068607 -0.005899976 -0.05019109 0.0128601305 -0.008306056 0.014309442 -0.12926796
-0.02734522 -0.2533979 -0.038311467 0.12256965 0.021222088 -0.11011917 0.2421855 0.026441896
-0.11836355 0.25853273 -0.23149727 -0.15512565 -0.25261864 0.2081942 0.0978667 -0.16949119
0.12626961 0.09534088 0.10864607 -0.07002361 0.03053835 0.25857213 -0.12189063 0.021235194
-0.34582978 -0.04561369 -0.17890544 0.01589802 0.018597944 0.27544266 0.31124815 0.34402823
-0.06289318 0.3848103 -0.34149122 -0.17392789 -0.13834573 0.10785442 0.3120532 0.10944946
0.27100727 -0.024017824 -0.014830255 0.26454794 0.3581141 -0.027128818 0.29786488 -0.17257519
-0.100735754 0.14147496 -0.0043133874 -0.25936145 0.24210908 0.16729982 0.04588017 0.31681243
-0.0006012539 0.12669548 -0.16349776 0.18616137 -0.26331538 0.11343225 -0.11695233 -0.003741312
-0.08895823 0.124820575 -0.010438037 -0.17239724 -0.14716026 -0.106497884 -0.042959962 0.09585078
-0.13328381 -0.007256934 -0.0792061 -0.035545096 0.09637691 -0.17378397 0.17102702 0.02064871
-0.19884926 -0.07461069 -0.018998465 0.21711047 -0.1247275 -0.20171982 0.22055049 0.057115357
0.14783907 -0.10443104 -0.040280674 -0.1849197 0.040199194 -0.17198272 -0.13932155 -0.06157759
-0.08069223 -0.250319 0.22203918 -0.053722944 -0.078547336 -0.12779473 -0.09043956 -0.13141158
-0.0510606 -0.11457965 0.12978645 -0.06542668 -0.13146369 0.11512573 -0.1452934 0.22633743
-0.16797854 -0.1283743 -0.18355918 0.24049455 -0.2099817 0.14785315 0.14737496 -0.2453352
-0.094342984 -0.1993789 -0.13721786 -0.1324816 0.14320977 -0.21850467 0.030015668 0.15880997

bias f4 [4]
00000000: 60be 23be ec9f 06be 589f 493c c97e 213e
-0.15990591 -0.13146943 0.012306057 0.15771021

welford_state_mean f4 [7]
00000000: b441 133f 2b3d b53e d0e4 cb3e 0000 0000
00000010: 0000 0000 0000 0000 094d 3e3e
0.5752213 0.3539823 0.39823008 0.0 0.0 0.0 0.18584074

welford_state_mean_diff f4 [7]
00000000: 66db dd41 9de6 cf41 bbb4 d941 0000 803f
00000010: 0000 803f 0000 803f 412c 8e41
27.732128 25.987604 27.213247 1.0 1.0 1.0 17.771608

hidden f4 [6, 64]
00000000: 3eaa 7cbf 6f96 23bf 9913 673f 813a 753d
00000010: fc7d 5bbf a2b5 5fbf dfb0 e63e ba5b 763e
00000020: 7d4a f0be 47f2 6b3f f233 78bf 269f 56bf
00000030: 47f0 3e3d 98d4 d13e 06eb 733f 6e3b 12be
00000040: 5bcf 93be 42de d0be f7c1 623f 82f7 3f3f
00000050: 18d5 28bf d457 5dbe f899 d8be b35c 783f
00000060: 99de bdbe 0556 41bf 7e72 75bf 4eb1 4bbf
00000070: fdeb 7e3f d699 7cbe 388d 023f e119 0f3f
00000080: 74e0 1dbe f3a8 f6bd 0b74 06bf 044e 39bf
00000090: e4a1 4abf 7a85 2abf dfba e63e 32b4 08bf
000000a0: 185c 2b3f 1ef0 6dbf 8560 6e3f 9c95 423f
000000b0: aa1c 473f c0dd 773f 1a5d 173c 4f2f 093e
000000c0: c382 6bbf e754 503e 11b8 78bf 5a98 2cbf
000000d0: daae 863e bb06 5f3f eefb 603f e799 083f
000000e0: f7ff 763e 2075 a73b b411 49bf 8da6 db3e
000000f0: 2b48 06bd 3dba 0bbf e9d6 57bf 56c7 733f
00000100: b1e5 79bf 3e93 0a3f 8e53 6b3f 4d5a 49be
00000110: b4e0 28bf 1cca 62bf f3a8 db3e bed7 a23e
00000120: ae99 88be d287 c33e b18d 77bf efb4 3dbf
00000130: c4c1 a73e fbb7 d1be a3e7 783f 7795 82bc
00000140: bd9d 46bf d6e8 f6be 9479 443f 4fb0 633f
00000150: 3fe0 4fbf 95cc d7be e9fb 0d3f cf56 6e3f
00000160: f3f9 e13e 40ba 4cbf 7129 02bf 0990 3abf
00000170: 2e4f 7e3f 4d99 31bf 8be6 98be fde1 48be
00000180: d6eb 383d a997 36bf 7268 f43e 5475 14bf
00000190: b5a6 2bbf 6348 01bf eca6 36be 216b 6abf
000001a0: 0b4b 033f 4e56 6ebf 505f 6a3f e601 bd3e
000001b0: cd1a c03d 2f55 7a3f 4891 0bbf a785 2b3f
000001c0: 8026 6ebf 750c 82bb 0458 6dbf 9cc9 d3bc
000001d0: 1474 10bf 4920 3f3f 5d41 693f af71 2cbf
000001e0: 728f 4f3d f680 b9be bad6 25bf e2c0 04bf
000001f0: 4143 133f 55b6 51bf 5d16 90be a0d2 6e3f
00000200: b1e5 79bf 3d93 0a3f 8e53 6b3f 4d5a 49be
00000210: b5e0 28bf 1cca 62bf f5a8 db3e bed7 a23e
00000220: ae99 88be d287 c33e b18d 77bf f0b4 3dbf
00000230: c4c1 a73e f9b7 d1be a3e7 783f 7e95 82bc
00000240: bd9d 46bf d4e8 f6be 9479 443f 4fb0 633f
00000250: 3fe0 4fbf 95cc d7be e9fb 0d3f cf56 6e3f
00000260: f3f9 e13e 40ba 4cbf 7129 02bf 0990 3abf
00000270: 2e4f 7e3f 4d99 31bf 8ae6 98be fee1 48be
00000280: d6eb 383d a997 36bf 7468 f43e 5475 14bf
00000290: b5a6 2bbf 6348 01bf eea6 36be 216b 6abf
000002a0: 0b4b 033f 4e56 6ebf 505f 6a3f e501 bd3e
000002b0: cf1a c03d 2f55 7a3f 4a91 0bbf a785 2b3f
000002c0: 8026 6ebf 530c 82bb 0458 6dbf a8c9 d3bc
000002d0: 1474 10bf 4920 3f3f 5d41 693f af71 2cbf
000002e0: 6a8f 4f3d f680 b9be bad6 25bf e3c0 04bf
000002f0: 4143 133f 56b6 51bf 5f16 90be a0d2 6e3f
00000300: b1e5 79bf 3d93 0a3f 8e53 6b3f 4d5a 49be
00000310: b4e0 28bf 1cca 62bf f3a8 db3e bed7 a23e
00000320: ae99 88be d187 c33e b18d 77bf efb4 3dbf
00000330: c4c1 a73e fdb7 d1be a3e7 783f 6c95 82bc
00000340: bd9d 46bf d6e8 f6be 9479 443f 50b0 633f
00000350: 3fe0 4fbf 94cc d7be e9fb 0d3f cf56 6e3f
00000360: f3f9 e13e 40ba 4cbf 7129 02bf 0990 3abf
00000370: 2e4f 7e3f 4d99 31bf 8de6 98be ffe1 48be
00000380: d0eb 383d a997 36bf 7468 f43e 5475 14bf
00000390: b5a6 2bbf 6448 01bf eea6 36be 216b 6abf
000003a0: 0b4b 033f 4e56 6ebf 505f 6a3f e501 bd3e
000003b0: cc1a c03d 2f55 7a3f 4991 0bbf a785 2b3f
000003c0: 8026 6ebf a40c 82bb 0458 6dbf a0c9 d3bc
000003d0: 1474 10bf 4a20 3f3f 5d41 693f b071 2cbf
000003e0: 708f 4f3d f780 b9be bad6 25bf e1c0 04bf
000003f0: 4143 133f 55b6 51bf 5c16 90be a0d2 6e3f
-0.9869727 -0.6390142 0.9026428 0.059870247 -0.8573911 -0.87386525 0.45056817 0.24058428
-0.4693183 0.9216656 -0.9695426 -0.8383659 0.046615865 0.4098251 0.9528049 -0.14280483
-0.28869137 -0.4079457 0.88577217 0.7498704 -0.65950155 -0.21615535 -0.4230497 0.9701645
-0.3708389 -0.7552188 -0.95877826 -0.7956742 0.9957884 -0.24668059 0.5099673 0.55898863
-0.15417653 -0.12043943 -0.5252082 -0.7238467 -0.79153275 -0.6660992 0.45064446 -0.53399956
0.669374 -0.92944515 0.9311603 0.76009536 0.7777811 0.9682274 0.009238506 0.13396953
-0.919964 0.20344888 -0.97155863 -0.6741997 0.26305276 0.87119645 0.87884414 0.53359836
0.2412108 0.005110398 -0.7854264 0.42900506 -0.03278367 -0.5458105 -0.843123 0.9522604
-0.97616106 0.54130924 0.9192437 -0.19663353 -0.6596787 -0.88589644 0.42902336 0.31805223
-0.26679748 0.3818956 -0.9670058 -0.7410421 0.3276502 -0.40960678 0.9722845 -0.015940411
-0.7758444 -0.48224515 0.76748013 0.889409 -0.8120155 -0.4214827 0.5546251 0.9310121
0.4413601 -0.79971695 -0.50844485 -0.7287603 0.9933957 -0.69374543 -0.2986339 -0.19617458
0.045146786 -0.71325165 0.47735935 -0.5799153 -0.6705125 -0.5050108 -0.17837113 -0.91569716
0.5128638 -0.9310044 0.91551685 0.3691551 0.09380112 0.9778623 -0.54518557 0.6700081
-0.93027496 -0.00396877 -0.92712426 -0.02585297 -0.5642712 0.7465864 0.9111536 -0.6736097
0.05067391 -0.36231202 -0.6478077 -0.51856816 0.57524496 -0.8191884 -0.28142062 0.9329014
-0.97616106 0.5413092 0.9192437 -0.19663353 -0.65967876 -0.88589644 0.4290234 0.31805223
-0.26679748 0.3818956 -0.9670058 -0.74104214 0.3276502 -0.40960672 0.9722845 -0.015940424
-0.7758444 -0.4822451 0.76748013 0.889409 -0.8120155 -0.4214827 0.5546251 0.9310121
0.4413601 -0.79971695 -0.50844485 -0.7287603 0.9933957 -0.69374543 -0.29863387 -0.19617459
0.045146786 -0.71325165 0.4773594 -0.5799153 -0.6705125 -0.5050108 -0.17837116 -0.91569716
0.5128638 -0.9310044 0.91551685 0.36915508 0.09380113 0.9778623 -0.5451857 0.6700081
-0.93027496 -0.0039687543 -0.92712426 -0.025852993 -0.5642712 0.7465864 0.9111536 -0.6736097
0.05067388 -0.36231202 -0.6478077 -0.5185682 0.57524496 -0.8191885 -0.28142068 0.9329014
-0.97616106 0.5413092 0.9192437 -0.19663353 -0.6596787 -0.88589644 0.42902336 0.31805223
-0.26679748 0.38189557 -0.9670058 -0.7410421 0.3276502 -0.40960684 0.9722845 -0.01594039
-0.7758444 -0.48224515 0.76748013 0.88940907 -0.8120155 -0.42148268 0.5546251 0.9310121
0.4413601 -0.79971695 -0.50844485 -0.7287603 0.9933957 -0.69374543 -0.29863396 -0.1961746
0.045146763 -0.71325165 0.4773594 -0.5799153 -0.6705125 -0.50501084 -0.17837116 -0.91569716
0.5128638 -0.9310044 0.91551685 0.36915508 0.09380111 0.9778623 -0.5451856 0.6700081
-0.93027496 -0.003968792 -0.92712426 -0.025852978 -0.5642712 0.74658644 0.9111536 -0.67360973
0.050673902 -0.36231205 -0.6478077 -0.5185681 0.57524496 -0.8191884 -0.2814206 0.9329014
