minigrid/r2l/MiniGrid-LavaCrossingR2LS11N5-v0_with_library/MiniGrid-LavaCrossingR2LS11N5-v0_seed_103_length_100.pt (torch, 64581 bytes, 9 tensors)

weight_ih f4 [192, 7]
0.06541523 -0.028269513 -0.006793563 -0.024822619 0.060850427 0.074175924 0.09068878 -0.054932322
-0.108872145 -0.121914096 0.04976439 0.070180245 0.026824877 0.12514915 0.1363433 -0.11598198
-0.063091636 0.029108668 -0.04637138 0.009705633 -0.23242211 0.03388868 0.089733385 -0.08785865
0.06125682 -0.008131193 0.099406496 -0.08973793 0.04777938 0.015981108 -0.18764785 -0.10432106
-0.10774013 0.08673939 -0.117532246 0.03716129 -0.012061225 -0.121172905 0.12847826 -0.09247685
-0.060843825 0.08501681 0.123723604 -0.12456816 -0.0779499 -0.07129342 -0.1271411 0.1141092
-0.0018225267 0.1927078 -0.11316531 0.026643798 0.034905132 0.046946872 0.120341584 0.02358861
0.07411394 -0.07099026 -0.017937304 0.13411273 0.067214474 0.09200312 0.0065165134 0.2421849
0.020907113 -0.14122024 -0.0006446357 -0.048512753 -0.096895516 -0.3031099 -0.06202567 -0.055717364
-0.007976651 -0.0067676385 -0.043146454 0.0400085 -0.10793114 0.15713908 -0.035502665 -0.04839498
-0.010101492 -0.02549842 0.090920776 0.023424175 0.20777482 0.0060923276 -0.05988728 0.012225274
-0.013803725 0.028451234 -0.023043148 -0.073331416 -0.04312471 0.0463956 -0.039135452 -0.008693283
0.06873107 0.16160437 0.014223768 -0.009512525 -0.00502622 0.0663945 0.111459926 0.005803585
0.16837516 -0.0021654335 -0.04362932 0.085325375 0.058054484 0.064181045 -0.0058165044 0.017915815
-0.089779675 0.020177577 0.005080648 0.10002076 0.12303689 0.09489541 -0.026792135 -0.007165907
0.026191285 -0.09074553 0.105688944 0.0960162 0.035802156 0.073412895 0.13513133 -0.09875061
-0.123798616 -0.065395005 0.034097027 -0.027245969 -0.010510724 -0.10821004 0.013125076 0.02310553
0.037163533 0.0558396 -0.11186546 0.13798761 0.15740207 0.1804797 -0.17217065 -0.13232769
-0.011265186 -0.12079242 -0.17548454 0.1841 -0.1810468 -0.028464047 0.043146513 0.09354348
-0.12160754 0.015125466 0.13281013 -0.15358779 0.08040827 0.024722358 -0.053503357 -0.005208954
-0.121256 0.15804088 0.031614833 -0.039587423 0.080393635 -0.038703863 -0.019196764 -0.019784516
-0.13546553 0.036077566 0.06082515 0.07509777 -0.06616321 0.0990679 0.06608743 0.019077629
-0.12145697 -0.061709445 -0.13400614 -0.08403639 0.04960151 -0.028353354 0.15799707 -0.034448463
-0.15574926 -0.09884792 0.007585632 -0.0011655092 -0.011592228 -0.08295178 0.24106017 0.037947483
0.0001261856 0.026600352 -0.076587334 0.112817615 0.10316548 -0.040041696 0.012047152 0.11618483
0.08322697 -0.07231885 -0.0920839 0.15372074 -0.06885182 0.09983444 -0.054202273 0.038318854
-0.0165679 0.04402489 0.1246966 -0.06315074 -0.005783053 0.11653874 0.04500489 -0.06361316
-0.053301997 -0.059355866 -0.15744047 -0.0954531 0.058820385 0.058735598 0.082183585 0.12165367
0.08220302 -0.059428256 -0.15929984 0.16131066 0.0219481 0.004977405 0.0731731 -0.13079514
-0.022363547 -0.087120965 -0.03247043 0.11167506 -0.0572564 0.25630918 0.16785662 0.10989948
-0.045212436 -0.085609406 -0.045475613 0.044000015 -0.3540516 -0.03260208 -0.016520472 -0.12030794
0.09208474 0.13533495 -0.10779223 0.047658328 -0.11007668 0.13314807 -0.087355286 0.08860673
00000000: 6cf8 853d 7795 e7bc 899c debb ce58 cbbc
00000010: 4c3e 793d 8ce9 973d 0abb b93d b700 61bd
00000020: 5cf8 debd 19ae f9bd bfd5 4b3d a9ba 8f3d
00000030: d8bf db3c 1927 003e 949d 0b3e f687 edbd
00000040: 3036 81bd 4d75 ee3c ebef 3dbd 6004 1f3c
00000050: 1000 6ebe dbce 0a3d 23c6 b73d 3cef b3bd
00000060: 6ee8 7a3d b238 05bc a295 cb3d 85c8 b7bd
00000070: 50b4 433d d0ea 823c c226 40be 48a6 d5bd
00000080: dba6 dcbd 6ca4 b13d bfb4 f0bd 7036 183d
00000090: 729c 45bc 8029 f8bd ce8f 033e 8164 bdbd
000000a0: 6037 79bd 4b1d ae3d cd62 fd3d 971d ffbd
000000b0: 32a4 9fbd 4902 92bd 4731 02be 16b2 e93d
000000c0: d9e1 eeba 3255 453e 37c3 e7bd 1844 da3c
000000d0: aff8 0e3d 5d4b 403d a675 f63d e73c c13c
000000e0: 0dc9 973d 5763 91bd 41f1 92bc d954 093e
000000f0: bea7 893d 226c bc3d 7a88 d53b 52ff 773e
00000100: 6545 ab3c 0a9c 10be c5fc 28ba 4fb5 46bd
00000110: 2871 c6bd 3931 9bbe a10e 7ebd e437 64bd
00000120: 80b0 02bc 11c3 ddbb 56ba 30bd f4df 233d
00000130: 000b ddbd 11e9 203e 3e6b 11bd d139 46bd
00000140: ba80 25bc 10e2 d0bc ac34 ba3d 0ee4 bf3c
00000150: ecc2 543e 26a2 c73b 5d4c 75bd 844c 483c
00000160: 0529 62bc 9012 e93c fcc4 bcbc c82e 96bd
00000170: 89a3 30bd 5009 3e3d 7f4c 20bd 466e 0ebc
00000180: e0c2 8c3d 9e7b 253e cf0a 693c 6cda 1bbc
00000190: fdb2 a4bb d7f9 873d 1a45 e43d 002c be3b
000001a0: 8a6a 2c3e f2e9 0dbb a8b4 32bd 12bf ae3d
000001b0: 8aca 6d3d 5a71 833d 6098 bebb 30c4 923c
000001c0: 68de b7bd 724b a53c 917b a63b afd7 cc3d
000001d0: c4fa fb3d 8658 c23d 2e7b dbbc fccf eabb
000001e0: 1b8f d63c cbd8 b9bd 7273 d83d 24a4 c43d
000001f0: 48a5 123d 8059 963d de5f 0a3e c33d cabd
00000200: 218a fdbd d1ed 85bd 53a9 0b3d f032 dfbc
00000210: 2c35 2cbc 3a9d ddbd 8f0a 573c cf47 bd3c
00000220: ca38 183d 10b8 643d b819 e5bd a04c 0d3e
00000230: 022e 213e accf 383e 814d 30be e980 07be
00000240: 9d91 38bc 0462 f7bd 38b2 33be b684 3c3e
00000250: 5564 39be 6f2d e9bc 66ba 303d b993 bf3d
00000260: 600d f9bd cdd0 773c 61ff 073e 1e46 1dbe
00000270: 17ad a43d 8b86 ca3c 5626 5bbd e0af aabb
00000280: 1155 f8bd 78d5 213e 8e7e 013d 6c26 22bd
00000290: 6ba5 a43d f187 1ebd 8842 9dbc 2313 a2bc
000002a0: 7ab7 0abe 12c6 133d cb23 793d dccc 993d
000002b0: 9480 87bd 1ce4 ca3d d958 873d b048 9c3c
000002c0: 6fbe f8bd 0bc3 7cbd e838 09be 451b acbd
000002d0: f42a 4b3d 4b45 e8bc fcc9 213e d519 0dbd
000002e0: bc7c 1fbe c770 cabd e590 f83b 00c4 98ba
000002f0: 54ed 3dbc 9fe2 a9bd 7ad8 763e d26e 1b3d
00000300: b050 0439 fbe8 d93c d2d9 9cbd ec0c e73d
00000310: 6c48 d33d c302 24bd 6b61 453c 50f2 ed3d
00000320: e772 aa3d e81b 94bd 7c96 bcbd f868 1d3e
00000330: 2f02 8dbd 0076 cc3d 3403 5ebd 3bf4 1c3d
00000340: 68b9 87bc 7153 343d ee60 ff3d 2d55 81bd
00000350: c47f bdbb ddab ee3d 0c57 383d 9e47 82bd
00000360: 3253 5abd 231f 73bd 1338 21be ea7c c3bd
00000370: a5ed 703d bd94 703d de4f a83d 8f25 f93d
00000380: 0f5a a83d 0b6b 73bd 7f1f 23be 9f2e 253e
00000390: 80cc b33c 8019 a33b c7db 953d 29ef 05be
000003a0: c233 b7bc 7a6c b2bd b7ff 04bd e5b5 e43d
000003b0: b085 6abd f53a 833e 9be2 2b3e fb12 e13d
000003c0: ad30 39bd fc53 afbd a344 3abd 5c39 343d
000003d0: 4046 b5be c289 05bd f155 87bc 0264 f6bd
000003e0: ed96 bc3d 3f95 0a3e 2cc2 dcbd 6135 433d
000003f0: e26f e1bd f857 083e 54e7 b2bd 7277 b53d

weight_hh f4 [192, 64]
-0.066763885 -0.09374474 -0.077250324 -0.06310839 0.126709 0.1594564 -0.0043017687 -0.1871901
0.028071579 -0.18686989 -0.1881979 -0.13800792 -0.14462914 0.092169054 0.12913103 -0.079029806
0.17506675 -0.056255244 -0.06087718 0.019574739 -0.017778091 -0.11585567 0.16307873 -0.06658783
0.13430801 0.016382761 0.057833806 0.02284744 -0.13002858 0.0013032388 0.0733451 0.023730237
0.10403038 0.009575374 0.009260232 0.06705089 0.1715137 0.18217309 -0.040866856 -0.015196359
0.04121781 0.042442195 0.023129083 -0.08027656 -0.12573524 -0.04090717 0.03070959 0.091113664
0.101323105 0.05840934 -0.02519663 -0.0140803745 -0.122393005 -0.05602164 -0.13256791 0.08713673
-0.021868704 0.072435185 0.056232426 -0.102357894 -0.04368369 -0.14397657 -0.10055346 0.12030717
0.08222514 -0.17090334 -0.08709187 0.02219585 -0.08439654 -0.11070092 0.09196589 -0.15040143
-0.14988129 -0.016063256 -0.020553397 -0.14407492 -0.022040276 -0.11593719 0.050932672 0.1560028
0.09862469 -0.03378864 0.07748999 -0.10506159 -0.07859485 -0.045932062 0.13807146 0.04283449
-0.03826613 -0.08300403 0.16961868 0.08940731 -0.09376022 0.052153252 0.096018076 -0.058342975
0.1522445 -0.10501654 0.040391047 -0.005713964 0.025548311 0.023691364 0.0026085416 -0.13514173
0.045238234 0.06090919 0.018012354 -0.051981054 -0.11632341 -0.106287494 0.08255653 0.022016037
0.08111031 0.14936976 0.054015037 -0.101821594 -0.03638427 0.14181966 -0.04083591 0.06129797
0.019383393 -0.07243892 -0.110547975 0.03450651 -0.041646607 0.051483467 -0.005207153 0.09908265
-0.04603637 0.06610191 0.025798881 0.031529654 -0.17289682 0.091378205 0.006234296 -0.026772693
0.036603097 -0.03764043 -0.055388752 -0.11911005 -0.020916456 -0.1189877 -0.0014482131 0.00024406752
0.06360041 0.024060478 0.12483491 0.10896899 -0.0746823 0.06548523 0.05106475 0.10431685
0.085244715 0.07135601 -0.050356798 -0.21106058 -0.03176061 -0.13493031 0.02240652 0.05825558
-0.068834975 -0.055411544 -0.012794386 0.0131948255 0.00040247315 -0.09165732 0.017506177 0.0010726439
0.019328866 -0.015068558 0.06449049 -0.032548144 0.12715706 0.122810714 -0.054794945 -0.1085887
-0.012724551 -0.0012286571 -0.06389084 -0.063714534 0.08796512 0.04106797 -0.03102763 0.06898239
-0.046621002 -0.095376246 0.10178508 0.055795215 0.014880395 -0.107836604 0.12878998 -0.056161948
-0.053785183 -0.085728176 -0.016911523 -0.08653806 0.061622836 0.03282823 0.09491755 0.08568709
-0.00012689414 0.07331262 -0.129798 0.0453976 0.024660679 -0.13146172 0.08779567 0.025092078
0.11991463 -0.030288322 0.11079411 0.041115005 0.027676046 -0.10686893 0.11834485 -0.11291488
-0.115583725 0.021990245 -0.06561653 0.15415493 0.09701784 0.035113513 -0.017617848 0.128025
0.12305566 0.013185288 -0.026182692 -0.038176294 -0.018834779 0.020858346 0.11442528 -0.09215126
-0.12100182 -0.046010707 0.07168935 0.094016634 -0.137428 -0.07326392 0.036303226 -0.041378032
0.11923843 0.10512928 0.03822818 -0.09890295 -0.039408773 0.08234864 0.10646785 -0.019515
0.091404706 -0.12744737 0.028258137 0.12686777 0.0111819925 -0.11987909 0.054951232 0.17129204
00000000: 81bb 88bd 3efd bfbd 6b35 9ebd f93e 81bd
00000010: 01c0 013e 8a48 233e daf5 8cbb c3ae 3fbe
00000020: 5ef6 e53c d25a 3fbe f3b6 40be f351 0dbe
00000030: a919 14be 21c3 bc3d ed3a 043e 61da a1bd
00000040: b344 333e e66b 66bd 5a5a 79bd 345b a03c
00000050: 5ca3 91bc bd45 edbd 1cfe 263e 335f 88bd
00000060: 0a88 093e 2435 863c 24e3 6c3d 8e2a bb3c
00000070: 3626 05be 70d1 aa3a f535 963d ea65 c23c
00000080: e10d d53d 08e2 1c3c 3ab8 173c fa51 893d
00000090: 4aa1 2f3e 958b 3a3e 0164 27bd 26fa 78bc
000000a0: 02d4 283d ded7 2d3d 3479 bd3c 0968 a4bd
000000b0: bdc0 00be 478e 27bd ae92 fb3c cd99 ba3d
000000c0: 7d82 cf3d a23e 6f3d 2a69 cebc 5fb1 66bc
000000d0: 2fa9 fabd f276 65bd e2bf 07be be74 b23d
000000e0: ff25 b3bc e658 943d f953 663d 04a1 d1bd
000000f0: abed 32bd 986e 13be f9ee cdbd 9b63 f63d
00000100: a765 a83d 4901 2fbe 395d b2bd 12d4 b53c
00000110: 18d8 acbd 2ab7 e2bd 9d58 bc3d d502 1abe
00000120: 7b7a 19be 1797 83bc 995f a8bc 6088 13be
00000130: cf8d b4bc 7a70 edbd c79e 503d 33bf 1f3e
00000140: befb c93d f565 0abd 12b3 9e3d 882a d7bd
00000150: 56f6 a0bd 4223 3cbd 9b62 0d3e 3873 2f3d
00000160: f2bc 1cbd 04fe a9bd 85b0 2d3e 2e1b b73d
00000170: 5c05 c0bd a69e 553d 20a5 c43d 0bf9 6ebd
00000180: fbe5 1b3e e912 d7bd 1571 253d 343c bbbb
00000190: b14a d13c 6414 c23c 11f4 2a3b 9862 0abe
000001a0: ba4b 393d ea7b 793d a58e 933c 16ea 54bd
000001b0: f83a eebd 42ad d9bd 6613 a93d fa5a b43c
000001c0: 2a1d a63d 63f4 183e df3e 5d3d d787 d0bd
000001d0: ac07 15bd 2c39 113e 8e43 27bd 9513 7b3d
000001e0: ecc9 9e3c db5a 94bd fa66 e2bd b356 0d3d
000001f0: a295 2abd 54e0 523d c4a0 aabb d8eb ca3d
00000200: a290 3cbd 7060 873d 2d58 d33c 3d25 013d
00000210: dd0b 31be 7f24 bb3d 1149 cc3b 6852 dbbc
00000220: 21ed 153d da2c 1abd 51df 62bd f8ef f3bd
00000230: fd58 abbc d3af f3bd f8d1 bdba 60ec 7f39
00000240: ef40 823d 7b1a c53c 72a9 ff3d 222b df3d
00000250: 09f3 98bd 1f1d 863d 4529 513d 13a4 d53d
00000260: c894 ae3d 1a23 923d ee42 4ebd 4420 58be
00000270: 6a17 02bd 2c2b 0abe e18d b73c 679d 6e3d
00000280: 5af9 8cbd 37f7 62bd 8b9f 51bc 1c2f 583c
00000290: 0803 d339 d5b6 bbbd 1d69 8f3c f597 8c3a
000002a0: 9257 9e3c 1de2 76bc 9713 843d 3451 05bd
000002b0: 7635 023e 2f84 fb3d aa70 60bd c163 debd
000002c0: a37a 50bc e40a a1ba 33d9 82bd c47c 82bd
000002d0: 0f27 b43d e336 283d a82d febc a446 8d3d
000002e0: aaf5 3ebd 9f54 c3bd b274 d03d 8689 643d
000002f0: e6cc 733c 70d9 dcbd 85e1 033e 120a 66bd
00000300: da4d 5cbd 4192 afbd 098a 8abc de3a b1bd
00000310: 3a68 7c3d e576 063d 2264 c23d b77c af3d
00000320: e30e 05b9 ed24 963d c4e9 04be d5f2 393d
00000330: 3105 ca3c e79d 06be 37ce b33d e78d cd3c
00000340: cd95 f53d 371f f8bc 06e8 e23d 3568 283d
00000350: e0b8 e23c 19de dabd c95e f23d eb3f e7bd
00000360: 29b7 ecbd e324 b43c f661 86bd cada 1d3e
00000370: 4ab1 c63d 30d3 0f3d 4e53 90bc fc18 033e
00000380: 9b04 fc3d 1b07 583c 167d d6bc bf5e 1cbd
00000390: 654b 9abc 1fdf aa3c cd57 ea3d cdb9 bcbd
000003a0: cdcf f7bd b975 3cbd ded1 923d cb8b c03d
000003b0: edb9 0cbe 650b 96bd b1b2 143d 037c 29bd
000003c0: 4733 f43d 054e d73d 2795 1c3d a18d cabd
000003d0: 186b 21bd 67a6 a83d d10b da3d ecdd 9fbc
000003e0: 6432 bb3d 9081 02be 9c7d e73c a0e9 013e
000003f0: ad34 373c 2b83 f5bd 8b14 613d 2e67 2f3e

bias_ih f4 [192]
0.07778779 0.01752183 0.077671096 0.1384946 -0.057153877 -0.01069459 -0.11402568 0.05642525
0.11823534 -0.08056638 0.11805889 -0.03245223 0.15318595 0.12948744 0.097388335 -0.06857508
0.098044656 0.14159775 0.16933481 0.07065317 0.028027972 -0.017369723 0.11243369 0.1379675
0.08878001 -0.031748798 0.122384086 -0.092313826 -0.040029068 -0.08899194 0.13795924 0.14126268
0.029543933 0.075576305 -0.05666717 0.07108795 0.015788412 -0.056923307 0.07485407 0.15351313
0.10415646 0.018847337 0.15429282 -0.081445284 -0.06022251 -0.009215143 -0.049535852 0.08304307
0.16455504 0.045583695 -0.01925607 0.07345041 0.12858771 0.102502555 0.036466062 -0.04891247
0.016819673 -0.08166113 0.11596256 0.05219578 0.049316514 0.09333548 0.083912425 0.10840134
-0.12331509 -0.24269089 -0.20583862 -0.08561931 -0.25860402 -0.10671509 -0.28134897 -0.21707961
-0.149509 -0.22227868 -0.20926669 -0.23985739 -0.091426305 -0.31253096 -0.35043868 -0.06440608
-0.2704086 -0.119735055 -0.0023123645 -0.3074744 -0.3289735 -0.12879916 -0.23056118 -0.1254142
0.025105055 -0.19729438 -0.14070071 -0.21689229 -0.12941468 -0.05254827 -0.058070067 -0.105527505
-0.09729079 -0.14518736 -0.29614973 -0.070272855 -0.3081325 -0.29402798 -0.32502273 -0.29733503
0.08436654 -0.22015202 -0.17646103 -0.2757083 -0.16295345 0.003724262 -0.2575222 -0.12327593
-0.27242333 -0.18258028 -0.31923145 -0.21160454 -0.083198614 -0.0720012 -0.15987618 -0.019182257
0.026067762 -0.14840478 -0.09344886 -0.3216473 -0.19277744 -0.16427931 -0.32886633 -0.065378696
-0.14382291 -0.13740556 -0.12524131 -0.08039372 -0.005796552 0.14047873 0.13839713 -0.03909009
-0.030122193 -0.009788033 -0.06740644 -0.10882304 -0.11155866 -0.12400005 -0.036698885 0.059511214
0.11225865 0.013477716 -0.008796064 -0.06795557 0.09480262 -0.032698724 0.011976353 -0.037200917
-0.038427193 0.11432244 0.17453368 0.10481932 -0.08746057 0.049150426 0.09646082 0.0453251
0.07442942 0.07395757 -0.06214394 -0.006936243 0.13254037 -0.12710303 -0.100024626 -0.19281477
-0.0040750033 0.09391627 0.05764093 0.036274504 -0.05753205 0.12834942 0.000562021 0.11198696
0.082302526 0.16524723 -0.08840165 0.015844034 -0.055626895 0.12825748 -0.031750254 0.10244676
-0.14802971 -0.10052838 -0.053822827 -0.06545838 -0.01442393 -0.07690328 0.05979529 0.043495547
00000000: 344f 9f3d f189 8f3c 0612 9f3d 87d1 0d3e
00000010: 2f1a 6abd 5d38 2fbc 4c86 e9bd 2a1e 673d
00000020: 5f25 f23d fcff a4bd dcc8 f13d a1ec 04bd
00000030: c7dc 1c3e 5b98 043e 8973 c73d 1771 8cbd
00000040: a3cb c83d 00ff 103e 1b66 2d3e 9cb2 903d
00000050: eb9a e53c f34a 8ebc a243 e63d 5a47 0d3e
00000060: 4bd2 b53d 070b 02bd 82a4 fa3d 080f bdbd
00000070: 85f5 23bd 6841 b6bd 3045 0d3e 2aa7 103e
00000080: 1e06 f23c c0c7 9a3d d61b 68bd 8f96 913d
00000090: b356 813c 6a28 69bd 174d 993d 8c32 1d3e
000000a0: fb4f d53d bb65 9a3c f0fe 1d3e c9cc a6bd
000000b0: e1ab 76bd 1cfb 16bc 1be6 4abd 7c12 aa3d
000000c0: 1e81 283e f8b5 3a3d e8be 9dbc 2b6d 963d
000000d0: 7fac 033e dcec d13d 705d 153d 7158 48bd
000000e0: 69c9 893c f33d a7bd c77d ed3d 3ecb 553d
000000f0: 1d00 4a3d ac26 bf3d 47da ab3d 8601 de3d
00000100: 9f8c fcbd f683 78be 5cc7 52be 2d59 afbd
00000110: bf67 84be 718d dabd f90c 90be 1e4a 5ebe
00000120: e318 19be 069d 63be 024a 56be 2d9d 75be
00000130: b73d bbbd 0f04 a0be b36c b3be 56e7 83bd
00000140: ff72 8abe a737 f5bd 0a8b 17bb 496d 9dbe
00000150: 376f a8be ede3 03be 3b18 6cbe 946c 00be
00000160: 1ea9 cd3c 8a07 4abe d913 10be 0319 5ebe
00000170: 4885 04be db3c 57bd e1da 6dbd ce1e d8bd
00000180: 6540 c7bd ffab 14be f0a0 97be 37eb 8fbd
00000190: 8bc3 9dbe d68a 96be 6169 a6be 4c3c 98be
000001a0: 5dc8 ac3d 886f 61be 33b2 34be a329 8dbe
000001b0: 45dd 26be bf12 743b f3d9 83be 1778 fcbd
000001c0: 127b 8bbe 53f6 3abe 4e72 a3be dcae 58be
000001d0: 0964 aabd 5d75 93bd 95b6 23be 1c24 9dbc
000001e0: 0f8c d53c 6cf7 17be 1e62 bfbd f4ae a4be
000001f0: 7367 45be d638 28be 2b61 a8be 44e5 85bd
00000200: 5046 13be 0bb4 0cbe 423f 00be 76a5 a4bd
00000210: 01f1 bdbb a8d9 0f3e fab7 0d3e ee1c 20bd
00000220: d1c2 f6bc fc5d 20bc 630c 8abd 9dde debd
00000230: de78 e4bd bdf3 fdbd 9251 16bd 08c2 733d
00000240: dde7 e53d a3d1 5c3c 5e1d 10bc 4a2c 8bbd
00000250: e027 c23d 19ef 05bd 7738 443c fd5f 18bd
00000260: d565 1dbd e221 ea3d f5b8 323e 83ab d63d
00000270: 871e b3bd f551 493d 408d c53d d0a6 393d
00000280: 746e 983d 1177 973d a58a 7ebd 6c49 e3bb
00000290: aab8 073e 4c27 02be b6d9 ccbd 3c71 45be
000002a0: 9b87 85bb 2c57 c03d e518 6c3d 9394 143d
000002b0: baa6 6bbd 086e 033e 9754 133a 6b59 e53d
000002c0: 3a8e a83d 9236 293e ed0b b5bd 59cb 813c
000002d0: 07d9 63bd ee55 033e 8e0c 02bd 9bcf d13d
000002e0: 1a95 17be d3e1 cdbd 5375 5cbd 0b0f 86bd
000002f0: 5952 6cbc 787f 9dbd e8eb 743d 6328 323d

bias_hh f4 [192]
0.080026165 0.17170694 -0.10712643 0.08693332 0.011325825 0.1425743 -0.007945061 -0.02422745
0.10688154 0.042446297 -0.07129842 0.0064706653 0.15069024 0.19922505 0.030564202 0.08953757
0.11737796 0.03547207 0.12842855 0.09961095 -0.020484673 -0.021423502 0.03726798 0.0608909
0.04498054 0.034872826 0.08562218 0.0037478884 0.14246972 0.042671364 0.020038266 -0.030356508
-0.07610858 -0.028015079 -0.01946156 0.16536024 0.022358872 0.024129579 -0.05428102 0.15234113
0.024101935 0.041793138 0.07600338 0.11924111 -0.028307503 0.035031877 0.14758416 -0.018541254
-0.03439865 -0.028074406 -0.023468748 0.015624976 0.12343581 -0.06746651 -0.07480943 0.021423116
0.12667406 0.14296961 -0.061357975 -0.009264641 0.1400434 -0.011063987 -0.008731715 0.10831347
-0.12236334 -0.19759014 -0.26961413 -0.07631657 -0.21258125 -0.016860582 -0.079055965 -0.0361954
-0.27389786 -0.32045677 -0.11215679 -0.24924858 -0.10593354 -0.14801365 -0.20794897 -0.20870343
-0.12833309 -0.267048 0.0244328 -0.22073132 -0.20510203 -0.17528646 -0.011310589 -0.16880526
0.028403727 -0.24528918 -0.16730829 -0.22652455 -0.12826703 -0.06841038 -0.07403477 -0.13049822
-0.21371715 -0.24120383 -0.38343433 -0.071551464 -0.23478481 -0.12087222 -0.11558436 -0.24708448
0.027461946 -0.034453616 -0.03352332 -0.25870994 -0.1327394 -0.23444898 -0.055383384 -0.14691927
-0.33489138 -0.14811337 -0.32391822 -0.27259028 -0.17853943 -0.24400908 -0.15499349 -0.024438161
0.013997898 -0.027382731 -0.06707594 -0.25103006 -0.123097986 0.02230534 -0.12292349 -0.18279953
0.041484874 -0.063070774 -0.012952366 -0.065011345 0.1522127 0.032724805 -0.08078428 -0.16286808
-0.0602815 -0.12718257 -0.06933667 -0.14811197 -0.076204866 -0.163763 0.10078612 0.107261755
-0.024876373 -0.058376078 0.1635208 0.104650244 -0.10391082 -0.040511362 0.1323695 -0.06545961
-0.014484227 -0.004326224 0.12512161 -0.10537133 -0.09109159 0.08873472 0.124281876 0.15719284
0.064924404 0.017558247 0.09976672 0.15517783 0.05891041 0.076842315 -0.0003949109 -0.14927311
0.036394928 0.14816962 0.13019502 -0.024713878 -0.07993592 0.055744473 -0.059703235 0.13195534
0.12757882 0.05098361 -0.13083257 -0.106969915 -0.08322149 0.13657734 -0.16085489 0.042427685
0.042221688 0.051072367 -0.17220274 0.122795664 -0.15953311 0.044776782 0.012658709 0.0853877
00000000: c2e4 a33d f2d3 2f3e 1a65 dbbd 190a b23d
00000010: f48f 393c fffe 113e 002c 02bc a578 c6bc
00000020: b5e4 da3d 2bdc 2d3d e804 92bd e007 d43b
00000030: 8b4e 1a3e a701 4c3e c761 fa3c 795f b73d
00000040: db63 f03d 294b 113d c682 033e d300 cc3d
00000050: 79cf a7bc 5780 afbc 4fa6 183d bd68 793d
00000060: 843d 383d cfd6 0e3d ae5a af3d 229f 753b
00000070: 95e3 113e 2bc8 2e3d 4a27 a43c 36ae f8bc
00000080: d1de 9bbd e17f e5bc d96d 9fbc 3254 293e
00000090: f429 b73c 65ab c53c c655 5ebd 50ff 1b3e
000000a0: 6c71 c53c 482f 2b3d a9a7 9b3d af34 f43d
000000b0: 23e5 e7bc 967d 0f3d 4d20 173e d4e3 97bc
000000c0: 99e5 0cbd 4cfc e5bc 8841 c0bc e6ff 7f3c
000000d0: eacb fc3d e22b 8abd b035 99bd 887f af3c
000000e0: d8b6 013e a066 123e 8052 7bbd b9ca 17bc
000000f0: 8967 0f3e ba45 35bc 780f 0fbc 74d3 dd3d
00000100: a199 fabd 1255 4abe dd0a 8abe dd4b 9cbd
00000110: e6ae 59be 341f 8abc 18e8 a1bd a141 14bd
00000120: 573c 8cbe e912 a4be 76b2 e5bd 053b 7fbe
00000130: aff3 d8bd e490 17be 93f0 54be 5ab6 55be
00000140: c069 03be 84ba 88be 4c27 c83c 6407 62be
00000150: 4406 52be 4b7e 33be 0c50 39bc 49db 2cbe
00000160: efae e83c 162d 7bbe dd52 2bbe 0df6 67be
00000170: 6f58 03be be1a 8cbd 8b9f 97bd 53a1 05be
00000180: abd8 5abe 23fe 76be 8151 c4be 9389 92bd
00000190: 6e6b 70be db8b f7bd 7eb7 ecbd b703 7dbe
000001a0: e0f7 e03c 3c1f 0dbd c04f 09bd a175 84be
000001b0: d6ec 07be 6513 70be b0d9 62bd 0172 16be
000001c0: e276 abbe 08ab 17be 9cd8 a5be f490 8bbe
000001d0: 0ad3 36be 84dd 79be 9db6 1ebe 8a32 c8bc
000001e0: 7157 653c c051 e0bc 1c5f 89bd 0387 80be
000001f0: cc1a fcbd b0b9 b63c 50bf fbbd cd2f 3bbe
00000200: 0bec 293d 402b 81bd 2936 54bc ab24 85bd
00000210: a5dd 1b3e 720a 063d 3b72 a5bd e4c6 26be
00000220: bce9 76bd 263c 02be 6200 8ebd aaaa 17be
00000230: 4c11 9cbd 7db1 27be f468 ce3d 0dac db3d
00000240: 89c9 cbbc c11b 6fbd ff71 273e de52 d63d
00000250: 32cf d4bd 3eef 25bd df8b 073e b00f 86bd
00000260: 404f 6dbc ffc2 8dbb e11f 003e edcc d7bd
00000270: 3a8e babd 8dba b53d 7f87 fe3d 29f7 203e
00000280: 16f7 843d 50d6 8f3c 7e52 cc3d f0e6 1e3e
00000290: 0b4c 713d 815f 9d3d 0b0c cfb9 0ddb 18be
000002a0: d912 153d c7b9 173e d851 053e c274 cabc
000002b0: 72b5 a3bd 5154 643d 618b 74bd 4d1f 073e
000002c0: 06a4 023e 31d4 503d f9f8 05be 0b13 dbbd
000002d0: 0770 aabd eeda 0b3e 25b7 24be a7c8 2d3d
000002e0: a6f0 2c3d 4231 513d ea55 30be 4b7c fb3d
000002f0: a65c 23be dc67 373d 7966 4f3c bfdf ae3d

weight f4 [4, 64]
0.024333572 0.042410348 0.21737647 0.06000564 -0.14887185 -0.16268553 -0.11263925 0.22484863
0.25256887 0.15478645 0.19940384 0.13540351 0.19968694 -0.019601991 -0.17799279 -0.021482099
-0.14512673 -0.0383692 -0.1907067 -0.008123707 0.040499035 0.1757538 -0.13805078 0.048357338
-0.10066076 -0.1876842 -0.19649842 0.0041931146 -0.04316726 -0.19941828 -0.100717954 -0.1682913
-0.19323729 -0.10538956 -0.021835659 -0.1967319 -0.18652686 -0.07682446 0.13726684 0.094017364
-0.21153048 -0.03830739 -0.0688276 0.1559977 0.07424018 -0.18654123 0.092940256 -0.21753815
-0.17453097 -0.07051788 0.15861136 0.17885736 0.09684232 -0.022269208 0.08119871 -0.21471713
0.17989819 -0.00038309133 0.07029792 0.14771645 0.24200499 0.10557358 0.10948713 -0.009776835
-0.00044779904 0.043688305 0.108601645 0.15931047 -0.27388096 -0.081638776 -0.10342198 0.1576723
-0.024600845 0.19843632 0.22067927 -0.10962931 0.033239193 -0.13314323 0.095956415 -0.0072436905
0.006848343 -0.036225427 -0.12836078 0.09154579 0.12645851 -0.059860967 -0.18846016 0.14943124
-0.06461905 -0.16014126 -0.03402887 -0.1538241 0.19000906 0.022434488 -0.14305569 -0.003393727
-0.21405303 0.08271798 -0.101930425 -0.13065101 -0.20413037 -0.14560509 0.22262993 -0.019608082
-0.045539837 -0.10607517 -0.07093647 0.16892293 0.00073684397 -0.12403466 0.075206414 -0.08034154
0.05256328 -0.17412008 0.19129713 -0.0069232006 0.040377732 -0.03266902 0.08069362 -0.14411272
0.17132442 0.026205068 0.019579642 0.18107739 -0.028522525 0.011567733 0.2506229 -0.03980847
0.25584644 0.045545895 -0.2541498 0.046366587 0.18133044 0.014179947 0.12537074 -0.08750023
0.08634771 -0.2275093 -0.06511443 -0.042095084 -0.16829708 0.21509382 -0.4189363 -0.31814533
-0.1630428 0.36789033 0.17695822 -0.42929763 -0.4020143 -0.03291961 -0.010604457 -0.04813281
-0.14934303 0.08256973 0.040814206 0.30047572 -0.10351139 0.051829446 0.0031299605 -0.0114236055
-0.039968215 -0.3878658 0.3474692 0.043911386 0.14703941 0.2677061 -0.28737727 0.07836723
0.08579415 -0.074023865 -0.22078902 -0.41218677 0.1465644 0.091418825 0.32395384 -0.12849861
-0.33037654 0.038411014 -0.23102784 0.31160268 -0.16803573 -0.29431346 -0.29826805 -0.09087384
-0.042474143 0.15926762 -0.1221155 -0.39760318 0.14015345 0.07261106 -0.3132001 -0.262131
-0.28537005 -0.14313377 0.053560033 0.03069478 0.039677795 0.12201597 -0.054580778 -0.10631944
-0.22924146 0.13008589 -0.09689942 -0.22806329 -0.0827923 -0.2634621 0.29262143 0.07362026
0.14913517 -0.3132955 0.13671388 0.28861076 0.113589205 -0.03331935 -0.08599887 -0.12079137
0.0732937 0.04112255 0.17724124 0.051653612 -0.15285042 0.007983041 0.15119714 0.09184758
0.1762831 0.26506928 -0.09337491 0.12449037 -0.08889621 -0.014127512 0.1341953 -0.16971092
0.023226751 0.11296258 0.07600511 0.15140598 -0.22643381 0.1131847 -0.057260897 0.07644494
0.20834252 0.13000071 0.026330125 -0.2891349 0.14320077 0.073586084 -0.08958795 0.030727593
-0.14127855 -0.22075814 -0.17833416 0.0844652 -0.17837359 -0.22572936 0.0031012893 0.19845626
00000000: 3357 c73c 79b6 2d3d f097 5e3e 79c8 753d
00000010: dd71 18be 0997 26be 68af e6bd b83e 663e
00000020: b550 813e 5780 1e3e 8530 4c3e 38a7 0a3e
00000030: bc7a 4c3e 5b94 a0bc be43 36be 3afb afbc
00000040: 1a9c 14be 0629 1dbd 9e48 43be 4c19 05bc
00000050: 51e2 253d cef8 333e 2f5d 0dbe 5812 463d
00000060: 3b27 cebd 4930 40be e236 49be 6566 893b
00000070: 27d0 30bd 4e34 4cbe 3745 cebd 8e54 2cbe
00000080: ffdf 45be 7bd6 d7bd b2e0 b2bc 1674 49be
00000090: e600 3fbe 2456 9dbd ae8f 0c3e 2d8c c03d
000000a0: 729b 58be 36e8 1cbd 7cf5 8cbd dcbd 1f3e
000000b0: 3c0b 983d aa04 3fbe 7657 be3d 52c2 5ebe
000000c0: 3fb8 32be ae6b 90bd 046b 223e 6226 373e
000000d0: 4455 c63d ea6d b6bc 824b a63d cfde 5bbe
000000e0: 3b37 383e a6d9 c8b9 5bf8 8f3d fb42 173e
000000f0: 28d0 773e f636 d83d ca3a e03d 052f 20bc
00000100: 92c6 eab9 82f2 323d 8a6a de3d 4922 233e
00000110: 203a 8cbe 3b32 a7bd e7ce d3bd d974 213e
00000120: b687 c9bc e432 4b3e bff9 613e 5585 e0bd
00000130: d225 083d b356 08be cc84 c43d 7b5c edbb
00000140: 1168 e03b 1d61 14bd 0271 03be 5c7c bb3d
00000150: 577e 013e c630 75bd b3fb 40be 8104 193e
00000160: fe56 84bd 12fc 23be db61 0bbd 1184 1dbe
00000170: bc91 423e 88c8 b73c 317d 12be 4a69 5ebb
00000180: b830 5bbe 0b68 a93d e6c0 d0bd 61c9 05be
00000190: 8d07 51be 8019 15be 1af9 633e 21a1 a0bc
000001a0: fb87 3abd f03d d9bd 2447 91bd 22fa 2c3e
000001b0: c328 413a e205 febd d205 9a3d 1b8a a4bd
000001c0: 984c 573d 894c 32be 65e3 433e 04dc e2bb
000001d0: 1f63 253d f3cf 05bd b242 a53d 4992 13be
000001e0: ab6f 2f3e 03ac d63c 7c65 a03c 5a6c 393e
000001f0: 12a8 e9bc 9786 3d3c a551 803e 350e 23bd
00000200: 4efe 823e 558e 3a3d ec1f 82be e4ea 3d3d
00000210: b0ae 393e 0253 683c 3061 003e 5233 b3bd
00000220: 11d7 b03d 33f8 68be b75a 85bd e56b 2cbd
00000230: 1256 2cbe 8e41 5c3e d27e d6be f2e3 a2be
00000240: b1f4 26be 1f5c bc3e 8934 353e e6cc dbbe
00000250: d1d4 cdbe b7d6 06bd 51be 2dbc e926 45bd
00000260: 61ed 18be 521a a93d cc2c 273d f4d7 993e
00000270: c8fd d3bd 1d4b 543d 0620 4d3b 132a 3bbc
00000280: b6b5 23bd 5996 c6be 7ce7 b13e 6ddc 333d
00000290: 8091 163e c610 893e 1d23 93be 007f a03d
000002a0: d8b4 af3d d399 97bd 8416 62be 250a d3be
000002b0: fa14 163e cb39 bb3d 47dd a53e 2495 03be
000002c0: 1d27 a9be de54 1d3d 9092 6cbe 638a 9f3e
000002d0: 8f11 2cbe 41b0 96be 97b6 98be 101c babd
000002e0: 5ef9 2dbd 0d17 233e b117 fabd a592 cbbe
000002f0: 6384 0f3e 1cb5 943d c35b a0be 0936 86be
00000300: 061c 92be a991 12be c461 5b3d 9f73 fb3c
00000310: 2f85 223d 82e3 f93d 1890 5fbd 02be d9bd
00000320: 46be 6abe 3c35 053e 3473 c6bd 6c89 69be
00000330: 028f a9bd 81e4 86be 7ad2 953e 38c6 963d
00000340: e4b6 183e 4568 a0be b9fe 0b3e cac4 933e
00000350: 75a1 e83d df79 08bd 2d20 b0bd 7761 f7bd
00000360: 021b 963d 1e70 283d ba7e 353e bd92 533d
00000370: d284 1cbe 4dcb 023c 6cd3 1a3e 961a bc3d
00000380: 8f83 343e 29b7 873e 583b bfbd cff4 fe3d
00000390: 370f b6bd 1577 67bc 7e6a 093e b3c8 2dbe
000003a0: 0746 be3c ed58 e73d 91a8 9b3d 2b0a 1b3e
000003b0: 44de 67be 61cd e73d 678a 6abd 2a8f 9c3d
000003c0: be57 553e e81e 053e 46b2 d73c 7d09 94be
000003d0: 39a3 123e 4db4 963d e379 b7bd 6fb8 fb3c
000003e0: 53ab 10be 6c0e 62be 3b9d 36be 17fc ac3d
000003f0: 91a7 36be 9925 67be 003f 4b3b 1e38 4b3e

bias f4 [4]
-0.104608685 -0.016607 0.07065084 0.0077288323
00000000: 143d d6bd 670b 88bc 63b1 903d 2542 fd3b

welford_state_mean f4 [7]
0.49650344 0.3986013 0.48251748 0.05594405 0.04195805 0.0 0.13286713
00000000: b335 fe3e 7815 cc3e 880c f73e 9725 653d
00000010: 34dc 2b3d 0000 0000 520e 083e

welford_state_mean_diff f4 [7]
35.521893 34.377426 35.49131 8.39668 6.632473 1.0 16.778046
00000000: 6b16 0e42 7c82 0942 1af7 0d42 cd58 0641
00000010: 383d d440 0000 803f 7039 8641

hidden f4 [6, 64]
-0.67565525 -0.8962512 -0.80906296 -0.8908526 0.9368975 0.9767711 0.41684124 -0.83204406
-0.8813149 -0.1634697 -0.9861744 -0.9608545 -0.9856425 -0.567205 0.8050703 0.62425894
0.6489594 -0.63162714 0.9659649 0.760706 0.041391574 -0.19744723 0.43070495 -0.98759854
0.7145941 0.9539063 0.96756196 0.29020652 -0.9421049 0.50446135 0.84977317 0.9571992
0.9736082 0.8365556 0.31737402 0.98007125 0.28738195 0.39758688 -0.268385 -0.94684845
0.76291776 0.90477246 0.67067796 0.4586341 -0.7235556 0.9556321 -0.5049265 0.93513244
0.7989529 0.931558 -0.36556217 -0.68103224 0.17756677 0.5519271 -0.6239701 0.91705537
-0.96956193 -0.8622435 -0.9944196 0.29929098 -0.8164719 -0.8183906 -0.8407694 0.52080536
-0.6756552 -0.89625126 -0.80906296 -0.8908526 0.9368975 0.9767711 0.41684124 -0.83204406
-0.8813149 -0.1634697 -0.9861744 -0.9608545 -0.9856425 -0.5672052 0.8050703 0.62425894
0.64895946 -0.6316271 0.9659649 0.7607059 0.04139161 -0.1974472 0.43070495 -0.98759854
0.71459407 0.9539063 0.96756196 0.29020655 -0.9421049 0.50446135 0.84977317 0.9571992
0.9736082 0.83655554 0.31737402 0.98007125 0.287382 0.39758688 -0.268385 -0.9468484
0.7629177 0.90477246 0.67067796 0.45863417 -0.7235556 0.9556321 -0.50492656 0.93513244
0.7989529 0.931558 -0.36556217 -0.6810322 0.17756675 0.5519271 -0.6239701 0.91705537
-0.96956193 -0.8622435 -0.9944196 0.29929098 -0.8164719 -0.8183906 -0.84076947 0.52080536
-0.67565525 -0.8962512 -0.80906296 -0.8908525 0.9368975 0.9767711 0.41684124 -0.83204406
-0.8813149 -0.1634697 -0.9861744 -0.9608545 -0.9856425 -0.5672051 0.8050703 0.62425894
0.6489594 -0.63162714 0.9659649 0.760706 0.04139161 -0.19744721 0.43070495 -0.98759854
0.7145941 0.9539063 0.96756196 0.29020652 -0.9421049 0.50446135 0.84977317 0.9571992
0.9736082 0.8365556 0.31737402 0.98007125 0.28738195 0.39758688 -0.268385 -0.9468484
0.7629178 0.90477246 0.67067796 0.4586341 -0.7235556 0.9556321 -0.5049265 0.93513244
0.79895294 0.9315581 -0.36556217 -0.68103224 0.17756677 0.5519271 -0.6239701 0.91705537
-0.96956193 -0.8622435 -0.9944196 0.29929104 -0.8164719 -0.8183906 -0.8407694 0.52080536
-0.67565525 -0.8962512 -0.80906296 -0.8908526 0.9368975 0.9767711 0.41684124 -0.83204406
-0.8813149 -0.1634697 -0.9861744 -0.9608545 -0.9856425 -0.567205 0.8050703 0.62425894
0.6489594 -0.6316271 0.9659649 0.760706 0.041391574 -0.19744721 0.43070495 -0.98759854
0.7145941 0.9539063 0.96756196 0.29020652 -0.9421049 0.50446135 0.84977317 0.9571992
0.9736082 0.8365556 0.31737402 0.98007125 0.28738198 0.39758688 -0.268385 -0.9468484
0.7629178 0.90477246 0.67067796 0.4586341 -0.7235556 0.9556321 -0.5049265 0.93513244
0.7989529 0.931558 -0.36556217 -0.68103224 0.17756677 0.5519271 -0.6239701 0.91705537
-0.96956193 -0.8622435 -0.9944196 0.29929104 -0.8164719 -0.8183906 -0.8407694 0.52080536
00000000: bef7 2cbf b870 65bf c01e 4fbf ea0e 64bf
00000010: 84d8 6f3f ac0d 7a3f 376c d53e d700 55bf
00000020: da9d 61bf 9a64 27be ed75 7cbf 8ffa 75bf
00000030: 1153 7cbf 5934 11bf 1619 4e3f 6fcf 1f3f
00000040: 3422 263f 51b2 21bf 7a49 773f a1bd 423f
00000050: 368a 293d 9b2f 4abe 5c85 dc3e 42d3 7cbf
00000060: a4ef 363f 3433 743f 24b2 773f f395 943e
00000070: c92d 71bf 6124 013f bc8a 593f 020b 753f
00000080: 633e 793f 8228 563f d97e a23e f3e5 7a3f
00000090: ba23 933e 8290 cb3e c269 89be a964 72bf
000000a0: 944e 433f 2b9f 673f 8db1 2b3f 17d2 ea3e
000000b0: f13a 39bf 4ea4 743f dd42 01bf d764 6f3f
000000c0: 2d88 4c3f 967a 6e3f f72a bbbe 2158 2ebf
000000d0: 10d4 353e 184b 0d3f 81bc 1fbf 24c4 6a3f
000000e0: 3635 78bf fdbb 5cbf 4892 7ebf ab3c 993e
000000f0: 4d04 51bf 0c82 51bf aa3c 57bf 8053 053f
00000100: bdf7 2cbf b970 65bf c01e 4fbf ea0e 64bf
00000110: 84d8 6f3f ac0d 7a3f 376c d53e d700 55bf
00000120: da9d 61bf 9a64 27be ed75 7cbf 8ffa 75bf
00000130: 1153 7cbf 5c34 11bf 1619 4e3f 6fcf 1f3f
00000140: 3522 263f 50b2 21bf 7a49 773f 9fbd 423f
00000150: 408a 293d 992f 4abe 5c85 dc3e 42d3 7cbf
00000160: a3ef 363f 3433 743f 24b2 773f f495 943e
00000170: c92d 71bf 6124 013f bc8a 593f 020b 753f
00000180: 633e 793f 8128 563f d97e a23e f3e5 7a3f
00000190: bc23 933e 8290 cb3e c269 89be a864 72bf
000001a0: 934e 433f 2b9f 673f 8db1 2b3f 19d2 ea3e
000001b0: f13a 39bf 4ea4 743f de42 01bf d764 6f3f
000001c0: 2d88 4c3f 967a 6e3f f72a bbbe 2058 2ebf
000001d0: 0fd4 353e 184b 0d3f 81bc 1fbf 24c4 6a3f
000001e0: 3635 78bf fdbb 5cbf 4892 7ebf ab3c 993e
000001f0: 4d04 51bf 0c82 51bf ab3c 57bf 8053 053f
00000200: bef7 2cbf b870 65bf c01e 4fbf e90e 64bf
00000210: 84d8 6f3f ac0d 7a3f 376c d53e d700 55bf
00000220: da9d 61bf 9a64 27be ed75 7cbf 8ffa 75bf
00000230: 1153 7cbf 5a34 11bf 1619 4e3f 6fcf 1f3f
00000240: 3422 263f 51b2 21bf 7a49 773f a1bd 423f
00000250: 408a 293d 9a2f 4abe 5c85 dc3e 42d3 7cbf
00000260: a4ef 363f 3433 743f 24b2 773f f395 943e
00000270: c92d 71bf 6124 013f bc8a 593f 020b 753f
00000280: 633e 793f 8228 563f d97e a23e f3e5 7a3f
00000290: ba23 933e 8290 cb3e c269 89be a864 72bf
000002a0: 954e 433f 2b9f 673f 8db1 2b3f 17d2 ea3e
000002b0: f13a 39bf 4ea4 743f dd42 01bf d764 6f3f
000002c0: 2e88 4c3f 977a 6e3f f72a bbbe 2158 2ebf
000002d0: 10d4 353e 184b 0d3f 81bc 1fbf 24c4 6a3f
000002e0: 3635 78bf fdbb 5cbf 4892 7ebf ad3c 993e
000002f0: 4d04 51bf 0c82 51bf aa3c 57bf 8053 053f
00000300: bef7 2cbf b870 65bf c01e 4fbf ea0e 64bf
00000310: 84d8 6f3f ac0d 7a3f 376c d53e d700 55bf
00000320: da9d 61bf 9a64 27be ed75 7cbf 8ffa 75bf
00000330: 1153 7cbf 5934 11bf 1619 4e3f 6fcf 1f3f
00000340: 3422 263f 50b2 21bf 7a49 773f a1bd 423f
00000350: 368a 293d 9a2f 4abe 5c85 dc3e 42d3 7cbf
00000360: a4ef 363f 3433 743f 24b2 773f f395 943e
00000370: c92d 71bf 6124 013f bc8a 593f 020b 753f
00000380: 633e 793f 8228 563f d97e a23e f3e5 7a3f
00000390: bb23 933e 8290 cb3e c269 89be a864 72bf
000003a0: 954e 433f 2b9f 673f 8db1 2b3f 17d2 ea3e
000003b0: f13a 39bf 4ea4 743f dd42 01bf d764 6f3f
000003c0: 2d88 4c3f 967a 6e3f f72a bbbe 2158 2ebf
000003d0: 10d4 353e 184b 0d3f 81bc 1fbf 24c4 6a3f
000003e0: 3635 78bf fdbb 5cbf 4892 7ebf ad3c 993e
000003f0: 4d04 51bf 0c82 51bf aa3c 57bf 8053 053f
