r2l/logs_demo/ppo/karel-topOff-1000/378828-seed1000/critic.pt (torch, 59147 bytes, 8 tensors)

weight_ih f4 [192, 4]
0	0xbde24504	-0.1104832
1	0xbd440374	-0.047854856
2	0xbde1d396	-0.11026685
3	0xbd1957f1	-0.037437383
4	0xbd9a763c	-0.07542083
5	0x3cf73645	0.030177245
6	0xbdc1cb9a	-0.09462662
7	0x3db7a481	0.089669235
8	0xbddc5347	-0.107580714
9	0xbd9e8268	-0.07739717
10	0x3da4953d	0.080362774
11	0x3c72f367	0.014828539
12	0xbe1a9286	-0.15094957
13	0xbcca4c21	-0.024694504
14	0x3d58507a	0.052811123
15	0x3e3ac486	0.1823903
16	0xbcb65c18	-0.02226071
17	0x3df67043	0.12033131
18	0xbd91d092	-0.0711986
19	0x3e09b8f0	0.13449454
20	0x3d129087	0.035782363
21	0x3b2ec2aa	0.0026666322
22	0xbd4bfc51	-0.049801175
23	0x3cce9c96	0.02522115
24	0x3bd397c6	0.006457302
25	0x3da76ea9	0.081754036
26	0xbd97c25a	-0.074101165
27	0x3e010a43	0.12601571
28	0x3c7768c8	0.015100665
29	0xbd32aa9c	-0.043619737
30	0x3bf0fd00	0.0073543787
31	0xbde1dae6	-0.1102808
32	0xbda30566	-0.07960014
33	0xbce54edc	-0.027991705
34	0x3dbc6dfa	0.09200664
35	0x3cbc959b	0.023020556
36	0xbd71c3f7	-0.059024777
37	0x3cb7ad66	0.02242155
38	0x3c9a4721	0.018832745
39	0x3ca7547e	0.020426031
40	0xbe015995	-0.12631829
41	0xbd1ba8d0	-0.03800279
42	0x3d99fd07	0.07518964
43	0x3c5455be	0.012959896
44	0x3d6120ff	0.05496311
45	0x3df503bf	0.11963605
46	0xbcc72b0b	-0.024312517
47	0x3d7e1219	0.062028978
48	0x3dbebdd0	0.093135476
49	0xbdb2fdea	-0.087398365
50	0x3d83fda9	0.06444866
51	0x3dbbb88c	0.09166059
52	0xbdb4d709	-0.08830077
53	0x3d82c84c	0.0638586
54	0xbd007fd8	-0.03137192
55	0xbdd2cb01	-0.10292626
56	0x3c1ce1b7	0.009575299
57	0x3b98f0cc	0.004667377
58	0xbe1cda55	-0.15317662
59	0x3ccdbc08	0.025114074
60	0xbd4088ff	-0.04700565
61	0x3d59a271	0.05313343
62	0x3e153430	0.14570689
63	0xbd10cb0b	-0.035349887
64	0xbd9081f5	-0.07056037
65	0x3d10eaeb	0.035380285
66	0x3cbeb536	0.023279767
67	0x3e232697	0.1593269
68	0xbdd59332	-0.10428466
69	0xbd09252e	-0.033482723
70	0xbcfb6cc8	-0.03069152
71	0xbd59a08d	-0.05313163
72	0x3b204554	0.0024455385
73	0x3d7aa4e0	0.061192393
74	0xbe0c8b0f	-0.13724922
75	0x3df6442f	0.12024724
76	0xbdf9b942	-0.12193538
77	0x3d623bd3	0.055232834
78	0xbd1a0bab	-0.037608784
79	0x3d1b50f5	0.037919004
80	0xbdb7d3ae	-0.089759216
81	0xbc3ff003	-0.011714938
82	0xbd2e31e2	-0.04252804
83	0xbd40f93d	-0.047112692
84	0xbdbb35f4	-0.0914115
85	0x3929f8f2	0.00016209835
86	0x3dbc015b	0.09179946
87	0xbcef4373	-0.029206967
88	0x3e046118	0.12927663
89	0xbdb3fde9	-0.08788664
90	0xbd4e20fb	-0.05032442
91	0x3d4a9375	0.049457032
92	0x3cca0b67	0.02466364
93	0x3d55b7a0	0.05217707
94	0x3dd1cea0	0.10244489
95	0xbdb68ab0	-0.08913171
96	0xbc010cbc	-0.007876571
97	0xbd875e2e	-0.0660976
98	0x3d578210	0.05261427
99	0x3da14fc7	0.078765444
100	0xbdd8fec6	-0.10595469
101	0xbdcc1538	-0.09964985
102	0xbd88248d	-0.066475965
103	0xbd7b6493	-0.061375212
104	0xbd2627a9	-0.040565167
105	0xbdb8c752	-0.09022392
106	0xbdcdcd22	-0.100488916
107	0xbba2ae38	-0.004964616
108	0xbdb9ff43	-0.090818904
109	0xbdbe5a20	-0.09294534
110	0x3df18bf1	0.1179427
111	0xbcfe35e8	-0.031031564
112	0x3c8e7ddb	0.017393997
113	0x3d1ff246	0.03904941
114	0xbc992200	-0.01869297
115	0xbdf794b3	-0.12088909
116	0xbd825bd4	-0.06365171
117	0xbdc24ddc	-0.09487507
118	0x3daf40f2	0.08557309
119	0xbdabea40	-0.08394289
120	0x3e0b0ac0	0.1357832
121	0xbe034b3d	-0.1282167
122	0xbce87317	-0.028375192
123	0x3df1e3b1	0.11811007
124	0x3c709647	0.014684266
125	0x3dbe3a26	0.09288435
126	0xbc67750c	-0.014127027
127	0xbdf719fe	-0.120655045
128	0xbdea83ad	-0.114508964
129	0xbd168216	-0.036745153
130	0xbcfe0ad5	-0.031011024
131	0xbd9d42c8	-0.07678753
132	0x3b93bc38	0.0045085214
133	0x3b02f504	0.0019982466
134	0xbc5e259e	-0.013558773
135	0xbc27ecd3	-0.010249334
136	0x3d604941	0.05475736
137	0xbc80daaf	-0.015729276
138	0x3bd8e456	0.0066190166
139	0x3dd1be40	0.102413654
140	0x3d8a2a19	0.06746311
141	0x3c6dd6ad	0.014516515
142	0xbdc4edea	-0.09615691
143	0x3d838264	0.064213544
144	0xbcdb9e11	-0.02680877
145	0xbcf6ed0f	-0.030142335
146	0x3d84ef02	0.064908996
147	0x3e4afac8	0.19822228
148	0x3e0c74fb	0.137165
149	0x3d0bd6b0	0.03414029
150	0xbad88236	-0.0016518298
151	0xbbd36b5f	-0.0064520086
152	0x3ddf23f5	0.1089553
153	0xbda1434b	-0.07874163
154	0xbdb346d4	-0.08753744
155	0xbd860bb8	-0.06545204
156	0x3ccec5b6	0.02524076
157	0x3e20b850	0.1569531
158	0x3da13949	0.078722544
159	0x3befa6a6	0.007313567
160	0x3cdcf108	0.026970401
161	0xbd944cd3	-0.072412156
162	0xbdbee732	-0.09321441
163	0x3d841990	0.06450188
164	0x3da18b0d	0.0788785
165	0xbd50559d	-0.050862897
166	0xbcccaaaa	-0.024983723
167	0x394e8f84	0.00019699155
168	0xbd4d0b11	-0.050059382
169	0x3db45185	0.08804611
170	0xbde68113	-0.11255088
171	0xbdafad96	-0.08578031
172	0x3e2bfb28	0.16795027
173	0xbe1f2a1d	-0.15543409
174	0xbcb8a394	-0.022538938
175	0xbd7c027a	-0.0615258
176	0xbda8964a	-0.0823179
177	0x3d5bbfa5	0.053649563
178	0x3e03f531	0.12886502
179	0xbe210e4d	-0.15728112
180	0x3d498c5c	0.049206123
181	0x3d491887	0.049095657
182	0x3d3342ae	0.043764763
183	0xbd3aa724	-0.045569554
184	0x3ca83a0b	0.02053549
185	0xbdc7457c	-0.0973005
186	0x3ddbb812	0.10728468
187	0x3cf67721	0.030086102
188	0x3dddb2cf	0.10825121
189	0x3ac4122d	0.001495903
190	0x3c1492c1	0.009068192
191	0xbdcbdf7b	-0.09954735
192	0xbceebf83	-0.029144054
193	0x3d670956	0.056405388
194	0x3dc911fd	0.09817884
195	0xbd4f2cd1	-0.05057985
196	0x3e01fb66	0.12693557
197	0x3d068cb2	0.03284902
198	0xbe085d30	-0.13316798
199	0xbe1c5632	-0.15267256
200	0xbdcd3c7d	-0.10021303
201	0x3db9af0b	0.0906659
202	0x3d55ab18	0.05216512
203	0x3d51919e	0.051164262
204	0x3c5cd8b0	0.013479397
205	0x3d213c94	0.039364412
206	0x3dbb3591	0.09141076
207	0x3c956f7b	0.018241635
208	0xbd91d27f	-0.07120227
209	0x3d0bfc9f	0.034176465
210	0x3d860ca0	0.06545377
211	0x3df696ba	0.120404676
212	0x3d316109	0.04330543
213	0x3d235095	0.03987177
214	0xbe04c0a3	-0.1296411
215	0xbdc576e6	-0.09641819
216	0x3cee8069	0.029113965
217	0xbc73b0c8	-0.014873691
218	0xbdaa2c34	-0.08309212
219	0x3d9e52b5	0.07730619
220	0x3d240620	0.040044904
221	0x3d394652	0.04523308
222	0x3d947039	0.07247967
223	0x3d597659	0.05309138
224	0x3dd46644	0.10371068
225	0x3da6ff12	0.081541196
226	0xbdbab247	-0.09116035
227	0x3d875311	0.066076405
228	0x3dea4918	0.11439723
229	0x3d9f963e	0.07792328
230	0xbd6326a6	-0.05545678
231	0xbc5100b4	-0.012756515
232	0xbcc2904f	-0.023750452
233	0xbcadc86b	-0.02121373
234	0xbdd05e27	-0.10174208
235	0x3c180348	0.009278126
236	0xbd35281e	-0.04422771
237	0xbdcc6174	-0.09979525
238	0xbdac2181	-0.08404828
239	0xbdb3c6ce	-0.08778153
240	0xbd486941	-0.048928503
241	0xbe0e9022	-0.1392217
242	0x3cb2018c	0.021729253
243	0x3a3c0701	0.00071726745
244	0xbc9a3c0c	-0.01882746
245	0xbdc4f7e5	-0.09617595
246	0xbdbab8a9	-0.091172524
247	0x3c8e8c5d	0.017400915
248	0xbddabdce	-0.106807336
249	0x3d97124e	0.07376538
250	0xbda206da	-0.07911463
251	0xbd9b2abc	-0.0757651
252	0x3dca677c	0.09883019
253	0xbdf8fd35	-0.121576704
254	0x3df21588	0.11820513
255	0xbdcf4adb	-0.101216994

weight_hh f4 [192, 64]
0	0x3c3d77bf	0.011564194
1	0xbd9df0f4	-0.07711974
2	0x3d3c68f9	0.045998547
3	0xbc7971a9	-0.015224853
4	0xbce3c502	-0.027803902
5	0x3d0caa32	0.034342
6	0x3b3b0ad0	0.002854038
7	0x3ba45dcc	0.0050160643
8	0xbd6eb466	-0.05827751
9	0xbd9664d2	-0.07343449
10	0xbdc8875e	-0.09791444
11	0x3d3341dd	0.043763984
12	0x3d46da53	0.048548054
13	0xbde68d5b	-0.1125743
14	0x3da9c2ed	0.08289132
15	0x3dfdfbff	0.1240158
16	0xbdbc0916	-0.091814205
17	0xbdf33b51	-0.11876548
18	0xbdf3a063	-0.11895826
19	0x3ded1f86	0.11578278
20	0x3b40fcd1	0.0029447565
21	0xbd9199f5	-0.07109443
22	0xbc65e820	-0.014032394
23	0x3da71eee	0.08160196
24	0x3c9759e9	0.01847549
25	0x3db3fa01	0.08787919
26	0xbdab01a8	-0.08349925
27	0xbddeed73	-0.108851336
28	0xbda88880	-0.0822916
29	0xbdbf26bd	-0.093335606
30	0xbc9ae16b	-0.018906316
31	0xbdc8879b	-0.0979149
32	0x386b997b	5.6171306e-05
33	0x3bfeaf3e	0.0077723553
34	0xbc8e5393	-0.017373836
35	0xbd540d38	-0.05177042
36	0x3de931e9	0.11386473
37	0x3d16de8a	0.036833324
38	0x3d88523b	0.06656309
39	0xbdb867fe	-0.0900421
40	0x3cb53cc0	0.022123694
41	0xbd91c2d7	-0.07117241
42	0xbdaa3c0c	-0.08312234
43	0xbd9d857d	-0.076914765
44	0x3d939358	0.07205838
45	0x3d9b161a	0.07572575
46	0x3dc37c3e	0.09545182
47	0x3ded85c7	0.11597782
48	0xbda16a7d	-0.07881639
49	0x3d8ec955	0.06971995
50	0x3cf32432	0.029680345
51	0x3df60188	0.12012011
52	0xbd1e7c3c	-0.038692698
53	0xbdcff0a8	-0.101533234
54	0xbddc2c8c	-0.10750684
55	0xbd47fe67	-0.0488266
56	0xbdaa9c8f	-0.083306424
57	0x3d16281e	0.036659352
58	0x3d8f6c98	0.070031345
59	0xbd01ebae	-0.031718902
60	0xbdd39d6a	-0.10332759
61	0x3d522bb9	0.05131123
62	0x3d8a6a40	0.06758547
63	0xbde98101	-0.11401559
64	0x3de5d2aa	0.112218216
65	0xbd8799ad	-0.06621108
66	0xbbc41929	-0.0059844446
67	0x3dd6fe78	0.10497755
68	0xbdf4281b	-0.11921712
69	0x3db68476	0.08911984
70	0xbd9dd0e3	-0.077058576
71	0xbc837771	-0.016048165
72	0x3dc3178e	0.09525977
73	0xbded1edc	-0.115781516
74	0xbd0c0fc6	-0.03419473
75	0xbdb327bf	-0.08747815
76	0xbd8d09e1	-0.0688665
77	0xbdda10b1	-0.10647715
78	0xbdba1556	-0.09086101
79	0xbb9d868b	-0.0048072985
80	0x3dda320d	0.10654078
81	0x3b6cec17	0.0036151463
82	0x3d018d64	0.03162898
83	0x3d81b602	0.06333543
84	0xbdb401fe	-0.087894425
85	0xbc96d6b7	-0.01841293
86	0xbdc87b38	-0.09789127
87	0x3d8b7fe8	0.068115056
88	0x3d505b93	0.050868582
89	0xbbaf86b8	-0.005356636
90	0xbdee61b3	-0.116397284
91	0xbd465f2d	-0.04843061
92	0xbddb7877	-0.10716336
93	0xbcb92273	-0.022599434
94	0xbcb62891	-0.02223614
95	0xbd138e02	-0.0360241
96	0x3dadefe7	0.08493023
97	0x3d8d0e7d	0.06887529
98	0x3d72ff52	0.059325524
99	0x3d731170	0.0593428
100	0xbdd168b5	-0.102250494
101	0x3e07e10f	0.13269447
102	0xbcc2b6c4	-0.02376879
103	0xbd8fe818	-0.0702669
104	0x3dccc45d	0.09998391
105	0xbca3e6e9	-0.020007567
106	0xbcf0b9c9	-0.029385464
107	0x3c2c2bf2	0.010508524
108	0xbcd5321b	-0.026024869
109	0xbddd3998	-0.10802001
110	0xbda89270	-0.08231056
111	0xbd8e242a	-0.069404915
112	0x3cd77da3	0.026305025
113	0x3dd7b197	0.105319194
114	0xbdd2901f	-0.10281395
115	0xbd620a21	-0.05518544
116	0xbdbd7510	-0.092508435
117	0x3e0d2010	0.13781762
118	0x3d709e6b	0.05874483
119	0x3d20e5c2	0.039281614
120	0x3d60e2b9	0.05490372
121	0xbd2617d7	-0.04055008
122	0xbd890e88	-0.06692225
123	0x3da5d633	0.08097496
124	0xbddd1047	-0.1079412
125	0x3dc77f12	0.097410336
126	0xbd39584d	-0.045250226
127	0x3d4d7529	0.05016056
128	0xbd9b91c1	-0.0759616
129	0xbc09f32a	-0.008419791
130	0x3d077269	0.033068094
131	0xbc956c36	-0.018240076
132	0x3d33a9ab	0.04386298
133	0x3d7dc3df	0.061954375
134	0x3d482517	0.048863497
135	0x3ded5883	0.11589148
136	0xbcd0b771	-0.025478097
137	0x3ca4ce14	0.020117797
138	0x3c9a45b5	0.018832067
139	0xbddddca4	-0.108330995
140	0xbdef4017	-0.11682146
141	0xbdb82cbd	-0.08992908
142	0x3c99bee5	0.018767783
143	0xbd4d025e	-0.050051086
144	0xbd7ba2e4	-0.06143464
145	0x3df73ed3	0.1207253
146	0x3dc5d6b9	0.09660096
147	0xbdb47ece	-0.088132486
148	0xbd2cd44b	-0.042194646
149	0x3df93976	0.12169163
150	0x3c8c65de	0.017138418
151	0xbd1daa51	-0.038492505
152	0xbd023334	-0.031787112
153	0xbdd8f644	-0.105938464
154	0xbdca412d	-0.098757125
155	0x3dbadab7	0.09123748
156	0xbdcdef74	-0.10055438
157	0x3dcd27e7	0.100173764
158	0x3dcc0d56	0.09963481
159	0x3d1620ed	0.036652494
160	0x3d8d59f6	0.06901924
161	0x3ddff382	0.10935117
162	0x3d94f264	0.07272795
163	0xbd846fdb	-0.06466647
164	0x3cc5bc50	0.024137646
165	0x3e079fe2	0.13244584
166	0x3d9cf32a	0.07663567
167	0xbdd88f03	-0.10574152
168	0xbdf630bb	-0.12021013
169	0x3dc351ee	0.09537111
170	0x3cbd60cd	0.023117447
171	0x3cde8dc1	0.027167203
172	0xbe00abe4	-0.12565571
173	0xbcadab8b	-0.021199962
174	0x3d8faafd	0.07015035
175	0x3cacbc6b	0.021085938
176	0xbc2b1221	-0.010441334
177	0xbd7dc370	-0.06195396
178	0x3dc60c1e	0.0967028
179	0x3dab32c8	0.08359295
180	0xbdefe82c	-0.11714205
181	0xbd91e69b	-0.07124063
182	0x3dacee8f	0.08443939
183	0x3d88e818	0.06684893
184	0x3cfee8b1	0.031116815
185	0xbb8c6f0c	-0.0042856988
186	0x3d63ea9c	0.055643663
187	0xba260243	-0.00063327345
188	0xbbbb9119	-0.005724084
189	0xbd02cded	-0.031934667
190	0x3cb92c50	0.022604138
191	0xbd37fc41	-0.044918302
192	0x3de6387f	0.112412445
193	0x3c105a35	0.0088105695
194	0x3c42be58	0.011886202
195	0x3ca11f8e	0.019668367
196	0xbd1dcd74	-0.038526013
197	0x3c0b4d86	0.00850237
198	0x3c198881	0.009370924
199	0x3dd3c7ce	0.10340844
200	0x3de992cd	0.11404953
201	0xbae5119a	-0.0017476559
202	0x3c3184ae	0.010834856
203	0xbdf2a3ec	-0.11847672
204	0xbdaea7f0	-0.08528125
205	0xbdb29f02	-0.087217346
206	0xbd2d0693	-0.042242598
207	0xbdc38710	-0.095472455
208	0x3c40037d	0.011719582
209	0x3d6285e4	0.05530347
210	0xbdc3b2a9	-0.09555561
211	0x3c0fc9e9	0.0087761665
212	0x3c99fffc	0.01879882
213	0xbde10e4c	-0.10989055
214	0x3d940602	0.072277084
215	0x3d601cab	0.05471484
216	0xbd852de9	-0.06502897
217	0xbde5345f	-0.111916296
218	0xbca3ccd8	-0.019995138
219	0xbd365af2	-0.044520326
220	0xbd94edb3	-0.072719
221	0xbd7894ec	-0.060688898
222	0xbc9041e5	-0.017609546
223	0x3d6d83b7	0.05798694
224	0xbdf58ff7	-0.1199035
225	0xbdb15034	-0.08657876
226	0xbe0a18cb	-0.1348602
227	0xbd3dbce5	-0.046322722
228	0x3cd972b0	0.026543945
229	0xbdc3bc66	-0.095574185
230	0xbda84954	-0.08217111
231	0x3de93798	0.11387557
232	0x3de29b6e	0.11064802
233	0xbcb47089	-0.022026317
234	0x3ddb27ee	0.10700975
235	0x3ce134e3	0.027491039
236	0xbdbaff2e	-0.09130703
237	0x3d4accf3	0.04951186
238	0xbdb56c32	-0.08858527
239	0xbbbda556	-0.005787532
240	0x3cc20463	0.023683732
241	0xbd2240bd	-0.03961252
242	0x3dd1b66a	0.10239871
243	0xbe00ea5d	-0.12589402
244	0x3d9600af	0.07324349
245	0x3d21db30	0.039515674
246	0x3d724d5d	0.05915581
247	0x3c1b1212	0.0094647575
248	0x3d4ea51e	0.050450437
249	0xbe0b0eae	-0.13579819
250	0x3d9f8361	0.077887304
251	0xbcdceff4	-0.026969887
252	0x3d75b115	0.05998333
253	0x3d07632d	0.033053566
254	0xbd1f5f9c	-0.03890954
255	0xbd70fac0	-0.058832884

bias_ih f4 [192]
0	0x3da9ba71	0.08287514
1	0x3c416a2e	0.0118051
2	0xbdbf1221	-0.0932963
3	0x3d21b5cd	0.03948002
4	0xbb967aea	-0.004592289
5	0x3da3a137	0.07989734
6	0x3d16d203	0.036821377
7	0x3e035fc3	0.12829499
8	0x3b2150c6	0.0024614795
9	0xbd39096d	-0.045175005
10	0x3e1a93e6	0.15095481
11	0x3d3652f3	0.0445127
12	0xbd19892f	-0.037484344
13	0x3d251572	0.040303655
14	0x3cdfd58b	0.027323505
15	0xbd6a0c72	-0.057140775
16	0x3c5f60e7	0.013633943
17	0x3deb1a5d	0.11479638
18	0xbd9b2472	-0.07575311
19	0xbd13cc4e	-0.036083512
20	0xbdc308e8	-0.09523183
21	0x3cef8d7e	0.029242273
22	0xbdcf518a	-0.10122974
23	0x3d2415a2	0.040059693
24	0x3c289034	0.010288287
25	0x3c7c2094	0.015388627
26	0xbb1b8295	-0.0023728956
27	0xbdb663c9	-0.08905751
28	0xbda39e7c	-0.07989213
29	0x3d9c0ef5	0.0762004
30	0xbdbb1c46	-0.09136252
31	0x3e067ddc	0.13133949
32	0xbd164b25	-0.036692757
33	0x3dec2556	0.11530559
34	0x3d19724f	0.03746253
35	0xbdab554e	-0.0836588
36	0xbd762b62	-0.060099967
37	0x3c459408	0.012059219
38	0xbd4af842	-0.049553163
39	0xbd23d2f1	-0.03999609
40	0x3d4c804e	0.04992705
41	0x3d58f2c7	0.052965906
42	0xbc836f1c	-0.016044192
43	0xbe117f89	-0.14208807
44	0x3b84c9ed	0.0040523917
45	0x3de2f23c	0.11081359
46	0x3c934592	0.01797751
47	0x3ca871b8	0.020562038
48	0xbd875d8e	-0.06609641
49	0x3dc70ad4	0.09718862
50	0x3d190926	0.03736224
51	0xbc77f160	-0.015133232
52	0x3d9c1719	0.07621593
53	0x3d599ae8	0.053126246
54	0xbc0b06c0	-0.008485496
55	0x3df61cf3	0.120172404
56	0xbe03b36b	-0.12861411
57	0xbce57055	-0.028007666
58	0xbd938ef0	-0.072049975
59	0xbca846e9	-0.020541625
60	0xbde0fa34	-0.109852225
61	0x3da63824	0.08116177
62	0x3bcf8a21	0.006333605
63	0x3d90e8ae	0.0707563
64	0x3dee9e35	0.11651269
65	0xbda7c092	-0.08191027
66	0xbe08c68c	-0.1335699
67	0xbd783d72	-0.060605474
68	0x3da637c2	0.08116104
69	0xbd6dfa34	-0.05809994
70	0xbb33ec06	-0.0027453913
71	0x3da8af62	0.082365766
72	0xbcd228b7	-0.02565418
73	0x3d8c0394	0.0683662
74	0x3e9c8be8	0.3057549
75	0x3e67b310	0.226269
76	0xbd462031	-0.048370544
77	0x3e49bfe3	0.19702105
78	0xbd0512c4	-0.0324886
79	0x3e6da99b	0.2320923
80	0xbd0ffb90	-0.035152018
81	0x3d805e18	0.06267947
82	0xbe25af71	-0.16180207
83	0xbcce8f4d	-0.025214816
84	0x3daa14a0	0.08304715
85	0x3ccf0fae	0.025276031
86	0x3e25f8b1	0.1620815
87	0x3e053590	0.13008714
88	0xbd8233fa	-0.0635757
89	0xbd3b1ae3	-0.045679938
90	0xbd9920ef	-0.07476985
91	0xbc3a5e85	-0.011375074
92	0xbdec5e90	-0.11541474
93	0xbcc3a172	-0.023880694
94	0xbc3870cf	-0.011257364
95	0x3d2c8031	0.04211444
96	0xbdc7e0bd	-0.09759662
97	0x3e894b74	0.2681538
98	0x3d087a31	0.033319656
99	0xbd2f7ac7	-0.0428417
100	0x3e19271a	0.14956322
101	0xbda39f51	-0.079893716
102	0xbd6d0b25	-0.057871956
103	0xbd6c96e7	-0.0577611
104	0xbd31b592	-0.04338605
105	0x3daa9ad8	0.08330315
106	0x3e50a5e6	0.20375785
107	0xbd26a738	-0.040686816
108	0x3c0f4bcb	0.008746098
109	0xba8362d4	-0.001002396
110	0x3e30baa2	0.17258695
111	0x3d26eb7b	0.040751915
112	0xbdd16fd8	-0.102264106
113	0x3dbc4119	0.09192104
114	0xbdbde584	-0.09272292
115	0xbdaae95f	-0.08345293
116	0x3e47015f	0.19434117
117	0xbe2b0c7c	-0.16703981
118	0x3dd26d66	0.10274772
119	0xbd8a42ac	-0.06750998
120	0x3c26baf2	0.010176407
121	0xbdd1fd5a	-0.10253401
122	0xbd887692	-0.066632405
123	0xbd753b74	-0.059871152
124	0xbdff0193	-0.12451472
125	0xbdd70c16	-0.10500352
126	0xbcadf505	-0.021234998
127	0x3db159ca	0.08659704
128	0xbd8c1693	-0.06840243
129	0x3db132e9	0.086522885
130	0xbd6761bc	-0.05648969
131	0xbd7b1a40	-0.06130433
132	0x3874bf29	5.8352165e-05
133	0x3d977539	0.07395405
134	0xbde33c4c	-0.11095485
135	0x3befe30c	0.0073207673
136	0xbd8a276e	-0.06745802
137	0x3defc66a	0.11707766
138	0xbca6b573	-0.020350194
139	0xbdadb912	-0.08482565
140	0xbbb673ee	-0.005568019
141	0xbd6b4eb3	-0.0574481
142	0x3ce63fe5	0.02810664
143	0xbd231e8f	-0.039824065
144	0xbd53aba0	-0.051677346
145	0xbdc15a7e	-0.09441088
146	0xbdc5dc2b	-0.09661134
147	0xbd7d0959	-0.061776493
148	0x3d536210	0.05160719
149	0x3dd0526c	0.10171971
150	0xbd37600e	-0.04476934
151	0xbd05fdba	-0.032712676
152	0x3ca48f34	0.020087816
153	0x3d8d0c0b	0.06887063
154	0x3e05c834	0.13064653
155	0x3d67835c	0.05652176
156	0x3d65d758	0.05611357
157	0x3d80e1e8	0.06293088
158	0xbcce5936	-0.025189023
159	0x3db4dbdd	0.08830998
160	0xbd42943a	-0.04750464
161	0x3ded3996	0.11583249
162	0xbd9df592	-0.077128544
163	0x3d35926a	0.044329084
164	0xbde2f89f	-0.11082577
165	0xbe037cb2	-0.12840536
166	0x3d626f8b	0.055282157
167	0x3dcfb48f	0.10141861
168	0xbd48e387	-0.049045112
169	0x3d1889aa	0.03724066
170	0xbd24ae09	-0.040205035
171	0x3c167ffc	0.009185787
172	0xbc79fff4	-0.015258778
173	0xbde0bb7d	-0.109732606
174	0x3dc01c4f	0.093803994
175	0x3d822a2a	0.063556984
176	0xbd347473	-0.044056367
177	0xbb735c67	-0.0037133934
178	0x3dd0dcf1	0.10198391
179	0xbd17fc72	-0.037105985
180	0xbd11b68b	-0.035574477
181	0x3d84508b	0.06460675
182	0x3c1e80cf	0.009674265
183	0xbd48270a	-0.048865356
184	0xbdb3cba4	-0.08779076
185	0xbdaefa70	-0.08543861
186	0x3ac8f1b5	0.0015330823
187	0x3d182ede	0.03715407
188	0xbcfda46f	-0.030962197
189	0x3b97e43d	0.0046353624
190	0xbd05997d	-0.03261708
191	0xbb49f4bd	-0.0030816041

bias_hh f4 [192]
0	0xbdd8fff1	-0.10595692
1	0xbdf19cd9	-0.117974944
2	0x3de6bd3f	0.112665646
3	0x3d473d19	0.04864225
4	0xbdd8173e	-0.10551308
5	0xbddbedef	-0.107387416
6	0xbdac574b	-0.08415087
7	0x3dd9242e	0.10602604
8	0xbd5802a4	-0.052736893
9	0xbd887c6a	-0.06664355
10	0xbc20083d	-0.009767589
11	0xbdf9c408	-0.12195593
12	0x3d999a9e	0.07500194
13	0x3d1513a6	0.03639569
14	0x3db51b2d	0.08843074
15	0x3d5c9413	0.053852152
16	0xbddfa593	-0.10920253
17	0xbdd6962b	-0.10477861
18	0x3de515e8	0.11185819
19	0x3d3bb9a6	0.045831345
20	0xbb2b36d5	-0.0026125212
21	0x3dca7642	0.09885837
22	0x3c5b51da	0.013386214
23	0xbe09c9fa	-0.13455954
24	0x3e04f31a	0.12983361
25	0xbccbf203	-0.024895674
26	0x3c0a8bc1	0.0084561715
27	0xbd2946ed	-0.041327406
28	0xbd8ddcfc	-0.06926915
29	0x3c5daeea	0.013530472
30	0x3ddd9262	0.10818936
31	0x3e04bd7e	0.1296291
32	0xbd507565	-0.050893206
33	0x3acf2183	0.0015802834
34	0xbcd14ea8	-0.025550202
35	0x3c9b61aa	0.018967468
36	0xbc25e9b0	-0.010126516
37	0xbd449bfe	-0.04800033
38	0xbb5778d5	-0.0032878418
39	0x3d38fb17	0.045161333
40	0xbc9a73f1	-0.018854113
41	0x3dbb7f82	0.091551796
42	0xbdaa960d	-0.08329401
43	0xbaf14516	-0.001840743
44	0xbdbd865c	-0.09254143
45	0x3da27c52	0.079338685
46	0xbd5a2d44	-0.053265825
47	0x3dc77f5c	0.09741089
48	0xbde85240	-0.11343813
49	0x3e02d6ca	0.12777248
50	0xbdea401f	-0.114380114
51	0x3c87f9e0	0.016598642
52	0xbe08f46a	-0.13374487
53	0x3cd70d9f	0.026251612
54	0xbd02e16a	-0.031953253
55	0x3d995db8	0.074885786
56	0xbe011070	-0.12603927
57	0xbc2f1b18	-0.010687612
58	0x3d545149	0.051835332
59	0xbe050ff2	-0.12994364
60	0xbce55001	-0.02799225
61	0xbd3b3445	-0.045704145
62	0xbd6fe5ca	-0.058568753
63	0x3d877a4e	0.06615125
64	0x3db23cbf	0.08702993
65	0xbdd05122	-0.10171725
66	0xbe028b09	-0.1274835
67	0x3def7aef	0.116933696
68	0x3dfb9436	0.12284128
69	0x3bd30d71	0.0064408113
70	0xbbaeeb21	-0.005338088
71	0xbc8f3674	-0.01748202
72	0x3d8c9398	0.06864089
73	0x3de5f0c0	0.1122756
74	0x3ea51fcc	0.32250822
75	0x3d30d1b5	0.043168742
76	0x3cc31110	0.023811847
77	0x3d0105bc	0.03149961
78	0xbc9c73e0	-0.019098222
79	0x3e05981f	0.13046311
80	0xbbdcd702	-0.006739498
81	0xbd7580ef	-0.059937414
82	0x3d98954c	0.07450351
83	0xbdbb50f7	-0.09146302
84	0xbd9e48fc	-0.077287644
85	0x3b9759c0	0.0046188533
86	0x3c9929e0	0.018696725
87	0x3d3da66a	0.046301283
88	0xbcd7bab1	-0.026334139
89	0xbdc82cb8	-0.097741544
90	0xbce6d990	-0.028179914
91	0x3e147daf	0.1450107
92	0x3d32b0dd	0.0436257
93	0x3d1fe8c2	0.039040335
94	0xbdb255ab	-0.08707746
95	0x3d8f1a62	0.06987454
96	0x3d26276e	0.040564947
97	0x3e6ea66c	0.23305672
98	0x3dd8cd46	0.10586028
99	0xbdd087c4	-0.10182145
100	0x3c828cf3	0.01593635
101	0x3dcb6806	0.0993195
102	0xbd66babd	-0.05633043
103	0xbe78bd26	-0.24290904
104	0xbd06ad1c	-0.032879934
105	0xbd995f9e	-0.07488941
106	0x3def555e	0.116862044
107	0x3e42971b	0.19002955
108	0xbd9613ea	-0.07328017
109	0xbe16e593	-0.14736013
110	0xbb890150	-0.0041810647
111	0x3e11f0ef	0.14252065
112	0xbd527b63	-0.051387202
113	0xbd9733ad	-0.07382903
114	0xbd6615ae	-0.05617302
115	0x3cee72f3	0.029107546
116	0xbc6b7134	-0.014370251
117	0xbe17c3f6	-0.14820847
118	0x3e04d127	0.1297041
119	0xbda12e58	-0.078701675
120	0xbdae1541	-0.085001476
121	0xbc1c1cd0	-0.009528354
122	0xbd725f1f	-0.059172746
123	0xbc99e0bc	-0.01878392
124	0xbd63b207	-0.055589702
125	0xbdfb0c20	-0.12258172
126	0xbd16a1a3	-0.036775243
127	0x3d14dbbe	0.036342375
128	0x3db158b9	0.08659501
129	0xbe05c586	-0.1306363
130	0x3de889a4	0.11354378
131	0x3de3bf50	0.11120474
132	0x3d8fbbb8	0.070182264
133	0x3d040424	0.03223051
134	0x3dd69dfe	0.10479353
135	0x3cff26c7	0.03114642
136	0x3dd1aef5	0.102384485
137	0xbdb069b8	-0.08613914
138	0xbd232d7c	-0.0398383
139	0xbd437ec3	-0.04772831
140	0xbd5fe234	-0.054659083
141	0x3d34ff34	0.044188693
142	0x3d87d41e	0.06632255
143	0xbdae782b	-0.08519014
144	0x3cf49e49	0.029860632
145	0x3d96a655	0.07355944
146	0xbdb55e34	-0.088558584
147	0xbdfab3f3	-0.12241354
148	0x3c17de55	0.009269317
149	0x3da5ed50	0.081019044
150	0xbd8ff8bc	-0.07029864
151	0xbd996ff6	-0.07492058
152	0x3d669221	0.056291703
153	0x3d59f327	0.053210404
154	0x3d013b72	0.031550832
155	0xbd75b44d	-0.0599864
156	0xbda08669	-0.07838137
157	0x3d791e1c	0.06081973
158	0x3c1453c5	0.009053175
159	0xbdd2df95	-0.10296551
160	0xbd4faace	-0.0507
161	0x3d98e284	0.074650794
162	0x3ddb86c1	0.10719062
163	0x3e01147b	0.12605469
164	0xbd36b9b8	-0.04461071
165	0x3dbe4d09	0.09292037
166	0xbabae188	-0.0014257887
167	0xbc1be4ec	-0.009515028
168	0xbdf82345	-0.12116102
169	0xbd473413	-0.048633646
170	0x3bf4d376	0.007471497
171	0xbd337e3e	-0.043821566
172	0xbaf66a18	-0.0018799929
173	0x3ce9c497	0.028536124
174	0xbcfbcadb	-0.030736377
175	0xbc662dc5	-0.014048998
176	0xbc3c7119	-0.011501574
177	0x3dfb15ca	0.12260015
178	0x3c971e8b	0.018447181
179	0xbde5dfc0	-0.112243176
180	0x39d1457b	0.00039915353
181	0x3d108cc1	0.035290483
182	0xbd5200b4	-0.0512702
183	0xbdc16e26	-0.09444837
184	0x3d045c3d	0.032314528
185	0xbe00f9f0	-0.12595344
186	0x3d845c5b	0.06462928
187	0xbdb3bea2	-0.08776595
188	0xbd4a8faa	-0.049453415
189	0x3df6f4a0	0.12058377
190	0xbe05feac	-0.13085431
191	0x3dd2b5e5	0.102886

weight f4 [1, 64]
0	0xbd8dd0c7	-0.06924587
1	0xbd5ac0e2	-0.053406604
2	0x3db57b2a	0.08861382
3	0xbdbdfc33	-0.09276619
4	0xbdb0d958	-0.08635205
5	0x3dce1def	0.10064303
6	0x3d4951c6	0.04915025
7	0x3c4014f1	0.011723743
8	0xbbf2ad1c	-0.00740589
9	0x3d01f963	0.031731974
10	0xbd3f9009	-0.046768222
11	0x3d132d88	0.035932094
12	0xbbf42ee4	-0.007451879
13	0x3d3b4c9f	0.04572737
14	0x3dfb9880	0.122849464
15	0xbbbade01	-0.0057027345
16	0x3d897d7e	0.06713389
17	0xbc104023	-0.008804354
18	0xbd652092	-0.055939265
19	0xbccf0f35	-0.025275806
20	0x3cefa3b0	0.029252857
21	0x3cd00c12	0.02539638
22	0x3d5e88a5	0.054329533
23	0x3d75f330	0.060046375
24	0x3cc2c27d	0.02377438
25	0x3d90d5aa	0.07072003
26	0x3c9cfea1	0.019164385
27	0xbd8a1f4d	-0.067442514
28	0x3d8495e0	0.06473899
29	0x3ddd613f	0.10809564
30	0xbd5cfff7	-0.053955045
31	0xbd73fbef	-0.059566434
32	0xbc863690	-0.01638344
33	0xbd8855a3	-0.06656959
34	0xbbbff701	-0.0058583026
35	0x3d82e3f5	0.063911356
36	0x3d224e4f	0.039625462
37	0xbe01e678	-0.12685573
38	0x3e05033a	0.12989512
39	0x3e0714f3	0.13191585
40	0xbceefbdf	-0.029172836
41	0xbd984aae	-0.07436119
42	0x3db93b92	0.09044565
43	0x3de5d8e4	0.11223009
44	0x3daef395	0.08542553
45	0xbdf24379	-0.11829276
46	0xbd2fec84	-0.04295017
47	0x3d63e49f	0.055637952
48	0xbded443b	-0.115852796
49	0x3cae26aa	0.02125867
50	0x398a533e	0.0002638343
51	0xbd373e7d	-0.044737328
52	0x3d9f684f	0.07783567
53	0x3dc34877	0.09535306
54	0x3db9db7b	0.09075066
55	0xbdc5d0ca	-0.09658964
56	0xbd959312	-0.07303442
57	0xbdae7f57	-0.08520382
58	0xbc91415d	-0.017731363
59	0x3cdfc366	0.027314853
60	0xbde5a248	-0.11212593
61	0x3d2161b4	0.039399818
62	0xbdba5d31	-0.09099806
63	0x3b939ee1	0.004505024

welford_state_mean f4 [4]
0	0x3f4d4fde	0.8019999
1	0x3f526e96	0.8219999
2	0x3f64dd35	0.89400035
3	0x3f12f1a6	0.57399976

welford_state_mean_diff f4 [4]
0	0x431e84ec	158.51923
1	0x43126ef0	146.43335
2	0x42bd83fb	94.757774
3	0x43742267	244.13438

hidden f4 [6, 64]
0	0xbd90f6f8	-0.070783556
1	0x3e824845	0.25445762
2	0xbdd84073	-0.10559168
3	0xbd8e88b5	-0.069596685
4	0xbe8453fe	-0.2584533
5	0x3e02eece	0.1278641
6	0xbe3fdced	-0.1873662
7	0xbe1e7195	-0.15473016
8	0x3d9cf873	0.076645754
9	0x3da02ac4	0.07820657
10	0xbc50881c	-0.0127277635
11	0xbdafad38	-0.08577961
12	0xbd27806a	-0.04089395
13	0xbe93d07b	-0.28869995
14	0xbeb34982	-0.3501702
15	0xbd72e428	-0.059299618
16	0x3e38df9a	0.18054047
17	0xbb74ae80	-0.0037335455
18	0xbe850197	-0.25977775
19	0x3d6bbfe0	0.057556033
20	0xbdb41ce4	-0.08794573
21	0xbde5c3e4	-0.11219004
22	0xbe81041e	-0.25198454
23	0x3d4d8833	0.050178718
24	0xbd751303	-0.059832584
25	0x3d1f1b8c	0.03884463
26	0x3de58eda	0.112088874
27	0xbe5ea870	-0.21743941
28	0x3d23a4ed	0.039952207
29	0x3ee07006	0.43835467
30	0xbea5a786	-0.32354373
31	0x3d6dbe4d	0.058042813
32	0xbdb0ca28	-0.08632308
33	0x3edddddd	0.4333333
34	0x3dc1e1ed	0.0946692
35	0x3e4f9f72	0.20275667
36	0xbe80f203	-0.2518464
37	0xbd9e5a8c	-0.07732114
38	0xbd1d9d33	-0.038479995
39	0x3d3ff215	0.046861727
40	0xbe5b4186	-0.21411714
41	0xbe8af4f7	-0.27140018
42	0x3dddd80a	0.10832222
43	0xbe6e3861	-0.23263694
44	0x3de052e6	0.109533116
45	0xbebbab45	-0.36654106
46	0x3eab687e	0.3347816
47	0x3e1a1f19	0.15050925
48	0xbdeb36ee	-0.114850864
49	0x3d9b3ef6	0.07580368
50	0x3e6b6366	0.22987136
51	0xbe2ea156	-0.17053732
52	0x3e7c584a	0.24643055
53	0xbe3f69bd	-0.1869268
54	0x3e817a0e	0.25288433
55	0xbd825e26	-0.06365614
56	0xbe48a13b	-0.19592755
57	0x3c6a6484	0.014306191
58	0x3e043ecc	0.1291458
59	0x3ebe36be	0.3715114
60	0x3e587f8c	0.21142405
61	0xbe4df98c	-0.20114726
62	0xbbf169e0	-0.0073673576
63	0x3d45e0c6	0.048310064
64	0xbd1120c4	-0.03543164
65	0x3e4c4d7c	0.19951433
66	0x3d8be4e8	0.0683077
67	0xbe5c8c7d	-0.21537967
68	0xbdbe71b8	-0.09299034
69	0x3e50f40b	0.20405595
70	0x3dac81d0	0.08423197
71	0xbe11ff1e	-0.14257476
72	0x3e1ba7d8	0.15200746
73	0x3bd64400	0.006538868
74	0x3d3bdd2a	0.045865215
75	0xbde51995	-0.1118652
76	0x3e2b62a8	0.16736853
77	0xbdb6b5fe	-0.08921431
78	0xbe79fa72	-0.24411944
79	0xbedf8965	-0.4365951
80	0x3e5e9684	0.21737105
81	0x3ddd4fce	0.10806237
82	0xbd929154	-0.071566254
83	0xbc08fbd0	-0.008360818
84	0x3e56f3d1	0.20991446
85	0xbce21f7b	-0.027602902
86	0xbe5eaeff	-0.21746443
87	0xbe4f5a02	-0.20249179
88	0x3ea86316	0.32888097
89	0x3e09f506	0.13472375
90	0x3ef65746	0.4811346
91	0x3d8caa60	0.06868434
92	0x3d690860	0.056892753
93	0x3e61cde8	0.22051203
94	0xbe507234	-0.20356065
95	0x3e0d3f3a	0.1379365
96	0xbe4f5b54	-0.20249683
97	0x3e8b52a0	0.27211475
98	0xbdfd081b	-0.123550616
99	0x3e09d32b	0.1345946
100	0xba281fe0	-0.0006413441
101	0x3e0c88f6	0.13724121
102	0xbdcb200e	-0.09918223
103	0x3e249ba3	0.16074996
104	0xbd136c2c	-0.035991833
105	0xb9955a80	-0.00028486922
106	0x3dbaf861	0.09129406
107	0xbd5f8e44	-0.054579034
108	0xbdece3e5	-0.11566905
109	0xbdd08244	-0.10181096
110	0x3d38c0d4	0.04510577
111	0x3dc81453	0.097695015
112	0x3c696f88	0.0142477825
113	0x3db2cfab	0.08731016
114	0xbd08a314	-0.03335865
115	0xbe4d0dfa	-0.20024863
116	0x3ded22e5	0.11578921
117	0x39d99500	0.0004150048
118	0xbcdbafae	-0.026817169
119	0x3be16eb0	0.00687965
120	0x3d85fde3	0.06542566
121	0xbe3e0f92	-0.18560627
122	0xbcf42738	-0.029803857
123	0x3d928a0e	0.07155238
124	0x3d925614	0.07145324
125	0xbd7f3545	-0.06230666
126	0xbe720d39	-0.23637857
127	0x3ed385eb	0.4131311
128	0xbdd71b67	-0.105032735
129	0x3e9b2fe2	0.3030997
130	0xbd9b8c47	-0.07595115
131	0xbe2acab9	-0.16678895
132	0xbe7143de	-0.23561046
133	0x3df5ef5a	0.12008543
134	0xbe4245ba	-0.18971911
135	0xbe1b668c	-0.15175837
136	0x3ce039f0	0.027371377
137	0x3e03a87f	0.12857245
138	0x3d9d0ec2	0.076688305
139	0xbd47165f	-0.04860532
140	0x3d080154	0.03320439
141	0xbeb3076d	-0.34966603
142	0xbec91c6a	-0.3927949
143	0xbe0a81de	-0.13526103
144	0x3e0a5af0	0.13511252
145	0x3b6325c0	0.0034659952
146	0xbe959195	-0.29212633
147	0xbc874bd0	-0.016515642
148	0x3b7d3680	0.003863722
149	0xbdd05149	-0.10171754
150	0xbe5664dc	-0.20936912
151	0xbb396920	-0.002829142
152	0x3dcb8ec1	0.099393375
153	0x3dc55db2	0.096370116
154	0x3e3b9342	0.18317893
155	0xbe2e564d	-0.17025109
156	0x3c84e01e	0.016220149
157	0x3ed9a0d7	0.42505524
158	0xbea225db	-0.31669506
159	0x3de704cb	0.11280211
160	0xbdaf4aa0	-0.085591555
161	0x3ed8f415	0.4237372
162	0x3d74d9d2	0.059778042
163	0x3e520bef	0.20512365
164	0xbe2cf08f	-0.16888641
165	0xbd4c57ae	-0.049888305
166	0x3c19a958	0.009378754
167	0x3dcfb437	0.10141795
168	0xbdbb96ac	-0.09159598
169	0xbe51126e	-0.20417187
170	0x3dcd3740	0.10020304
171	0xbe8ff78b	-0.28118548
172	0x3d82c729	0.06385643
173	0xbea1366f	-0.31486842
174	0x3e993bff	0.29928586
175	0x3da75963	0.08171346
176	0xbd6193e9	-0.0550727
177	0xb917ba00	-0.00014469773
178	0x3e0e9db4	0.13927346
179	0xbe488567	-0.19582139
180	0x3e75b3a8	0.23994315
181	0xbe1273be	-0.14301965
182	0x3e95388e	0.2914471
183	0xbbbd8526	-0.005783695
184	0xbe36372c	-0.17794484
185	0x3d5c589a	0.053795435
186	0xbd723fe0	-0.059142947
187	0x3eb672d6	0.35634488
188	0x3e64351e	0.22285888
189	0xbdea4853	-0.11439576
190	0xbd0e5d70	-0.034757078
191	0x3e4bb820	0.19894457
192	0x3ea64b50	0.32479334
193	0xbd6d559d	-0.057942975
194	0xbbdc2b4b	-0.006719028
195	0x3e5bef0e	0.21477911
196	0xbed1aa70	-0.40950346
197	0xbe493c5e	-0.19651935
198	0xbebb62ea	-0.36598903
199	0x3dee4f94	0.11636272
200	0xbec7c53d	-0.39017668
201	0x3e968779	0.29400232
202	0xbee6b87a	-0.4506262
203	0xbd9d4ddb	-0.076808654
204	0xbeceda3a	-0.4040087
205	0xbf069e6f	-0.525855
206	0xbe59234e	-0.21204874
207	0x3f022589	0.50838524
208	0x3d2e869c	0.042608842
209	0x3dae87c1	0.08521987
210	0x3cb7accc	0.022421263
211	0xbe65de14	-0.22447997
212	0xbcb52d67	-0.022116376
213	0xbc5d08ee	-0.013490899
214	0xbf145db5	-0.57955486
215	0x3e970120	0.29493046
216	0xbe399e58	-0.1812681
217	0x3ea4ca6e	0.32185692
218	0xbd6f6bbc	-0.058452353
219	0x3dbc5bdf	0.091972105
220	0x3eb60683	0.35551843
221	0x3f3fdc81	0.7494584
222	0xbed2727e	-0.41102976
223	0x3df58618	0.11988467
224	0xbe9014ee	-0.28140968
225	0x3cedc3f5	0.029024104
226	0xbe6bcae2	-0.23026612
227	0xbe1bb841	-0.15207006
228	0xbebaa6d2	-0.364554
229	0xbecc849c	-0.39944923
230	0x3ea8014f	0.32813498
231	0x3e8ca96b	0.27473006
232	0xbf00ddfc	-0.5033872
233	0xbe8e298f	-0.27766082
234	0x3edfda04	0.4372102
235	0xbecc231e	-0.39870542
236	0xbeb9da6e	-0.3629946
237	0xbecaa6eb	-0.39580473
238	0xbd277b2f	-0.04088896
239	0x3cf07704	0.029353626
240	0xbbea6eb2	-0.007154309
241	0xbd853c15	-0.065056
242	0x3f0aa98e	0.5416497
243	0x3e25e4fd	0.16200633
244	0x3db26e12	0.087124005
245	0xbdd7c21f	-0.105350725
246	0xbcac7c51	-0.021055372
247	0x3e95307a	0.29138547
248	0xbe95f366	-0.2928726
249	0xbeb42058	-0.35180926
250	0x3daae5c1	0.08344603
251	0x3e8f31ac	0.27967584
252	0xbdd0fa86	-0.102040336
253	0xbf057a3c	-0.5213964
254	0x3e2248ad	0.15848036
255	0x3cb375d7	0.021906776
