minigrid/r2l/MiniGrid-LockedRoomR2L-v0_with_library_logs/MiniGrid-LockedRoomR2L-v0/f12147-seed107/critic.pt (torch, 65263 bytes, 8 tensors)

weight_ih f4 [192, 11]
0.00863195 -0.046920888 -0.04906548 0.0635785 0.0039829165 0.035427988 -0.07541895 0.022364605
0.09822434 -0.020064244 -0.04473894 -0.025168432 0.035236754 0.0149134025 -0.049307942 -0.050111428
-0.080547675 0.06028104 0.04966238 -0.013175072 0.0129436925 0.1062539 0.015037317 -0.04939908
-0.019304704 0.11334303 -0.05536586 -0.037776425 0.05057493 -0.12454168 -0.1003974 0.007844538
0.08402386 -0.049047675 -0.015722224 -0.003691939 0.033503354 0.02545923 -0.06554651 -0.05406873
0.05418272 0.03964263 -0.076183125 0.011671284 0.023275048 0.013277909 -0.10305059 -0.0999659
-0.032382697 -0.11188182 -0.124308616 -0.033131048 0.11229012 0.12138287 -0.10362768 0.029039681
0.121472314 -0.02230375 -0.04994285 0.06513482 -0.08667271 0.023106873 0.09378438 0.10310877
0.0128104435 -0.023027468 0.071891 -0.097426265 -0.06502619 -0.004814565 0.09042691 0.09004073
-0.018414453 0.012355355 -0.11077077 -0.10742822 0.00067354785 -0.10109843 0.026670942 0.07826973
-0.063188955 0.017316386 -0.09283602 0.06751214 -0.09505354 -0.090923704 -0.014606591 -0.084954366
0.017888313 -0.117043726 0.08048946 -0.07433647 -0.07506202 -0.007545978 -0.0418507 0.045602463
0.08402633 0.070701525 0.11660983 -0.0989284 0.06830135 -0.044584375 0.05203919 0.09011194
-0.07956715 0.08361198 0.1247418 0.07065528 -0.002630579 -0.08893058 -0.045090698 0.03738801
0.04686596 0.016571596 -0.069841996 -0.035650313 0.054138437 0.045846276 -0.09881773 0.051601417
-0.10365206 -0.06710471 0.07581121 0.12282476 -0.07349761 0.07415667 0.060479894 0.026461467
-0.072183095 -0.056971457 0.011635303 0.114671975 0.076836795 -0.043775115 -0.067173265 -0.062045097
0.07174894 -0.048846647 0.12212603 -0.039591733 -0.055407602 -0.051557187 -0.11317854 0.013748242
-0.0034670797 -0.047062177 -0.054927632 0.077596724 -0.07153058 -0.11957732 0.05350408 0.10985453
0.08553542 -0.101424985 0.03551785 -0.061928444 -0.018193448 -0.05953531 -0.018874705 -0.029408485
0.008797929 -0.0802243 0.037362203 -0.10789027 0.00465423 0.07060377 -0.027639648 0.006186962
0.103932574 -0.0028255433 0.08880478 0.063379794 0.07375047 0.005888024 0.118517146 -0.05196929
-0.09932297 -0.08357642 0.117870934 0.059758663 -0.08014907 -0.111390635 0.07380517 0.06382156
0.066991955 -0.07814907 -0.10541578 -0.04065898 -0.09425417 -0.12108301 -0.0977149 0.118303925
0.06893766 0.07281351 -0.10715365 -0.11694259 -0.08233851 -0.08673258 0.006739352 -0.09711409
-0.029969864 0.048930526 0.07227446 0.09842935 -0.07723799 0.08308444 -0.029439023 -0.07591647
-0.027490426 0.00177986 0.02851294 -0.020285178 0.061264917 0.12459716 0.07008682 0.119310275
-0.08741802 0.018162996 0.093241476 -0.11345692 0.123923935 0.016947823 -0.06593476 0.059788093
-0.09333107 0.098898605 -0.11774179 -0.09839537 0.079583645 0.021003349 0.114204675 0.043579757
0.05495914 -0.0718913 -0.102208406 -0.09959349 0.08137399 -0.014760554 0.11683261 0.028071418
-0.10270131 -0.03051282 -0.10038886 0.064495474 -0.1161197 0.044592276 -0.05949925 -0.042918816
-0.08774936 0.053810064 0.068377025 0.0657169 -0.0044358084 0.114787705 0.0960549 0.013823873
00000000: 066d 0d3c 1e30 40bd e2f8 48bd 7235 823d
00000010: 2083 823b f01c 113d 4075 9abd fa35 b73c
00000020: d829 c93d c55d a4bc 2e40 37bd 072e cebc
00000030: 6a54 103d 5857 743c 20f7 49bd a441 4dbd
00000040: 2ef6 a4bd 40e9 763d c86a 4b3d 42dc 57bc
00000050: c811 543c a59b d93d 145f 763c b156 4abd
00000060: e624 9ebc 6420 e83d 50c7 62bd 74bb 1abd
00000070: a827 4f3d b50f ffbd 279d cdbd 6186 003c
00000080: b414 ac3d 37e6 48bd e5cb 80bc 75f4 71bb
00000090: d03a 093d e08f d03c 403d 86bd 2c77 5dbd
000000a0: b3ee 5d3d 4f60 223d e605 9cbd ea38 3f3c
000000b0: 50ab be3c 968b 593c 300c d3bd ecba ccbd
000000c0: b8a3 04bd 4c22 e5bd 8495 febd 6cb4 07bd
000000d0: 5df8 e53d 9597 f83d c03a d4bd a0e4 ed3c
000000e0: 7ac6 f83d 5bb6 b6bc e090 4cbd 6865 853d
000000f0: 7681 b1bd a04a bd3c 0612 c03d b12a d33d
00000100: e5e2 513c 1aa4 bcbc 973b 933d 6c87 c7bd
00000110: 732c 85bd 80c3 9dbb be31 b93d 4667 b83d
00000120: e8d9 96bc 1d6e 4a3c c9db e2bd 5403 dcbd
00000130: 0891 303a b20c cfbd 057d da3c e14b a03d
00000140: 3669 81bd 18db 8d3c d020 bebd ce43 8a3d
00000150: 6eab c2bd 3536 babd 7c50 6fbc 8efc adbd
00000160: 838a 923c 9fb4 efbd a8d7 a43d b83d 98bd
00000170: 1eba 99bd 4044 f7bb a46b 2bbd a6c9 3a3d
00000180: ff15 ac3d f6cb 903d 22d1 ee3d f99a cabd
00000190: 94e1 8b3d 1b9e 36bd 0c27 553d 9c8c b83d
000001a0: 1af4 a2bd c23c ab3d a178 ff3d b7b3 903d
000001b0: cb65 2cbb 3c21 b6bd 06b1 38bd 2c24 193d
000001c0: 85f6 3f3d 28c1 873c 5209 8fbd 1006 12bd
000001d0: 44c0 5d3d 4ec9 3b3d f360 cabd 025c 533d
000001e0: 8847 d4bd 326e 89bd e842 9b3d 8c8b fb3d
000001f0: ea85 96bd 74df 973d c4b9 773d b8c5 d83c
00000200: bbd4 93bd e75a 69bd ffa1 3e3c 24d9 ea3d
00000210: 9c5c 9d3d 894d 33bd 2392 89bd 0023 7ebd
00000220: 1cf1 923d 6c13 48bd 361d fa3d f12a 22bd
00000230: 15f3 62bd a12d 53bd 26ca e7bd 4e40 613c
00000240: f237 63bb 45c4 40bd ccfb 60bd 08eb 9e3d
00000250: a07e 92bd f4e4 f4bd 1827 5b3d 69fb e03d
00000260: 322d af3d e7b7 cfbd 2a7b 113d aea8 7dbd
00000270: 6d0a 95bc 4cdb 73bd 209f 9abc 10ea f0bc
00000280: 3025 103c a34c a4bd 1c09 193d 93f5 dcbd
00000290: 8382 983b b698 903d 8b6c e2bc 00bc ca3b
000002a0: 9ada d43d c02c 39bb 48df b53d 44cd 813d
000002b0: 7d0a 973d 53f0 c03b 1eb9 f23d c0dd 54bd
000002c0: d769 cbbd 1d2a abbd 5166 f13d 80c5 743d
000002d0: 3225 a4bd c620 e4bd 2a27 973d e1b4 823d
000002e0: 1433 893d 9f0c a0bd 3ae4 d7bd 088a 26bd
000002f0: 5508 c1bd 5ffa f7bd c01e c8bd 5449 f23d
00000300: 302f 8d3d 401f 953d 5f73 dbbd 997f efbd
00000310: 18a1 a8bd daa0 b1bd c8d5 dc3b c1e3 c6bd
00000320: 5c83 f5bc 606b 483d a204 943d 5495 c93d
00000330: f42e 9ebd 2d28 aa3d 1b2a f1bc 187a 9bbd
00000340: 9a33 e1bc 314a e93a f893 e93c 1a2d a6bc
00000350: ecf0 7a3d cc2c ff3d ae89 8f3d f258 f43d
00000360: 3808 b3bd 90ca 943c 63f5 be3d 1a5c e8bd
00000370: d5cb fd3d 29d6 8a3c ce08 87bd 5ce4 743d
00000380: 5c24 bfbd 5a8b ca3d 9c22 f1bd 8383 c9bd
00000390: c0fc a23d 370f ac3c 24e4 e93d b080 323d
000003a0: d61c 613d bf3b 93bd a452 d1bd acf7 cbbd
000003b0: 68a7 a63d 40d6 71bc ef45 ef3d 08f6 e53c
000003c0: 1055 d2bd 06f6 f9bc ad98 cdbd 3416 843d
000003d0: 2ad0 edbd 64a6 363d 7cb5 73bd a4cb 2fbd
000003e0: f0b5 b3bd f167 5c3d 4109 8c3d 9596 863d
000003f0: 425a 91bb d115 eb3d 6eb8 c43d 877d 623c

weight_hh f4 [192, 64]
0.038822986 0.10074555 0.0031274846 0.038971234 -0.10802703 0.05905275 -0.0566669 0.10073469
-0.0053952686 0.09724628 -0.07988974 0.048619505 0.06211078 -0.09046533 -0.00037560865 0.0975788
-0.083273485 0.0959959 -0.057981193 0.0058892705 0.08663991 -0.043473978 0.10291294 -0.031879153
-0.054906294 0.08825341 -0.1074357 -0.05104289 -0.029135881 0.09958627 0.005585993 -0.12458864
0.08575562 0.032597784 0.1145887 -0.12019805 0.0036967858 -0.11116025 0.11628061 -0.047572423
0.036398258 -0.11986464 -0.0058448236 -0.015005401 0.060132433 -0.06488076 -0.01797641 0.117208585
0.08139922 0.030440442 0.016797839 -0.110205345 -0.106153004 0.093143664 -0.0031546932 -0.025537347
0.116752386 0.073166415 0.07030364 0.068183765 -0.028398786 -0.123797275 -0.084888905 0.114446625
0.013330977 0.08971009 0.0947914 -0.08462794 -0.07674147 -0.06895634 -0.018984765 -0.06598494
0.054707535 0.06737433 -0.024139283 -0.0010059131 0.11865284 0.0016638826 -0.00091173255 0.06936988
0.055076867 0.025377082 0.0744502 0.011987565 0.092170574 -0.08810543 -0.056026455 -0.066731215
-0.060568273 -0.014549706 -0.1015144 0.115059234 -0.124886304 -0.11652325 -0.026498253 -0.0864457
-0.017073665 0.12516138 0.01945027 -0.07875564 -0.06776677 -0.085301 0.06339243 -0.12455048
0.064327896 -0.026123988 -0.05848478 0.063890316 -0.004858572 0.050349373 -0.053079467 -0.06251479
-0.008127584 0.07004122 0.037721083 -0.04184082 -0.0071954657 0.06068674 -0.0074082105 0.0835459
0.011003732 -0.047243364 -0.028139358 0.0130467005 0.055436432 0.09535042 0.042131625 -0.047778733
-0.08011757 -0.06272477 0.098738015 -0.037675716 -0.1216512 -0.013878609 0.12522799 0.116368406
0.008837194 -0.108733065 0.08635292 -0.05833667 -0.012355126 -0.062211726 0.046451285 0.08595833
-0.052239597 -0.118779 0.11654974 -0.016831858 0.086088814 -0.045628536 -0.11088609 0.10976612
0.099234916 0.027837973 0.043652244 -0.003016836 -0.028507432 -0.077388674 -0.019415937 -0.095474
-0.0037779247 0.039364632 -0.043881744 0.095051944 -0.12399066 0.08968974 -0.010058295 0.0652742
-0.032299332 0.06702614 -0.026128078 0.042894643 0.11501724 0.039203208 -0.03425262 0.074103944
0.06755341 -0.10541636 -0.0047312765 -0.10844644 -0.10955526 -0.0020364989 0.027164293 -0.018702948
0.011665386 -0.095549785 -0.10243962 -0.055201843 0.0936081 0.037265316 -0.12305768 0.027630314
0.061466113 0.018813157 0.07794398 -0.03673998 -0.021028848 0.01857553 -0.05102306 0.020189932
-0.038635183 0.0904924 0.06939563 -0.008200769 0.115363374 -0.11871503 -0.006612315 0.066778585
0.06791178 -0.09022898 -0.10608702 0.012116231 -0.03398979 -0.07810896 -0.073370755 0.03506695
0.07561771 0.059218433 -0.07517414 0.11084538 -0.0066264966 0.11899124 0.10207667 0.031725444
0.09179364 0.119233035 -0.07298468 -0.016790735 -0.10585665 0.047078032 0.11114128 -0.0020460738
0.09637563 -0.06653074 0.10514544 0.08348731 0.09953616 -0.025698887 -0.01946524 -0.019191276
0.02693303 0.035962027 -0.023858702 0.021814976 -0.050884936 -0.003937798 0.022416813 -0.0043036807
0.110129096 0.10404358 0.08437829 -0.035356484 0.010891498 -0.11712355 -2.9890922e-05 -0.07744145
00000000: da04 1f3d af53 ce3d 7cf6 4c3b 4da0 1f3d
00000010: 473d ddbd 4ce1 713d 8d1b 68bd fd4d ce3d
00000020: cbca b0bb 0f29 c73d 3b9d a3bd 3f25 473d
00000030: e067 7e3d e345 b9bd 57ed c4b9 65d7 c73d
00000040: 4a8b aabd 8099 c43d b07d 6dbd c8fa c03b
00000050: 4470 b13d c511 32bd 05c4 d23d b793 02bd
00000060: 6ce5 60bd 34be b43d 4007 dcbd 5912 51bd
00000070: 5fae eebc e3f3 cb3d b50a b73b 5428 ffbd
00000080: a4a0 af3d 4185 053d 7bad ea3d 652a f6bd
00000090: c645 723b fca7 e3bd 8724 ee3d 4ddb 42bd
000000a0: 5716 153d 987b f5bd ef85 bfbb 37d9 75bc
000000b0: 6d4d 763d 34e0 84bd 4443 93bc 0e0b f03d
000000c0: a2b4 a63d 3c5e f93c 9f9b 893c 57b3 e1bd
000000d0: bf66 d9bd 1bc2 be3d f8be 4ebb b333 d1bc
000000e0: e01b ef3d 46d8 953d 5bfb 8f3d eea3 8b3d
000000f0: 92a4 e8bc 6d89 fdbd 3cda adbd fe62 ea3d
00000100: 2c6a 5a3c ecb9 b73d fe21 c23d 6a51 adbd
00000110: a22a 9dbd fb38 8dbd f085 9bbc 1d23 87bd
00000120: 0215 603d 8dfb 893d bfbf c5bc d8d8 83ba
00000130: 4300 f33d a316 da3a 5601 6fba cc11 8e3d
00000140: 4898 613d 99e3 cf3c 5979 983d 7e67 443c
00000150: edc3 bc3d 9f70 b4bd ff7b 65bd 60aa 88bd
00000160: 7016 78bd e461 6ebc c8e6 cfbd 2da4 eb3d
00000170: 64c4 ffbd bea3 eebd dd12 d9bc 710a b1bd
00000180: 12de 8bbc 4e2a 003e 2c56 9f3c a34a a1bd
00000190: 4ec9 8abd 4ab2 aebd e4d3 813d 5214 ffbd
000001a0: 58be 833d f901 d6bc bd8d 6fbd edd8 823d
000001b0: a834 9fbb 253b 4e3d db69 59bd c107 80bd
000001c0: 8f29 05bc c571 8f3d 6c81 1a3d 4861 2bbd
000001d0: f1c7 ebbb a992 783d 93c0 f2bb 1d1a ab3d
000001e0: ff48 343c 4282 41bd 8384 e6bc d4c1 553c
000001f0: 5011 633d 1547 c33d 3692 2c3d a2b3 43bd
00000200: ae14 a4bd d875 80bd 2837 ca3d da51 1abd
00000210: 4424 f9bd 1b63 63bc c43b 003e 8f52 ee3d
00000220: e1c9 103c 71af debd cdd9 b03d 6ff2 6ebd
00000230: 286d 4abc b9d1 7ebd b443 3e3d ec0a b03d
00000240: 30f9 55bd 6842 f3bd a1b1 ee3d f7e2 89bc
00000250: 554f b03d fde4 3abd 3f18 e3bd 0fcd e03d
00000260: ad3b cb3d 760c e43c b2cc 323d 1cb6 45bb
00000270: 6b88 e9bc f47d 9ebd 2c0e 9fbc df87 c3bd
00000280: 0f97 77bb cf3c 213d 58bd 33bd 98aa c23d
00000290: d1ee fdbd 41af b73d 8ccb 24bc 7bae 853d
000002a0: 4e4c 04bd 0045 893d 8d0a d6bc 4bb2 2f3d
000002b0: 298e eb3d 8b93 203d 7a4c 0cbd cfc3 973d
000002c0: 7159 8a3d 88e4 d7bd d308 9bbb 2b19 debd
000002d0: 825e e0bd c876 05bb a787 de3c ed36 99bc
000002e0: 2d20 3f3c 9baf c3bd ddcb d1bd 541b 62bd
000002f0: 9bb5 bf3d 84a3 183d aa05 fcbd f858 e23c
00000300: e4c3 7b3d 0d1e 9a3c 18a1 9f3d a97c 16bd
00000310: b144 acbc b62b 983c 8efd 50bd 5b65 a53c
00000320: ed3f 1ebd 1454 b93d 4c1f 8e3d 855c 06bc
00000330: a243 ec3d de20 f3bd 1eac d8bb 36c3 883d
00000340: 5515 8b3d f9c9 b8bd 2744 d9bd 2883 463c
00000350: e138 0bbd 97f7 9fbd 6843 96bd 5da2 0f3d
00000360: 75dd 9a3d 078f 723d e6f4 99bd e702 e33d
00000370: 1523 d9bb aeb1 f33d 930d d13d 8af2 013d
00000380: 4efe bb3d 7330 f43d fe78 95bd b98c 89bc
00000390: 5fcb d8bd e5d4 403d 0a9e e33d 6c17 06bb
000003a0: 9660 c53d 4541 88bd 7e56 d73d 65fb aa3d
000003b0: 9dd9 cb3d 7986 d2bc 9175 9fbc 0637 9dbc
000003c0: a8a2 dc3c eb4c 133d 5373 c3bc 52b5 b23c
000003d0: b96c 50bd a508 81bb 77a3 b73c e405 8dbb
000003e0: 5d8b e13d cd14 d53d 86ce ac3d f6d1 10bd
000003f0: 4172 323c 79de efbd 44be fab7 9f99 9ebd

bias_ih f4 [192]
0.015764592 -0.108781494 0.027532933 0.06835083 -0.046083845 0.0534262 -0.017351862 -0.04456632
0.019259308 -0.12328552 0.073209874 0.009412455 0.044985577 -0.06317638 -0.12501983 0.06813891
-0.03651764 0.01649891 -0.07931133 -0.107679434 0.1139727 -0.07914071 0.055989683 0.08842589
0.028685069 0.09463506 -0.110837206 -0.033722717 0.077596605 0.040677752 0.032865044 0.0083769
0.009942817 0.015326354 0.011053219 -0.11081953 0.09604212 0.01794037 -0.047366362 0.03615344
-0.022275852 -0.04930433 0.083924025 -0.08508254 -0.00088943273 -0.050471164 -0.007704689 0.03541616
0.10568368 0.019298173 -0.024095977 0.022214593 -0.0707852 0.030187834 0.05597776 0.046456553
-0.046580747 0.08969982 -0.00016376628 0.06346312 0.00042146098 -0.10886595 0.068478346 -0.055235542
0.0402168 -0.00043335897 0.006862799 0.052237082 0.09246438 -0.034256913 -0.049065955 0.092968255
-0.006688603 0.05651522 0.075345404 -0.030665347 0.023906345 0.031139387 -0.008824079 -0.01473146
-0.025249178 0.05970463 0.10221758 0.023456048 0.039314758 -0.08595969 0.054209996 -0.058139496
0.0970276 0.06063679 0.052264508 -0.12237884 -0.042099558 -0.11446786 -0.0608921 0.039481528
0.022522558 -0.027734362 0.11345726 0.06628858 -0.06974483 -0.10640714 0.04301235 -0.07611224
-0.069867514 -0.04624306 -0.024190368 -0.013581377 -0.06798443 0.032850392 0.093141966 0.08357786
-0.00024559195 -0.03108489 -0.0964748 0.022648884 0.024555575 -0.043584503 -0.08919618 0.113894306
0.054503627 -0.11806367 0.04286831 -0.012704989 -0.06201762 0.09223544 0.097608134 -0.06994403
0.060146872 0.0921888 0.032805733 -0.0048545883 -0.07238827 -0.0046379757 0.114990324 -0.11637292
-0.03950216 0.0815191 0.08356063 0.06721828 0.053468227 0.119695 0.10505652 -0.111776985
0.022456035 -0.083023466 -0.098162584 0.0018906469 -0.046899516 -0.111019924 0.017823191 0.011574422
0.022977818 0.07443829 0.11633556 -0.016237672 -0.059208073 -0.029740717 0.021517742 -0.031077676
0.09358231 0.118201055 0.11120749 -0.0029222022 0.0012305911 0.02939947 -0.04936148 0.107907295
0.052230954 0.09450903 -0.059539042 -0.025321823 0.09269593 0.018683728 0.03231311 0.051869407
-0.053756002 0.110134564 0.06724512 0.09222454 0.05858105 -0.009165363 -0.061145645 0.048519935
0.097574666 -0.004346664 0.05630616 -0.0025693898 0.08548233 0.0798269 -0.08945328 0.06379143
00000000: bf24 813c d5c8 debd bf8c e13c 85fb 8b3d
00000010: 6ac2 3cbd 6ed5 5a3d 7e25 8ebc 2c8b 36bd
00000020: b2c5 9d3c 1e7d fcbd 0fef 953d b336 1a3c
00000030: cc42 383d 9e62 81bd 3305 00be 6a8c 8b3d
00000040: 8593 15bd b928 873c fb6d a2bd 0987 dcbd
00000050: 856a e93d 8614 a2bd 7055 653d a218 b53d
00000060: f3fc ea3c 07d0 c13d 9efe e2bd d520 0abd
00000070: f8ea 9e3d b79d 263d 7f9d 063d 443f 093c
00000080: 32e7 223c 631b 7b3c 9018 353c 5af5 e2bd
00000090: bbb1 c43d aff7 923c 3b03 42bd a115 143d
000000a0: d97b b6bc 56f3 49bd 5ce0 ab3d c13f aebd
000000b0: d228 69ba daba 4ebd 9e77 fcbb 8910 113d
000000c0: af70 d83d 3417 9e3c ed64 c5bc 61fb b53c
000000d0: d5f7 90bd 7a4c f73c f048 653d 3a49 3e3d
000000e0: 74cb 3ebd 8ab4 b73d adb8 2bb9 f4f8 813d
000000f0: 89f7 dc39 1cf5 debd 603e 8c3d aa3e 62bd
00000100: 5fba 243d 7534 e3b9 55e1 e03b 8df6 553d
00000110: f75d bd3d fa50 0cbd 62f9 48bd 2466 be3d
00000120: 122c dbbb 817c 673d b14e 9a3d e535 fbbc
00000130: 3dd7 c33c 0718 ff3c df92 10bc 395c 71bc
00000140: 5dd7 cebc d88c 743d 7357 d13d e626 c03c
00000150: 8308 213d a20b b0bd 4d0b 5e3d ae23 6ebd
00000160: 68b6 c63d 485e 783d 4f13 563d c2a1 fabd
00000170: 9670 2cbd 206e eabd ff69 79bd 62b7 213d
00000180: 3a81 b83c 2c33 e3bc 485c e83d 4fc2 873d
00000190: 61d6 8ebd fdeb d9bd b82d 303d bce0 9bbd
000001a0: b316 8fbd 5d69 3dbd e12a c6bc 6d84 5ebc
000001b0: 6c3b 8bbd 228e 063d 37c1 be3d de2a ab3d
000001c0: cbc2 80b9 bda5 febc 9494 c5bd 278a b93c
000001d0: c628 c93c aa85 32bd 7dac b6bd 6b41 e93d
000001e0: 323f 5f3d 5ecb f1bd ae96 2f3d 9628 50bc
000001f0: 3006 7ebd efe5 bc3d c6e6 c73d d13e 8fbd
00000200: 915c 763d 7bcd bc3d 4e5f 063d 3d13 9fbb
00000210: 4d40 94bd 29fa 97bb 0c80 eb3d ed54 eebd
00000220: 04cd 21bd 7cf3 a63d d621 ab3d bda9 893d
00000230: 8001 5b3d a722 f53d df27 d73d 55eb e4bd
00000240: b8f5 b73c 3508 aabd 7709 c9bd 95cf f73a
00000250: b519 40bd 6a5e e3bd f101 923c a5a2 3d3c
00000260: fa3b bc3c 1a73 983d 5741 ee3d de04 85bc
00000270: 2a84 72bd cea2 f3bc fa45 b03c 9c96 febc
00000280: 15a8 bf3d 6513 f23d c1c0 e33d 6b82 3fbb
00000290: c94b a13a 28d7 f03c 432f 4abd 80fe dc3d
000002a0: 20f0 553d f38d c13d 36df 73bd b66f cfbc
000002b0: 5dd7 bd3d 9e0e 993c c05a 043d 0475 543d
000002c0: 412f 5cbd 3b8e e13d cfb7 893d 38e0 bc3d
000002d0: aff2 6f3d 522a 16bc db73 7abd d7bc 463d
000002e0: 3ad5 c73d 766e 8ebb 4aa1 663d 3563 28bb
000002f0: 5c11 af3d 497c a33d 4833 b7bd 15a5 823d

bias_hh f4 [192]
0.055595055 -0.088396706 0.11888186 -0.07875445 0.0052770306 -0.09580622 -0.073206566 -0.0074170427
0.025046084 0.0077316887 -0.005113327 0.0019510577 0.044248268 -0.06600012 -0.03543689 0.11079511
0.012660661 -0.089393586 0.11187785 -0.091430776 0.024888497 -0.025208376 -0.063079745 0.08944024
0.09790717 -0.05671471 0.07036202 -0.0030950762 0.11613423 -0.0646664 0.0023525106 -0.092472464
0.007919969 -0.10542177 -0.1089469 -0.10160951 0.0495531 0.013899799 -0.03669901 0.046709333
0.052315686 0.08184226 0.023730028 0.053374026 -0.09091528 0.109374404 0.03421911 0.06213491
0.058824465 -0.05015712 -0.10320924 0.036677364 9.4799885e-05 -0.037008535 -0.0545637 -0.0025097253
-0.045142367 0.021825822 -0.073749885 -0.004830543 -0.10433236 -0.029630687 -0.038041826 -0.10845859
0.015489455 -0.03769983 -0.07171505 -0.09443025 0.008651264 -0.10340336 0.047789983 0.055760123
-0.06966757 0.11679181 0.11401456 -0.09304495 -0.07311271 -0.04860598 0.01192163 0.05946027
-0.06434611 -0.11003523 -0.07772257 -0.10122714 0.11159887 0.121628314 0.058870215 0.056833826
-0.12199579 0.03275411 0.048007246 0.09684056 0.12280136 0.07583663 0.0072457083 0.0026629514
0.026764113 0.10382951 0.030777872 -0.06454236 -0.09013388 0.10045188 0.045196384 0.04950521
-0.058419827 -0.12235606 -0.08613826 -0.059713867 -0.09347752 0.068992786 -0.0511774 0.040418565
-0.021196537 0.020766634 -0.04776693 0.08419798 -0.10201411 -0.061563753 -0.010137136 -0.0077065453
-0.038057096 -0.0050589424 0.09931241 0.059818543 -0.092828624 -0.03681548 0.06775151 -0.032741435
-0.10847742 0.06828276 -0.12369803 -0.0010666708 0.030628894 -0.12093342 -0.03049948 -0.05780862
-0.07345013 0.11924953 0.009362058 0.07709729 -0.06584964 0.06948262 0.07712593 -0.04748226
0.1118432 0.11106359 -0.09102259 0.072498485 0.078863904 -0.1000325 0.09851432 0.09677657
0.018558802 0.11255959 -0.07089235 -0.04919513 -0.12058798 0.061209526 0.1014864 -0.012918729
0.008596838 0.054809123 0.10320492 -0.097142436 0.10822907 0.053515933 0.073550895 0.114736944
-0.06652445 -0.092176504 0.062092602 0.115743056 -0.08271065 0.0023585525 -0.060629617 -0.009574201
-0.0048497124 -0.03922742 -0.1003554 0.00829049 -0.002469653 0.05282404 0.09962315 0.10585465
0.11043254 -0.022564815 0.07400457 -0.09219586 -0.09938049 -0.051519502 -0.034238447 0.11593013
00000000: a4b7 633d 5509 b5bd 5578 f33d 034a a1bd
00000010: f1ea ac3b 0d36 c4bd 53ed 95bd aa0a f3bb
00000020: 722d cd3c 1b5a fd3b b28d a7bb a2ba ff3a
00000030: ac3d 353d 122b 87bd 4626 11bd 8ce8 e23d
00000040: a96e 4f3c fc13 b7bd 3720 e53d 0f40 bbbd
00000050: f6e2 cb3c cc81 cebc f42f 81bd 722c b73d
00000060: 8e83 c83d af4d 68bd f619 903d c3d6 4abb
00000070: c8d7 ed3d d16f 84bd 942c 1a3b 3462 bdbd
00000080: c2c2 013c 5ee7 d7bd 8d1f dfbd a618 d0bd
00000090: 31f8 4a3d fcbb 633c b351 16bd 4952 3f3d
000000a0: f948 563d ea9c a73d 7a65 c23c b99e 5a3d
000000b0: ca31 babd b0ff df3d 5629 0c3d 2d81 7e3d
000000c0: ecf1 703d 8d71 4dbd 5e5f d3bd 013b 163d
000000d0: 4dcf c638 4396 17bd 307e 5fbd 347a 24bb
000000e0: 34e7 38bd 11cc b23c 2e0a 97bd 8849 9ebb
000000f0: 34ac d5bd 0ebc f2bc bfd1 1bbd 8a1f debd
00000100: 7cc7 7d3c 236b 1abd 57df 92bd a664 c1bd
00000110: 08be 0d3c 24c5 d3bd 6ebf 433d ba64 643d
00000120: dfad 8ebd 8b30 ef3d 7780 e93d 5a8e bebd
00000130: 1ebc 95bd 1017 47bd f152 433c 9d8c 733d
00000140: e5c7 83bd 275a e1bd 032d 9fbd 2d50 cfbd
00000150: f38d e43d 4418 f93d e521 713d 96ca 683d
00000160: eed8 f9bd 2c29 063d 3fa3 443d 5854 c63d
00000170: 487f fb3d 3c50 9b3d 686d ed3b e984 2e3b
00000180: 6a40 db3c 91a4 d43d e021 fc3c c92e 84bd
00000190: 1d98 b8bd b7b9 cd3d d81f 393d fac5 4a3d
000001a0: a149 6fbd d095 fabd 4269 b0bd 8796 74bd
000001b0: 2471 bfbd 174c 8d3d 659f 51bd f08d 253d
000001c0: 5ca4 adbc ca1e aa3c 42a7 43bd fe6f ac3d
000001d0: c6ec d0bd 462a 7cbd 3b16 26bc 3087 fcbb
000001e0: c2e1 1bbd 7cc5 a5bb 4e64 cb3d 4a04 753d
000001f0: ef1c bebd d4cb 16bd 4ec1 8a3d e21b 06bd
00000200: 6929 debd d5d7 8b3d 6555 fdbd 88cf 8bba
00000210: 72e9 fa3c f1ab f7bd 0cda f9bc bbc8 6cbd
00000220: 066d 96bd 1939 f43d 5163 193c 2fe5 9d3d
00000230: 2ddc 86bd e74c 8e3d 33f4 9d3d c27c 42bd
00000240: 0c0e e53d 4f75 e33d 0d6a babd 167a 943d
00000250: 6683 a13d d7dd ccbd e0c1 c93d cb32 c63d
00000260: a108 983c a485 e63d 0230 91bd d580 49bd
00000270: d5f6 f6bd d7b6 7a3d 1ad8 cf3d 14a9 53bc
00000280: c1d9 0c3c 887f 603d 1a5d d33d 9df2 c6bd
00000290: 34a7 dd3d 8633 5b3d daa1 963d 34fb ea3d
000002a0: f93d 88bd 09c7 bcbd d054 7e3d b20a ed3d
000002b0: 3464 a9bd f291 1a3b c356 78bd 1cdd 1cbc
000002c0: 56ea 9ebb eeac 20bd 2287 cdbd d6d4 073c
000002d0: e7d9 21bb 055e 583d 3907 cc3d 53ca d83d
000002e0: 752a e23d d9d9 b8bc b58f 973d 2fd1 bcbd
000002f0: 0088 cbbd 1d06 53bd 9d3d 0cbd c76c ed3d

weight f4 [1, 64]
0.048373036 -0.0037219934 -0.00143721 0.11348784 -0.016788743 -0.068660535 0.114132024 -0.09634515
0.073356725 -0.00074883905 -0.01143558 0.04024054 0.020615513 -0.008916451 0.05422614 -0.0752282
-0.11746512 -0.053036448 -0.080491886 -0.008493353 0.022112774 -0.0036638298 0.048337825 -0.11690391
-0.097055875 -0.10778555 0.1007013 -0.08298133 0.035086785 -0.009688355 0.04070283 0.10268743
0.09378571 0.009653968 -0.020349978 -0.061599966 -0.025318636 -0.0046421317 -0.017635982 -0.06302315
0.10278751 -0.09769271 0.06792277 0.12338266 -0.011356817 -0.0043594786 0.11548432 -0.05929731
0.029979588 0.066517055 0.11024862 0.11272686 -0.058552787 0.0704633 0.099876426 0.04204312
0.0074512092 0.08308537 -0.08455329 -0.10967593 -0.041183267 0.08215171 -0.074586995 -0.10657852
00000000: ce22 463d b0ec 73bb c460 bcba 506c e83d
00000010: 8c88 89bc e59d 8cbd 0dbe e93d 9b50 c5bd
00000020: 0d3c 963d bd4d 44ba 4d5c 3bbc 44d3 243d
00000030: dde1 a83c 4e16 12bc 3b1c 5e3d 3e11 9abd
00000040: 8e91 f0bd bf3c 59bd eed8 a4bd b427 0bbc
00000050: d925 b53c dd1c 70bb e2fd 453d 516b efbd
00000060: 3bc5 c6bd acbe dcbd 7c3c ce3d 1ef2 a9bd
00000070: 29b7 0f3d e8bb 1ebc 03b8 263d ca4d d23d
00000080: b912 c03d ad2b 1e3c ffb4 a6bc 3f50 7cbd
00000090: 0769 cfbc 061d 98bb 5679 90bc 4812 81bd
000000a0: 4282 d23d 1e13 c8bd 181b 8b3d 0cb0 fc3d
000000b0: f111 3abc f5d9 8ebb 0b83 ec3d bce1 72bd
000000c0: c197 f53c 183a 883d 07ca e13d 57dd e63d
000000d0: 0cd5 6fbd 104f 903d 038c cc3d 6835 2c3d
000000e0: 4629 f43b aa28 aa3d 462a adbd c69d e0bd
000000f0: c9af 28bd 283f a83d 11c1 98bd d745 dabd

welford_state_mean f4 [11]
0.77000004 0.83666664 0.82000005 0.0 0.0 0.0 0.0 0.029999986
0.0 0.0 0.0
00000000: b91e 453f c92f 563f 86eb 513f 0000 0000
00000010: 0000 0000 0000 0000 0000 0000 88c2 f53c
00000020: 0000 0000 0000 0000 0000 0000

welford_state_mean_diff f4 [11]
52.966114 40.931835 44.833736 1.0 1.0 1.0 1.0 9.665046
1.0 1.0 1.0
00000000: 4ddd 5342 33ba 2342 bf55 3342 0000 803f
00000010: 0000 803f 0000 803f 0000 803f 07a4 1a41
00000020: 0000 803f 0000 803f 0000 803f

hidden f4 [6, 64]
-0.028155496 0.18470037 -0.015622254 -0.0010306798 -0.036935065 -0.019086331 0.07962698 0.026207203
-0.20228305 0.018447943 0.1282275 -0.013334107 -0.023079365 -0.009190105 0.28153247 -0.009099685
0.010520548 0.11211539 -0.22850057 -0.087637424 0.18163434 -0.08869681 0.08650967 0.08008707
0.07821887 0.103903204 0.16097166 -0.1051302 -0.27171955 -0.06336752 0.28034914 0.14765054
0.052143555 0.20292063 0.17521481 0.13895053 0.09638915 0.02494669 0.014094349 0.20665714
0.07290834 0.29414573 0.02014097 0.051406085 0.13247001 -0.023856753 0.08746356 0.069950566
0.17149451 -0.09552589 -0.16410434 0.308936 -0.019602146 0.03886427 -0.21687752 -0.023443565
0.3746584 -0.016708821 -0.059228674 -0.13899711 0.1213352 0.016702047 -0.25410813 -0.08304732
-0.11017124 0.2022304 -0.15999651 -0.122473575 0.030948887 -0.06251356 0.053876843 -0.025488833
-0.15727167 0.15944731 -0.10057852 0.13907962 -0.18131544 0.21257226 0.057406574 -0.17110105
0.15521869 0.047094133 -0.16715656 0.13256751 0.06843612 -0.121548094 0.07565688 0.12538461
-0.1136719 0.04110603 0.04938349 0.07386461 -0.24041016 -0.0823323 0.07999388 -0.10685947
0.1708288 0.03100656 0.1586662 -0.10104931 -0.040025964 0.16352995 -0.06237197 0.12696716
0.011412622 0.102495484 -0.041249998 0.039859425 -0.016254215 0.018410167 0.013682306 -0.07862775
-0.05487868 0.16309628 0.10348697 0.10300626 0.03784739 0.18218148 -0.004955623 0.17525205
0.23708217 -0.12344064 0.124296576 -0.16255386 -0.03389196 0.12301249 -0.05417099 0.14635432
-0.11323048 0.20186414 -0.16107935 -0.12292594 0.027867766 -0.060254164 0.049119413 -0.023711089
-0.15813674 0.15526567 -0.09826797 0.13560782 -0.17817387 0.21293944 0.05540162 -0.17696139
0.15464431 0.048234753 -0.172014 0.12882353 0.06520432 -0.12191293 0.08016291 0.11883014
-0.11184816 0.04142524 0.053347167 0.07225929 -0.24453604 -0.08313216 0.08258667 -0.10138696
0.16858429 0.030753214 0.15658234 -0.10001393 -0.044064235 0.16432543 -0.06366777 0.12570663
0.017596252 0.10323529 -0.039653745 0.040285498 -0.01720956 0.022511875 0.020060167 -0.075091586
-0.049854413 0.15806144 0.10293488 0.10796582 0.045151696 0.18286389 -0.005340475 0.17737141
0.23563513 -0.12038006 0.12253374 -0.1666123 -0.038396597 0.12518755 -0.061713777 0.14597973
0.1761248 0.078905225 0.19632357 0.15843995 -0.23238972 -0.033086456 0.21392232 -0.18656853
0.11599456 0.09697768 0.41125628 -0.09126449 0.33141014 -0.02311207 0.22792664 0.09369187
-0.22746307 -0.08699782 -0.09608604 -0.34089556 -0.0317605 -0.17251945 0.09612671 -0.13941112
0.34166214 0.25953594 0.019727115 -0.28924495 -0.058273524 0.25554407 0.15977144 0.094113685
0.017328728 0.48289028 0.21479346 0.034516618 0.30484706 -0.15578856 0.10537081 0.28795505
0.24264684 0.122118875 -0.039699256 -0.17817897 0.35977754 -0.013475526 0.20999101 0.30401802
0.18895651 -0.19427711 -0.27774346 0.11632039 0.047495287 -0.23544052 -0.2568503 -0.08396304
0.06673586 0.24379039 -0.03111174 0.0730402 0.2032245 -0.13835981 -0.19480287 -0.120099455
00000000: 5ba6 e6bc 1822 3d3e 7cf4 7fbc e017 87ba
00000010: 3949 17bd f05a 9cbc 7813 a33d 7db0 d63c
00000020: 4a23 4fbe 2420 973c 124e 033e 4c77 5abc
00000030: f010 bdbc 1892 16bc 0625 903e d816 15bc
00000040: 605e 2c3c c19c e53d 0efc 69be 407b b3bd
00000050: 5afe 393e aca6 b5bd fb2b b13d b104 a43d
00000060: 3731 a03d 34cb d43d c1d5 243e 814e d7bd
00000070: d31e 8bbe d5c6 81bd ec89 8f3e b431 173e
00000080: 7b94 553d 6dca 4f3e 836b 333e 0c49 0e3e
00000090: ad67 c53d 005d cc3c fceb 663c ee9d 533e
000000a0: f850 953d 459a 963e adfe a43c 308f 523d
000000b0: 38a6 073e 3d6f c3bc 1820 b33d 3e42 8f3d
000000c0: 429c 2f3e 14a3 c3bd f80a 28be dc2c 9e3e
000000d0: ae94 a0bc 2430 1f3d 2415 5ebe b80c c0bc
000000e0: 3ad3 bf3e f0e0 88bc c499 72bd 4255 0ebe
000000f0: 977e f83d bbd2 883c 761a 82be b714 aabd
00000100: 76a1 e1bd 7c15 4f3e 20d6 23be 6dd3 fabd
00000110: 8588 fd3c 1c07 80bd f7ad 5c3d f5cd d0bc
00000120: d30b 21be 2846 233e 1cfc cdbd e36a 0e3e
00000130: c1aa 39be 8bac 593e 2823 6b3d 1d35 2fbe
00000140: a6f1 1e3e c7e5 403d 172b 2bbe c7bf 073e
00000150: 3d28 8c3d 35ee f8bd fff1 9a3d d364 003e
00000160: d0cc e8bd cc5e 283d 5846 4a3d 5446 973d
00000170: 152e 76be d69d a8bd d5d3 a33d 23d9 dabd
00000180: bfed 2e3e 7801 fe3c 6479 223e f1f2 cebd
00000190: 44f2 23bd 6574 273e c079 7fbd ae03 023e
000001a0: 02fc 3a3c 27e9 d13d c2f5 28bd a343 233d
000001b0: 8f27 85bc ebd0 963c c02b 603c 9607 a1bd
000001c0: 77c8 60bd b602 273e faf0 d33d f2f4 d23d
000001d0: dd05 1b3d c88d 3a3e c762 a2bb 4675 333e
000001e0: abc5 723e 72ce fcbd 348f fe3d 8574 26be
000001f0: 4cd2 0abd f9ed fb3d 66e2 5dbd e8dd 153e
00000200: 62e5 e7bd 79b5 4e3e fcf1 24be 98c0 fbbd
00000210: f14a e43c 12cd 76bd 7031 493d c23d c2bc
00000220: 99ee 21be f7fd 1e3e b840 c9bd c7dc 0a3e
00000230: 3673 36be cc0c 5a3e cfec 623d 5e35 35be
00000240: 145b 1e3e ce91 453d 7024 30be 51ea 033e
00000250: d889 853d 7cad f9bd 742c a43d 375d f33d
00000260: a610 e5bd 83ad 293d 8f82 5a3d aefc 933d
00000270: a867 7abe 3241 aabd 3323 a93d f7a3 cfbd
00000280: 5ca1 2c3e 2aee fb3c 1f57 203e 1ad4 ccbd
00000290: b37c 34bd ed44 283e 3f64 82bd 3db9 003e
000002a0: 0426 903c 066d d33d f76b 22bd 6802 253d
000002b0: 10fb 8cbc d36a b83c 3855 a43c 9ec9 99bd
000002c0: 2434 4cbd dcda 213e 86cf d23d 2f1d dd3d
000002d0: fcf0 383d ac40 3b3e 27ff aebb daa0 353e
000002e0: 564a 713e d289 f6bd f8f2 fa3d 6a9c 2abe
000002f0: c045 1dbd 2a31 003e 96c7 7cbd b67b 153e
00000300: 0f5a 343e 1099 a13d 0c09 493e 153e 223e
00000310: 92f7 6dbe aa85 07bd 740e 5b3e d20b 3fbe
00000320: 8e8e ed3d 3c9c c63d 2f90 d23e e0e8 babd
00000330: 97ae a93e 8655 bdbc 9a65 693e 86e1 bf3d
00000340: 14ec 68be ea2b b2bd c2c8 c4bd dd89 aebe
00000350: 4c17 02bd f0a8 30be 15de c43d cac1 0ebe
00000360: 57ee ae3e e5e1 843e c29a a13c ea17 94be
00000370: 38b0 6ebd acd6 823e 209b 233e adbe c03d
00000380: faf4 8d3c 653d f73e d1f2 5b3e 4c61 0d3d
00000390: ea14 9c3e 0987 1fbe a7cc d73d d86e 933e
000003a0: 6a78 783e 7619 fa3d b09b 22bd 8c74 36be
000003b0: c334 b83e 74c8 5cbc e207 573e 40a8 9b3e
000003c0: d17d 413e 94f0 46be 6434 8ebe 6239 ee3d
000003d0: 6b8a 423d 5217 71be e281 83be d0f4 abbd
000003e0: d0ac 883d 30a4 793e 0cde febc 1a96 953d
000003f0: 151a 503e 32ae 0dbe 677a 47be b4f6 f5bd
