minigrid/r2l/MiniGrid-LavaCrossingR2LS11N5-v0_logs/MiniGrid-LavaCrossingR2LS11N5-v0/666db5-seed102/critic.pt (torch, 62127 bytes, 8 tensors)

weight_ih f4 [192, 7]
-0.06868759 0.110167384 -0.1642851 0.03628792 -0.124878764 -0.06032282 -0.036321618 0.05398858
-0.00664172 0.06448157 -0.09954304 0.027625607 -0.08922759 -0.01933178 -0.055954684 -0.018167516
-0.17732348 -0.16144381 0.017030152 0.11517449 -0.09848309 -0.0681908 0.04164828 -0.021783322
-0.0063634315 -0.13706252 -0.10261345 0.08071753 -0.084533826 0.05081411 -0.12498012 -0.1469804
-0.07720661 -0.10468665 -0.060633052 0.015229096 -0.046392225 -0.17278218 0.11389604 -0.009109002
-0.0376786 -0.010652058 -0.025046216 0.042637743 0.104100324 0.07478717 -0.05475738 -0.035973713
0.13100284 0.017150396 -0.116427794 0.015555462 0.042136863 -0.09244724 -0.0055482388 0.1199987
0.027857758 0.09111853 -0.117547266 -0.007945736 0.07879932 0.07237217 0.017484313 -0.04744839
-0.064179696 0.00046178183 0.018205015 -0.058905948 0.05062045 0.030720755 0.027597584 0.004681218
-0.021569623 0.023160556 -0.07738883 -0.12190245 -0.04269691 0.0140196085 -0.16760615 0.075806946
0.009905421 0.02901928 0.06538083 -0.08863865 0.08607011 0.025776166 -0.12567812 0.020230085
-0.13515484 -0.0020824522 -0.0700464 -0.03914245 0.17722699 -0.03336868 -0.09061439 -0.13784009
0.011681095 -0.17477696 -0.061351318 0.05199557 -0.1764732 0.0629482 -0.008242453 -0.03578414
-0.033068318 0.047523122 -0.08896821 0.020717952 -0.11011242 -0.103902996 -0.08919525 -0.061816446
-0.054480724 -0.02388509 -0.1598443 -0.080392666 -0.09784609 0.111544326 -0.16466251 0.104697146
-0.12326696 -0.038636293 -0.122045025 0.05477621 0.03137824 0.021497766 0.028691461 0.07530673
-0.1003517 -0.013276495 -0.023225017 -0.05638683 0.122632444 -0.08195928 0.030642299 0.078936145
-0.058533583 -0.100948066 0.006161228 0.02200012 0.039875694 0.10312724 0.10109289 -0.024467878
0.09090961 -0.056887522 0.0053368695 0.22017848 -0.06423729 0.03232513 -0.068020806 0.06846951
-0.10456741 0.06605895 -0.10262807 0.100695 -0.07099031 -0.0837889 0.015711952 -0.023171738
-0.1268553 0.07976394 -0.13083918 -0.1825277 -0.15925565 -0.09338435 -0.033627048 -0.06730747
-0.022280896 0.07841203 0.024331657 -0.038236387 -0.021144345 -0.06533313 -0.050432593 -0.10105572
0.030598752 -0.17611118 -0.09838504 -0.083561614 0.0274802 0.027350035 0.021405047 -0.10748947
-0.13759142 -0.036864385 -0.13862762 -0.031026304 0.03866658 -0.023638517 0.12585996 -0.04970877
-0.0741247 -0.043172393 0.119535476 -0.12760666 -0.13937712 -0.093585216 -0.1287167 0.05305076
0.023368655 0.027768284 0.0054533584 -0.024890594 0.02729011 0.06543413 -0.11577174 -0.103851646
-0.06594895 0.03209462 0.119903855 0.080569774 -0.10779603 -0.120975 -0.035669826 0.063703954
-0.020065432 -0.06200522 0.042895418 -0.17371885 -0.09206636 0.0059378315 -0.07388124 0.03619523
0.071576126 -0.135359 -0.15882072 -0.041312344 -0.16177788 0.019688934 0.01199267 -0.07618905
-0.09721075 -0.037173256 0.056289755 -0.008459281 -0.07090387 0.062044933 -0.099438794 0.06846021
-0.101193435 -0.17286527 -0.14693487 -0.05811797 -0.04407288 0.16067778 -0.122641414 -0.0019814016
-0.10781127 0.0072841514 0.064775914 -0.03130616 -0.042282056 -0.064352445 -0.108433135 0.06197326
00000000: 14ac 8cbd 709f e13d 5a3a 28be a4a2 143d
00000010: 70c0 ffbd 1015 77bd fac5 14bd 2123 5d3d
00000020: c9a2 d9bb ea0e 843d 39dd cbbd 194f e23c
00000030: f4bc b6bd ae5d 9ebc bd30 65bd 0bd4 94bc
00000040: 4994 35be 8751 25be d182 8b3c 9ae0 eb3d
00000050: 81b1 c9bd 9ea7 8bbd 6397 2a3d f072 b2bc
00000060: 5584 d0bb 1e5a 0cbe 0027 d2bd 3b4f a53d
00000070: 1220 adbd 7522 503d 94f5 ffbd 0882 16be
00000080: 801e 9ebd f465 d6bd 5d5a 78bd 7583 793c
00000090: c605 3ebd d0ed 30be 5442 e93d ec3d 15bc
000000a0: e054 1abd f885 2ebc b92d cdbc eaa4 2e3d
000000b0: 8d32 d53d 042a 993d 4649 60bd 2c59 13bd
000000c0: 9c25 063e fd7e 8c3c b271 eebd 56dc 7e3c
000000d0: b497 2c3d fb54 bdbd 00ce b5bb e1c1 f53d
000000e0: f435 e43c 5a9c ba3d 9fbc f0bd d52e 02bc
000000f0: 8a61 a13d dc37 943d 433b 8f3c 3e59 42bd
00000100: a570 83bd 4f1b f239 af22 953c 5d47 71bd
00000110: 6457 4f3d 18aa fb3c 5414 e23c e764 993b
00000120: c7b2 b0bc 35bb bd3c 097e 9ebd fea7 f9bd
00000130: f5e2 2ebd 80b2 653c f2a0 2bbe ac40 9b3d
00000140: 594a 223c d7b9 ed3c 62e6 853d 2e88 b5bd
00000150: 8745 b03d 8a28 d33c c4b1 00be 90b9 a53c
00000160: 0866 0abe c079 08bb 7d74 8fbd d553 20bd
00000170: fe7a 353e 99ad 08bd 0a94 b9bd f425 0dbe
00000180: 1062 3f3c bbf8 32be 854b 7bbd 4ff9 543d
00000190: 64b5 34be fcea 803d 5b0b 07bc 6492 12bd
000001a0: a572 07bd 9ba7 423d f734 b6bd b2b8 a93c
000001b0: 9f82 e1bd 18cb d4bd 00ac b6bd 3e33 7dbd
000001c0: 2e27 5fbd aaaa c3bc 39ae 23be e9a4 a4bd
000001d0: 8863 c8bd 5a71 e43d 4a9d 28be 756b d63d
000001e0: 6373 fcbd 1741 1ebd bef2 f9bd 055d 603d
000001f0: 7886 003d 151c b03c 5b0a eb3c 6a3a 9a3d
00000200: 3185 cdbd a885 59bc 6442 bebc e0f5 66bd
00000210: b826 fb3d 44da a7bd 8f05 fb3c 46a9 a13d
00000220: e9c0 6fbd dcbd cebd 20e4 c93b 9839 b43c
00000230: b254 233d 6034 d33d ca09 cf3d dc70 c8bc
00000240: d12e ba3d e402 69bd e8e0 ae3b 7876 613e
00000250: d78e 83bd 5b67 043d 7e4e 8bbd be39 8c3d
00000260: 7027 d6bd ea49 873d aa2e d2bd 2e39 ce3d
00000270: 5e63 91bd 8499 abbd 5ab6 803c a8d2 bdbc
00000280: 5be6 01be 475b a33d b5fa 05be 8be8 3abe
00000290: ea13 23be 4b40 bfbd 84bc 09bd 80d8 89bd
000002a0: 6d86 b6bc 7d96 a03d 2f53 c73c c29d 1cbd
000002b0: e836 adbc 60cd 85bd 6892 4ebd 4df6 cebd
000002c0: 3caa fa3c 7d56 34be 197e c9bd 5a22 abbd
000002d0: 281e e13c 2e0d e03c a359 af3c 7023 dcbd
000002e0: c4e4 0cbe 1cff 16bd 66f4 0dbe e02a febc
000002f0: d960 1e3d 90a5 c1bc 6fe1 003e 6c9b 4bbd
00000300: b1ce 97bd 89d5 30bd 04cf f43d 52ab 02be
00000310: e0b8 0ebe 9ba9 bfbd 50ce 03be c14b 593d
00000320: 9f6f bf3c 507a e33c 16b2 b23b 5ce7 cbbc
00000330: 828f df3c 5402 863d bc19 edbd 2cb0 d4bd
00000340: 3e10 87bd a675 033d 2790 f53d c401 a53d
00000350: 2ac4 dcbd bec1 f7bd 861a 12bd 3877 823d
00000360: 4360 a4bc 30f9 7dbd 1bb3 2f3d 5be3 31be
00000370: 4a8d bcbd 2492 c23b 0c4f 97bd 7341 143d
00000380: 8196 923d 8d9b 0abe e6a1 22be 2237 29bd
00000390: 1aa9 25be b04a a13c e77c 443c 0109 9cbd
000003a0: 6e16 c7bd fc42 18bd 1690 663d cc98 0abc
000003b0: 0c36 91bd d422 7e3d 91a6 cbbd de34 8c3d
000003c0: 813e cfbd 9803 31be 1876 16be 1c0d 6ebd
000003d0: c485 34bd b788 243e 6c2b fbbd 67da 01bb
000003e0: 28cc dcbd e4af ee3b 3ca9 843d e33a 00bd
000003f0: f32f 2dbd 37cb 83bd 3112 debd acd7 7d3d

weight_hh f4 [192, 64]
-0.037057027 0.056121092 0.09663693 0.047227837 -0.08235666 0.032237872 0.028263893 0.036367822
0.022316292 -0.058009066 0.08843175 -0.14428142 0.11691102 -0.04606096 -0.059941713 0.05284272
-0.12539148 -0.19371961 -0.033388168 -0.100195095 -0.015222993 0.11855082 -0.07024715 0.04316471
0.022953393 -0.08807457 0.008896542 0.031944074 -0.036191538 0.043101452 0.007128001 -0.121465646
0.035823114 -0.113279134 -0.13608707 -0.06577716 0.026427636 0.1557183 0.009775344 -0.10821171
0.20382126 -0.0015440306 -0.1089591 -0.1378624 -0.008850633 0.055857033 0.11739721 -0.02826929
-0.1703708 0.10968084 -0.049349137 0.099256255 0.050693464 -0.08799571 0.04624352 0.025681669
0.09047355 0.0605592 -0.018584253 0.050161652 -0.14206369 -0.08128784 0.024993336 -0.056047082
0.10892782 -0.07550819 0.00016568221 -0.09760452 -0.09791907 -0.079339996 -0.007329612 -0.119060904
0.016623383 0.08594279 -0.042895973 -0.1203892 -0.032134976 -0.06633928 0.023191364 -0.0071330476
-0.08873844 -0.18031164 0.1705701 -0.06506302 0.053689443 -0.06635161 -0.022803206 -0.05949956
-0.045329895 0.09305361 -0.075437926 -0.029401856 0.044228885 -0.019770624 0.03928932 -0.060891464
0.15059803 -0.032356612 -0.09565302 -0.11525051 -0.10799525 -0.1044975 -0.002698908 0.061742984
0.074974485 -0.064249225 -0.040730093 0.037802182 -0.07448992 0.03276559 0.09302729 0.020321282
-0.07899832 -0.065271705 0.03248322 0.02759643 0.038690407 0.055890977 -0.06362644 0.12984334
0.12564923 0.104208805 -0.038100727 0.09892973 -0.07862949 -0.02451115 0.06949064 0.0059505403
-0.13235994 0.109742515 -5.84987e-05 0.028369661 0.043345932 -0.037377708 -0.0025820415 -0.037396096
-0.084077954 0.09751344 0.11145925 0.052698743 -0.034876727 -0.00019182608 -0.059561312 -0.09807328
-0.08845061 0.046968684 0.13182276 0.005889749 0.05855619 0.13259545 0.017189495 0.00452925
-0.110487916 -0.022429964 0.0036196378 -0.12817223 0.06445979 0.12359274 0.06124991 -0.12717156
0.21211675 -0.015603155 -0.015557384 -0.13903627 -0.04029713 0.056976467 0.023735408 0.11306074
0.028029246 -0.08064342 -0.042959757 -0.110219605 -0.11871538 -0.07467156 0.00231658 0.036064047
-0.07909586 -0.0030335463 -0.0019537392 0.05795144 -0.027359642 0.010257475 -0.12591614 0.009665673
-0.06355836 -0.08166289 0.020638589 -0.08533487 7.316361e-05 -0.069166735 -0.025555851 -0.18549393
-0.09916905 -0.08459709 -0.00751386 0.04350401 -0.09228889 -0.14291409 -0.14212097 -0.11117722
0.100110754 0.09488074 -0.022550376 -0.05545028 -0.028764587 -0.13838802 0.07256062 0.04902651
-0.10992019 -0.0064889994 -0.057448603 -0.04077007 -0.07722123 -0.033261865 0.028183583 0.09548243
-0.06706149 -0.14826263 -0.034505587 -0.008933663 -0.15103248 -0.015691511 0.10863794 -0.002536942
-0.062896885 0.021956198 0.03424498 -0.09675284 -0.04337552 -0.052645076 0.010324276 0.14368118
-0.03020686 -0.027624615 0.0606606 -0.09120282 0.036266576 0.11638781 0.12816247 0.10049555
-0.17301641 -0.003170401 0.040696546 -0.032240584 -0.13711207 -0.005235628 0.051404778 -0.09549172
0.08633468 0.18050364 0.019117238 -0.006102555 0.027892074 0.016444381 0.052032173 -0.16616943
00000000: 1cc9 17bd 3bdf 653d 95e9 c53d fa71 413d
00000010: 9caa a8bd dc0b 043d ae89 e73c 6df6 143d
00000020: a8d0 b63c ea9a 6dbd b51b b53d 82be 13be
00000030: 0b6f ef3d 6baa 3cbd 7185 75bd 9c71 583d
00000040: a066 00be 6f5e 46be 08c2 08bd 1633 cdbd
00000050: dc69 79bc c6ca f23d bddd 8fbd 7bcd 303d
00000060: c108 bc3c 7160 b4bd cdc2 113c cad7 023d
00000070: 943d 14bd 268b 303d 0292 e93b fbc2 f8bd
00000080: 42bb 123d e4fe e7bd 695a 0bbe 2db6 86bd
00000090: c57e d83c 9e74 1f3e c428 203c 1a9e ddbd
000000a0: 85b6 503e 1261 caba f325 dfbd cd2b 0dbe
000000b0: 3f02 11bc 58ca 643d f36d f03d 0095 e7bc
000000c0: af75 2ebe 59a0 e03d 5222 4abd dd46 cb3d
000000d0: f3a3 4f3d 1837 b4bd d869 3d3d 5d62 d23c
000000e0: 324a b93d ec0c 783d 013e 98bc 4e76 4d3d
000000f0: 2579 11be 3d7a a6bd d3be cc3c a091 65bd
00000100: 8d15 df3d 0aa4 9abd fbba 2d39 e1e4 c7bd
00000110: cb89 c8bd 027d a2bd 3e2d f0bb 34d6 f3bd
00000120: c32d 883c c602 b03d b0b3 2fbd 9d8e f6bd
00000130: f79f 03bd e3dc 87bd d1fb bd3c 57bc e9bb
00000140: 80bc b5bd 9da3 38be eea9 2e3e c33f 85bd
00000150: 76e9 5b3d 5ae3 87bd cacd babc d0b5 73bd
00000160: d7ab 39bd e492 be3d 337f 9abd 29dc f0bc
00000170: 5929 353d 01f6 a1bc d7ed 203d 5469 79bd
00000180: 5f36 1a3e 5e88 04bd bbe5 c3bd 7608 ecbd
00000190: 9d2c ddbd c902 d6bd 2ae0 30bb 36e6 7c3d
000001a0: 398c 993d 1995 83bd 99d4 26bd 76d6 1a3d
000001b0: 2c8e 98bd 3635 063d 1885 be3d d178 a63c
000001c0: dfc9 a1bd 2cad 85bd 200d 053d e911 e23c
000001d0: d579 1e3d f0ed 643d 944e 82bd a7f5 043e
000001e0: 31aa 003e 6d6b d53d 820f 1cbd ac9b ca3d
000001f0: 8008 a1bd 9bcb c8bc 1c51 8e3d c0fc c23b
00000200: 5d89 07be afc0 e03d 805c 75b8 7e67 e83c
00000210: 818b 313d 5e19 19bd 7837 29bb a62c 19bd
00000220: 1031 acbd 20b5 c73d bf44 e43d a3da 573d
00000230: e6da 0ebd ec24 49b9 90f6 73bd a5da c8bd
00000240: 9825 b5bd 3c62 403d 8cfc 063e ccfe c03b
00000250: 9ed8 6f3d 1ac7 073e fcd0 8c3c 1a6a 943b
00000260: 7d47 e2bd 0bbf b7bc 7237 6d3b 953f 03be
00000270: 7f03 843d 311e fd3d 30e1 7a3d 4339 02be
00000280: 2235 593e 60a4 7fbc 66e4 7ebc 865f 0ebe
00000290: 9a0e 25bd 2860 693d c270 c23c 648c e73d
000002a0: 979d e53c 6128 a5bd 92f6 2fbd d1ba e1bd
000002b0: 0d21 f3bd 67ed 98bd c3d1 173b e5b7 133d
000002c0: 03fd a1bd 76ce 46bb 4e0a 00bb 7d5e 6d3d
000002d0: 5421 e0bc f80e 283c 29f0 00be c55c 1e3c
000002e0: e32a 82bd e03e a7bd 4212 a93c 0cc4 aebd
000002f0: 6a6f 9938 4aa7 8dbd 815a d1bc 1ff2 3dbe
00000300: 2519 cbbd 3d41 adbd d336 f6bb 4331 323d
00000310: f501 bdbd 1258 12be 2988 11be e2b0 e3bd
00000320: de06 cd3d d550 c23d 91bb b8bc d51f 63bd
00000330: b6a3 ebbc 97b5 0dbe aa9a 943d 06d0 483d
00000340: d61d e1bd aca1 d4bb 3a4f 6bbd 84fe 26bd
00000350: 2a26 9ebd 983d 08bd 42e1 e63c 4b8c c33d
00000360: 8957 89bd 29d2 17be bb55 0dbd 805e 12bc
00000370: 42a8 1abe 7c8b 80bc 917d de3d d342 26bb
00000380: 15d0 80bd 7cdd b33c 7744 0c3d 5a26 c6bd
00000390: 87aa 31bd 5da2 57bd 2727 293c 2921 133e
000003a0: 6074 f7bc 044d e2bc 4077 783d 8bc8 babd
000003b0: 438c 143d bb5c ee3d 063d 033e 9cd0 cd3d
000003c0: 372b 31be 81c6 4fbb 6cb1 263d b40e 04bd
000003d0: 1b67 0cbe a28f abbb d18d 523d 2a91 c3bd
000003e0: 3dd0 b03d f2d5 383e c19b 9c3c f1f7 c7bb
000003f0: eb7d e43c 5eb6 863c b01f 553d 5228 2abe

bias_ih f4 [192]
0.07682037 0.15956831 0.12322716 0.06816767 -0.05470875 0.07766262 0.09411934 0.12718804
0.1385001 0.09290244 -0.057389554 0.06621549 0.14680909 0.007046862 0.02271901 0.11127497
0.092845954 -0.004356713 0.18788932 -0.03956944 -0.08537282 0.111823045 0.09525702 -0.040944874
-0.00834378 0.04773237 0.1375362 0.17231585 0.042868398 0.014152428 0.06340186 -0.01656835
0.07828912 0.05975244 -0.017559325 0.19242497 0.20685029 -0.007056698 -0.050351672 0.040880054
0.09764793 0.15246348 0.11282395 0.16410461 0.088560805 -0.063022755 0.008621026 -0.08544511
0.072889686 0.1675929 0.07694671 0.022315145 0.0184604 -0.061618276 0.08940573 0.08770115
-0.035010587 0.109610654 0.084893905 0.08449072 -0.09098044 0.067829795 -0.028813591 -0.07220887
-0.3441205 -0.20364845 -0.39049602 0.08522047 -0.3225695 -0.27676025 -0.25973704 -0.16957499
-0.11077284 -0.046744317 0.09305636 -0.09291432 -0.27142304 -0.28353828 -0.007907384 -0.31399873
-0.04995677 -0.11160427 0.022372033 -0.11038225 0.10627196 -0.19804706 -0.38246357 0.193622
0.117673635 -0.3854473 0.0011080145 -0.021278767 -0.014525454 0.15933117 -0.2047898 -0.24514867
-0.05542554 0.009999207 -0.13062868 -0.2888726 -0.3421493 0.082503155 -0.113927655 -0.3263982
-0.022534858 0.06494867 -0.3556453 -0.07437644 0.06439278 0.058038797 -0.1078062 -0.027402353
0.0015775405 0.094988525 -0.17687175 -0.07706454 -0.39599425 -0.07270649 -0.2698714 -0.16306897
-0.17711791 -0.17785317 -0.15708601 -0.18127297 0.0756153 -0.25132203 -0.10855011 0.037852883
-0.19698288 -0.033432283 0.1142184 -0.06462868 -0.077199325 -0.14897141 -0.110482655 -0.032359038
-0.1794921 0.017134681 0.05708237 0.07048473 -0.09000069 -0.11373777 -0.09866239 -0.027217027
0.025740203 -0.009486942 0.08439918 -0.095803216 -0.0007374974 0.16087604 0.058337435 0.067580394
-0.04562548 -0.10427603 -0.04847001 -0.036751866 -0.034238335 0.0010289159 -0.071090475 0.024938311
0.024002297 0.022388967 0.03791226 -0.14819683 -0.022894591 0.0029515424 -0.08839675 0.10527992
0.03680502 0.05960698 -0.15775871 0.09272283 -0.09045782 -0.08757862 -0.06265448 0.073794395
-0.0050964975 -7.737224e-05 -0.1599698 -0.034314066 -0.11343799 0.11593559 -0.10333976 -0.054000404
0.14490077 0.14015634 0.037410095 0.044103082 0.027917631 -0.11021312 0.018403392 -0.0506337
00000000: 0054 9d3d e065 233e 855e fc3d 7e9b 8b3d
00000010: 4816 60bd 940d 9f3d a4c1 c03d 953d 023e
00000020: f8d2 0d3e a243 be3d 4f11 6bbd fd9b 873d
00000030: 1f55 163e 5de9 e63b 381d ba3c 22e4 e33d
00000040: 0526 be3d c2c2 8ebb 0f66 403e 9113 22bd
00000050: f2d7 aebd 7b03 e53d 1d16 c33d d0b5 27bd
00000060: 5ab4 08bc 0583 433d 4ad6 0c3e 9173 303e
00000070: c696 2f3d 96df 673c d6d8 813d 59ba 87bc
00000080: 0c56 a03d f9be 743d 93d8 8fbc 0d0b 453e
00000090: 90d0 533e e03b e7bb 8e3d 4ebd d871 273d
000000a0: a3fb c73d 631f 1c3e 3e10 e73d 0a0b 283e
000000b0: 5e5f b53d 1312 81bd 343f 0d3c d9fd aebd
000000c0: 3047 953d 799d 2b3e 3d96 9d3d 40ce b63c
000000d0: 443a 973c 7263 7cbd 5a1a b73d a99c b33d
000000e0: 4367 0fbd 8d7b e03d dbdc ad3d 7809 ad3d
000000f0: f453 babd 59ea 8a3d 7b0a ecbc 3ee2 93bd
00000100: 9030 b0be 3889 50be 18ef c7be 1288 ae3d
00000110: d427 a5be 85b3 8dbe 41fc 84be 11a5 2dbe
00000120: dfdc e2bd f876 3fbd 5594 be3d dd49 bebd
00000130: f6f7 8abe ee2b 91be f98d 01bc 71c4 a0be
00000140: 789f 4cbd c890 e4bd 8e45 b73c 1710 e2bd
00000150: 1da5 d93d d9cc 4abe 44d2 c3be d844 463e
00000160: e0fe f03d 5959 c5be cc3a 913a cf50 aebc
00000170: 2bfc 6dbc b627 233e 6bb4 51be 4108 7bbe
00000180: e405 63bd b7d3 233c 86c3 05be 1ce7 93be
00000190: 312e afbe 6af7 a83d e752 e9bd aa1d a7be
000001a0: 069b b8bc cf03 853d 2417 b6be ad52 98bd
000001b0: 5de0 833d 17ba 6d3d 7fc9 dcbd e67a e0bc
000001c0: 7ac5 ce3a 5889 c23d de1d 35be 03d4 9dbd
000001d0: c2bf cabe 24e7 94bd 962c 8abe 8dfb 26be
000001e0: 665e 35be 241f 36be 28db 20be 9f9f 39be
000001f0: 32dc 9a3d 48ad 80be 854f debd a00b 1b3d
00000200: e1b5 49be 4af0 08bd 56eb e93d 0b5c 84bd
00000210: ae1a 9ebd f68b 18be bb44 e2bd e98a 04bd
00000220: c7cc 37be 085e 8c3c 34cf 693d 4c5a 903d
00000230: 4852 b8bd 59ef e8bd 820f cabd 3ef6 debc
00000240: 1edd d23c 1e6f 1bbc 7ad9 ac3d 7a34 c4bd
00000250: 9d54 41ba b0bc 243e 3cf3 6e3d 9767 8a3d
00000260: c9e1 3abd ac8e d5bd 7d88 46bd 2089 16bd
00000270: 7f3d 0cbd b0dc 863a e297 91bd 6e4b cc3c
00000280: 77a0 c43c 1169 b73c e349 1b3d e9c0 17be
00000290: 708d bbbc aa6e 413b 5b09 b5bd 009d d73d
000002a0: dcc0 163d 7326 743d 808b 21be 78e5 bd3d
000002b0: f341 b9bd 6b5c b3bd fe50 80bd 8421 973d
000002c0: 8500 a7bb e842 a2b8 20cf 23be e88c 0cbd
000002d0: 2d52 e8bd a36f ed3d cca3 d3bd 872f 5dbd
000002e0: de60 143e 2585 0f3e 543b 193d 6fa5 343d
000002f0: 84b3 e43c 6bb7 e1bd b6c2 963c 4865 4fbd

bias_hh f4 [192]
0.02734999 0.16570628 0.20948818 0.104657 0.108218566 0.091364294 0.1415889 -0.011346901
0.120388225 0.13508904 0.06705571 0.07909527 0.06297144 -0.051336247 -0.025897533 0.1844834
-0.0077556875 0.043175306 0.0564516 0.063152336 -0.07748833 0.066858195 0.13604325 -0.00077669084
0.020369723 0.06664058 -0.07719203 -0.0043541077 0.036166944 -0.020053292 0.06568105 -0.00447605
0.12884542 -0.08319799 -0.030617919 0.039226525 0.14284424 0.15930249 -0.082538635 -0.009249059
0.0894964 0.13276154 0.06365674 0.13505802 -0.03678499 0.042113557 0.0672343 0.034919143
0.07335186 0.058723204 -0.0045736576 0.04409402 0.013176047 0.038368985 0.034458697 -0.05166222
-0.020688374 0.09283903 -0.06498133 0.07366161 -0.047499802 0.063233204 0.0809499 0.13901564
-0.2685397 -0.2558972 -0.48607737 0.041361712 -0.41866553 -0.37608662 -0.18302588 -0.19526023
-0.1413985 0.05584263 -0.08134632 -0.07620003 -0.22853991 -0.12833773 -0.007296107 -0.34534726
0.14436057 -0.15271904 0.070699185 -0.14934333 -0.034996636 -0.23259208 -0.17683077 0.2378048
0.13038893 -0.33449003 0.0726896 -0.23586392 0.0813797 0.081408836 -0.036648285 -0.051786024
-0.19768044 -0.038976204 -0.20596012 -0.3053507 -0.2906312 0.024575017 -0.18823762 -0.2393596
0.05068899 -0.12852482 -0.32199213 -0.044339452 0.09046816 0.054902118 -0.094070114 0.11486472
-0.07321358 -0.03082416 -0.30323327 -0.12809372 -0.3061151 -0.030242044 -0.068009 -0.23355515
-0.19150598 -0.15013614 -0.12934908 -0.24152614 0.00013790907 -0.25007865 -0.12681648 -0.038512103
-0.020529037 -0.13189715 0.26436555 -0.019647706 -0.14009246 -0.13717307 -0.0683398 -0.08166277
-0.04866623 0.00043161536 0.0053127394 0.08273815 -0.07981652 0.05511542 0.022060148 -0.20547725
0.008251976 0.10643394 0.008773164 0.04119022 0.024001472 0.015776899 0.21698734 -0.069953635
0.06536849 -0.008588383 0.105066955 0.1990909 -0.024970477 -0.0136587415 0.048037093 0.122363314
-0.0653037 -0.022460474 0.045938376 -0.17237683 -0.180868 -0.07309085 0.025069177 0.08733285
-0.1155833 -0.115951836 -0.12846333 0.043386236 -0.047420252 -0.07492279 0.17493585 0.015981108
-0.03227732 -0.14497782 -0.0402264 0.17273654 -0.018568281 0.010957965 0.012530368 -0.08079722
0.080612615 -0.014705327 -0.03632888 0.1643035 -0.04041983 -0.1080591 0.055952616 -0.0423095
00000000: 160d e03c e8ae 293e 1284 563e 6956 d63d
00000010: b2a1 dd3d 341d bb3d aefc 103e 5ae8 39bc
00000020: 1a8e f63d c854 0a3e 8154 893d b3fc a13d
00000030: 2cf7 803d f545 52bd 1027 d4bc 37e9 3c3e
00000040: 6c23 febb 97d8 303d cb39 673d 0356 813d
00000050: 34b2 9ebd f3ec 883d ec4e 0b3e d79a 4bba
00000060: 68de a63c db7a 883d db16 9ebd e7ac 8ebb
00000070: ca23 143d cd46 a4bc c983 863d d4ab 92bb
00000080: 0ef0 033e b563 aabd 6ed2 fabc feab 203d
00000090: c345 123e 3120 233e 040a a9bd 5d89 17bc
000000a0: e349 b73d a4f2 073e 775e 823d a64c 0a3e
000000b0: dcab 16bd 447f 2c3d 23b2 893d 6007 0f3d
000000c0: 8039 963d be87 703d 9fde 95bb ee9b 343d
000000d0: 59e0 573c cc28 1d3d 9024 0d3d c49b 53bd
000000e0: aa7a a9bc 6422 be3d ee14 85bd e6db 963d
000000f0: 278f 42bd 6980 813d 10c9 a53d 1e5a 0e3e
00000100: 097e 89be f504 83be 22df f8be e66a 293d
00000110: 545b d6be 6d8e c0be 236b 3bbe 4cf2 47be
00000120: c5ca 10be 3ebb 643d e698 a6bd c30e 9cbd
00000130: 5e06 6abe f76a 03be 2e14 efbb 5bd1 b0be
00000140: 42d3 133e 6162 1cbe bcca 903d 75ed 18be
00000150: a258 0fbd 9e2c 6ebe 2013 35be 1a83 733e
00000160: ad84 053e 4742 abbe 49de 943d 5086 71be
00000170: 66aa a63d adb9 a63d 831c 16bd 951d 54bd
00000180: be6c 4abe 83a5 1fbd 36e7 52be ed56 9cbe
00000190: 9dcd 94be 8c51 c93c 5dc1 40be af1a 75be
000001a0: 429f 4f3d 039c 03be 27dc a4be 499d 35bd
000001b0: 5f47 b93d 0be1 603d d5a7 c0bd 323e eb3d
000001c0: 00f1 95bd f382 fcbc 6441 9bbe 002b 03be
000001d0: 1ebb 9cbe 2abe f7bc 4d48 8bbd 1529 6fbe
000001e0: 251a 44be 4abd 19be 1674 04be a152 77be
000001f0: af9b 1039 4f0a 80be 2edc 01be debe 1dbd
00000200: 832c a8bc 0c10 07be ec5a 873e 3af4 a0bc
00000210: 6674 0fbe 1977 0cbe bdf5 8bbd cf3e a7bd
00000220: 3e56 47bd 6f4a e239 7d16 ae3b 9f72 a93d
00000230: d876 a3bd b5c0 613d 7cb7 b43c a168 52be
00000240: 4c33 073c 0afa d93d 51bd 0f3c 13b7 283d
00000250: bc9e c43c 8e3e 813c ee31 5e3e da43 8fbd
00000260: eadf 853d 4ab6 0cbc 582d d73d 7cde 4b3e
00000270: e38e ccbc eac8 5fbc 8bc2 443d 9e99 fa3d
00000280: f2bd 85bd 07ff b7bc e129 3c3d 8d83 30be
00000290: 7635 39be a8b0 95bd e05d cd3c 91db b23d
000002a0: f0b6 ecbd 2878 edbd e48b 03be c4b5 313d
000002b0: bd3b 42bd 1f71 99bd 6222 333e d0ea 823c
000002c0: 3935 04bd 1175 14be 70c4 24bd d9e1 303e
000002d0: 821c 98bc 0989 333c 2c4c 4d3c 0379 a5bd
000002e0: 3a18 a53d 9dee 70bc 97cd 14bd 2d3f 283e
000002f0: 438f 25bd 174e ddbd 922e 653d ba4c 2dbd

weight f4 [1, 64]
-0.12234931 -0.091873124 0.16022007 -0.01642999 -0.075623035 -0.16813216 -0.19234972 -0.07619222
-0.08739998 -0.029954918 -0.07116855 0.14278781 -0.1292237 -0.10229519 0.00925943 -0.046838857
0.11961397 0.10888781 -0.015869098 -0.015204708 -0.07930134 0.06231863 0.1218477 -0.07043296
-0.024976946 -0.12227138 0.11560146 0.057752486 0.08248401 -0.017929295 -0.084692545 0.06359823
-0.059569523 -0.029497555 0.024331046 -0.10893415 -0.070963405 -0.12620458 -0.16254835 0.18350823
-0.06482047 -0.02493972 -0.15733866 0.060187504 -0.035966475 0.011399543 0.11209417 -0.033754323
0.015449588 -0.11413833 -0.061884858 0.06663669 -0.13170168 0.07727009 -0.04301813 -0.13855307
0.04444702 0.11724117 0.089540765 0.13682997 -0.008726898 -0.16292673 0.086635135 -0.021462956
00000000: 4692 fabd fa27 bcbd bb10 243e 3098 86bc
00000010: 40e0 9abd d62a 2cbe 53f7 44be ab0a 9cbd
00000020: c3fe b2bd 0464 f5bc d1c0 91bd f836 123e
00000030: 3853 04be 2480 d1bd ddb4 173c 1ada 3fbd
00000040: 2bf8 f43d 9200 df3d e9ff 81bc 2b1d 79bc
00000050: be68 a2bd d241 7f3d 498b f93d 283f 90bd
00000060: 749c ccbc 6b69 fabd 75c0 ec3d df8d 6c3d
00000070: 60ed a83d 75e0 92bc 4973 adbd ca3f 823d
00000080: 2cff 73bd dba4 f1bc e751 c73c de18 dfbd
00000090: 4355 91bd c63b 01be 1373 26be 95e9 3b3e
000000a0: 98c0 84bd 624e ccbc 631d 21be 2c87 763d
000000b0: 9551 13bd 26c5 3a3c a191 e53d f941 0abd
000000c0: 4520 7d3c 5bc1 e9bd fa7a 7dbd d178 883d
000000d0: cedc 06be c83f 9e3d c733 30bd dbe0 0dbe
000000e0: 140e 363d 231c f03d 2661 b73d 281d 0c3e
000000f0: 43fb 0ebc 44d6 26be c36d b13d 15d3 afbc

welford_state_mean f4 [7]
0.39285722 0.33035713 0.3839286 0.008928571 0.044642862 0.0 0.16071424
00000000: 9524 c93e 9224 a93e 4a92 c43e 2449 123c
00000010: 6fdb 363d 0000 0000 4692 243e

welford_state_mean_diff f4 [7]
26.587969 25.052044 26.332222 1.9716969 5.689881 1.0 15.722761
00000000: 29b4 d441 966a c841 64a8 d241 9060 fc3f
00000010: 8113 b640 0000 803f 6e90 7b41

hidden f4 [6, 64]
-0.3270078 -0.021976346 0.28056437 0.11357789 -0.20883934 -0.24210407 -0.27315298 -0.08420592
-0.027289836 -0.24189752 0.13315302 0.0027043428 -0.18510935 -0.10803167 -0.0067443573 -0.2922156
-0.16514277 -0.08340555 -0.050952442 -0.01728395 -0.0145434635 -0.06536728 0.41409445 -0.08016243
-0.14029244 0.041007478 -0.0028270583 -0.019128537 0.17045641 -0.048031516 -0.07318464 0.25676897
0.00935565 -0.032745745 0.047671016 -0.21778913 0.07229083 -0.05224038 -0.047345694 0.27300304
0.028592153 -0.08256232 -0.44762534 -0.020433854 -0.36823216 -0.10930146 0.07631515 0.2845639
-0.18000816 -0.075902246 -0.25960115 -0.15031679 -0.092552565 0.09940076 -0.15589786 0.024569005
0.21384624 0.07688728 0.11842848 0.20081905 -0.10547602 -0.03800661 -0.015482322 0.03135138
-0.28316784 -0.04972232 0.26047406 0.16284722 -0.20121907 -0.22488846 -0.27752936 -0.089969225
-0.075660326 -0.25402725 0.14424738 0.06928774 -0.17283836 -0.112170056 0.021528432 -0.3381322
-0.1261827 -0.047724236 -0.08847363 -0.05417047 -0.033967067 -0.11378963 0.35468295 -0.12865616
-0.19024761 0.038251854 0.015123176 -0.017194455 0.20969132 -0.10723688 -0.08739798 0.26735112
-0.002177622 0.011881392 0.059120793 -0.23134263 0.09412566 -0.103769004 -0.054792557 0.2796693
-0.007916687 -0.034656297 -0.36912978 0.0062239533 -0.32994553 -0.13485603 0.029022813 0.26620588
-0.13895416 -0.12701449 -0.19501708 -0.15957606 -0.08758142 0.1259696 -0.17328894 -0.014400528
0.1895598 0.018992627 0.13081369 0.18072689 -0.08829902 -0.03385357 -0.009572672 0.06606599
-0.20740929 -0.13261089 0.2908813 -0.15715063 -0.052346986 -0.38359696 -0.11998522 -0.14857829
-0.108661205 -0.2560757 -0.16597535 -0.0764145 -0.36127788 -0.1427951 -0.171167 -0.05545357
0.20650981 0.19611198 0.058206975 0.10729678 -0.0200603 -0.033464313 0.3246468 -0.06769715
-0.1650351 -0.08445636 0.14126235 0.29060388 -0.12381744 -0.23240021 -0.15617004 0.31370905
0.039068058 -0.037370846 0.20894833 -0.19147472 0.013038591 -0.08118446 -0.06803648 0.1677289
-0.084141314 -0.08932729 -0.55617636 -0.03713034 -0.3948637 0.39008474 0.07031426 0.089934886
0.17175145 0.009880066 -0.33662045 -0.06411104 -0.17762077 0.29792476 -0.07191959 -0.24774858
0.21839976 0.2791838 0.058269918 0.23292172 0.34030876 -0.058229655 0.38367987 0.2692204
-0.32418492 -0.023742933 0.27930233 0.11669505 -0.20834947 -0.24103443 -0.27342364 -0.08455674
-0.030316291 -0.2426539 0.13385488 0.00694482 -0.1843335 -0.10829041 -0.0049843593 -0.295178
-0.16268913 -0.081154965 -0.053358816 -0.019619936 -0.015811037 -0.06845865 0.41034305 -0.08319334
-0.14350916 0.04083058 -0.0017040785 -0.019001018 0.17296422 -0.05184782 -0.07409646 0.2574459
0.008623156 -0.029885752 0.04840189 -0.21866961 0.07367337 -0.05551909 -0.047795463 0.27343056
0.026296718 -0.07948552 -0.44273114 -0.018725265 -0.365747 -0.11095229 0.073276855 0.28342906
-0.17736427 -0.079134166 -0.25545698 -0.15088566 -0.09224208 0.10107141 -0.15699583 0.022112556
0.21230705 0.07315523 0.11920635 0.19953376 -0.1043724 -0.037740458 -0.015116099 0.03365625
00000000: 916d a7be bd07 b4bc 22a6 8f3e 869b e83d
00000010: fbd9 55be 21ea 77be b5da 8bbe 2774 acbd
00000020: ef8e dfbc fcb3 77be 4459 083e 583b 313b
00000030: 4e8d 3dbe b53f ddbd c5ff dcbb 489d 95be
00000040: 301b 29be 87d0 aabd 82b3 50bd 1297 8dbc
00000050: b547 6ebc 48df 85bd 3004 d43e 332c a4bd
00000060: d2a8 0fbe 75f7 273d 2b46 39bb 73b3 9cbc
00000070: 208c 2e3e b2bc 44bd d4e1 95bd 3977 833e
00000080: 7148 193c 6720 06bd af42 433d 1d04 5fbe
00000090: 370d 943d 02fa 55bd 8fed 41bd 0ec7 8b3e
000000a0: 173a ea3c 6f16 a9bd 262f e5be e664 a7bc
000000b0: ed88 bcbe 72d9 dfbd 1e4b 9c3d 5cb2 913e
000000c0: 0f54 38be a372 9bbd 71ea 84be a5ec 19be
000000d0: 338c bdbd a092 cb3d b0a3 1fbe f044 c93c
000000e0: 82fa 5a3e 1477 9d3d a28a f23d 82a3 4d3e
000000f0: d003 d8bd d2ac 1bbd 91a9 7dbc 4e6a 003d
00000100: 60fb 90be a2a9 4bbd db5c 853e 6cc1 263e
00000110: 5f0c 4ebe 2949 66be 5418 8ebe c941 b8bd
00000120: cdf3 9abd dc0f 82be 96b5 133e bbe6 8d3d
00000130: 8afc 30be 6ab9 e5bd 655c b03c aa1f adbe
00000140: 0a36 01be 7d7a 43bd aa31 b5bd dbe1 5dbd
00000150: 0d21 0bbd 8a0a e9bd 0199 b53e 71be 03be
00000160: 45d0 42be faad 1c3d 33c7 773c 63db 8cbc
00000170: 52b9 563e 029f dbbd b6fd b2bd 3fe2 883e
00000180: 6fb6 0ebb 2caa 423c a528 723d 15e5 6cbe
00000190: f4c4 c03d d884 d4bd 296e 60bd d130 8f3e
000001a0: feb4 01bc c3f3 0dbd 94fe bcbe 4ef2 cb3b
000001b0: 9fee a8be b317 0abe 40c1 ed3c 234c 883e
000001c0: 004a 0ebe 1610 02be 8fb2 47be e867 23be
000001d0: e35d b3bd 2dfe 003e a872 31be 31f0 6bbc
000001e0: f71b 423e 6d96 9b3c 06f4 053e 7810 393e
000001f0: 1ed6 b4bd 0baa 0abd b2d6 1cbc 9b4d 873d
00000200: 1a63 54be 26cb 07be 65ee 943e 18ec 20be
00000210: cb69 56bd d266 c4be d0ba f5bd e824 18be
00000220: c489 debd 5b1c 83be 71f5 29be 357f 9cbd
00000230: 6af9 b8be e138 12be 6746 2fbe 4823 63bd
00000240: 4f77 533e 94d1 483e 706a 6e3d 6abe db3d
00000250: 8055 a4bc e011 09bd 1b38 a63e cea4 8abd
00000260: f6fe 28be 75f7 acbd 14a7 103e 08ca 943e
00000270: ff93 fdbd 52fa 6dbe 0aeb 1fbe 799e a03e
00000280: d405 203d 2c12 19bd 8df6 553e f311 44be
00000290: d09f 553c 0a44 a6bd b656 8bbd 20c1 2b3e
000002a0: 4852 acbd 3af1 b6bd 9361 0ebf fc15 18bd
000002b0: 932b cabe 30b9 c73e ec00 903d c82f b83d
000002c0: 9ddf 2f3e 00e0 213c 8459 acbe a64c 83bd
000002d0: 38e2 35be 9889 983e 944a 93bd ceb1 7dbe
000002e0: 30a4 5f3e 2ef1 8e3e 70ac 6e3d 0883 6e3e
000002f0: f33c ae3e 3882 6ebd b071 c43e 42d7 893e
00000300: 91fb a5be 8a80 c2bc b700 8f3e d0fd ee3d
00000310: 9059 55be bbd1 76be 2ffe 8bbe 162c adbd
00000320: df59 f8bc 447a 78be 4111 093e 5f91 e33b
00000330: ecc1 3cbe 5dc7 ddbd d653 a3bb 9221 97be
00000340: fb97 26be 9334 a6bd c68e 5abd fdb9 a0bc
00000350: 2686 81bc 0c34 8cbd 7c18 d23e 4561 aabd
00000360: 11f4 12be f73d 273d 635b dfba 06a8 9bbc
00000370: 881d 313e 615e 54bd e3bf 97bd f3cf 833e
00000380: 2348 0d3c f7d2 f4bc 0f41 463d edea 5fbe
00000390: 10e2 963d fc67 63bd 2dc5 43bd 17ff 8b3e
000003a0: 376c d73c 4ec9 a2bd a8ad e2be ba65 99bc
000003b0: 3143 bbbe f43a e3bd 2d12 963d 9d1d 913e
000003c0: fb9e 35be 1811 a2bd 42cb 82be c581 1abe
000003d0: 6ae9 bcbd 87fe ce3d 84c3 20be 6425 b53c
000003e0: 0567 593e 69d2 953d 7522 f43d 9452 4c3e
000003f0: 32c1 d5bd bd95 1abd 84a9 77bc 23db 093d
