minigrid/r2l/MiniGrid-DoorKeyR2L-v0/MiniGrid-DoorKeyR2L-v0_seed_107_length_100.pt (torch, 67779 bytes, 9 tensors)

weight_ih f4 [192, 11]
000000 24 4a 10 3e 5b 9e eb 3c 0a fc 35 bd c2 ed a5 bd
       0.14090782 0.028762033 -0.044429816 -0.08101989
000010 f4 22 85 bd 58 6a ae 3c 88 b6 2b 3d e8 92 8a 3d
       -0.065008074 0.021290943 0.041922122 0.067663014
000020 2e 66 99 3d 13 7f ed 3d d6 4c df bd f3 ae af 3d
       0.07490192 0.11596503 -0.10903327 0.08578291
000030 37 e3 30 bd 07 f8 fa bb 78 38 4f 3d c7 73 32 be
       -0.04318544 -0.0076589617 0.050590962 -0.17426978
000040 60 5a df bb 5c f7 79 bd 74 ee a1 3c 93 4c df 3d
       -0.0068161935 -0.061026916 0.019767024 0.10903277
000050 b6 76 af bb b4 13 e4 3c 7b a6 fc 3d 16 5a f0 bd
       -0.0053547276 0.027841426 0.12336441 -0.117359325
000060 20 fb 68 bd 97 d7 05 be 07 51 d0 b9 4a 3b fd bd
       -0.056880116 -0.13070522 -0.00039733222 -0.12364824
000070 7e b3 d9 3d 06 1c f8 bd ab bd 72 3c 84 34 6c 3d
       0.106299385 -0.1211472 0.014815728 0.05766727
000080 77 6b c7 bd 09 4f f4 bc 6f 0e 63 3b 7a 2d 5f 3c
       -0.09737294 -0.029822843 0.0034646054 0.013621682
000090 bd ba cb 3b 75 f5 dd bc c2 0f ea bd 2a 8a a6 bd
       0.0062173293 -0.027094582 -0.11428787 -0.081318215
0000a0 d6 e9 05 3e 9e cc 2f 3d 7e 88 72 3c 07 d7 bc 3d
       0.13077483 0.042919748 0.01480305 0.09220701
0000b0 5e 72 a5 3d 85 66 50 bd 97 45 8f 3d 98 cc 75 bd
       0.080784544 -0.05087902 0.06995695 -0.06000957
0000c0 06 b6 44 3c 70 f0 33 bd 4a 69 cd bd d2 15 a4 bd
       0.012006288 -0.04393047 -0.10029848 -0.080119744
0000d0 82 b2 9d bd 1e ae 36 bd 54 ff c8 bd de 92 24 bd
       -0.07700063 -0.044599645 -0.09814325 -0.040179126
0000e0 a1 7b e7 3d 8f 02 04 3d a5 ae cb bd ad d3 27 bd
       0.11302877 0.032229003 -0.0994542 -0.040973354
0000f0 0e 80 8e bd 4e 4a e1 bd 67 f9 17 3a a0 9d d1 3c
       -0.06958018 -0.110005006 0.0005797357 0.025587857
000100 d1 3f 57 3d f7 a4 fc 3d 01 66 67 be 54 d7 b7 bc
       0.052551094 0.12336152 -0.22597505 -0.022441544
000110 96 a9 1f 3c 01 bc 05 be 91 e8 08 3e 20 c8 e3 bb
       0.009745022 -0.13059999 0.13369967 -0.006951347
000120 3c 0d b0 3d da f0 c1 bd e1 99 e9 bd c8 d6 c6 3d
       0.08596274 -0.09469767 -0.11406303 0.09708935
000130 31 3c db bd b0 a2 05 3d 40 d0 17 3d 28 1a df 3d
       -0.1070484 0.032625854 0.037063837 0.10893661
000140 d6 25 eb 3d 42 c6 db 3d 06 13 fc bd e2 48 e3 bd
       0.11481826 0.10731174 -0.12308316 -0.11097886
000150 35 03 10 3d b9 93 d1 bd a4 44 01 be 85 87 d5 3d
       0.03515931 -0.10233254 -0.1262384 0.10426239
000160 34 23 f2 bd 67 cf a4 bd 33 5e 99 3d 17 27 f2 bd
       -0.11823121 -0.08047371 0.0748867 -0.11823862
000170 05 66 1c 3d a8 90 bc 3d a0 76 c6 bb 9f 8a 6e bd
       0.03818323 0.092072785 -0.0060566217 -0.058237668
000180 73 82 03 be 52 e0 c7 3c a4 5c 86 3d 81 ce 51 3d
       -0.12842731 0.024398956 0.065606385 0.051222328
000190 34 ba 63 bd 5f 69 ae 3d ec 95 47 3d 4d 00 96 3d
       -0.0555975 0.08516192 0.04872696 0.07324276
0001a0 68 cc 7a 3d cc c6 7c bd b3 76 b5 3d 62 c8 c7 bd
       0.061230093 -0.061713025 0.08860531 -0.09755017
0001b0 e9 2b bc bd d1 0b a7 3d 35 54 9f 3d 93 a2 9d 3c
       -0.09188063 0.08156551 0.07779733 0.01924256
0001c0 79 76 7d 3c 68 43 1c 3e 8f d4 df 3c 50 1c 8a bd
       0.015470141 0.15260088 0.027323036 -0.067436814
0001d0 7c 10 94 bd 47 80 5a 3d 1e 92 e8 3d 0e 13 2c bd
       -0.07229707 0.05334499 0.11355995 -0.04201036
0001e0 a9 e8 b1 bd 0e e8 4e bd 9b b6 0b 3d 8f 89 f1 bd
       -0.086869545 -0.050514273 0.034109693 -0.11793815
0001f0 69 62 5b be 9b 51 b5 3d 88 af 08 bd 48 e2 fb 3d
       -0.21424259 0.08853456 -0.033370525 0.12299019
000200 e6 8e ca bd d0 d3 e7 3d 08 d2 ab bd 22 5e bd bd
       -0.09890537 0.11319697 -0.0838967 -0.0924647
000210 a8 18 97 3c 32 66 bd bc 61 cf 3f bd 39 a0 0a be
       0.018444374 -0.02312002 -0.04682863 -0.13537683
000220 2e 70 ca 3d a0 52 37 bc 94 43 d2 3d 86 ff 0d bd
       0.09884678 -0.011189133 0.10266796 -0.034667514
000230 82 b8 1b 3d e1 0c b2 bd 03 ef b0 3d f3 27 94 bd
       0.038017757 -0.08693863 0.08639338 -0.07234182
000240 b7 5b 9b 3b ec 1b fb bd 06 d0 2b 3e 9d 48 d8 3c
       0.004741158 -0.12261185 0.16778573 0.026401812
000250 ce 73 ce bd 4c 6c bb bd 93 fc 89 bd 6f 22 b9 3d
       -0.10080682 -0.09151515 -0.06737628 0.09039771
000260 50 93 ad bd a5 57 96 bd 34 a4 ba 3d 1b 02 4f 3c
       -0.08475363 -0.073409356 0.091133505 0.012634779
000270 9e 51 44 be 3a a4 86 bd 8b 74 a4 bd 74 e9 88 bd
       -0.1917176 -0.065742925 -0.08030041 -0.06685153
000280 20 37 6c bc 2f 6e d4 bc 2b 04 0c 3d ee 8f cd bd
       -0.01441744 -0.025931446 0.034183662 -0.10037218
000290 84 ad d0 3d e9 cc 6e bd 75 6c d1 bd cf 67 49 3c
       0.101893455 -0.058300886 -0.10225765 0.012292816
0002a0 ef 8f 21 3d 21 c1 09 be e8 46 80 bc 6c e2 2c bd
       0.039443906 -0.13452579 -0.01565881 -0.04220812
0002b0 40 07 df ba 9f e8 84 3d 12 93 cd 3d d6 0a ea 3c
       -0.001701571 0.064896815 0.10037817 0.02856962
0002c0 b1 80 25 3e 80 2d e9 3c 4d c3 bb bd 05 9b 81 3d
       0.16162373 0.028464079 -0.0916811 0.06328396
0002d0 82 30 b3 bd 98 6e 81 3c d2 24 f3 bd f3 e6 a0 bc
       -0.087494865 0.015799806 -0.11872257 -0.019641375
0002e0 b1 19 92 bd 00 ce 96 bd 62 9f ec bc 89 bc 3b 3c
       -0.071338065 -0.0736351 -0.028884593 0.0114585245
0002f0 90 46 83 3d f4 89 1f be c6 6e 89 3d cf 3a 7e bd
       0.06409943 -0.15579969 0.067105815 -0.062067803
000300 98 f3 ce bc 2c 13 ef 3d d1 b3 14 3e 54 9d 65 bd
       -0.025262639 0.116735786 0.1452172 -0.056058243
000310 fa 0b 9d bd b2 bc 8d 3d 89 29 63 be a7 4a 6e 3d
       -0.076683 0.069207564 -0.22183813 0.058176663
000320 8c f3 74 3d 0c ca 05 3d c9 f2 86 bd 70 e5 d4 3d
       0.059802577 0.03266339 -0.06589276 0.10395324
000330 6c cb 60 3d 86 09 dd bc 3a a6 08 bc a7 0b 47 bd
       0.0548815 -0.02698208 -0.008340413 -0.048595097
000340 38 79 bd bd 79 8f dc bc 89 df 44 bd 84 86 4f bd
       -0.09251636 -0.026923882 -0.048064742 -0.050665393
000350 12 70 b1 bd 50 b2 e7 bc 90 ed 06 3c e4 1f 0d bd
       -0.08663954 -0.028283268 0.00823535 -0.03445424
000360 77 30 87 bd e0 5a 60 bd ff 30 df bc c4 9e 16 3e
       -0.06601041 -0.054774165 -0.027245043 0.14709002
000370 40 81 30 3b 9b e9 ac bd 72 dd bb bc 50 35 7f 3d
       0.0026932508 -0.08442994 -0.022932742 0.062306702
000380 2c af f3 bd 70 15 81 3d ea a5 9f 3d 52 ad 10 3e
       -0.11898646 0.06302917 0.077953175 0.14128616
000390 21 9c eb 3d f0 0e a7 3d 7e ea 0e bd 45 2f 0d 3e
       0.115043886 0.08157146 -0.034891598 0.13787563
0003a0 8f dc 72 3d 58 22 74 3c bd f9 21 be fd 1c 2d 3d
       0.059292372 0.014900766 -0.15817924 0.042263974
0003b0 92 9f d5 3d 34 df 15 bd b9 b1 18 3e 04 a6 97 3d
       0.10430826 -0.036589816 0.14911546 0.07404712
0003c0 5b bd 64 bd 4b 9b 7e bd d4 d6 32 3d cb e2 86 bd
       -0.055844646 -0.062159818 0.043661907 -0.06586226
0003d0 6c 4a 4c 3d 42 dc 2c be 81 9b 17 3e 30 21 4b bc
       0.04987566 -0.16880897 0.14805414 -0.012398049
0003e0 f0 a3 bd bd 11 85 15 3d 3d bb 96 bc e7 bd e0 3b
       -0.09259784 0.036503855 -0.018399829 0.0068585756
0003f0 1b c1 81 3d c3 d9 a8 bd f1 f5 c7 bd f2 a2 d9 3c
       0.0633566 -0.0824466 -0.097637065 0.026566956

weight_hh f4 [192, 64]
000000 cc 79 bf bd bc fd a2 bc ca 1b 85 bd d4 a1 88 bd
       -0.09349403 -0.01989638 -0.06499441 -0.06671491
000010 68 88 c4 3d 47 0b c6 3d 82 ca 62 3d 9e 99 be 3d
       0.0959633 0.0967012 0.055368908 0.09306644
000020 e5 75 b0 3d 69 fd f4 bd b3 87 91 3d bb 56 13 3d
       0.086162366 -0.11962397 0.07105961 0.035971384
000030 e2 00 5d 3d a5 d8 af 3d 4d 3b 34 bd 0f 25 94 bd
       0.05395592 0.085862435 -0.044001866 -0.07233631
000040 12 94 58 bd 35 df 37 3d 1b 30 8c bd 88 50 0c 3e
       -0.052875586 0.0448906 -0.06845113 0.13702595
000050 40 1b 76 bd c2 ab e5 3c e1 96 cc bd ae 86 7e bd
       -0.06008458 0.028036002 -0.09989715 -0.06214016
000060 57 b6 ae bc c7 0d c5 3d 2b ce 1b 3c 87 f4 c3 bd
       -0.02132718 0.096217684 0.0095096035 -0.09568124
000070 00 d7 7c bd f7 d5 ea bd be d3 c7 3d e3 79 a8 bd
       -0.061728477 -0.11466592 0.097571835 -0.08226373
000080 f7 94 c0 bc 94 90 3f bc 79 60 be 3d 4f 54 ba 3d
       -0.023508532 -0.011692185 0.092957444 0.09098112
000090 60 52 4e 3c 5e d4 2f be f3 5c 2b bd 98 de 2d 3d
       0.012592882 -0.17170855 -0.04183669 0.04244861
0000a0 05 6c b8 bd 0e c7 1a bd 3b 82 77 bd 29 34 b9 3c
       -0.09004978 -0.03778749 -0.06042693 0.02260788
0000b0 3d 0d fc bd 86 73 9f 3b 63 cf 98 3d d5 c8 91 3d
       -0.123072125 0.0048660664 0.07461431 0.07118384
0000c0 e7 92 07 bc 78 c2 28 3d 54 2b d7 3d f2 55 7c bd
       -0.00827477 0.041201085 0.10506311 -0.0616054
0000d0 75 d8 4b be 92 19 ce bd 9a f9 08 bd 29 61 14 bc
       -0.1990679 -0.10063471 -0.033441164 -0.009056368
0000e0 91 be 14 bd b7 e6 b7 bc 3d 0d 91 bd 68 7a 54 3d
       -0.03631455 -0.02244888 -0.07082603 0.05187455
0000f0 7c 73 42 bd 9f 39 cf 3d 98 d0 3d 3d 5e be 4c 3d
       -0.047473416 0.10118412 0.04634151 0.049986236
000100 77 0c 16 bb 95 ed 8f bd 9b fb c4 bd a9 97 6f bd
       -0.0022895613 -0.07027737 -0.096183024 -0.058494244
000110 ec ec 02 be 15 05 af 3d ef e1 19 3e c9 ab 8d bd
       -0.12785691 0.08545891 0.15027593 -0.06917531
000120 45 f3 fd bd 07 a5 82 3d 6f d2 a1 3d 9f 26 0f 3d
       -0.123999156 0.06379133 0.07901465 0.03494894
000130 a1 bd 92 bd ef 4e 83 3d 65 a7 1e 3d ed f5 26 bd
       -0.07165075 0.0641154 0.03873386 -0.040761877
000140 05 09 35 3c 3d e0 cb 3d d6 b2 12 bb a4 8c 4b bd
       0.011049514 0.099548794 -0.0022384427 -0.049694672
000150 8d 28 51 bd 3a 2b cb 3d 75 6a fd bd 4c 24 ef 3d
       -0.051064063 0.09920354 -0.12373821 0.11676845
000160 29 f4 85 bc 7a 49 8a bd e7 90 dd bd d6 74 17 be
       -0.016351776 -0.06752296 -0.108186536 -0.14790663
000170 03 98 3e bc d4 7d c4 3d bf 08 f7 bc 79 57 14 bd
       -0.011632922 0.09594312 -0.030155538 -0.036216233
000180 37 a1 e4 bc 91 28 21 bc b1 a2 83 bc d7 0a 9c bd
       -0.027908904 -0.009836332 -0.016068788 -0.07619255
000190 d7 0d 80 3c ee 68 93 bc f9 a8 ed bd 5e 74 a4 3d
       0.0156316 -0.01799437 -0.116044946 0.08030008
0001a0 a1 07 e1 bc 7e 36 e7 3d ac 14 07 3d 45 b2 43 bd
       -0.027469458 0.112896904 0.0329787 -0.047777433
0001b0 87 bf cc bd a8 7e a1 3d 41 1a f2 3d 8a c7 84 bd
       -0.099974684 0.07885486 0.11821414 -0.064833716
0001c0 fe de e8 bc d0 8d 5e 3d 84 4c 07 bc ba db 6f 3d
       -0.028426643 0.05433446 -0.008257989 0.058559157
0001d0 8b 06 cc bd 5a 8d 86 bd fc 51 50 bd 1a 6d 70 bd
       -0.099621855 -0.065699294 -0.050859436 -0.058697797
0001e0 ae e1 b4 3d fe ca 87 bd 1f 45 b8 bd 9a 8e b2 bd
       0.088321075 -0.066305146 -0.08997559 -0.08718605
0001f0 6c 3f d8 3d 11 a0 a3 3b 21 64 be bc 19 77 cc 3c
       0.10558972 0.0049934466 -0.023241105 0.024959134
000200 d6 f7 d4 3d 7e c4 83 3d c3 fa 3d bd 90 3a c5 bd
       0.103988335 0.06433962 -0.046381723 -0.096303105
000210 29 ea e5 bd c2 74 58 3d f2 1b 11 3d e6 28 ef bb
       -0.11226303 0.052845724 0.03542704 -0.0072985766
000220 b1 3c 13 3d e0 42 5a bd 0e 0f 13 3d 1a b0 8e bd
       0.03594655 -0.053286433 0.03590303 -0.069671825
000230 b4 8b c7 bd 87 14 cd 3c c3 8d 5a bb 24 a4 35 bd
       -0.09743443 0.025034202 -0.0033348657 -0.04434599
000240 eb 70 40 bd fe 9c c7 3d 71 21 2e 3d ed 0b 93 bd
       -0.046982687 0.09746741 0.04251236 -0.07180009
000250 bd 16 79 3b 0d 48 37 3d 0c 64 0c be db 4c ed 3a
       0.0038007938 0.044746447 -0.1371004 0.001810457
000260 d3 3c da bd b2 cc 24 3d c5 68 42 3c 85 a7 b0 bc
       -0.106561325 0.040234275 0.011865799 -0.021564255
000270 1c ac fd bb 54 09 90 bd fa 01 b3 bd fc e5 58 bd
       -0.0077414643 -0.07033029 -0.087406114 -0.052953705
000280 f7 30 92 bd 8b 73 69 bd 25 57 88 3d 08 df f1 bd
       -0.071382456 -0.056994956 0.066572465 -0.11810118
000290 32 78 85 bd 8b 34 3d bd 5a 49 97 3d 25 14 87 3d
       -0.06517066 -0.046192687 0.073870376 0.06595639
0002a0 9f e2 a8 3d ed 30 bb 3d e8 80 d2 3d 1e c1 23 3d
       0.082463495 0.09140191 0.10278493 0.039979093
0002b0 3d 89 dd 3c 3a 67 bf 3d 95 b1 c8 bd 18 33 06 bd
       0.02704298 0.09345861 -0.09799496 -0.03276357
0002c0 a4 51 01 be 4e 38 f2 bd cd 88 51 bd cd 5e c0 3d
       -0.126288 -0.118271455 -0.051155854 0.09393082
0002d0 ff 09 9e 3d b0 14 c8 bd eb 3c 82 bd fc 09 40 bd
       0.0771675 -0.09769571 -0.063592754 -0.04688452
0002e0 3f 69 af 3d 64 f7 43 3d 83 22 b4 bd 24 65 41 3c
       0.08564996 0.047843352 -0.08795645 0.011803899
0002f0 60 37 e0 bd f5 6d 16 bd 00 24 44 3c 38 45 f5 bd
       -0.10948062 -0.036725957 0.011971474 -0.11976093
000300 fc 7f 13 bd 49 81 9b 3d a8 b6 64 bd 2d c3 bd bd
       -0.036010727 0.075930186 -0.055838257 -0.092657425
000310 d6 19 ab 3c 10 5d b5 bd 2a 7a a4 bd 9e e1 09 be
       0.020886343 -0.08855641 -0.080311134 -0.13464972
000320 65 ab 00 3d a8 4a eb bc 40 14 5f 3c 2a 7e eb bd
       0.031413455 -0.028722122 0.013615668 -0.11498673
000330 6a d1 ad bd 47 0c 9b bd aa 8e a6 bd bc 77 1e bd
       -0.08487208 -0.07570701 -0.0813268 -0.038688406
000340 d4 c4 be bd 41 e4 63 3c ca 09 cb 3c 40 11 4d bd
       -0.09314886 0.0139094 0.024784941 -0.05006528
000350 a6 27 07 bd 4c 29 d2 3a 36 36 98 3d 47 9b 6c bb
       -0.032996796 0.0016034036 0.07432215 -0.0036103295
000360 58 f2 b1 3d d1 9c bc 3d b1 60 fa 3d 0d 7f cf 3d
       0.086888015 0.09209598 0.12225474 0.10131655
000370 f7 80 c3 bc 98 c0 bf bd b0 21 d9 bc 74 55 b9 3d
       -0.023865206 -0.09362906 -0.026505321 0.09049502
000380 87 72 a2 bd 11 bc 4e 3c cd 0b e0 3d 45 e7 8f 3d
       -0.079320006 0.012618081 0.10939751 0.07026533
000390 af 11 71 bb bc 0d 39 3d b6 bf f7 bd fb 5a 42 3d
       -0.0036784222 0.045179114 -0.12097113 0.047450047
0003a0 3b 8f bd 3d d8 88 7e 3d 5e 3f cc bd 29 b6 9e bd
       0.09255835 0.062142223 -0.09973024 -0.07749588
0003b0 1a 04 17 3e c5 36 9e bd 00 ed dc 3d 1f f3 dc 3d
       0.14747658 -0.0772529 0.10787392 0.10788559
0003c0 db ae fe 3c 2b 4e a8 3d 89 3d 52 bc db 0f ed 3c
       0.031089237 0.08218034 -0.012832054 0.028938225
0003d0 e8 0e 08 3c ba 8d d4 3c ee de 4d bd f7 7b 83 bd
       0.008304335 0.025946487 -0.05026143 -0.06420129
0003e0 dd 9c 88 bd ba 83 3a 3c 71 eb db bc 7e c1 f8 3d
       -0.06670544 0.011383945 -0.026845666 0.12146281
0003f0 fb 53 e5 bd 0d 09 81 bd 6e 59 b4 3b dd 72 14 bd
       -0.11197659 -0.063005544 0.005503825 -0.036242355

bias_ih f4 [192]
000000 c9 7c 8f bc 25 90 6f bd 6a 31 57 bc 13 e5 39 3d
       -0.017515557 -0.058487076 -0.01313434 0.045384478
000010 9a 81 bd 3d b2 a5 b3 bd 48 c3 b2 bd ce 25 d7 3d
       0.09253235 -0.08771838 -0.08728653 0.105052575
000020 a3 8b 3b bd 1c 12 59 3d 80 e3 54 bd bf e1 9d bd
       -0.045787465 0.052995786 -0.051974773 -0.07709073
000030 84 d8 b0 3d aa 9e b4 bd 2f bf 94 bd 80 ed 05 3d
       0.08635047 -0.08819325 -0.07263028 0.0326972
000040 34 61 f8 bc 4e 32 2a bd 0b e6 2a 3d c4 51 ca 3d
       -0.030319788 -0.04155188 0.041723292 0.09878877
000050 86 2e 89 bd da de ad bd ee d0 61 3d 21 f2 0a 3d
       -0.06698327 -0.08489771 0.05513089 0.03392232
000060 f9 40 18 bd b9 57 02 3e 06 d9 00 3e a4 37 e4 3d
       -0.037171338 0.12728776 0.12582788 0.11143425
000070 73 23 24 3c 6b 1a 4e bc 90 bf bc bd 74 8a b3 3b
       0.010018217 -0.012579541 -0.09216225 0.0054791514
000080 24 10 24 bd e0 3a b0 3d 25 c0 2a 3d 51 4a 35 3d
       -0.040054455 0.086049795 0.04168715 0.044260327
000090 b2 44 ff 3d d4 7e 7f bc 96 5c 8b bc d1 86 fc 3d
       0.124642745 -0.015594203 -0.017011922 0.12330402
0000a0 ce cb d2 3d e0 a9 3f 3d ad c9 92 3d 92 1d 9b bd
       0.10292779 0.046792865 0.07167373 -0.075739995
0000b0 1b 65 3f 3d d2 41 e5 bc 81 ce a2 3d 21 fa d1 3d
       0.04672728 -0.027985487 0.07949544 0.102527864
0000c0 28 3f 22 3d 5c 16 21 bd c8 30 1b 3e 4b e1 d6 3b
       0.03961101 -0.039327964 0.15155327 0.0065576187
0000d0 b9 c1 e6 3d 61 fb 10 3d 0e 3a 39 3d bc e2 a8 3d
       0.112674184 0.035395984 0.04522138 0.08246371
0000e0 db 6a be bd 4b c0 1f 3e 0a 03 08 bc 82 be da bd
       -0.09297725 0.15600698 -0.008301506 -0.10680868
0000f0 c2 4a e7 3c bc f1 06 3d fb 09 e1 bd 6a aa b1 3d
       0.02823389 0.03294538 -0.10988232 0.08675082
000100 cb 4a 6c 3c 2e f1 1e be 10 ad 80 bd e1 91 04 be
       0.014422129 -0.1552169 -0.06283009 -0.12946273
000110 fd 0a c4 bc 3d ca b5 bc 07 b2 20 be de 9b a6 bc
       -0.02393102 -0.022191161 -0.15692912 -0.020337995
000120 36 5b 82 3c a1 bf 78 3c 49 07 30 3c db 22 00 bd
       0.015912633 0.015182407 0.010743924 -0.03128324
000130 1f 2d f4 bd 47 95 09 be ec e7 02 be 3e ae 15 3d
       -0.11922669 -0.13435851 -0.12783784 0.036543123
000140 3b 02 c5 bd 96 f8 d0 bd 0d fe 58 3d ce 88 e7 bd
       -0.09619566 -0.10203664 0.052976657 -0.1130539
000150 de 36 03 be 3f 8e 31 3d c0 94 d5 bd df e5 bd 3d
       -0.12813899 0.043348547 -0.104287624 0.0927236
000160 88 7d 0d be e3 84 31 be cb 7a 8b 3d 29 01 e8 bd
       -0.13817418 -0.17335849 0.0681053 -0.11328346
000170 50 68 c3 bd 2e 12 39 bd e5 1d c4 3d 6e 98 d1 3d
       -0.095413804 -0.045183353 0.095760144 0.10234152
000180 7e ae 20 be 86 38 17 3d ce 70 3b be f1 ed be 3c
       -0.15691563 0.03691914 -0.1830475 0.023306819
000190 b2 d3 a6 3d 3c 6d b1 bd 56 ea eb bd 8e b2 22 bb
       0.081458464 -0.08663413 -0.115193054 -0.0024825665
0001a0 8d 27 92 3d d9 45 ea 3b 7d c2 08 3e 51 95 85 bd
       0.0713645 0.00714944 0.13355441 -0.065226205
0001b0 59 1b 31 bd a8 eb 89 bd 8c a3 e1 bd d8 77 d6 3c
       -0.04323897 -0.06734401 -0.11017522 0.026180193
0001c0 73 95 c6 3d 49 71 03 bc 81 b7 82 3c 0b 3c 99 bd
       0.09696474 -0.008022615 0.015956642 -0.074821554
0001d0 bb 43 fe bd b5 d1 90 3b 1e 8a 97 3d c3 0f 08 be
       -0.12415262 0.0044195303 0.07399391 -0.13287263
0001e0 8a 57 c0 bd b6 1d 0a be 7d e0 98 3d 73 b3 e0 bd
       -0.09391697 -0.13487896 0.07464693 -0.10971727
0001f0 30 7c 8a 3d 5f ce f4 3d eb 02 6c 3c 8e d4 d5 3c
       0.06761968 0.11953425 0.014404993 0.02610233
000200 2a 25 52 bc 56 6f 0e be b8 ea 51 bd 82 5b d9 bd
       -0.012826243 -0.13909659 -0.051249236 -0.10613157
000210 1d 1a da 3d 90 ac 96 bd 34 a1 49 3c 16 f6 eb bd
       0.10649512 -0.073571324 0.0123065 -0.115215465
000220 f0 a9 91 bc d4 c3 07 be 14 4e 91 3c e0 b4 cf 3d
       -0.017781228 -0.13258296 0.017737426 0.10141921
000230 59 e1 f2 bd 48 ae 28 3e 23 a8 e2 3d 98 05 d9 ba
       -0.11859388 0.16472733 0.11067226 -0.0016557453
000240 67 35 cb bd d6 0b 21 bd 0f d4 c3 ba ba 05 df 3d
       -0.09922295 -0.03931793 -0.0014940518 0.10889764
000250 98 29 1a be f4 59 c2 bd 6d ae 8f 3d 8f e1 1f 3e
       -0.1505493 -0.094898134 0.07015691 0.15613388
000260 d9 ca b8 3d 12 68 96 3d 93 e5 6a 3d e0 d2 e7 3d
       0.09023065 0.073440686 0.057347845 0.11319518
000270 24 e6 e2 3d e5 67 da bd 06 2f 4f 3d fb 30 4d bc
       0.11079052 -0.106643476 0.050581954 -0.012523885
000280 8b 59 ab 3d 4f a4 17 3e 51 ac 0a be ab 44 8e 3d
       0.08366688 0.14808773 -0.13542296 0.06946691
000290 d4 b8 b1 bd 50 c5 ac 3d 0d 15 d8 bd 45 82 0f be
       -0.08677831 0.08436072 -0.1055089 -0.14014538
0002a0 9b c1 59 3c 32 ad 83 3d 52 db a5 bd 5e 2f 9e 3d
       0.013290788 0.06429519 -0.08098473 0.07723878
0002b0 3f ca 48 bd d4 e4 f9 3d 65 40 d9 3d 7c 1b 42 3d
       -0.049021002 0.122018486 0.106079854 0.047389492
0002c0 d3 64 fc 3d 8b 66 f0 3d 9d ed d8 bc b7 fa 9a 3d
       0.12323918 0.117383085 -0.02648049 0.07567351
0002d0 71 11 04 3e 0a bf 0b 3e 2e c2 dd 3d 52 e6 48 3d
       0.12897278 0.13647094 0.108280525 0.049047776
0002e0 d4 99 82 bb ca 3a b4 3d 5e f7 36 3c cb 54 ba 3d
       -0.003985623 0.088002756 0.011167375 0.09098204
0002f0 8e e9 4d bd 4c 92 82 bd 26 c2 0c 3d 03 a1 4b 3d
       -0.050271563 -0.0637556 0.034364842 0.0497141

bias_hh f4 [192]
000000 df 2f 8e 3d a8 87 e4 3d 08 a5 9b 3d cc 30 29 3e
       0.069427244 0.11158687 0.075998366 0.16522521
000010 18 40 cd bc 0a 9a e3 3d 0f 59 21 bd 3a f3 5a bd
       -0.025054976 0.11113365 -0.039391574 -0.053454615
000020 64 bd ac bb a7 0e 43 bd 05 3e 9c 3d 4f f9 ba bd
       -0.0052716006 -0.047621395 0.07629017 -0.09129583
000030 5e 1d 78 3d b4 82 16 3d ea 12 b4 3b 5e 99 2d bd
       0.06057488 0.036745742 0.005495419 -0.04238259
000040 7c 04 3e bd df 8f ae 3d 00 5d a3 3c 65 1a 0a 3e
       -0.046390995 0.08523535 0.019941807 0.13486631
000050 44 89 f7 3d 3e ff a9 3b 70 f2 4b bd f3 b3 e7 3d
       0.12086728 0.005187898 -0.049791753 0.113136195
000060 4d e2 a4 3a 1b 71 66 bd 08 8d 5b bd da 3d 8a bc
       0.001257965 -0.05626021 -0.053601295 -0.016875196
000070 4a ec 3c bd 09 5d bd 3d fe b8 db bd 3d 62 4b 3d
       -0.04612378 0.09246261 -0.10728644 0.049654234
000080 06 39 1c 3e 5d 5a 8f 3d dd 43 12 3e 58 d4 f3 3d
       0.15256128 0.06999657 0.142837 0.11905736
000090 cb fb b3 bd f0 95 54 bd af ad c4 3d 63 a3 ba bd
       -0.0878826 -0.051900804 0.0960344 -0.09113195
0000a0 bc dd 5b bd b1 f6 0d 3e 8b 6f 93 3b 34 78 50 ba
       -0.05367826 0.13863637 0.004499381 -0.0007952482
0000b0 89 79 9e bd 9b a6 12 3d ac c1 68 3d 37 aa e9 3d
       -0.07738025 0.03580342 0.056825325 0.11409419
0000c0 a3 2b b2 3d 98 01 66 3d 09 a0 80 bd d0 97 8d bc
       0.08699729 0.056153864 -0.06280524 -0.017284304
0000d0 9e 48 ca ba db c6 38 3d 56 e8 12 3e fd 52 b0 3d
       -0.0015433019 0.04511152 0.14346442 0.08609579
0000e0 52 69 2e bd 95 45 e3 3c f4 71 16 3c 84 aa de 3d
       -0.04258091 0.02774314 0.009182442 0.10872367
0000f0 98 2c d5 3d c5 43 01 3d 59 a9 8d 3c d9 1d ea 3c
       0.10408896 0.03155877 0.017292665 0.028578686
000100 8d 87 2c bd 79 f9 86 bd 95 7e 9a 3d 21 f7 dc bd
       -0.04212146 -0.06590552 0.07543675 -0.107893236
000110 43 9a d6 bd 27 86 16 bd 8a 71 06 bd 92 39 09 3c
       -0.10478642 -0.03674903 -0.032823123 0.008375542
000120 d3 22 ea bd fe 1c 0b be 11 2e 6b 3c 36 18 d4 bd
       -0.114324234 -0.13585278 0.014354245 -0.1035618
000130 79 d1 93 3d 1b b7 12 be 20 16 b1 bd 76 3c a9 bd
       0.07217688 -0.14327662 -0.08646798 -0.08263485
000140 f0 72 b8 3c 10 a9 76 3c 09 a8 7a bd 5e 8c 4c 3d
       0.022515744 0.015054956 -0.061195407 0.049938552
000150 13 36 bf 3d 64 a1 a9 3d 9b df 87 bd c6 be 30 3c
       0.09336486 0.08282736 -0.06634446 0.010787671
000160 98 dc 1f be 64 56 1c be 2b 8c e8 3d c5 34 a5 bd
       -0.15611494 -0.1526733 0.1135486 -0.080667056
000170 f3 91 9f bd 8e d8 6a bd 41 89 b3 bd d4 4b 14 bd
       -0.077915095 -0.05733543 -0.087664135 -0.036205128
000180 0c 03 31 be 3d 5c a1 bd f3 90 1d 3d f6 88 f7 bd
       -0.17286319 -0.07878921 0.038468312 -0.1208667
000190 ca 8e 93 3d 01 ac 43 be b7 fc 0a be a8 52 20 bd
       0.07204969 -0.19108583 -0.13572966 -0.039141327
0001a0 cc 8b aa bc a1 8e 69 3d 45 e4 1c bd 92 a7 30 3d
       -0.020818613 0.057020787 -0.038303632 0.043128558
0001b0 56 eb 5c 3d d2 7e 37 3d d0 dd e8 3d d6 fa 2a 3d
       0.05393537 0.04479868 0.113704324 0.041743122
0001c0 34 fe 03 bd 65 67 91 bb 0e 59 0d 3d 2b 59 1f bd
       -0.03222485 -0.0044373744 0.034508757 -0.038903397
0001d0 9f 5f a7 bd 92 70 b1 3d 16 53 ae bd c2 07 47 bd
       -0.08172535 0.08664049 -0.08511941 -0.048591383
0001e0 c1 ed 0c 3d 55 46 01 be 15 af 67 3c a1 ff b3 bc
       0.034406427 -0.12624486 0.014140864 -0.02197248
0001f0 6b 07 28 bd cf da c3 bd b2 a0 ad 3d 70 cb b9 bc
       -0.0410227 -0.09563219 0.08477916 -0.022680014
000200 4c 23 c7 3d 8f ff 86 bd 7d ac c3 bc 27 a2 fa 3c
       0.09723529 -0.06591713 -0.02388596 0.030594898
000210 25 3d dc 3d fb fd 3b 3d c1 b3 8b bd e1 95 9b bd
       0.1075385 0.04589651 -0.06821395 -0.075969465
000220 9a 70 68 bc 7e f2 ab bd 76 ab 08 3d a3 5c bc bd
       -0.014187003 -0.08395861 0.033366643 -0.091973566
000230 4a 4f b2 bc f5 b4 18 3d f0 cc 0a bd 4b ed 9c 3d
       -0.021766324 0.03728195 -0.03388685 0.076624475
000240 46 38 ce bb 32 97 20 bd 47 2c 0a 3c 6f fc b7 bd
       -0.0062933294 -0.03920669 0.008433408 -0.08983695
000250 b7 c2 6f b8 9b cc 06 3e 24 da b7 3d 3f 99 2a 3d
       -5.7163383e-05 0.13163988 0.08977154 0.041650053
000260 f6 40 1a 3e 80 e3 85 bc 97 83 07 be 10 a1 43 bd
       0.15063843 -0.016343832 -0.13233791 -0.047761023
000270 81 29 e5 bd 05 7f 09 3e b4 a7 46 3d 94 5e 9c 3d
       -0.11189557 0.1342736 0.048499778 0.07635227
000280 2f 09 9e bd e0 99 90 3c a0 11 1c 3d dd 9f dd 3c
       -0.077165954 0.017651498 0.038102746 0.027053768
000290 36 20 56 bc b0 f0 dc bd 9b 87 b3 bd 55 a6 4d 3d
       -0.013069203 -0.10788095 -0.08766099 0.050207455
0002a0 3d 91 c7 bc cd bb fe bd c0 1c fb 3d 00 8d 93 bd
       -0.024361247 -0.12438164 0.12261343 -0.07204628
0002b0 b4 ca 01 bd 50 3a 63 bd 4e 78 c4 bc 32 a8 e2 3d
       -0.031687453 -0.055475533 -0.023983147 0.11067237
0002c0 ec 77 22 3d be 08 17 bd c5 b8 83 3d 0e 2a 8e 3d
       0.039665148 -0.03687357 0.06431726 0.06941615
0002d0 3c 87 3b 3d d1 54 94 bd 80 87 e8 bd f3 b9 c5 3d
       0.045783266 -0.0724274 -0.113539696 0.096546076
0002e0 af ed e2 3c da df 2c 3e 7b b8 ab 3d f6 64 fc 3d
       0.027701227 0.16882268 0.08384796 0.12323944
0002f0 fd 62 04 3c f4 69 b6 3d 24 e4 8e bd 17 23 9e 3d
       0.008080241 0.08906928 -0.06977108 0.077215366

weight f4 [5, 64]
000000 d7 dd c6 bd 0c 16 2f bd bd cf 2c bd 5c b1 de 3d
       -0.09710281 -0.042745635 -0.042190302 0.10873672
000010 9f fc 10 3d 41 24 a9 bd 44 d5 c2 3d a4 b5 d5 3d
       0.03539717 -0.08258868 0.095133334 0.10435036
000020 23 f4 39 bd 74 de 5a 3b 37 88 25 3d a0 45 0f 3e
       -0.045398843 0.0033396753 0.040413108 0.13991404
000030 fd 67 24 3e 15 b8 30 be 7b 78 fe 3d a8 00 4d 3d
       0.16055293 -0.17257722 0.124253236 0.050049454
000040 f2 a1 a2 3c ff 10 dd bc cc 84 96 bd ac f4 b3 3d
       0.019852612 -0.026985643 -0.07349548 0.08786902
000050 7d c1 09 3e 1e b2 f2 bd 87 21 10 be cf f6 b2 3c
       0.13452716 -0.118503794 -0.1407529 0.021846203
000060 c9 36 16 be 46 30 bd 3d 81 9c 9b 3d d8 b9 a6 3d
       -0.14669336 0.09237723 0.0759821 0.08140916
000070 7b c4 85 bb b8 36 c1 3d 82 7e 39 bd 9a ca e4 bc
       -0.00408226 0.09434265 -0.045286663 -0.02792864
000080 e2 da 8b bd 6a 96 9b bd dc bb 96 3c fd 0d c0 bd
       -0.06828858 -0.075970486 0.018400125 -0.09377668
000090 91 96 0b 3e 81 3a f2 3d f9 1f af bc 80 2b cd 3d
       0.13631655 0.11827565 -0.02137755 0.100180626
0000a0 50 97 18 be 9d 24 0f bd 77 03 94 bd 72 b0 87 3d
       -0.14901471 -0.034947027 -0.07227223 0.06625451
0000b0 d1 67 0d 3d 0f db 25 be fb fb 03 be 58 5f 17 be
       0.034522835 -0.16196845 -0.12889092 -0.14782465
0000c0 78 be 11 be fc dc 35 3d 09 22 60 bd a9 33 35 bd
       -0.14232814 0.0444002 -0.05471996 -0.04423872
0000d0 11 56 8a bd 55 be 5b bd 13 bc fe bd fb c3 79 bc
       -0.06754697 -0.05364831 -0.12438216 -0.015244479
0000e0 b4 25 f1 bb 0e 40 6a 3d 3f 72 63 3b fd 59 21 bd
       -0.007359231 0.057189994 0.0034705547 -0.03939246
0000f0 aa be a7 3d 44 a5 c4 bd a9 28 08 bd 08 be 0a bd
       0.08190663 -0.096018344 -0.0332419 -0.033872634
000100 99 61 b7 bd 78 85 1a 3d bf e6 b9 3b db 52 39 be
       -0.08954162 0.037724942 0.005673259 -0.18098013
000110 4b e8 3a 3e 30 32 2a 3e 8a fb 40 be 09 80 50 bd
       0.18252675 0.16620708 -0.18845955 -0.050903354
000120 f7 54 37 3e 7d 3f 3b bd 46 18 98 bd 9f 4a f0 bc
       0.17903505 -0.045714844 -0.07426505 -0.029332457
000130 fa 30 82 bb 47 22 81 bd 81 1a 0e 3e f1 5d fc bc
       -0.0039731236 -0.06305366 0.13877298 -0.030806514
000140 cb fe 91 3d d0 b4 8f bd 86 8e 2b 3e dd e9 6a be
       0.07128676 -0.07016909 0.16753587 -0.22940774
000150 5f b6 02 3d 07 3b 02 be 2d 37 1f 3e d7 d1 e3 3d
       0.031912204 -0.1271783 0.15548392 0.11124008
000160 03 f5 d7 bd 51 e2 41 3c 42 87 03 3e 3a 46 28 3e
       -0.10544779 0.011833743 0.12844566 0.1643304
000170 34 5b 25 3e b3 e0 2d bd 4c be 23 bc 11 ce 9e 3d
       0.16148072 -0.042450618 -0.009994101 0.07754148
000180 a7 e2 2a be 8f b6 ef bc b4 eb 0c be 77 94 f2 3d
       -0.16688024 -0.029261855 -0.13761789 0.11844724
000190 12 7a 1c 3e 3b cf db 3d f8 a0 a3 bc bd db 2e bd
       0.15280941 0.107328855 -0.019974217 -0.042690028
0001a0 45 0b 3e bd 86 07 fc bd 04 59 5b bd ff 72 e1 3d
       -0.046397466 -0.123061225 -0.05355169 0.11008262
0001b0 c9 59 50 3c c3 81 87 bd 92 22 af bd 75 2e 58 bc
       0.012716719 -0.06616547 -0.08551516 -0.01319467
0001c0 66 9e 9d bd db 80 06 3e 75 7c 61 3d 8e 0b e0 bc
       -0.07696228 0.13135092 0.055050332 -0.02734926
0001d0 05 f6 52 3e 50 6b 50 bd 4e 24 33 bb 45 d2 03 3d
       0.20601662 -0.05088359 -0.0027334872 0.03218295
0001e0 78 cd 1a 3e 70 a9 a0 3c e6 a4 36 3e 2c 28 cd ba
       0.15117443 0.019612044 0.17836341 -0.0015652231
0001f0 c7 84 8e 3d cf fd b6 bd 21 8a 85 bd d3 ad 42 3e
       0.06958919 -0.08935129 -0.065204866 0.19011621
000200 4d 15 4b 3d 43 09 e2 bd bd 7f 8b bd 44 6d 61 bd
       0.04958086 -0.11036923 -0.068114735 -0.055035844
000210 94 50 26 3e c0 6e 1d bd 71 77 b0 3d ff af f6 bd
       0.16241676 -0.038435698 0.08616532 -0.12045287
000220 33 2f 07 3d fa f9 8d bd 3e fe 7a bc 95 99 f2 bd
       0.033003997 -0.06932445 -0.015319405 -0.118457
000230 68 7a ea bd f1 3f 17 3e a8 b6 6b bd a3 67 35 3d
       -0.114491284 0.14770485 -0.05754724 0.04428829
000240 1d eb 3a be 9d 38 03 3e ef 5c 1c be 39 a2 5b 3d
       -0.18253751 0.12814565 -0.15269826 0.053621504
000250 e1 5e 6d 3b 73 e5 06 3e 90 25 c3 3d 96 8c 08 3e
       0.0036219882 0.13173465 0.09528649 0.1333488
000260 f5 9b 00 3e 86 2e 12 be 1a 71 ec bd 27 bb 6d 3d
       0.12559493 -0.1427556 -0.1154501 0.05803981
000270 68 18 27 3c cf 35 7f 3d 6d f7 12 be 0a 2e cb 3d
       0.01019869 0.062307175 -0.14352198 0.09920891
000280 99 67 9c ba e5 8a fb 3d b5 c6 16 3c 1e 1f 2a 3e
       -0.001193273 0.122823514 0.009202649 0.16613433
000290 ec 6e af 3c 7e 33 0f be f6 7d a1 3d 1a 16 d4 bd
       0.021415196 -0.13984486 0.07885353 -0.10355778
0002a0 56 68 f6 3d c2 4a 70 bd 2f cd f5 bc 7f a5 c6 bc
       0.12031619 -0.058665045 -0.030005066 -0.024248837
0002b0 72 d3 d2 bd 8a e9 ac 3c 94 48 1d 3e cb 67 d7 bd
       -0.10294236 0.021107454 0.15359718 -0.10517844
0002c0 79 3e 3a bc 80 c7 00 3e 54 47 0c 3e 8c 48 40 bd
       -0.011367434 0.12576103 0.13699085 -0.046944186
0002d0 b3 98 35 3c a0 23 a7 3d aa 4e d9 bd 9f dc 5f bd
       0.01108377 0.08161092 -0.10610707 -0.05465376
0002e0 17 e1 b6 bd f1 0c 1e 3e fd f1 fd bd c1 9c cf 3d
       -0.08929651 0.15434624 -0.12399671 0.1013732
0002f0 11 80 ba 3d e5 31 a3 bd d9 57 32 bd fc 6f 33 be
       0.09106458 -0.07968501 -0.04354081 -0.17523187
000300 37 16 b6 3d 44 fc 45 bd 3e a4 ef bb 60 95 8d bd
       0.08890956 -0.048336282 -0.0073132804 -0.06913257
000310 58 ba 12 be 27 7e 14 ba 30 29 a7 3d 0f ad 1e 3e
       -0.14328897 -0.000566455 0.08162153 0.15495704
000320 6a 2e 27 bd 81 2d 89 3d ed 41 ca bd 57 46 45 bd
       -0.04081575 0.06698132 -0.098758556 -0.048162784
000330 64 7f 37 3d cd 0d 13 bd b4 04 ce 3d 95 dc a1 3d
       0.044799224 -0.035901833 0.10059491 0.07903401
000340 07 63 a9 3d de e0 f3 3d 3e ab 1b bd f7 4a 21 3e
       0.08270841 0.119081244 -0.038005106 0.15751253
000350 56 ad c0 3d da 90 8e 3d 4d 97 1d be ff 94 94 3d
       0.09408061 0.06961222 -0.15389748 0.07254981
000360 f5 fa 0d bd 01 97 fc 3d 11 0e b1 3d b5 9b 0e bd
       -0.03466316 0.12333489 0.08645261 -0.034816463
000370 db 52 bb bd fb f1 eb bd 14 fe 11 bd 36 68 e6 bb
       -0.09146663 -0.115207635 -0.0356427 -0.007031466
000380 0d 78 7c bc 98 bf 0a be 07 a7 58 3d 84 0e e4 3d
       -0.015409482 -0.1354965 0.052893665 0.11135581
000390 16 42 ad 3d ca a9 9d bd dd ca 09 bd e4 1f 58 3d
       0.084598705 -0.076984 -0.03364073 0.05276479
0003a0 bf 86 f8 bd 60 bd e0 bb fe d9 67 3d fb 62 4b bd
       -0.12135076 -0.0068585128 0.056604378 -0.049654942
0003b0 a1 39 99 3d 7b e1 0f 3e c1 dc 54 bd 35 dc 91 3c
       0.07481695 0.14050858 -0.05196834 0.017805198
0003c0 d5 6e 72 bc 36 bd 12 be 38 3a c6 bb cd d1 8d 3d
       -0.014796932 -0.1432999 -0.0060494207 0.06924782
0003d0 51 b4 4d 3d 45 c5 cd 3d 60 d8 8f 3c e7 e6 90 bd
       0.05022079 0.10047392 0.01755923 -0.07075291
0003e0 79 8c 93 bd 84 a8 8c bc ea 24 5c bd 51 a6 5e 3d
       -0.072045274 -0.017170198 -0.05374614 0.05435783
0003f0 b4 6c ba 3d 41 b2 c2 bb a9 b4 c3 3d 84 85 3c 3d
       0.09102765 -0.0059416597 0.095559426 0.046025768

bias f4 [5]
000000 a3 60 98 bd 2e 85 5d 3d cd de 07 3e c0 14 82 3d
       -0.07440307 0.05408209 0.13268586 0.06351614
000010 c4 96 2a 3c
       0.010411922

welford_state_mean f4 [11]
000000 cb cc 0c 3f da a3 f0 3e a4 70 3d 3f 00 00 00 00
       0.5499999 0.4700001 0.74 0.0
000010 00 00 00 00 00 00 00 00 00 00 00 00 00 00 00 00
       0.0 0.0 0.0 0.0
000020 00 00 00 00 90 c2 75 3d 00 00 00 00
       0.0 0.060000002 0.0

welford_state_mean_diff f4 [11]
000000 43 27 c8 41 8c 1b c6 41 15 6a 99 41 00 00 80 3f
       25.01917 24.76345 19.176798 1.0
000010 00 00 80 3f 00 00 80 3f 00 00 80 3f 00 00 80 3f
       1.0 1.0 1.0 1.0
000020 00 00 80 3f 24 b8 bd 40 00 00 80 3f
       1.0 5.928728 1.0

hidden f4 [6, 64]
000000 b6 29 56 3f 82 9e 00 bf 8f 8c 49 3f 27 d4 38 bf
       0.83657396 -0.50241864 0.787301 -0.7219872
000010 ae 0a 54 3f e5 f2 a0 3e 20 40 03 bf 8c 5f 66 bf
       0.82828796 0.31435314 -0.5126972 -0.8998954
000020 6c 5f 3e 3f c2 d4 51 bf 64 f0 5e 3f 1e 04 18 bf
       0.7436435 -0.8196527 0.87085557 -0.5938128
000030 b6 a2 68 bf 40 17 12 3f e5 12 d1 3d 47 55 6a bf
       -0.9087328 0.57066727 0.10208682 -0.9153637
000040 56 4e 0a bf ee 93 f4 bd 56 62 36 3e 8b 92 f2 be
       -0.5402578 -0.11942278 0.1781095 -0.47377428
000050 f5 42 75 bf d9 db 3e 3f a2 41 68 3f c3 c4 77 3f
       -0.95805293 0.7455421 0.9072515 0.9678461
000060 71 65 11 3f a4 c4 12 bf 0d 5a 14 3e 0a 7f 63 3f
       0.5679541 -0.573313 0.14487477 0.8886572
000070 b8 03 2c 3f 09 02 3f bf 21 3f 5d bf f4 64 76 3f
       0.67193174 -0.7461248 -0.8642445 0.9624779
000080 a7 a1 02 bf dc d6 61 3f e6 e9 97 be 82 c7 6e 3f
       -0.5102791 0.88218474 -0.29670638 0.93273175
000090 c4 d8 47 bd e4 27 8c bd bc 7a 38 bf 7c 2f 71 bf
       -0.04879071 -0.06843546 -0.7206228 -0.9421308
0000a0 a2 bf 6c 3f 4a e3 52 bf 7e a4 1f 3f 6e 18 34 bf
       0.9247991 -0.82378066 0.6236037 -0.70349777
0000b0 c1 c9 07 3f ab a1 91 3d 25 9d 6d 3f 57 a2 62 3f
       0.5304223 0.07110914 0.9281791 0.8852896
0000c0 83 11 65 3f 70 62 71 3f 54 4c 2f 3f 25 53 5c bf
       0.89479846 0.9429083 0.6847584 -0.8606437
0000d0 50 71 4e 3e da f5 e1 3e 20 96 81 3e 96 8c 6a 3f
       0.20160413 0.44132882 0.2530985 0.9162077
0000e0 8f a3 08 3f 23 38 6b 3f 8a 89 b3 3d e2 31 71 3f
       0.5337457 0.9188253 0.08766468 0.9421674
0000f0 ec 8b 57 3f d1 2e 49 3f 4a ee 20 3f 17 bf 46 3d
       0.8419788 0.7858706 0.628636 0.04852208
000100 00 b9 17 be b0 55 4d be d4 27 f5 3d 56 9c 3f bf
       -0.14816666 -0.20052218 0.11970487 -0.74847925
000110 71 ee 32 3f 28 1c 9c 3e 00 06 00 bf 93 0c e0 bd
       0.6989508 0.30490232 -0.50009155 -0.10939898
000120 3a bf 41 3f 19 ae f1 be 8c a4 8c 3e 0c 38 3a 3d
       0.75682414 -0.47203138 0.2746929 0.045463607
000130 a4 7e 92 be 4b 28 9c 3e c7 1d f2 3e a1 6c 79 be
       -0.28612244 0.3049949 0.47288343 -0.24357845
000140 d2 9c d9 bd ad 2f c5 be e2 f2 af 3e d8 71 40 bf
       -0.10625614 -0.38512936 0.34364992 -0.7517371
000150 91 5f 84 be 6b 7f d3 bc cd 88 0a 3f 1e 6a 26 3f
       -0.2585416 -0.025817594 0.5411499 0.6500567
000160 2a 7a a3 3e 3b 88 99 be 3f e4 85 3d 69 1c 28 3f
       0.3192914 -0.29986748 0.06537675 0.6566835
000170 53 10 c6 3e db 40 77 3e e4 41 bc bd 3f bc 14 3f
       0.3868433 0.24145834 -0.09192255 0.5809974
000180 36 0a ff be d7 ea c2 3e 4d 44 c5 be ac 40 0d 3f
       -0.49812478 0.38069794 -0.38528672 0.55176806
000190 66 f5 c7 3e d4 f3 fa 3e c9 0f cd 3c 80 9d d8 be
       0.39054412 0.4901415 0.025031941 -0.42307663
0001a0 47 38 eb 3e 64 ca 38 be 2d 39 29 bd ce 53 2b 3e
       0.45941374 -0.18045956 -0.041314293 0.16731188
0001b0 08 8c a0 3d 27 18 06 be 83 bd 5c 3e 88 b6 ba 3d
       0.07839209 -0.13095151 0.21556668 0.09116846
0001c0 62 a6 f4 3e db 94 05 3f 37 a6 16 3e 51 5a 07 3e
       0.4778319 0.5218026 0.14711843 0.13218047
0001d0 ca 50 20 3f f4 ff 30 be ac e9 41 3e fe b2 c3 3e
       0.62623274 -0.17285138 0.18936795 0.38222498
0001e0 60 f1 64 3d 2f 98 c7 3e 25 8a 77 3e aa 79 7d 3e
       0.055894256 0.38983294 0.24173792 0.24753442
0001f0 67 ab 33 be ae ee 1c be f6 0f 82 be 8c b2 b5 3e
       -0.17545854 -0.15325424 -0.25402802 0.35487783
000200 92 b9 3f 3f 1e ec 5f be 37 95 51 3f 86 fb 5d bf
       0.7489253 -0.21867415 0.8186831 -0.8671192
000210 6e fa 5e 3f cb 91 1a 3f 60 d9 45 bf 52 a0 58 bf
       0.87100875 0.6037871 -0.7728481 -0.8461963
000220 14 80 5f 3f b7 1b 55 bf ee 0f 60 3f fd 7c 0b bf
       0.87304807 -0.83245414 0.87524307 -0.5448759
000230 f9 1e 61 bf ba a4 c8 3e 30 81 03 3f 2b f3 6d bf
       -0.87937886 0.39188176 0.51369 -0.9294917
000240 48 ab 80 be 75 af c2 be e2 95 d4 3e af b4 43 bf
       -0.25130677 -0.38024488 0.41520602 -0.76447576
000250 68 84 76 bf 2e ec 34 3f 97 57 70 3f bb 1c 7a 3f
       -0.96295786 0.7067288 0.9388365 0.9770009
000260 f9 78 f6 3e 13 f4 05 bf 61 82 b5 3e 10 a1 6c 3f
       0.4813917 -0.5232555 0.35451034 0.9243326
000270 09 f0 56 3f 07 45 40 bf fd 7c 50 bf 47 28 79 3f
       0.83960015 -0.7510533 -0.81440717 0.97327083
000280 e1 21 40 bf e9 83 61 3f b5 16 1a bf 87 21 6b 3f
       -0.75051695 0.88091904 -0.601909 0.91848034
000290 ca ee 93 3e b3 a6 97 3e aa 90 49 bf dc d1 74 bf
       0.2889312 0.2961937 -0.78736365 -0.9563272
0002a0 99 9a 6f 3f 42 be 59 bf 98 08 16 3f 7e 4e 0d bf
       0.9359527 -0.85055935 0.58606863 -0.55197895
0002b0 cf ab 2e 3f 6d fb 70 bd a4 e2 6b 3f 9a 3f 68 3f
       0.6823091 -0.05883353 0.921427 0.9072205
0002c0 8e 41 66 3f c4 7f 70 3f 77 6d ff 3e c1 29 4d bf
       0.8994378 0.93944955 0.49888203 -0.80141836
0002d0 6b e7 0b 3f 20 0f 13 3e 88 80 b8 3e 2d 00 73 3f
       0.5464999 0.14361238 0.36035562 0.94922143
0002e0 c6 ac 2a 3f 4e f5 67 3f 9a b8 c8 3e ab cb 72 3f
       0.6666988 0.9060868 0.3920334 0.9484202
0002f0 9b 70 47 3f f4 0d 49 3f 76 28 15 3f 7b ab f4 3e
       0.779062 0.78536916 0.58264863 0.4778708
000300 51 8c 51 3f 83 c3 2f bf 79 25 50 3f 7c 09 47 bf
       0.8185473 -0.686577 0.8130718 -0.77748847
000310 7a 97 5a 3f ba b4 43 3d 37 ac 07 bf 3b 5b 61 bf
       0.85387385 0.047779776 -0.52997154 -0.8802983
000320 79 02 37 3f 87 b3 5a bf 23 cc 54 3f c0 7e 09 bf
       0.7148815 -0.85430187 0.8312399 -0.5370903
000330 7a 67 66 bf 71 6f 02 3f 24 49 10 3e 3d 76 69 bf
       -0.9000164 0.50951296 0.14090401 -0.9119604
000340 b9 27 28 bf 78 be 0d be 24 70 eb 3c 5e ae 24 bf
       -0.6568561 -0.1384219 0.028739996 -0.64328563
000350 eb 35 73 bf e3 dc 3f 3f 25 93 69 3f fb 67 78 3f
       -0.9500415 0.7494642 0.9124015 0.9703366
000360 5a fb 3a 3f 67 f4 36 bf 54 d7 30 3e 60 80 69 3f
       0.7303978 -0.7146668 0.17269641 0.9121151
000370 c7 98 1c 3f 3c 23 41 bf 37 e3 63 bf 3b 45 74 3f
       0.6117062 -0.7544439 -0.8901858 0.9541814
000380 22 9f 13 bf 87 73 61 3f 1c 91 14 be a2 be 6f 3f
       -0.5766469 0.88066906 -0.1450848 0.9365026
000390 c4 a4 2c 3e a3 be 05 3e 00 78 1f bf a6 f6 6c bf
       0.16859728 0.13061003 -0.6229248 -0.92563856
0003a0 e5 24 6d 3f 69 cd 4f bf 1c 33 1d 3f 63 6d 42 bf
       0.9263442 -0.81172806 0.6140611 -0.7594816
0003b0 40 e7 10 3f 3b 73 cd bd 64 f8 6b 3f 4c c4 54 3f
       0.5660286 -0.10031744 0.9217589 0.83112025
0003c0 91 ab 6b 3f 77 0b 71 3f 7f 99 3b 3f 66 8c 58 bf
       0.92058665 0.9415812 0.7328109 -0.8458923
0003d0 bc a9 74 3e c8 be e6 3e aa 86 c0 3e f5 42 5f 3f
       0.23892874 0.4506743 0.3760274 0.87211543
0003e0 6c 1d 06 3f 98 75 6b 3f c8 c3 65 3e 40 e7 6c 3f
       0.52388644 0.9197631 0.22437966 0.9254036
0003f0 b3 62 4d 3f c3 ee 4d 3f 5a 91 16 3f 91 6f 7e bd
       0.8022873 0.80442446 0.5881554 -0.062118117
