r2l/logs_demo/ppo/karel-stairClimber-0/0853cd-seed0/critic.pt (torch, 59147 bytes, 8 tensors)

weight_ih f4 [192, 4]
000000 5e 8b be 3d 6b 10 ae 3d 32 b8 a3 bd 78 82 ae 3d
       0.09303926 0.08499225 -0.07994117 0.08520979
000010 56 ea 83 3d 91 fc ca bd 85 6d ae 3d e8 37 0b 3e
       0.064411804 -0.099114545 0.08516983 0.13595545
000020 19 59 13 bd 1a 05 d2 3d ab be e3 3d 81 9a 2b 3d
       -0.035973642 0.10254879 0.111203514 0.041895393
000030 e6 ef bb bb 99 a3 c4 3d 0e d5 a3 3d b0 bf 04 3e
       -0.005735385 0.09601516 0.07999621 0.12963748
000040 dc a6 a6 bd 64 f0 3d 3d 54 34 84 3d fd 5b 94 bd
       -0.08137295 0.046371832 0.06455293 -0.07244108
000050 b7 c3 03 3d 4e 4d 80 bd 47 e9 be bd 37 20 f6 3d
       0.03216907 -0.06264745 -0.09321838 0.12017863
000060 47 0a b6 bd b2 82 d1 bd 5e 0b d7 3d 3c b4 85 3d
       -0.08888679 -0.10230006 0.10500215 0.065285176
000070 af fc c4 3c 14 9a a7 3d 2f fc e5 bb b3 ae d9 bc
       0.02404627 0.08183685 -0.007018588 -0.02657256
000080 d1 a9 26 bc d5 4e f2 3c ac ea f7 bd fd 5f ef bd
       -0.010172323 0.029578606 -0.12105307 -0.1168823
000090 17 ea 30 bd c6 92 15 3b d5 78 ba 3d 97 c9 3c bd
       -0.043191995 0.002282308 0.09105078 -0.04609069
0000a0 40 f1 d4 bd d8 f8 f2 bd dc 8c 1e 3c 23 9a ac bd
       -0.10397577 -0.118638694 0.009677138 -0.08427837
0000b0 d9 49 de bc e6 5f a3 bd d3 c0 7e 3d b0 bf 57 bd
       -0.027134823 -0.079772756 0.06219561 -0.05267304
0000c0 88 4e 96 bd 66 4e 48 3d ca 95 a9 3b 32 12 b7 3d
       -0.073391974 0.04890289 0.005175327 0.08939017
0000d0 c6 8d b1 3c 40 c3 4e 3d 5e dc 62 3d 2c 66 6b bd
       0.021674048 0.050479174 0.05538594 -0.057470486
0000e0 85 05 bd 3d 84 79 34 3c df 6e 0a bc 85 f8 ee 3c
       0.092295684 0.0110153 -0.008449285 0.029171238
0000f0 8d cc d3 3d 0a fa ca 3d 03 a3 b9 3d 0d 5c 6b bd
       0.10341749 0.099109724 0.09064295 -0.057460833
000100 a6 b9 e3 bc 4f 2b 00 3d 07 4e e0 bc 45 68 f4 bc
       -0.027798485 0.031291302 -0.027380956 -0.029834876
000110 81 dd a8 3d 78 df a1 bd f6 73 4d bd 39 fb ef 3b
       0.082453735 -0.079039514 -0.050159417 0.0073236492
000120 62 48 5d bd 48 ba 77 bd 70 9a d6 bd 7e f3 9b 3d
       -0.054024108 -0.060480386 -0.10478675 0.07614802
000130 54 5a 5f bd f1 09 f3 bc 51 60 c0 3d 93 fb d8 bd
       -0.054529503 -0.029667826 0.09393371 -0.10594859
000140 f7 62 bf 3a ff b4 80 bd 91 58 b7 bd 76 4a a3 3c
       0.0014601637 -0.06284522 -0.089524396 0.019932967
000150 6a 92 32 3d 11 e9 a0 3d db 62 09 3e e1 7c 1e 3d
       0.043596663 0.07856954 0.13416617 0.038693313
000160 60 a5 16 3c 1d ef 64 bd cd 33 35 bd ed 11 de bd
       0.009194702 -0.0558921 -0.044238854 -0.10843263
000170 64 12 02 be 63 09 e3 bd 6d 43 c8 3d d7 3d 8b 3d
       -0.12702328 -0.11085775 0.097784854 0.067989044
000180 4b b6 03 3e c0 3a c2 3d 5a 99 ad 3d 33 64 15 3d
       0.12862508 0.09483862 0.08476515 0.03647251
000190 cf 4b 5c 3d 01 27 23 3d c7 57 ce bd 83 4c ae bd
       0.053783234 0.03983212 -0.10075336 -0.08510687
0001a0 a3 4f c3 3d 16 58 9b 3d b6 cb 04 bd 77 c2 87 bd
       0.09536674 0.075851604 -0.032420836 -0.06628888
0001b0 cc 52 b3 bd 7a 58 b7 bd 14 b7 35 bd f7 a6 88 3a
       -0.087560266 -0.089524224 -0.04436405 0.0010425736
0001c0 fc 01 e4 3b d4 85 40 3d 50 56 8c 3c 1a 69 9b 3c
       0.0069582444 0.04700263 0.017131 0.018971015
0001d0 67 2c c0 3d e9 19 1f 3d b4 29 b6 bc eb ef 51 3d
       0.09383469 0.03884307 -0.022236682 0.051254194
0001e0 ef f4 f6 3c e7 63 55 3d 1a 26 3d bd c1 c0 ea bd
       0.03014609 0.052097227 -0.046178915 -0.11462546
0001f0 c1 3e 29 bd 94 a4 d4 3d 32 7c 09 bd 9a 91 87 bd
       -0.041319612 0.10382953 -0.033565708 -0.06619568
000200 02 7c 7c bd f3 2e 8a 3d 25 8d e7 3d 22 b6 d7 bd
       -0.0616417 0.06747236 0.11306218 -0.10532786
000210 fb db 19 bd 61 d7 d8 3d e1 45 db 3c b9 06 8c 3d
       -0.037563305 0.10587955 0.02676672 0.0683722
000220 c2 4a b8 bd c3 b4 9e 3d 0a 85 5a bd b7 9f b3 bd
       -0.08998634 0.07749321 -0.053349532 -0.087706976
000230 59 c0 75 bd ad b7 d3 bd a8 f8 26 3d dd 2f c7 3d
       -0.05999789 -0.10337768 0.04076448 0.09725926
000240 85 ee b5 bd b5 9f 5f 3d 18 01 d8 bd 38 71 73 3d
       -0.088833846 0.054595668 -0.105470836 0.059434146
000250 f2 df 8d bc 49 ec 41 3c 9e c5 e0 bd 20 f9 13 3d
       -0.0173187 0.01183612 -0.109751925 0.036126256
000260 2a e3 60 3d 00 72 0f bd 96 64 84 bd fe 00 c8 3d
       0.05490414 -0.03502083 -0.06464498 0.09765814
000270 43 8c c7 3d 25 52 96 bd 40 9d 51 3d d3 95 19 bd
       0.0974355 -0.073398866 0.051175356 -0.0374964
000280 31 40 da bd 0e c6 36 bc b7 0f cc bd a7 25 5f bd
       -0.10656775 -0.011155618 -0.09963935 -0.054479267
000290 dd 66 ae bc 67 db be bd 11 24 90 3d 86 5c ee bc
       -0.021289283 -0.093191914 0.07038129 -0.029096853
0002a0 09 b3 e5 bd cc 4d 2e 3c 80 38 a0 3c 6c a0 d0 bc
       -0.11215789 0.010638665 0.019558191 -0.02546712
0002b0 2c d1 b0 bd 2f 5d 81 3d 30 cd 1f bd 97 1b 0e bd
       -0.08633646 0.063166015 -0.03901404 -0.03469428
0002c0 fa 50 da 3d 9f 1f ab bd 98 fb a1 3d fd f4 92 3c
       0.10659976 -0.083556406 0.07909316 0.017939085
0002d0 ad 1a 0d bd 08 fb a5 bd 9b 6f f9 3d 86 51 a6 3c
       -0.034449268 -0.08104521 0.1217949 0.020302545
0002e0 fd aa 4e 3c 24 57 c8 bd 2f 57 af 3d a5 a8 16 bc
       0.012614009 -0.09782246 0.08561551 -0.009195481
0002f0 b4 9e 59 3d cf 72 b8 3d 04 7d c2 3c ba 68 aa 3d
       0.053129867 0.09006273 0.023741253 0.08320756
000300 b6 36 86 bd e1 1f 43 3d a4 fa 2f 3d 82 73 6c 3d
       -0.06553404 0.047637824 0.04296364 0.057727344
000310 78 9f 43 bd e3 6c 73 3d 89 02 fc 3d c3 1d 80 bd
       -0.047759503 0.059430014 0.12305171 -0.062556766
000320 aa 41 9b bb cf d3 b2 bc 16 4d 8a 3d da 90 54 3a
       -0.0047380524 -0.021829514 0.06752984 0.0008108743
000330 0f 79 de 3c 60 c7 37 bd e5 7f 38 3d aa cb 98 3d
       0.027157335 -0.044867873 0.045043845 0.07460721
000340 7a 24 5b 3c 48 ca ee 3d a4 e2 ce 3d 0b 11 a1 bd
       0.013375396 0.11659676 0.10101822 -0.07864579
000350 03 15 ba bd 93 7d c3 bd ce d3 17 bd 2d 6c 99 3d
       -0.09086039 -0.09545436 -0.037067227 0.07491336
000360 f9 c0 22 bd e8 fb a7 bc a2 44 4e bd 63 3e e2 3c
       -0.039734814 -0.02050586 -0.050358422 0.027617639
000370 28 74 05 3d 06 d8 be bd 1d 21 97 bd b6 d4 9f bc
       0.03258148 -0.09318547 -0.07379363 -0.019510608
000380 78 ea e6 3d 1c c3 00 be c7 0e 02 be 9a 03 81 3d
       0.1127519 -0.12574428 -0.1270095 0.06299515
000390 0a 97 5a 3d 31 29 9d bc 5a 71 ad bd 7b 69 86 bd
       0.0533667 -0.01918468 -0.08468886 -0.065630876
0003a0 c8 98 c4 3d e8 f4 ef 3d fc 52 0f 3d 4f dc fc 3d
       0.09599453 0.11716634 0.03499125 0.12346708
0003b0 20 15 ba 3d 36 4b b7 bc a6 20 88 bd d4 a1 5c bd
       0.090860605 -0.02237473 -0.06646852 -0.05386527
0003c0 68 06 40 bd 77 2d d6 bd 01 e2 ec 3d fe 65 42 3b
       -0.04688111 -0.104578905 0.11566544 0.0029662843
0003d0 47 b1 fb bd 23 7a 8b bd 5d 85 2e bd 83 6b be bd
       -0.12289672 -0.06810405 -0.042607654 -0.0929785
0003e0 a7 09 1a bd 69 fc 97 bd 35 02 29 bd fc 81 9d bd
       -0.03760686 -0.0742119 -0.04126187 -0.07690808
0003f0 af ce 71 3b ed 09 a0 bd ff 03 51 3d 2c 8d a6 3c
       0.0036896875 -0.07814393 0.0510292 0.020330988

weight_hh f4 [192, 64]
000000 da 56 79 3c 0a 01 cd 3c 54 41 6f 3d f5 6a c5 3b
       0.015218461 0.02502491 0.05841191 0.006024713
000010 f0 94 05 3e 85 81 9b bc 8a 61 96 3d b7 59 e8 bd
       0.13045096 -0.018982658 0.07342823 -0.11345237
000020 ac 6a 95 bc 62 d2 94 bd 6e 35 68 bc d5 71 e3 bd
       -0.018239342 -0.0726669 -0.014172895 -0.11105696
000030 4f af 87 bd 4a 14 c0 3d 4b 47 49 3d 1a 6a b8 3d
       -0.06625234 0.0937887 0.049140256 0.09004612
000040 ba f4 80 3d 30 51 9b 3d df 04 72 bd ea 47 45 3d
       0.06296678 0.07583845 -0.059086677 0.048164286
000050 b5 1c f8 bd d0 ad a3 bd 34 25 f6 bd 05 0b b0 3d
       -0.121148504 -0.079921365 -0.12018815 0.08595852
000060 75 2e 0c 3d de 80 aa bd 10 54 73 3c 92 8a dd 3d
       0.034223992 -0.08325361 0.014851585 0.10817446
000070 db b9 9a bd fd ac c9 bd d5 a3 ac bd f3 c8 13 bc
       -0.0755498 -0.09847448 -0.08429686 -0.009020078
000080 51 57 d7 3d 60 90 ac 3c c0 9d 57 bb ae 99 fe bc
       0.10514701 0.021064937 -0.0032900423 -0.03107914
000090 5c b4 e6 bc 61 87 27 bd 70 d5 fd 3d e0 a9 5a bd
       -0.028162174 -0.04090059 0.123942256 -0.05338466
0000a0 89 59 4e bd bc 2b 36 bd d9 89 d2 3d 15 9f 9a bd
       -0.050378356 -0.044475302 0.102801986 -0.07549874
0000b0 8a ca 04 3e 22 f9 07 bb 00 ac 4c bd ea b6 9a 3d
       0.12967888 -0.002074786 -0.04996872 0.07554419
0000c0 07 bb de 3d 07 d5 47 bd 42 0c 8c 3d 2c e0 8a bd
       0.108755164 -0.048787143 0.068382755 -0.06781039
0000d0 1f 39 86 bd 07 cf be 3d c3 62 f6 3d 43 f6 e5 bd
       -0.06553864 0.09316831 0.12030556 -0.11228611
0000e0 47 27 a3 bd 21 16 c6 bd 04 2e 32 ba 66 76 0c bb
       -0.07966476 -0.096721895 -0.0006797018 -0.0021432876
0000f0 50 8d 97 3d 47 bb 1a 3d 5b d4 b3 bd e6 58 83 bc
       0.074 0.037776258 -0.08780738 -0.016033601
000100 01 ef 6f bd 78 88 b7 3b 90 e7 14 3d f1 b3 02 be
       -0.05857754 0.005600985 0.036353648 -0.12763955
000110 74 20 12 3e 94 b4 7a 3d 97 0b 0e be 25 6a 95 bd
       0.14270192 0.06120737 -0.13871609 -0.07295636
000120 d1 e5 c4 3d 6b fa 79 bb f2 98 dd bd b1 57 91 bd
       0.096141465 -0.0038143646 -0.10820188 -0.07096804
000130 38 50 02 be b3 17 ce 3c ef 95 63 bd 1a b6 d3 3d
       -0.12725914 0.025157785 -0.05556291 0.103374675
000140 a6 7b 10 3d 15 63 6e bd d0 b4 a3 3d a7 ce 18 bd
       0.03527417 -0.05819996 0.079934716 -0.037306454
000150 25 b2 cc bd 5f 32 b0 bd 33 45 70 bd f2 9e 8b 3d
       -0.09994916 -0.086033575 -0.058659744 0.06817426
000160 28 88 2b 3d 5c bc 2f bd e0 cd 56 bd be 32 b3 bc
       0.041877896 -0.042904243 -0.05244243 -0.021874782
000170 57 62 92 bd bf 3b cc 3d 08 ce bf bd 9e aa d5 bc
       -0.07147663 0.09972333 -0.09365469 -0.026082333
000180 d8 75 f9 3a d3 f1 48 3c 1d 17 11 3c de 00 ea bd
       0.0019032313 0.012264687 0.008855608 -0.11425947
000190 52 82 14 bd b2 81 5c bd c5 f5 06 3e 97 db ef bc
       -0.036257096 -0.053834625 0.13179691 -0.029279513
0001a0 a2 16 dc bd f6 0b c9 bd 7d f4 dd bd e2 30 3d bc
       -0.10746504 -0.098167345 -0.10837648 -0.011547299
0001b0 e2 c2 0e bd 0e b9 99 bd 9b 38 68 bd b6 a0 a9 3d
       -0.034853823 -0.075059995 -0.05669461 0.08282606
0001c0 4f 55 f1 bd 9f 05 cf bc 0e 39 ca 3d 0a 82 c3 3d
       -0.117838494 -0.025271235 0.098741636 0.09546287
0001d0 b0 61 83 3c 1d 49 8e 3d 7c 42 da bc d3 fe da bd
       0.016037792 0.06947539 -0.02664303 -0.10693135
0001e0 ec aa 7f bd 06 6a b7 bd 43 f6 ce 3d a2 a7 6e 3c
       -0.062418863 -0.08955769 0.101055644 0.014566334
0001f0 63 8b bf bd dc ef 9e bd b5 85 03 3c 21 d5 8b 3d
       -0.09352758 -0.07760593 0.008027484 0.068277605
000200 c1 d5 ec 3c d2 4b 9d 3c 84 17 1a bd 31 97 5e bc
       0.02891052 0.019201193 -0.037620082 -0.0135858515
000210 63 20 b6 3d 5c e7 23 3d 54 b4 5e bd 04 8d e2 3d
       0.08892896 0.040015563 -0.054371193 0.11062053
000220 f9 01 9e 3d bf fd 06 3d f2 6d 49 3d 52 47 9a 3d
       0.0771522 0.032956835 0.049177118 0.075331345
000230 69 61 e1 bc 2f 6a 05 3c 4f bf fa bc c6 e6 4d bd
       -0.02751227 0.008142992 -0.030608801 -0.05026891
000240 82 98 00 3b 62 61 8f bd 21 22 d8 3d 3b e9 c1 bd
       0.0019622152 -0.07000996 0.105533846 -0.09468313
000250 53 52 c2 bd 70 40 8e bb 00 25 a5 3d c3 f1 42 bd
       -0.09488358 -0.0043411776 0.08063698 -0.047593843
000260 ee 1d 94 3b 98 b7 86 3d 3b ee ea bd 74 1e 03 3e
       0.0045201695 0.065779865 -0.1147122 0.12804586
000270 88 50 9e 3d f6 e9 ee 3c 0e 81 6e 3c 71 de 82 3d
       0.07730204 0.029164296 0.014557136 0.063900836
000280 a0 af 4b bd 2a 1c ac 3c 71 0a d5 3d 18 3f ac bd
       -0.049728036 0.021009523 0.10402382 -0.08410472
000290 b4 65 be 3c 75 ba d2 3d f6 57 d4 3c 02 26 82 bd
       0.023241855 0.1028947 0.02592085 -0.06354906
0002a0 c5 6a ff 3b 4f e9 26 bd bc 91 f9 bd 33 a7 92 3c
       0.0077947103 -0.040749844 -0.12186 0.017901992
0002b0 22 a9 a1 3c e7 73 c0 3d 86 dc 89 bc ec d4 d5 bd
       0.01973397 0.093971066 -0.016828787 -0.10441002
0002c0 57 1c c7 3d db ed 60 3c a8 f6 4e bd 5a 46 b4 3d
       0.09722202 0.013728584 -0.0505282 0.08802481
0002d0 36 26 a9 3d ad d8 d3 3d fe 24 e7 3d 28 a3 69 bd
       0.08259241 0.10344062 0.112863526 -0.057040364
0002e0 1b d1 05 3e b5 13 82 3d af 99 96 bd 15 30 86 3d
       0.13068049 0.06351415 -0.073535316 0.0655214
0002f0 27 d5 84 bd 2a e8 8b 3d 73 bb 6b bd 91 36 86 3d
       -0.06485968 0.06831391 -0.057551812 0.065533765
000300 65 ad 69 bd 1c aa 0b 3d 06 84 04 bd 8f 82 70 3d
       -0.057050128 0.034097776 -0.03235247 0.05871826
000310 5b ee b1 3b 14 38 5d 3d 88 ca 31 bd 01 7e 5a 3d
       0.0054300255 0.05400856 -0.04340604 0.053342823
000320 ad c6 83 3d ab df 7d 3c fb a4 32 bd f1 7e b1 3c
       0.06434379 0.015495221 -0.04361437 0.021666976
000330 27 9f f4 bd d4 09 b7 bb 94 0f ca 3d 76 e3 80 3d
       -0.119444184 -0.0055858884 0.098662525 0.06293385
000340 ba 64 6f 3b be 7c 90 bd f8 c8 03 3d c9 2b ed 3d
       0.0036528544 -0.07055043 0.03217408 0.11580617
000350 45 c5 68 3d 04 e2 23 3c 8a 11 00 3d 4a 62 87 3c
       0.056828756 0.010002617 0.031266727 0.01652636
000360 27 b8 13 bd 16 38 b6 bd 7f b9 60 bd 83 bf 4d bd
       -0.036064293 -0.08897416 -0.054864403 -0.050231468
000370 27 02 9c bd 82 59 e9 3d 35 2e c8 bd 5e 6e 42 3c
       -0.07617598 0.113940254 -0.09774438 0.011867134
000380 30 63 07 3c ef 96 70 bd af f0 d3 bb 30 d3 39 3d
       0.008263394 -0.05873769 -0.0064679007 0.04536742
000390 6e ad a6 bd 0b 0e 4c 3d 88 6c 07 bb e7 eb 89 bd
       -0.08138548 0.04981808 -0.0020664055 -0.06734448
0003a0 51 91 d7 bd 8f 25 81 bc b1 f0 86 bd df a0 25 3d
       -0.10525764 -0.01576498 -0.06588877 0.04043662
0003b0 81 71 ea bd e0 3b c6 3d a2 f5 f0 3d 09 0a 88 3b
       -0.114474304 0.09679389 0.11765601 0.004151587
0003c0 a0 e7 a6 bd e3 6d ff bd 4d c2 68 3d eb 5b 54 3d
       -0.08149648 -0.12472131 0.056825925 0.051845472
0003d0 a1 f0 c7 3d 8f f1 7a bd 42 a9 a2 3d 60 f9 71 bd
       0.09762693 -0.061265524 0.079424396 -0.059075713
0003e0 0a ed c8 bd 4d 9c c9 3a 21 ac f2 bc 8c 6e 7c 3d
       -0.098108366 0.0015381664 -0.029623093 0.061628863
0003f0 a8 80 87 bd d4 b9 b3 3d 48 ce a7 bd 4e f1 cf 3c
       -0.06616336 0.08775678 -0.08193642 0.025383618

bias_ih f4 [192]
000000 e1 cf 9a 3d 41 3f 28 bd 7f a8 f8 bb 7c a4 1d 3d
       0.07559181 -0.04107595 -0.0075884457 0.038486943
000010 79 86 fe 3d a9 a6 ba bd bb 42 90 bd 9a 63 65 bd
       0.124279924 -0.09113819 -0.07043978 -0.05600319
000020 8f 1c 25 3d ae 3d f6 3d 9a f4 d4 3c 19 67 2c 3b
       0.04031044 0.12023483 0.025995541 0.0026306568
000030 3e 59 cf 3d 98 1d 9b bd cd 3e 0a 3e 1f f6 0a 3e
       0.101244435 -0.07574004 0.13500519 0.1357045
000040 3c 49 90 bd cb 52 2a 3c d2 93 2c 3d c6 9f 81 bd
       -0.07045218 0.010395716 0.04213316 -0.063293025
000050 38 06 27 bd 36 61 a1 3d 82 97 c3 3d 09 8f a5 bd
       -0.040777415 0.0787987 0.09550382 -0.080839224
000060 b1 02 85 3d 16 70 4a bd a9 91 ab 3a 27 1d 0a be
       0.06494654 -0.0494233 0.0013089675 -0.13487683
000070 ac 57 f2 bd 3e d9 21 bb 18 f8 b1 bd 86 54 9d bd
       -0.11833128 -0.0024696137 -0.08689898 -0.07682137
000080 74 d2 a0 3d a4 98 77 3d e8 92 c8 bd eb 2e d7 3d
       0.07852641 0.060448304 -0.09793645 0.10506996
000090 94 3a 0e 3e 3f 02 92 bc 63 95 89 3d a6 21 24 3b
       0.13889533 -0.017823337 0.067179464 0.002504447
0000a0 a5 e9 59 3c fc 24 6f bc 00 74 4c 3d a9 10 fe 3d
       0.013300334 -0.01459622 0.049915314 0.124055214
0000b0 37 3e b0 bc cb 26 ec bc b6 f1 de 3d dd 7c e5 3d
       -0.021514041 -0.028827092 0.108859465 0.112054564
0000c0 f7 28 b5 bd f1 a7 d6 3d 4b f4 8a bb a7 f8 d4 3c
       -0.08845704 0.10481251 -0.004240548 0.025997473
0000d0 8b 9f 07 3d 1e 36 9c 3a 06 15 89 bd 6a be 9c 3c
       0.033111136 0.0011917984 -0.06693463 0.019133765
0000e0 a2 63 8f bd 40 cd 07 bd 0e 1d 81 3d d6 cd e0 3d
       -0.07001425 -0.033154726 0.0630437 0.1097676
0000f0 70 ed 96 bd 8b fa 8b 3d 68 f2 92 3b ea 90 a8 3d
       -0.07369506 0.06834897 0.0044844635 0.08230765
000100 7e 32 97 3d 92 76 ef bc 2a a6 66 3d ec da d2 3c
       0.073826775 -0.029231343 0.05631081 0.025739156
000110 81 0b 22 3d fc 56 b1 bd b8 07 d0 3b 8a a7 f2 bd
       0.039561752 -0.08659169 0.0063485764 -0.11848362
000120 bd 18 8f 3d 4e 3f 30 bd 52 35 81 3d ce 12 cc 3d
       0.0698714 -0.043029122 0.06308998 0.09964524
000130 1f 4b 9c 3b 48 56 e4 bd 1b 28 a3 bd 2f d6 87 3c
       0.0047696973 -0.11149269 -0.07966634 0.016581623
000140 ba a8 df bd b6 07 63 3d b0 62 2b bd 0e 29 e7 bd
       -0.10920854 0.055427276 -0.041842163 -0.112871274
000150 3b d9 86 3d 1d 1f d1 3c 01 78 cc 3d eb 16 4d bc
       0.06584402 0.025527531 0.099838264 -0.012517671
000160 a9 32 13 3d 82 0f 73 3d 50 af 3a 3d b7 61 48 bd
       0.035936985 0.05934096 0.045577347 -0.048921313
000170 5a c3 d6 bd dc c8 5a bb 8c 97 e3 3d 05 a4 b6 3d
       -0.10486479 -0.0033383882 0.1111289 0.08918003
000180 06 0f 6a bd 6c 45 14 bd 1b 88 9c 3d 17 d4 93 3d
       -0.057143234 -0.03619902 0.076431476 0.07218187
000190 32 c7 31 3d 28 71 d3 bd 4a 9a 02 be 04 67 92 3d
       0.043402858 -0.10324317 -0.12754169 0.07148555
0001a0 a4 4f b8 3d 84 5a cd 3d 36 61 7b 3d 21 c5 7a bd
       0.08999565 0.1002703 0.061372004 -0.061223153
0001b0 6d 74 bd bc 45 8c ce 3d 6b 75 41 bc e4 2e b0 bd
       -0.023126805 0.10085348 -0.01180778 -0.08602694
0001c0 6b b7 84 3d 90 3b c1 bd 98 f9 9f 3c 71 d5 85 bd
       0.06480297 -0.09435189 0.019528195 -0.06534851
0001d0 ac 8e 10 bc 70 9d 7f 3d 21 42 98 bd 17 8a 1d bc
       -0.008823078 0.062406003 -0.07434488 -0.009615443
0001e0 51 b3 f5 bd c8 77 f3 3c 32 87 12 bd 83 4a 6d 3d
       -0.119970925 0.029720202 -0.035773464 0.057932388
0001f0 57 91 da 3d 19 fb ad bd 13 94 01 3e be cd 81 3d
       0.106722526 -0.08495159 0.12654142 0.0633807
000200 bd 0f 04 3e 59 21 ab bb bd 69 7c bd bd 64 b0 bd
       0.12896629 -0.005222481 -0.061624277 -0.08612964
000210 ed 0f f9 3d e5 5a 71 bd ab 64 c1 bd f4 27 6c bd
       0.12161241 -0.058924574 -0.09443029 -0.05765529
000220 c9 cb f4 bd 70 5b 7d bc f7 4a 6a bc f8 f0 0a 3d
       -0.119529314 -0.015463695 -0.0143001 0.033921212
000230 17 55 a5 bc dd cf b5 bd 38 e7 bf 3d c7 93 9d bd
       -0.020182176 -0.088775374 0.09370273 -0.07694202
000240 08 ba c4 bd f7 97 df 3d 1b 02 ec bd 89 54 dc bd
       -0.09605795 0.10917657 -0.11523839 -0.10758311
000250 58 7d 08 be 41 3b 73 3d 7d 14 33 3d b6 8b e0 3d
       -0.13329065 0.05938268 0.04372071 0.10964148
000260 05 15 bf 3d 69 f7 73 bd 58 d6 57 3c a4 64 01 bb
       0.09330181 -0.05956212 0.013173662 -0.0019743824
000270 05 78 b2 3d 4d 41 94 bd a7 3f f5 3d e3 a9 80 bc
       0.08714298 -0.07239018 0.11975031 -0.015706008
000280 f8 b7 b3 bd 37 d4 d9 bc e0 0e 44 3d 89 5b 1c 3b
       -0.08775324 -0.02659045 0.04786575 0.002385827
000290 56 2a eb 3d 58 04 61 3d b0 60 00 3e 38 2b 60 3d
       0.11482684 0.054935783 0.12536883 0.054728717
0002a0 9f b9 12 be 98 79 c5 bc fd 9b 53 bd df 06 f6 3d
       -0.14328621 -0.024105832 -0.051662434 0.12013029
0002b0 de 1b 00 3e 8d db 49 3d a5 5e a4 bd 6d da 73 bd
       0.1251063 0.049281646 -0.080258645 -0.05953448
0002c0 f1 9f 8d bd c2 7a fe bd cf c8 a5 bd e8 fc ad 3d
       -0.06915272 -0.12425758 -0.08094942 0.08495504
0002d0 12 9a 14 3d 0a ba 18 3d 21 85 fc 3d b8 f1 00 bd
       0.036279745 0.037286796 0.1233008 -0.03148052
0002e0 7f bf 04 3e ba 33 bc bd ec 42 05 3c c9 dd ab bc
       0.12963675 -0.091895536 0.008133631 -0.020979779
0002f0 a5 5c 2b 3d 57 8e 3b 3d 78 23 9e 3d 03 bf 44 3c
       0.0418364 0.045790043 0.07721609 0.012008431

bias_hh f4 [192]
000000 c9 7f c8 bd 4d 32 b4 3d 6d 06 39 3d ec 36 68 3d
       -0.09789998 0.087986566 0.045172144 0.056693003
000010 6b 2f c1 bd 19 3f d3 bd dd 14 9c 3d 68 78 cd 3d
       -0.094328724 -0.10314769 0.07621167 0.10032731
000020 6d 73 66 bd b2 3c c8 bc 8d 7f 50 3d 93 8a 09 bd
       -0.056262422 -0.024443004 0.050902892 -0.03357942
000030 3a b8 96 bd c6 bc af bd 55 98 57 3d b7 3e fe 3d
       -0.07359357 -0.085809276 0.05263551 0.12414306
000040 d3 d1 06 3e b3 5f 4a bd 21 87 b6 3d b0 12 89 3c
       0.13165979 -0.049407672 0.089124925 0.016732544
000050 b4 b3 54 3d 5e b3 e7 bd 9a 9f 90 bc 6b af da 3b
       0.05192919 -0.113135085 -0.017654229 0.0066737435
000060 d5 b6 d6 3c 88 c4 22 3d 48 ca a3 3c 52 a0 64 bc
       0.026210228 0.039738208 0.019993916 -0.013954239
000070 5b d4 9b 3b 0e 87 70 bd 2c 06 b8 3d 46 2c af bd
       0.0047555394 -0.05872255 0.08985552 -0.08553366
000080 a3 67 32 3d eb 94 d9 bd b1 b5 cd 3c a5 21 01 3e
       0.043555867 -0.10624107 0.025111051 0.1261049
000090 96 44 9c bd 35 b0 a6 3d cb 05 c6 3d 34 4f c9 3d
       -0.07630269 0.081390776 0.09669074 0.0982956
0000a0 b1 a7 07 3e 93 82 96 bd 29 b1 0f 3e f9 39 3d bd
       0.13247563 -0.07349124 0.14032425 -0.046197865
0000b0 30 56 3f bb 3d 5e 6c 3d 7c de b2 bd c8 48 2f ba
       -0.002919566 0.05770706 -0.08733842 -0.00066865655
0000c0 e5 72 f2 3d 4a de 37 39 78 ee 54 bd 50 20 7f bd
       0.11838321 0.00017535049 -0.051985234 -0.062286675
0000d0 ce 3a 76 3d 15 74 7d bc 9e a9 68 bd 4f 48 73 3d
       0.060114674 -0.015469571 -0.056802385 0.05939513
0000e0 0e 7e 3f 3d 94 16 8b 3d 1f 9e 6e bc 5c 7a a6 3d
       0.046751074 0.06791416 -0.014564066 0.08128807
0000f0 17 af e3 bc de 67 b5 3d c1 77 39 bb 00 47 d1 3d
       -0.02779345 0.08857702 -0.0028300139 0.1021862
000100 32 24 27 bd fb b9 cd bd e2 e4 79 bb 74 f1 0d 3d
       -0.040806003 -0.100452386 -0.003813081 0.034654096
000110 4a 6d bd 3d d8 1e f5 bd f5 35 36 3c 90 47 86 3d
       0.09249361 -0.119687736 0.011121263 0.06556618
000120 7a 51 17 bd 76 e5 1c bd bd 75 2b 3d b0 28 b9 3d
       -0.036942936 -0.03830477 0.04186033 0.09040964
000130 35 9f af 3d 76 fc ba 3d 9c ab a2 3c 57 66 8e 3d
       0.08575288 0.09130184 0.01985722 0.069531135
000140 6a 9f 32 bd 56 56 ac bd aa a1 b1 3d 58 b4 e6 bd
       -0.04360906 -0.08414905 0.08673413 -0.112648666
000150 3b 80 e0 3d 26 1b 01 3d c2 2d 3b 3c fb ec 43 bd
       0.10961958 0.03152003 0.011424484 -0.047833424
000160 19 68 84 bd 93 14 e9 bc 40 3d 80 3d df 3c a6 bd
       -0.064651676 -0.028452193 0.062616825 -0.08117079
000170 40 24 8e bd 86 ae cc bd 18 1e de 3c 29 76 89 3d
       -0.06940508 -0.09994225 0.02711396 0.067119904
000180 18 12 c3 bc 80 d8 ef 3d 36 d0 d1 3c b5 08 cb bc
       -0.023812339 0.11711216 0.025611978 -0.024784425
000190 b7 64 85 bd 0f 0e 22 bc 73 1c 4e 3d 2e 02 c0 3b
       -0.065133505 -0.009891047 0.0503201 0.005859635
0001a0 05 c8 0b be 50 31 e3 bd 13 f0 c2 3d cd 6f 4d bd
       -0.1365052 -0.1109339 0.09518447 -0.05015545
0001b0 97 02 e1 bd bb dd c1 bc f0 d5 5f 3d 8c 07 fb bd
       -0.10986822 -0.0236653 0.054647386 -0.12257299
0001c0 da bb 27 3c 43 0a 06 be 17 58 a3 3b 16 8e df 3d
       0.010237658 -0.13089852 0.0049848664 0.109157726
0001d0 03 b1 a9 3b 12 a7 c5 bd f6 de 97 3c 38 25 f7 bd
       0.005178572 -0.09651007 0.018538933 -0.12067646
0001e0 2a ae d3 3a 40 a8 a6 bc 28 ca 9f 3d 08 85 a7 3d
       0.0016149927 -0.0203439 0.0780223 0.081796706
0001f0 bd f2 07 bd 1f be bb 3d a1 f6 f2 3c df dd d4 3d
       -0.033190478 0.09167122 0.029658617 0.10393881
000200 24 d2 70 bd 91 52 3b 3d 32 4e 94 3d 1b db ba bd
       -0.058794156 0.04573304 0.07241477 -0.09123822
000210 a2 76 92 bd 24 2c 04 3e 18 3a 17 3d 33 fb df bd
       -0.07151534 0.12907463 0.036920637 -0.10936584
000220 b8 a2 a4 3d 42 ac d1 bd 3a 34 13 3b 15 93 db bd
       0.08038849 -0.10237934 0.002246155 -0.10721413
000230 e4 28 98 bd 1b 61 01 3c ee 65 2e bd 04 f4 ff 3c
       -0.07429674 0.007896687 -0.042577676 0.031244285
000240 a5 00 0c 3d f3 c4 05 3d b4 17 be 3c 31 d0 63 3c
       0.034180302 0.03265853 0.023204662 0.013904617
000250 1e 8f 0d be 41 e9 6b 3d 1b cd 89 bd 1c 4e 2b bc
       -0.13824126 0.057595495 -0.06728574 -0.010455634
000260 5a 3d 56 bb b9 8f 8f bd 3b 98 f0 bd 3f f2 cc 3d
       -0.0032690377 -0.07009835 -0.11747786 0.10007142
000270 98 4e c7 bc 2b 90 e8 3c 5b d7 8e bc 2d 14 c1 bd
       -0.024329469 0.028389057 -0.017436674 -0.09427676
000280 aa d6 b7 bd 15 cf 53 3d 5c 3f b5 bc 19 f3 bd bd
       -0.08976491 0.05171116 -0.022124939 -0.09274883
000290 55 15 9a 3d a7 b7 92 3d a5 44 11 3c d8 b5 05 3d
       0.075236 0.07163935 0.008866464 0.032644123
0002a0 8a 14 8a bd 20 a9 8e bd 04 91 e7 bd c2 19 9e bd
       -0.06742199 -0.06965852 -0.113069564 -0.07719757
0002b0 6a 0a eb 3d 9b c4 35 3d 1a cf b0 3d 54 74 2c bd
       0.11476596 0.04437695 0.086332515 -0.042103127
0002c0 6b 45 bb 3b 96 45 1d bc f5 e1 f0 bd 63 79 ca 3d
       0.0057150624 -0.00959911 -0.11761848 0.09886434
0002d0 76 ca fc bb 70 b1 01 3e 1f 39 53 bc 56 b7 a4 3d
       -0.007714565 0.12665343 -0.012892037 0.08042781
0002e0 66 03 07 3e ff e5 ce 3d 18 26 d5 3d 0a 10 a4 3d
       0.1318489 0.10102462 0.104076564 0.08010872
0002f0 21 a1 9d bc ae b0 0b ba bf fb 89 bd 91 24 6d 3d
       -0.019241871 -0.00053287565 -0.0673747 0.0578962

weight f4 [1, 64]
000000 a1 e0 5b bd 56 c1 d2 3d 1b f0 b6 bd dc c6 c4 bd
       -0.05368102 0.10290782 -0.08932515 -0.09608242
000010 9f c3 18 bc f4 5e bf bd 69 31 09 3e 32 9c db 3d
       -0.009323983 -0.09344283 0.13397755 0.10723151
000020 81 f3 9f bc ac 74 29 3d 4a 41 da 3d 51 fd ce bd
       -0.019525291 0.041371033 0.10656984 -0.1010691
000030 78 7d d9 3d eb 84 98 3d 32 dd 92 3d b0 3c 26 bb
       0.106196344 0.07447227 0.07171096 -0.0025365762
000040 8a fd d9 bd 40 8b e2 bd 1c f4 00 3e f7 e9 1b 3d
       -0.10644062 -0.11061716 0.1259312 0.038064923
000050 a3 75 a3 3d 23 80 58 3d af 2c 72 bd e5 55 d8 bd
       0.07981422 0.052856576 -0.059124645 -0.10563258
000060 c8 7f 9b bd 63 17 ba bd f7 fa 2a 3d a4 7e 02 3d
       -0.07592732 -0.09086492 0.041743245 0.031859055
000070 7a 12 0c be 83 0d 9d 3d dd 8d be bd 46 fa 3e bd
       -0.13678923 0.07668593 -0.09304402 -0.046625398
000080 5b 60 b5 3d cd 2c 7c 3d b7 ed ea 3d fc cd d5 3d
       0.08856269 0.061566163 0.11471122 0.10439679
000090 2a 1a ce bd b8 1d b3 bc 45 c4 d6 bd fd ce c7 bd
       -0.10063584 -0.021864757 -0.10486654 -0.09756277
0000a0 74 b2 af 3d 49 3d 82 3b e8 ee 45 3d 48 9b e2 bd
       0.08578959 0.003974591 0.048323542 -0.11064774
0000b0 1a 1e a5 bd b8 8c e1 bc ee 7b 3e bc a0 76 8b 3d
       -0.08062382 -0.02753292 -0.011626227 0.06809735
0000c0 c5 d4 da bd a1 47 d6 3d c8 57 f7 3c 85 f2 c4 3d
       -0.10685114 0.10462881 0.030193225 0.096165694
0000d0 10 b0 da 3d 0f ac eb bd df ff e7 bd a9 db d2 bd
       0.106781125 -0.11507427 -0.113281004 -0.10295803
0000e0 98 23 dc bd 27 46 b8 3d 61 b0 93 3d 38 c3 f8 bd
       -0.107489765 0.089977555 0.07211376 -0.1214661
0000f0 e8 e5 aa 3d 3a e2 99 3c ae 09 bc bd 58 5f a2 3d
       0.083446324 0.018784631 -0.09181534 0.079283416

welford_state_mean f4 [4]
000000 ce cc cc 3e 3c 47 20 3f d0 56 03 3f f7 eb 12 3f
       0.40000004 0.62608695 0.5130434 0.57391304

welford_state_mean_diff f4 [4]
000000 96 18 e0 41 e5 db d7 41 09 26 e6 41 ae 41 e2 41
       28.012005 26.98237 28.768572 28.28207

hidden f4 [6, 64]
000000 4e 68 18 3d 3d 6b 6f be 1b 04 86 be 2f 64 1c be
       0.037208848 -0.23380752 -0.26175007 -0.15272592
000010 08 9f 0e 3e 6b fa a2 3c 5c 19 80 be 79 f8 71 bb
       0.13927853 0.0198948 -0.25019348 -0.0036921783
000020 2f 09 ec 3d 85 92 bc 3d 78 87 e9 be ff 13 a6 bc
       0.11525189 0.09207634 -0.45611167 -0.020273207
000030 de d4 99 bd d7 e4 a3 be 97 11 67 3d ea bc 0c bd
       -0.07511304 -0.32010528 0.05641326 -0.03435985
000040 f2 e8 dc 3d 8d ed a3 3e be b1 38 3e fb d1 99 bd
       0.10786618 0.32017174 0.18036553 -0.07510754
000050 63 ce 0c be 9f ea ab 3e cb 06 b6 3d 81 70 75 3e
       -0.13750605 0.3357744 0.088880144 0.23968698
000060 a3 26 26 3d 5c 2d 86 be 86 7b 24 3c a6 b8 fb bc
       0.04056419 -0.2620648 0.010039216 -0.030727696
000070 3d 13 72 bd 52 59 59 be 47 17 44 3e 99 d0 93 3d
       -0.05910038 -0.21225479 0.19149505 0.07217521
000080 53 99 86 be 57 c5 2b be 19 21 ce 3c d9 d2 92 be
       -0.26288852 -0.16774498 0.025162267 -0.2867649
000090 c3 0d d0 3d a2 c3 3f 3e fa 7d 4f 3e 98 de 9b 3d
       0.10158875 0.18726972 0.202629 0.07610816
0000a0 ed f6 12 be ea 37 d5 bd 2a d2 1e be 03 e6 4e 3e
       -0.14352007 -0.104110554 -0.15509859 0.2020493
0000b0 dd 81 35 3e fe c0 5b be 2b b7 d3 3d da 18 0b 3d
       0.1772532 -0.2146034 0.10337671 0.033959247
0000c0 7c 27 80 bc f0 8f 03 be e0 d4 ac bd a8 b1 ad 3a
       -0.015643828 -0.12847877 -0.0843904 0.0013251798
0000d0 24 e6 61 be 77 8e 9a 3e de 71 82 3d 34 d8 3a 3e
       -0.22060448 0.30186817 0.06369375 0.18246537
0000e0 b1 6d ad 3e d0 70 0f 3d c9 b9 4d 3e 37 25 0b 3e
       0.3387275 0.035019696 0.20090403 0.13588415
0000f0 53 b6 b1 bd 88 4c a2 3b be 94 87 3d 41 9a 09 3d
       -0.08677354 0.004952971 0.06620167 0.033594374
000100 4d 68 18 3d 3d 6b 6f be 1b 04 86 be 2f 64 1c be
       0.037208844 -0.23380752 -0.26175007 -0.15272592
000110 08 9f 0e 3e 69 fa a2 3c 5b 19 80 be b7 f8 71 bb
       0.13927853 0.019894795 -0.25019345 -0.0036921927
000120 2f 09 ec 3d 86 92 bc 3d 78 87 e9 be ff 13 a6 bc
       0.11525189 0.09207635 -0.45611167 -0.020273207
000130 dd d4 99 bd d7 e4 a3 be 95 11 67 3d ec bc 0c bd
       -0.075113036 -0.32010528 0.056413252 -0.034359857
000140 f3 e8 dc 3d 8d ed a3 3e bf b1 38 3e fb d1 99 bd
       0.10786619 0.32017174 0.18036555 -0.07510754
000150 63 ce 0c be 9f ea ab 3e ca 06 b6 3d 81 70 75 3e
       -0.13750605 0.3357744 0.08888014 0.23968698
000160 a4 26 26 3d 5c 2d 86 be 86 7b 24 3c a8 b8 fb bc
       0.040564194 -0.2620648 0.010039216 -0.0307277
000170 3f 13 72 bd 51 59 59 be 46 17 44 3e 99 d0 93 3d
       -0.059100386 -0.21225478 0.19149503 0.07217521
000180 52 99 86 be 57 c5 2b be 17 21 ce 3c d8 d2 92 be
       -0.2628885 -0.16774498 0.025162263 -0.28676486
000190 c4 0d d0 3d a1 c3 3f 3e fa 7d 4f 3e 98 de 9b 3d
       0.101588756 0.1872697 0.202629 0.07610816
0001a0 ed f6 12 be ea 37 d5 bd 2a d2 1e be 03 e6 4e 3e
       -0.14352007 -0.104110554 -0.15509859 0.2020493
0001b0 dc 81 35 3e fe c0 5b be 2b b7 d3 3d da 18 0b 3d
       0.17725319 -0.2146034 0.10337671 0.033959247
0001c0 7a 27 80 bc f0 8f 03 be e1 d4 ac bd ae b1 ad 3a
       -0.015643824 -0.12847877 -0.08439041 0.0013251805
0001d0 24 e6 61 be 77 8e 9a 3e de 71 82 3d 34 d8 3a 3e
       -0.22060448 0.30186817 0.06369375 0.18246537
0001e0 b0 6d ad 3e d2 70 0f 3d c9 b9 4d 3e 37 25 0b 3e
       0.33872747 0.035019703 0.20090403 0.13588415
0001f0 52 b6 b1 bd 7a 4c a2 3b be 94 87 3d 42 9a 09 3d
       -0.08677353 0.0049529644 0.06620167 0.033594377
000200 99 74 af 3e 54 2f 9d be be 9d 0e 3d c6 85 94 3e
       0.34268644 -0.3070017 0.034818403 0.2900831
000210 a0 0b 2c 3e 33 35 fc 3d 60 45 88 be 99 a4 36 be
       0.1680131 0.123148344 -0.2661543 -0.17836227
000220 bc d1 47 bd 42 bf 94 be 9f 1f c4 3d 09 f0 8f bd
       -0.048784003 -0.29052168 0.09576344 -0.07028205
000230 d9 e6 15 be 14 3f 51 be 9e 26 53 be 60 8d 3d 3b
       -0.14638843 -0.20434219 -0.206202 0.0028923377
000240 24 33 31 3d 35 a8 3f 3e 20 e4 5f bd 31 7b 44 3c
       0.043261662 0.1871651 -0.054660916 0.011992262
000250 a3 b6 e2 be 04 37 18 bd 39 46 9d bd 8c 7f d0 bd
       -0.44279966 -0.037161842 -0.076794095 -0.10180578
000260 7f 7c b2 3e 90 0c c2 3d 78 c5 ad be f1 ef 14 3e
       0.34860608 0.09475052 -0.3393972 0.14544655
000270 bc 9a 68 3e f2 b9 2f bc 94 bd b8 3c ca ad 4a bd
       0.22715276 -0.010725485 0.022551335 -0.049482144
000280 ac 03 27 3c b5 57 ec 3d fd f6 13 3e 3d ff a3 bd
       0.010193747 0.11540166 0.14449687 -0.08007667
000290 c6 c9 17 3e 7a 30 0b bc 08 ca 3b 3e ee d7 32 3e
       0.14823064 -0.008495444 0.18338788 0.17465183
0002a0 81 8e 1e be 4f 2a 7b be a3 6b 6e be 6d a4 c5 3e
       -0.15484048 -0.24527858 -0.23283248 0.3860201
0002b0 8f ba a7 3e 13 41 58 3e 8e 50 b2 be fe 63 83 be
       0.3275952 0.21118574 -0.34827083 -0.25662225
0002c0 60 2e 04 be 8c c7 23 3d 23 cc 94 be 2f d4 cc bd
       -0.12908316 0.039985225 -0.29061994 -0.10001408
0002d0 26 a0 12 be d5 ff f3 3d 71 f4 12 3e 1f bf 0b 3e
       -0.14318904 0.119140305 0.1435106 0.13647126
0002e0 7d 6d d3 3e ab 74 8e be 65 b4 3c be 8f 41 03 3e
       0.4129447 -0.27823386 -0.1842819 0.12817977
0002f0 fa bc 0a 3d d7 61 dc 3d 56 00 a1 3e 2a 97 9e bd
       0.03387163 0.10760849 0.3144557 -0.07743676
000300 49 68 18 3d 3d 6b 6f be 1c 04 86 be 2e 64 1c be
       0.03720883 -0.23380752 -0.2617501 -0.1527259
000310 06 9f 0e 3e 65 fa a2 3c 5b 19 80 be 79 f8 71 bb
       0.1392785 0.019894788 -0.25019345 -0.0036921783
000320 2f 09 ec 3d 86 92 bc 3d 78 87 e9 be fc 13 a6 bc
       0.11525189 0.09207635 -0.45611167 -0.020273201
000330 dd d4 99 bd d7 e4 a3 be 96 11 67 3d ec bc 0c bd
       -0.075113036 -0.32010528 0.056413256 -0.034359857
000340 f2 e8 dc 3d 8d ed a3 3e bf b1 38 3e f9 d1 99 bd
       0.10786618 0.32017174 0.18036555 -0.07510752
000350 61 ce 0c be 9d ea ab 3e c9 06 b6 3d 7f 70 75 3e
       -0.13750602 0.33577433 0.08888013 0.23968695
000360 a4 26 26 3d 5c 2d 86 be 86 7b 24 3c a8 b8 fb bc
       0.040564194 -0.2620648 0.010039216 -0.0307277
000370 3f 13 72 bd 51 59 59 be 44 17 44 3e 99 d0 93 3d
       -0.059100386 -0.21225478 0.191495 0.07217521
000380 51 99 86 be 57 c5 2b be 15 21 ce 3c d9 d2 92 be
       -0.26288846 -0.16774498 0.02516226 -0.2867649
000390 c4 0d d0 3d a2 c3 3f 3e fa 7d 4f 3e 98 de 9b 3d
       0.101588756 0.18726972 0.202629 0.07610816
0003a0 eb f6 12 be ec 37 d5 bd 29 d2 1e be 02 e6 4e 3e
       -0.14352004 -0.10411057 -0.15509857 0.20204929
0003b0 dc 81 35 3e 00 c1 5b be 29 b7 d3 3d db 18 0b 3d
       0.17725319 -0.21460342 0.103376694 0.03395925
0003c0 7a 27 80 bc f1 8f 03 be e1 d4 ac bd aa b1 ad 3a
       -0.015643824 -0.12847878 -0.08439041 0.00132518
0003d0 24 e6 61 be 77 8e 9a 3e e0 71 82 3d 35 d8 3a 3e
       -0.22060448 0.30186817 0.06369376 0.18246539
0003e0 b0 6d ad 3e d4 70 0f 3d cb b9 4d 3e 35 25 0b 3e
       0.33872747 0.03501971 0.20090406 0.13588412
0003f0 51 b6 b1 bd 6a 4c a2 3b bc 94 87 3d 43 9a 09 3d
       -0.08677352 0.004952957 0.06620166 0.03359438
