minigrid/r2l/MiniGrid-LavaCrossingR2LS11N5-v0_with_library_logs/MiniGrid-LavaCrossingR2LS11N5-v0/5b3e16-seed102/critic.pt (torch, 62127 bytes, 8 tensors)

weight_ih f4 [192, 7]
00000000: 1471 003e f28c 233d 034a f2be f6b4 58bd
00000010: 8fac ccbc c0c4 a83c 218a f2bd 8a81 0a3d
00000020: 5ce0 6b3c 3d33 4cbd 24e3 51be 9392 423c
00000030: 9884 e1bc 8e58 19be c347 013e 0c41 80bd
00000040: c9f8 4b3e 706d 11bc e379 40be 581a f13d
00000050: da9e cebd 6c9c af3b b071 cf3c 017a e03a
00000060: aa83 72bd 2b21 20be 14fb bb3d e322 0abc
00000070: 72ad 843d 1a0e 7bbd 60e4 4abd ee67 34be
00000080: 17cb d2be 48dc 71bd 3873 76bd d2d0 233d
00000090: a8cd 833d 7915 853e d304 7ebd 5feb b83d
000000a0: 0033 143c 7e59 a7be 45f3 8e3b 6a3a 21be
000000b0: aca8 5bbe c5a9 85be a8e0 75be 160d a1bd
000000c0: d654 02bb 9dfb b0bb e77e e13a b8ce 343e
000000d0: 8fd3 12be 67c8 babe fef4 8d3d c605 2ebe
000000e0: 5eaf 1a3d 9bd5 f0bd 6421 7a3e 710f a73c
000000f0: e316 ba3c fc2b 36bd 124f 153e 2b13 89be
00000100: b565 4d3b 8801 26be f389 bdbd 9d04 ff3c
00000110: 502b bbbd b977 7c3e 5747 953d 2c68 e9bd
00000120: 2efa 65be e388 dcbd 9b00 82bd 00ac 313b
00000130: c8ef 093e 6caa 223e 5eb3 f9bd 5f3a c7bc
00000140: f96e 32be 0a13 2dbe c84a d43d 9fc3 3fbd
00000150: e987 043e 2d29 29be 4c86 ce3e 9332 57be
00000160: c114 57be cce3 f2bd b4c8 523e eb25 a9bd
00000170: bedd e2bd 771f 003d 2491 0ebe ebf2 5cbe
00000180: c827 5a3d 473c efbc 3ba2 c8bd 6640 debd
00000190: 4564 4ebd 6d78 12be 09fe 2cbe 2c30 32bd
000001a0: d482 593e 70dc 2c3e c6ea a6bd a52f 823e
000001b0: ef72 26be 69af 8cbe 4084 05bd 67d2 3c3c
000001c0: 3914 9f3c 01d5 27be f7d2 1d3e a8fe 19bd
000001d0: 0966 0d3d 40f9 343d b72d 9fbe 2e3b 13be
000001e0: aef3 1bbd acb5 1c3f 36d1 83bd da76 05be
000001f0: c813 bbbc 6200 263e 4bb9 413e b042 5cbe
00000200: 11e5 cd3d 8c75 673d 2e75 09be dcc8 fdbd
00000210: 7645 5cbe 290e e5bd 0b7c 073d 5bb4 8a3e
00000220: 7475 4ebd 48e3 1bbe 8849 ccbd 7e9e aa3d
00000230: 9934 9f3e 18bd ecbd 047b 7cbe 2471 94be
00000240: 213c 0ebd f660 be3d 2ec1 bbbd 5a25 50be
00000250: 800a 2abe 72bb 47bd 0c77 05bd 6bc9 e6bd
00000260: 30be a0bd f108 1a3e ad08 8cbe aff8 75bd
00000270: e775 85bd cae5 46be 89ad cd3c 84a3 8a3d
00000280: 3796 503d 98ed 51be 03a0 9ebb fd5c b2bc
00000290: 1897 cebd 1f22 00be ec68 b3bd 5f42 09be
000002a0: 0db6 193c d6a0 abbb 238e af3e ec71 09be
000002b0: e963 39be b04c b5bd 0b80 ab3b 3928 69bd
000002c0: 70f9 14be 67c2 483f 021e 8abe 54c0 f0be
000002d0: 8a52 d33d e5f2 883d 415b 26be 737a e7bc
000002e0: 25de 4abe d7d9 42bd 46ef fdbd 3ede 8bbd
000002f0: e9c5 5d3e 2db1 a8bd 1aee 9bbd 1346 35bd
00000300: 9d03 9fbd 79af c5bd 20d6 37bd fb97 e7bd
00000310: 71f4 e0bd 6082 fabd 1056 ba3e d855 16be
00000320: f90f 63be 10a2 bcbd 88c9 8c3d 521e a4be
00000330: 7f67 c6bd fdd0 64bd 9396 33be 32fb b53d
00000340: 6634 84bd 3c44 9d3e d9d5 a8bd bb27 7a3d
00000350: 980b 123d 176f 94bd a68b 82be d0fd 133d
00000360: dd56 753e 7e88 c83d 1054 afbd 748d 01be
00000370: ac84 14bd 1267 9ebd 48cf 12bd 867f 16be
00000380: 65aa 7c3e bba1 9bbb 2cea f33d ae9a a7bd
00000390: 53d0 05be 7ad7 b8bd 28ed cc3d 90a8 993c
000003a0: d6f9 81bc e4af a13e cc85 fbbd fdb8 cebe
000003b0: 74cb 213d 998f ac3d 4d11 dcbd 8f76 2bbe
000003c0: 9277 e7bd 6672 ae3d 5424 c63d 6cfe 94bd
000003d0: 3866 493e ea3f 9f3e b3c3 bbbd b4b6 59bc
000003e0: f3ef 2bbe 8fdb 243e e05b ec3d 451d 80bd
000003f0: 19c4 84bd 948a 153d bb68 3d3d b866 15be
0.12543136 0.039929338 -0.4732209 -0.052906953 -0.024984626 0.02060163 -0.11842752 0.033814944
0.014396753 -0.049853552 -0.20496804 0.011875766 -0.027529046 -0.14975187 0.12625031 -0.06262407
0.19919123 -0.00887619 -0.18796496 0.11772603 -0.10088892 0.005359223 0.025322765 0.0017126204
-0.059207596 -0.15637653 0.09178749 -0.008431169 0.064783946 -0.061292745 -0.0495342 -0.17617771
-0.4117057 -0.059047967 -0.060168475 0.03999407 0.0643571 0.25992945 -0.06201632 0.090292685
0.0090453625 -0.32685465 0.004362496 -0.1574494 -0.21451062 -0.26106086 -0.24011481 -0.07863824
-0.0019886992 -0.0054010884 0.0017203958 0.17656982 -0.14338516 -0.3648102 0.06931494 -0.1699439
0.0377649 -0.11759492 0.244268 0.020393105 0.022715991 -0.04447554 0.14580944 -0.26772436
0.003134114 -0.16211522 -0.09254827 0.03113013 -0.091391206 0.24655046 0.072889976 -0.11396822
-0.22458717 -0.107682966 -0.06347772 0.0027110577 0.13470376 0.15885323 -0.12192415 -0.024319826
-0.17425145 -0.16901794 0.10365826 -0.04681742 0.1294247 -0.16519614 0.40336835 -0.21015386
-0.2100401 -0.11859855 0.20584375 -0.082591854 -0.1107745 0.031280007 -0.13922554 -0.21577041
0.053260595 -0.029203547 -0.09796568 -0.10852127 -0.050388593 -0.14303751 -0.16893782 -0.04350297
0.21241313 0.16880965 -0.08150248 0.25426975 -0.16254781 -0.27477577 -0.032596827 0.011524773
0.019418823 -0.16389848 0.15412508 -0.037596375 0.034521136 0.044183016 -0.31089565 -0.14378044
-0.038074188 0.6121471 -0.06436388 -0.1303362 -0.02283658 0.16211084 0.1891834 -0.21509814
0.100534566 0.056508586 -0.13423607 -0.123918265 -0.21510872 -0.111843415 0.03307728 0.27090725
-0.05040498 -0.1522342 -0.099749625 0.08331011 0.31094816 -0.11559504 -0.24656302 -0.2899257
-0.034725312 0.092958376 -0.091677055 -0.20326748 -0.16605568 -0.048762746 -0.032584235 -0.11268886
-0.078487754 0.15042473 -0.2735037 -0.060051616 -0.06516629 -0.19423595 0.025107162 0.067694694
0.050924506 -0.20500791 -0.004840852 -0.021772856 -0.100874126 -0.12513016 -0.08760247 -0.13404225
0.009381783 -0.005237679 0.3428813 -0.13422364 -0.18104519 -0.088525176 0.00523377 -0.056923125
-0.14548278 0.78421634 -0.2697602 -0.47021735 0.103184775 0.066869535 -0.16245748 -0.02825663
-0.19811304 -0.04757103 -0.123991534 -0.06829499 0.21657528 -0.082369186 -0.07613774 -0.04425628
-0.07764361 -0.096526094 -0.04488194 -0.11308285 -0.109841235 -0.12231898 0.36393785 -0.14681184
-0.22174062 -0.092105985 0.068743765 -0.32054383 -0.09687709 -0.05586337 -0.17537908 0.08885802
-0.06455307 0.3071612 -0.08243913 0.061073046 0.035655588 -0.07247751 -0.25497168 0.036130726
0.23958917 0.09791659 -0.085609555 -0.12651616 -0.03625934 -0.07734503 -0.03584221 -0.14697084
0.24674375 -0.0047495044 0.11909899 -0.081838 -0.1306775 -0.09025474 0.100061715 0.018757135
-0.015866201 0.31579506 -0.12281379 -0.4037551 0.03950067 0.084258266 -0.10745487 -0.16744445
-0.11302103 0.085179135 0.09674898 -0.072750896 0.196679 0.3110345 -0.09168186 -0.013288189
-0.16790752 0.1609938 0.11540961 -0.06255583 -0.06482715 0.03650911 0.046242457 -0.14589965

weight_hh f4 [192, 64]
00000000: 01c3 0abe 651a 573d 1793 37bd 66db b6bd
00000010: 4747 0b3d 99e7 33bb 2b25 a7bd c93b 863c
00000020: 4e4e c83d 783f bebd 0017 53bd a853 6fbd
00000030: d1aa 6fbe 5de3 883e bcbc 903c 9909 a2bd
00000040: 1f74 efbc 9101 043d 763e 64bd 1f76 c0bc
00000050: 4dd2 14bd 9beb 003e d804 81bd eaf7 02be
00000060: 0f46 913d df7a 6dbd c7b1 3b3e d5d8 263e
00000070: 62ef 8bbd 070f 94bd e560 26be bf45 823c
00000080: 9c58 97bd cb7e 1dbe 37f9 65be ccb1 88bd
00000090: 4386 14be e26d da3d ce8c 1c3c f565 0a3e
000000a0: b376 cf3c 4a86 b5bb 3f72 93bd 5955 3fbd
000000b0: 2551 e03d 9e96 453e e2e7 223e 9c2a ce3d
000000c0: 874d 18be a087 7a3d cf2c 993c 8ddf ddbb
000000d0: afaf cbbd ebe5 a4bb 867f ef3d 3314 123d
000000e0: 8cf9 543d 5245 5c3e 40e8 173e 6528 e2bd
000000f0: c8ee d23c 3e0e 62bd c9a2 e23d 9c37 1ebe
00000100: 5d92 db3d 330c 37bd 7e67 183b 2a71 953d
00000110: 0aed 4e3d 4109 9a3d b96c e13c 0687 15be
00000120: 183f d43d f429 b2bd 736f be3d 875a dcbb
00000130: 2e40 4abe 9b4d 1d3e 2de2 6cbd dfdd 72bd
00000140: 1ea9 183e c079 0d3d f853 b7bb a9b5 913d
00000150: e619 473e 872b bb3d 9b51 8d3d 58a1 10be
00000160: 5c6c f6bb 4fe9 2c3d 0c6b 853d e9af 0f3e
00000170: 2d8b 023e dd58 d0bd 8da4 8bbe b02e 043e
00000180: 894e 1abc 57e9 1abe c089 51be 8f83 4bbd
00000190: 2a15 ee3d 8142 043e 4138 1b3e 8e6e 7f3d
000001a0: 3040 39bd a0bf 26bc cc59 37be 30c8 25bc
000001b0: acc0 00bc 5518 f93d 636e 033e c960 093d
000001c0: a5e8 98bd 160d 913d a60d febc a2a3 643c
000001d0: b7b4 adbd 68af 6f3d a536 0f3d ecca 36be
000001e0: 79aa c2bd 9166 5a3e e520 1cbd ddc2 46b9
000001f0: 0ac2 96bd b9ef 09be 065e c3bd 6162 e0bb
00000200: bad6 c4bd ae25 d7bd eeed 063e 2395 14bc
00000210: c0f4 8ebd 37bf 34be f79b 3ebe 1dad 4d3e
00000220: c5c6 033e a529 77bd 8bc0 6d3a 4d64 35bd
00000230: 9a7b 63be f048 3b3e 29c5 2a3d abc5 f4bd
00000240: 8bef b93d 3f20 f2bd 2dcc eabd d503 bbbd
00000250: 7303 0dbd 11ea a13d 95bc 983d f6ed 2dbe
00000260: 12ed cfbd 2e0b 303c 4a04 163e 389a 14bd
00000270: 80c8 b4bb 4aff 363d c383 dfbd 46ae d5bd
00000280: 480c 993d 9065 79bc 7aea 28be 4675 c1bb
00000290: 75b3 1abe 904e d73d 80e7 083d 64cc e5bc
000002a0: 1c23 dd3d af59 c33d 11f5 17bd 3e5a 103d
000002b0: 0359 073e 5861 c33d f522 573e bca6 a23a
000002c0: fc8e 3bbd a84d 343d 8ad5 33be e7d6 b2bd
000002d0: ab77 f9bd bb91 d03d 4930 eebd dc26 e63c
000002e0: bde1 98bd 5ad8 243e bf59 4ebd 1506 643d
000002f0: b121 933d b614 20bc 0ccf e1bd 0295 86bc
00000300: ed14 fabb 9c7b 193d 5206 fa3d 6b17 b13d
00000310: f967 fbba 5e2c 34be e2c7 3a3d d1f4 8d3e
00000320: b136 163e 3066 2bbe c28b 4bbd 8dcb 593d
00000330: 41dc 0bbe 5548 2ebd 7e8f 103d 580f 7dba
00000340: 9925 63bd bb55 883d 86ae 19bd b2e3 24bd
00000350: fd81 763e ba8b 903d 1696 22bd 4801 123e
00000360: 4cd6 11be 6eb4 103e b1bf af3d 1f55 93bd
00000370: b976 ee3d 880a 42be ba69 06be 76ac 923c
00000380: 3cd0 a6bc 332b 533d ddef f13d cf30 d6b9
00000390: 5456 c7bd 4bca c93d 844f edbd 120a 10bb
000003a0: e985 563c 001d 95bd 17dc 9abd 23d3 1dbe
000003b0: f388 123e 0a1e 553d 2d1f 123d 1ae7 803c
000003c0: d3c0 113e 104b aabd 8ee4 8cbe bccc 243d
000003d0: 1e9b 4c3d ada7 953b 94c1 0fbd 4f79 803b
000003e0: 2e90 18be 99a7 ba3d 74ff 26be 3a71 dbbc
000003f0: b2df 23bd a8ed 67bd db09 d4bd b6ba bc3d
-0.1355095 0.052515406 -0.04481801 -0.08928566 0.034003522 -0.0027451275 -0.08161386 0.01638593
0.097805604 -0.092894495 -0.051535606 -0.05842939 -0.23405005 0.26735964 0.01766812 -0.07911987
-0.029230176 0.032228056 -0.05572363 -0.023493825 -0.03633337 0.12589876 -0.06299752 -0.12789884
0.07093441 -0.057978507 0.18329535 0.16293652 -0.06832768 -0.07229429 -0.162479 0.015902398
-0.07389948 -0.15380399 -0.22458349 -0.06674537 -0.14504342 0.1066549 0.009555055 0.13515456
0.025325155 -0.00553969 -0.07199525 -0.046712253 0.10952977 0.19295737 0.15908769 0.10066721
-0.14873324 0.0611645 0.018698124 -0.006771034 -0.09945618 -0.005032291 0.11694245 0.035663795
0.0519958 0.21510819 0.1483469 -0.11042861 0.025748625 -0.055189364 0.11066205 -0.15450901
0.10721276 -0.04468937 0.0023255046 0.07296975 0.050519027 0.07521296 0.027517663 -0.14602289
0.10363597 -0.08699408 0.09298601 -0.006724659 -0.19751045 0.15361635 -0.057832886 -0.059293624
0.14908263 0.034539938 -0.0055947267 0.07114727 0.19443473 0.091391616 0.06900331 -0.14124048
-0.0075202417 0.042214688 0.06514558 0.14031948 0.12748404 -0.10173199 -0.2727398 0.12908435
-0.009418138 -0.15128075 -0.20462704 -0.04968601 0.116251305 0.12915994 0.15158178 0.062361293
-0.04522723 -0.010177523 -0.17905349 -0.010118529 -0.007858437 0.12162844 0.12835078 0.033539567
-0.074662484 0.07082574 -0.031012367 0.013955029 -0.08481734 0.05851689 0.034964222 -0.17850846
-0.09505171 0.21328188 -0.03811731 -0.00018955344 -0.07361229 -0.13470353 -0.09539418 -0.006847665
-0.09611268 -0.10505234 0.131767 -0.00906876 -0.06980276 -0.17651068 -0.18614183 0.20085569
0.12868793 -0.06034245 0.00090695237 -0.044285107 -0.22215119 0.18289542 0.041691933 -0.11951765
0.09078892 -0.11822557 -0.11464725 -0.0913159 -0.034427118 0.07905973 0.07457844 -0.16985306
-0.101526394 0.010744853 0.14650074 -0.036279887 -0.0055170655 0.044677056 -0.109138034 -0.10433631
0.074730456 -0.015221968 -0.16495696 -0.0059038727 -0.1510752 0.105130315 0.0334239 -0.028051563
0.10797712 0.0953859 -0.037098948 0.03524231 0.13217549 0.09540051 0.21009429 0.001240931
-0.045790657 0.04401937 -0.17561927 -0.087323956 -0.12181028 0.10184046 -0.116303034 0.028094701
-0.07464931 0.16098157 -0.050378557 0.055669863 0.071841605 -0.009770563 -0.11025819 -0.016428474
-0.007631889 0.0374714 0.12208237 0.08647045 -0.0019180767 -0.1759505 0.04560078 0.27725843
0.146693 -0.167382 -0.04969383 0.053172637 -0.13658239 -0.04254945 0.035293095 -0.00096534705
-0.055455778 0.06656977 -0.037519954 -0.04025621 0.24073024 0.07057901 -0.039693914 0.14258301
-0.14241904 0.14131328 0.08581484 -0.0719397 0.11643738 -0.1894933 -0.13126269 0.017904501
-0.020362966 0.05155487 0.118133284 -0.00040853626 -0.09733263 0.098530374 -0.11587432 -0.0021978659
0.01309345 -0.07280922 -0.0756151 -0.15412574 0.14310054 0.0520306 0.035674263 0.015735198
0.14233713 -0.08315098 -0.27518123 0.040234312 0.04995262 0.0045671077 -0.03509672 0.003920711
-0.1489875 0.09113998 -0.16308385 -0.02678739 -0.040008254 -0.05662313 -0.10353442 0.092153

bias_ih f4 [192]
00000000: 74de 973c 1b7f 143e 5cf1 0a3e 2ef7 793c
00000010: af8f 13bc c9c2 62bc aa8b 923d 8408 743e
00000020: 79cc b93d d307 dcbb 3667 053d 8d0f 183e
00000030: c5bc 8e3c 041f d33d 3033 a13d 1d82 cc3d
00000040: 952c c93d a3c7 183e f7f1 203d b2d0 0b3e
00000050: 5ee7 263e 2da2 02be 1867 123e 8f6f a63d
00000060: fe7c 91bd 325f 4f3d 795f f43d c5b0 27bd
00000070: 4f06 dc3d 28d6 99b6 bdb0 c8bc e6a6 f93d
00000080: 54f9 1c3e 9509 5a3e 1919 1b3e c00d b33d
00000090: b8c0 4f3e 6720 3d3e 067f d23d 594e afbc
000000a0: 0ea9 0f3e f4a1 0abc c34c c73c 33ce d83d
000000b0: da41 e83e 45ad 01bc abb3 643b 64ee 013e
000000c0: 4d53 323e 2fe4 753e b397 ab3e 8969 e6bc
000000d0: f8f2 e93d 26ef 0abe fb36 0b3e ca9e 2d3e
000000e0: 47d6 2c3e 89ea 25bd e30d 053e 1f18 a53d
000000f0: e677 b43c 9214 663d 1e47 853e 6878 89bd
00000100: 49b4 043e 2890 d4bd f846 65be bc6f 10bc
00000110: 48da 37be 5561 52be 7044 c23c c645 bdbe
00000120: a783 9e3d b7ba a93d 21ea 85bd db18 77be
00000130: eb70 6bbe a6e4 2fbd 9d3d d5bd 28ed 20be
00000140: f621 67be 63d6 b3bd 7851 2bbe 6d38 0abe
00000150: a534 dfbd 3fd8 60bc 778e ef3c 9dd0 f9bd
00000160: 4346 2abe 3a2c 98be 3247 b2be baea 82be
00000170: 49e3 29be 0728 12bd c53c 01be 7f2d 633d
00000180: cdb5 07be 29d3 fabe 2ecd 10be f8ae c2bd
00000190: b3cf 74be 514c 8dbe 33b4 433d f80c c53d
000001a0: 5a19 8a3d 44a4 0e3e 933b dd3d 4b4a 17bd
000001b0: b068 cdbe 48af e7be 1177 bb3d 2292 11bd
000001c0: 9dc4 e7bd 0a80 7abe 43b0 9ebe 838b 30bd
000001d0: d3f3 cd3c 3208 ef3d ad4e 1bbe 45f6 233d
000001e0: 1013 d0bd 6426 77be 2642 6abe b819 5cbe
000001f0: 1e97 61bd 46cf a3be 8311 cabe 629d a6bc
00000200: 3f71 1e3d d0a5 ce3d 7930 fbbd fe0b 19b9
00000210: fcdf 183e bda3 223e c826 83bd fa45 473c
00000220: ceeb dd3d 7503 0a3e 4f7c fc3d d186 2fbd
00000230: ef91 8c3d 21d9 e0bd 5cf0 263e 86e6 903c
00000240: 1e4f bcbd aa34 24be 42e1 1e3d e00a 1fbe
00000250: 0623 3bbd 6757 98bc a081 efbd 1a00 84bd
00000260: 55b9 2b3e 8f32 5ebe 53a3 09be 3992 083e
00000270: ee95 34be 939c c13d d9cd 51bc b406 8abd
00000280: d2c5 44be 7764 57be ba38 c9bc f931 c03d
00000290: 9b41 b8bd 0a86 d4bd 3dac a03c 79a9 9c3d
000002a0: da87 023e bf99 1bbd 26cb 373d 9766 133d
000002b0: 4442 6d3e 89c8 e7bd f7ca 3bbd 7a39 34bd
000002c0: 4fbc 09be 9df0 31be fcd8 20be 1a07 cbbd
000002d0: 5aae 113d 1bf2 79bd 06af 44be 53fd f1bb
000002e0: eb31 df3d 451d 8dbd 3d04 b13d 93b5 19be
000002f0: a9b2 3cbd 2e46 fa3d 698a 263e f22b e13c
0.018538691 0.14501612 0.13568634 0.015256686 -0.009006425 -0.013840386 0.07155545 0.23831373
0.09072203 -0.0067148 0.032569133 0.14849682 0.017423997 0.1030865 0.07871091 0.09985755
0.098229565 0.14919905 0.039293256 0.1365383 0.16299197 -0.12757178 0.1429714 0.08126747
-0.071039185 0.050627895 0.119322725 -0.040940065 0.10743391 -4.5846864e-06 -0.024498338 0.121900365
0.15329486 0.21292718 0.15146293 0.08742857 0.2028836 0.18469392 0.10278134 -0.021399664
0.14029333 -0.008461464 0.024328595 0.105862044 0.4536274 -0.007914846 0.003489713 0.12688595
0.17414589 0.24012826 0.33514175 -0.028126495 0.11423296 -0.1356779 0.13595192 0.16955104
0.16878615 -0.040506873 0.12993579 0.08061241 0.022029828 0.05617196 0.2603082 -0.06712419
0.12959398 -0.10379058 -0.22390354 -0.008815702 -0.17954361 -0.20544942 0.023714274 -0.36967295
0.077399544 0.08287566 -0.06538797 -0.24130575 -0.22992294 -0.042942666 -0.104121424 -0.15715468
-0.22571549 -0.087811254 -0.16730297 -0.13498087 -0.10898713 -0.013723432 0.029242737 -0.12197993
-0.16628365 -0.29721242 -0.34819943 -0.25569707 -0.16590609 -0.035682704 -0.12620838 0.05546331
-0.13252945 -0.48989227 -0.1414077 -0.09506029 -0.23907356 -0.27597287 0.047779273 0.09621614
0.06743117 0.1392985 0.108023785 -0.036936086 -0.40118933 -0.45250916 0.091535695 -0.035539754
-0.11316798 -0.24462906 -0.30993852 -0.0431018 0.025140679 0.11671485 -0.15166731 0.040029783
-0.10159886 -0.24135739 -0.22876796 -0.21494186 -0.055075757 -0.31994075 -0.39466485 -0.020338718
0.03868222 0.1009022 -0.12265105 -0.00014595684 0.14929193 0.15882774 -0.06403881 0.01216268
0.10835992 0.13477881 0.123283975 -0.04285318 0.06863772 -0.10978914 0.16302627 0.017688047
-0.09194778 -0.16035715 0.03878904 -0.15531492 -0.045687698 -0.018596364 -0.11694646 -0.06445332
0.16769917 -0.21698974 -0.1344121 0.1333703 -0.17635319 0.09453692 -0.012805426 -0.0673956
-0.19216087 -0.21034418 -0.024563182 0.093845315 -0.08996888 -0.103771284 0.01961338 0.07649512
0.12747136 -0.03798842 0.04487147 0.03598651 0.2316981 -0.11317546 -0.04584786 -0.044000126
-0.1345074 -0.17376943 -0.15707773 -0.09913464 0.035566665 -0.061021905 -0.19207391 -0.007384935
0.10898193 -0.06890348 0.086433865 -0.15010671 -0.04606882 0.12220417 0.16263737 0.027486775

bias_hh f4 [192]
00000000: 4013 0abd 987d 4a3d b30f bc3d bb8f a5bd
00000010: 23de ddbd 40c2 803d 3ee2 3b3d 56ac 543e
00000020: b8f2 453e 3377 39be f1dd 493d 0ff9 433e
00000030: 1ac4 303e 7e5f d43d 11ff 413d c59d 963e
00000040: 7aef 693d 7744 4a3e 6348 ae39 a400 9bbb
00000050: ac87 033e 5fde 9f3d 60a5 3f3e dd79 c03d
00000060: c980 a4bc ce49 fa3d b51a c3bd b722 613d
00000070: 5fc1 f13c a42b 2c3e 69ea 2c3e 4cbf a6bc
00000080: 1ba6 d53d d5e5 0c3e 7b39 0a3e 3a48 0e3e
00000090: 3d6f 143e 4611 e23d e65f 423e 9344 543d
000000a0: 0ad4 59bd 3d5e ce3c 29ae 5e3d 7c1a 073e
000000b0: b8a6 e63e cdc4 be3b 9e41 153e 9062 553d
000000c0: 30fb 453d edfe e83d 0177 913e 64f0 7c3d
000000d0: ec75 203e 228d 873d 8513 863d bce2 1e3e
000000e0: 5938 493e eb37 51bc d3b5 8e3d e243 a83b
000000f0: 6ea7 be3c 7e42 1b3d 195b 3c3e 9e8f df3d
00000100: f6cb f83c 4926 313d 4023 37be a6aa 93bd
00000110: 1443 2cbe 3d09 29be b2a3 d6bc edef 73be
00000120: a7ec 7a3d 5675 f13c 05d0 52bd e143 69be
00000130: d631 82bd 1ae2 9d3d 05fa 90be 1af1 30be
00000140: 0b2f e0bd 0623 29be e0ac f8bc dae0 e9bd
00000150: 555c 80be 31a2 0f3e 5eb5 debd fa60 38bc
00000160: 7e93 8ebd 657b 11be 568d ebbd 773f 7bbe
00000170: 41b7 3cbe 1baa a83d e9cd f6bc 3fb5 0dbd
00000180: 237b 35be ab68 f5be f4f4 2bbe 36d9 81be
00000190: 21f4 a0be fbc0 25be ee0c f33c baab 64bd
000001a0: 7686 d1bd 52eb 2a3e 2d08 6e3d a5ec f73b
000001b0: 0875 c6be ddec 5fbe bd30 073d 0e4d 6cbd
000001c0: fef9 84be e518 f3bd d837 cebd b33a 5b3d
000001d0: be7b a3bd a017 6e3e 39be 36be 1a2f e8bc
000001e0: e034 82be 293e a0be c2c1 dabd 7f4b 90be
000001f0: 7ccb 5abd f278 90be cb77 c3be e295 63bd
00000200: 5d30 243c 8549 063e 7bf1 0bbe c7a7 72bd
00000210: 2fcc d2ba 98c3 a3bc ab3c 8d3c ad9b 91bc
00000220: f548 b9bd c6c7 80bd ee1f 403e 973b e8bd
00000230: f4c2 0c3d 910e 403d 190b ee3d b070 093e
00000240: ea27 cd3c 83e5 25be af11 543d bb01 36be
00000250: a2c1 babb b748 193d 65b4 0abe 1e23 a2bd
00000260: acf0 c83d 71a6 803b 4de3 dcba 37db 6e3e
00000270: 9adb e9bd 0c8f ba3d 9f3d bf3d 64c8 1ebe
00000280: bb3b c9bd 701a a7bd 7409 a73a 302f e33d
00000290: 78db 88be edd4 39be 83fb 383e 80fc 203d
000002a0: 9856 a33d ba63 99bd 3ce0 abbd 4163 0a3e
000002b0: 6b34 8e3e 5a3d 483d 75b5 e3bd c02a f4bc
000002c0: 631f 61be 299f 1bbe 03dc 08be 0c4b 07be
000002d0: 10f2 8a3d f7df 633d f780 f6bd 8c47 053d
000002e0: 6000 0f3e 586d c03d a24c 1b3e 74d3 1abe
000002f0: 802c b4bd c9ee dc3d 8120 d63d bebd 73bc
-0.033709764 0.04943618 0.09182682 -0.08084055 -0.10833385 0.0628705 0.04587006 0.20768866
0.19330871 -0.18111877 0.049283925 0.19137977 0.17262307 0.10369776 0.04736239 0.29417244
0.05711315 0.1975268 0.00033241799 -0.004730301 0.12844723 0.07806086 0.1871543 0.093982436
-0.02008094 0.122211084 -0.09526578 0.054964747 0.029511152 0.16813523 0.16886295 -0.02035489
0.10432073 0.13759549 0.1349849 0.1389474 0.14495559 0.11038451 0.18981895 0.05182321
-0.05318073 0.02519142 0.05436531 0.13193697 0.4504907 0.0058218003 0.14575812 0.05209595
0.048335254 0.11376748 0.28411105 0.061752692 0.15669984 0.06618716 0.06546692 0.1551618
0.19650401 -0.01276968 0.06968274 0.0051350454 0.023273196 0.03790521 0.18394126 0.10916065
0.030370694 0.043249402 -0.1788454 -0.07210283 -0.16822463 -0.1650743 -0.026201103 -0.23821993
0.061260846 0.029474895 -0.051467914 -0.227798 -0.06357162 0.07709141 -0.2831575 -0.17279473
-0.10946473 -0.16517267 -0.03035587 -0.1141984 -0.25070444 0.14026715 -0.10874437 -0.01125359
-0.06961726 -0.14207228 -0.11501567 -0.24535929 -0.18429281 0.0823557 -0.030127482 -0.034596678
-0.17722754 -0.47931418 -0.16792661 -0.2536103 -0.31436256 -0.16186897 0.029669251 -0.055827834
-0.102307245 0.1669133 0.058113266 0.007566052 -0.38761163 -0.218677 0.033005465 -0.057690673
-0.2597198 -0.11869983 -0.10069245 0.053522777 -0.07982586 0.232512 -0.17846002 -0.028342772
-0.25430965 -0.31297424 -0.106814876 -0.281826 -0.053416714 -0.28217274 -0.38177332 -0.05556286
0.010021296 0.13113983 -0.13666336 -0.059242036 -0.001608258 -0.019990727 0.017240843 -0.017774427
-0.090471186 -0.06288104 0.1876218 -0.11339491 0.03436561 0.04688889 0.116232105 0.13421893
0.025043447 -0.16200833 0.051774677 -0.17774098 -0.0056993524 0.037422862 -0.13545378 -0.07916854
0.098115295 0.0039260914 -0.0016852409 0.23325811 -0.11418839 0.09109315 0.09337925 -0.1550613
-0.09825846 -0.081593394 0.0012743906 0.11092985 -0.2672994 -0.18147631 0.18064694 0.039303303
0.07975501 -0.074897245 -0.08392379 0.13514425 0.27774367 0.048886634 -0.111185946 -0.029805541
-0.2198463 -0.15197434 -0.13365178 -0.13212222 0.06784451 0.05563351 -0.12036317 0.032538936
0.13964987 0.09395856 0.15165952 -0.15119725 -0.0879755 0.10787732 0.104554184 -0.014876781

weight f4 [1, 64]
00000000: 3e88 edbd 8609 343e be46 8dbd 3af6 eebd
00000010: 697b f93d eef3 983d a1fb e53c 28bb 823c
00000020: e7e6 28bd 15b8 883d 8a6c b93d 04fb 5e3d
00000030: 6b56 6a3e 1bf4 1ebe 2ed2 4f3e e1df 6f3e
00000040: d0b5 b3bd 77c1 92bd bcb3 4c3e 5403 bcbd
00000050: bc12 a43d aa90 07be d967 1bbe 60eb 90bd
00000060: 8f2e 073e fefb 40be 2b70 f9bd 7e37 8d3d
00000070: f794 c9bd 52e7 473e ff35 353e 9ab4 eebd
00000080: 5937 38be 6581 b6bd 1f6b f63d fa20 ca3d
00000090: ce74 38bd 7c0a aabd c0e7 293e 74ae d33d
000000a0: 748a ed3d c10d c93d 1a9d dfbd 1b79 9e3d
000000b0: 261d 663d 2c36 bd3c 44a4 52be be2b 04be
000000c0: 8d6c cebd 5a3e 3abd 230c 1ebe 572f 53be
000000d0: 912e ef3d 2a58 c4bd 90d3 1cbe a564 0d3e
000000e0: e129 043e c0ea 62bd 32a5 143e 06ef 33be
000000f0: 24dd 313e 6c51 1b3e 39cf e93d 6dbd 94b9
-0.11598252 0.17581758 -0.068982586 -0.11668058 0.12181742 0.07468401 0.028074088 0.015958384
-0.04123583 0.06675736 0.09053905 0.054438606 0.22884528 -0.15522806 0.20295021 0.23425247
-0.08774912 -0.07165807 0.19990438 -0.09180322 0.08011386 -0.13238779 -0.15176333 -0.07076144
0.13201354 -0.18846127 -0.121795975 0.0689535 -0.09842866 0.19521835 0.17696379 -0.11655541
-0.17989863 -0.08911399 0.120321505 0.09869571 -0.04503327 -0.08302781 0.16592312 0.10336009
0.115986735 0.098170765 -0.109186366 0.07737943 0.056180142 0.02309712 -0.20570475 -0.12907311
-0.10079298 -0.04546962 -0.15434317 -0.20623527 0.11678804 -0.095871285 -0.1531508 0.13807924
0.129066 -0.055399656 0.14516142 -0.17571649 0.17369515 0.15167779 0.11416478 -0.00028369893

welford_state_mean f4 [7]
00000000: 6666 e63e e47a 943e af47 e13e 0ad7 233c
00000010: cccc 4c3d 0000 0000 2085 6b3e
0.45 0.29000008 0.44000003 0.01 0.049999997 0.0 0.23000002

welford_state_mean_diff f4 [7]
00000000: 142c c641 a3c3 a741 ce7c c541 d052 f13f
00000010: f7a9 a640 0000 803f eb0c 8f41
24.771523 20.970526 24.68594 1.8853397 5.2082477 1.0 17.881308

hidden f4 [6, 64]
00000000: 2450 3cbf ae8b 373e f596 1bbf a074 55be
00000010: 011f 463f df67 8d3e 7b2c 053f 6f3c 0bbe
00000020: d982 6a3e fef8 5a3e 2dcb 223f 4b12 27bf
00000030: 2511 87be 1fc8 ac3c 6d3c 123e 20d7 69bc
00000040: f9a4 5d3f 9546 4fbf 28a8 dcbe 19a3 94be
00000050: 677a 65bf 225e 2f3d b2c3 36be 7e34 2dbf
00000060: 82d3 cf3e 3c75 afbe e7bd 85be 64f9 2b3f
00000070: 839b 66bf 8429 8cbe 81d6 72bd 1d0f e7be
00000080: 094b e4bd 2e3d 423f 94f6 66bf 52c9 0cbe
00000090: 89be c5be 5d89 21bf 4046 2b3e ca52 cf3e
000000a0: eb29 293f 7c99 41bd 947c 80be 6c93 463f
000000b0: 0bf3 89bd 385e 08bf fe49 cd3c 36c7 cebd
000000c0: 9454 54bf 7c9f d83e e2ee 183f 5338 40be
000000d0: ca20 b6bd 9580 903d 7f90 2cbe fbc6 c9be
000000e0: 2df2 a33e c2dd a9be 79db 0d3f 36f1 afbe
000000f0: 7f52 fabd 4a04 58be 151e 923e 72f3 ad3d
00000100: 6eac 3bbf ee2c 9d3d 0265 1dbf 9deb 4dbe
00000110: 9033 433f 417a 8c3e c502 fb3e ca07 cfbd
00000120: ce88 603e 4b0a 533e 176d 243f 035c 28bf
00000130: 7cfc 91be 6b46 873d 1b2a 143e 31bc 673d
00000140: 2c53 583f b521 48bf 2320 d1be 4c96 74be
00000150: 438c 5ebf a568 6b3d 7ff0 04be 54a0 2fbf
00000160: 38b8 d33e fc94 c5be 7838 84be 7c9f 2b3f
00000170: 48d4 5ebf 525f 39be d7f0 9fbd ebcf cfbe
00000180: 3279 02be ad75 3e3f e038 65bf 5e8b 12be
00000190: d145 babe d451 0bbf d9f1 123e e4d8 c33e
000001a0: e480 2c3f a954 1abe aa91 7dbe 55d4 413f
000001b0: f39b 0ebd 3505 04bf 8b0b bc3c 6edc acbd
000001c0: 1c82 50bf 53be ea3e bdf9 043f 90b0 b0bd
000001d0: a678 f7bd c0ea 913d 2cf3 bbbd 75de c2be
000001e0: e48c 9b3e 5288 94be 16b7 1c3f 31d0 8bbe
000001f0: 05f8 0dbe 441a 5bbe 1a8d 8e3e b984 8c3d
00000200: 7174 0fbf f4c1 1c3e 529c bfbe f259 51be
00000210: 9fff 0b3f f043 843e cc9f 903d 962c fcbe
00000220: 61b1 4d3e e96f 573e 8177 033f e7c5 fdbe
00000230: 228f 3fbe 4839 fabd 0f9b c93e 2d1f 8fbd
00000240: d4af 593f 149d 69bf 1d1d 16bf e2cb cbbe
00000250: e16e 5dbf 320e 2b3b 65a2 8ebe d7ef 22bf
00000260: 490b 9d3e b1c6 86be 82be 8fbe 1a19 013f
00000270: a78a 6fbf 002b d63b 9b8d 193e fa8b c7be
00000280: 08de c1be a178 f03e 4813 4ebf 18a4 923c
00000290: 6858 25bf a2ce 48bf d795 3bbe 812a 8f3d
000002a0: 9bd6 a73e 3c38 b1bd bf32 69be 6a88 f93e
000002b0: 79bb 2cbe 6ea5 0dbf cc6b 88be 12e0 5abe
000002c0: d7a0 63bf 0426 f83e 2bb4 123f 235d 87be
000002d0: a885 b03d a2f2 26bd 201d a1be c4a1 84be
000002e0: 000e c13e f83d aabe 041f 9c3e 0419 89be
000002f0: 5c33 6ebd 02f6 4ebe 6a52 ac3e 2d75 0dbe
00000300: cf59 2fbf 2c2d 533d bac0 11bf 85ce 50be
00000310: 2dc6 313f b3a9 a63e 2996 e13e 0ec6 a8be
00000320: 5dcf 0b3d ce64 5e3e 1cec 303f 64a4 2ebf
00000330: 1135 6bbe 8f21 0cbe 9439 4d3e 3008 85bc
00000340: d8c0 5c3f c060 4cbf e7f0 10bf 9e18 8cbe
00000350: 519a 61bf 0679 68bd 8d26 22be 452c 48bf
00000360: d25b b53e 919f 83be 95b4 aebe 3e81 243f
00000370: 5749 6bbf 5464 a93d 56f8 563d 0e7f d3be
00000380: ce9b d4bd ef66 463f 4986 5cbf 48fa cabd
00000390: 40a5 97be 5577 46bf 9b60 883e 7dfc 823e
000003a0: 8aaa 373f a811 65be 078b 28be f4a8 1b3f
000003b0: a0ae 3cbd 2ec5 3dbf cda4 97be 0550 29be
000003c0: d9cf 50bf 5bbe f03e 143c 1a3f 740c 55bd
000003d0: e830 3ebd 6ec7 083e de7a e5bd fb58 acbe
000003e0: 9b68 af3e b277 ffbe 481b 1a3f 8c85 81be
000003f0: 303d 2d3c d35f 52be a695 9d3e e5f9 993d
-0.73559785 0.17924377 -0.6077722 -0.2084527 0.7739106 0.2761831 0.52020997 -0.13597272
0.22901477 0.21384045 0.6359127 -0.6526229 -0.26380268 0.021091519 0.14280863 -0.014272481
0.86579853 -0.80967075 -0.43097043 -0.29030684 -0.89639896 0.04281438 -0.1784809 -0.6765822
0.40591055 -0.3426913 -0.26121446 0.67177415 -0.9008104 -0.27375424 -0.059286598 -0.45128718
-0.11147124 0.758746 -0.9022 -0.13748673 -0.3862193 -0.63100225 0.16726017 0.4049285
0.66079587 -0.047265515 -0.25095046 0.775687 -0.0673581 -0.53268766 0.025059696 -0.1009659
-0.82941556 0.42309177 0.59739506 -0.18771486 -0.08892973 0.07055775 -0.16851996 -0.39409623
0.32020703 -0.33177 0.55413014 -0.34363717 -0.12222766 -0.21095386 0.28538576 0.08493699
-0.7330998 0.07674585 -0.6148225 -0.2010941 0.76250553 0.27437022 0.4902555 -0.101089075
0.21927187 0.20609395 0.6422896 -0.657654 -0.28512943 0.06605228 0.14469187 0.056575958
0.8450191 -0.7817643 -0.4084483 -0.23885459 -0.8693277 0.057472844 -0.12982367 -0.68604016
0.41351485 -0.3859023 -0.25824332 0.6704023 -0.87042665 -0.18102768 -0.078096084 -0.40588316
-0.12741545 0.7439831 -0.8953991 -0.14310977 -0.3638139 -0.54421735 0.1435007 0.38251412
0.6738417 -0.15071358 -0.24762598 0.7571462 -0.034816694 -0.51570445 0.022954723 -0.08440481
-0.8144853 0.4584833 0.5194357 -0.086274266 -0.12083559 0.07124853 -0.09177241 -0.38060346
0.3038093 -0.29010254 0.61216867 -0.27307275 -0.13864143 -0.21396738 0.27842027 0.06861252
-0.5603705 0.15308362 -0.3742395 -0.20444468 0.5468692 0.25833082 0.07061729 -0.49252766
0.20087196 0.21038784 0.51354223 -0.4956505 -0.18706945 -0.12217957 0.39376113 -0.06988368
0.8503392 -0.9125531 -0.58638173 -0.39803988 -0.8649731 0.002610099 -0.27858272 -0.63647217
0.30672672 -0.26323465 -0.28075033 0.50428927 -0.9357094 0.0065358877 0.14995424 -0.3897398
-0.3786471 0.46967033 -0.8049817 0.017900512 -0.6458802 -0.78440297 -0.18318878 0.06990529
0.32780918 -0.08653304 -0.22773264 0.48736888 -0.1686839 -0.5533055 -0.26644742 -0.21374539
-0.889173 0.48466504 0.57306165 -0.26438245 0.08619243 -0.040758736 -0.31467533 -0.25904667
0.37705994 -0.33250403 0.30492413 -0.26776898 -0.05815445 -0.20211032 0.33656627 -0.1381423
-0.6849641 0.05155675 -0.569347 -0.20391281 0.6944302 0.32551345 0.44059876 -0.32963604
0.034133304 0.21718141 0.69110274 -0.6821959 -0.22969462 -0.13684677 0.20041496 -0.016239256
0.86231756 -0.7983513 -0.5661759 -0.2736253 -0.88126093 -0.056756042 -0.15835018 -0.7819255
0.35421616 -0.25707677 -0.34122148 0.6425971 -0.9190878 0.08271089 0.052482925 -0.41307873
-0.1038128 0.77500814 -0.861424 -0.099110186 -0.29618263 -0.77525836 0.26636204 0.25583258
0.71744597 -0.22370017 -0.16459285 0.60804677 -0.046064973 -0.74129 -0.2961792 -0.16534431
-0.8156715 0.4702023 0.6024792 -0.05201383 -0.04643336 0.13357326 -0.11205076 -0.33661637
0.34259495 -0.49896008 0.6019788 -0.252972 0.01057367 -0.20544367 0.30778235 0.07518367
